DeepLearning/LSTM/stock_model.pth (torch, 982322 bytes, 11 tensors)

conv1.weight f4 [35, 35, 3]
0	0x3d95d502	0.07316019
1	0xbd97a987	-0.07405382
2	0xbd3477c0	-0.044059515
3	0x3d50eb6f	0.051005777
4	0x3db36c7a	0.08760925
5	0x3d6cb761	0.05779207
6	0xbdac5c11	-0.08415998
7	0x3db223c8	0.08698231
8	0xbc2e6e06	-0.010646349
9	0xbc9a4ba0	-0.018834889
10	0xbdb6d08a	-0.089264944
11	0xbd9c8ab1	-0.07643641
12	0xbdabf365	-0.08396033
13	0xbd1fd8f9	-0.03902528
14	0x3d908934	0.070574194
15	0xbdbd3d8a	-0.09240253
16	0x3d9b31e5	0.07577876
17	0xbd2db748	-0.04241112
18	0x3ca4bb30	0.02010879
19	0x3d3d078e	0.046149783
20	0xbd74f580	-0.05980444
21	0xbd548580	-0.051885128
22	0xbda68b8c	-0.08132085
23	0x3d4a7dc8	0.04943636
24	0x3d1cbdaa	0.038266815
25	0xbd024bd6	-0.031810604
26	0xbd8848e5	-0.066545285
27	0xbdba9acf	-0.09111559
28	0x3d7fca9c	0.062449083
29	0xbd39db7f	-0.045375343
30	0xbd70cdf8	-0.058790177
31	0x3d9ce11a	0.07660122
32	0xbcfa9fe0	-0.030593812
33	0xbd2c73d8	-0.042102665
34	0xbc770b35	-0.015078356
35	0xbcd93ece	-0.026519205
36	0xbcc895ad	-0.024485433
37	0x3d9faf88	0.07797152
38	0xbc8d5d7b	-0.017256489
39	0x3c7a5e36	0.015281251
40	0x3cbd469a	0.023104955
41	0xbd8d0462	-0.068856016
42	0x3d8a785f	0.0676124
43	0x3dad995d	0.08476517
44	0xbd1b6e2d	-0.03794687
45	0x3da2917c	0.07937905
46	0xbd4b20e4	-0.049591914
47	0x3db2b6a6	0.08726244
48	0xbd9c938d	-0.076453306
49	0xbca1e5e2	-0.019762937
50	0x3d0472ef	0.03233617
51	0x3d2e6653	0.042578053
52	0xbcd9151f	-0.02649933
53	0xbbeba66f	-0.0071914713
54	0xbc98cb95	-0.018651763
55	0xbdab2174	-0.0835599
56	0x3ce1ea3f	0.027577518
57	0xbdc3d5a8	-0.09562236
58	0x3db2c5ae	0.08729111
59	0x3d55c52a	0.052189983
60	0xbd4df557	-0.050282802
61	0xbdad16b4	-0.08451596
62	0xbb464ccd	-0.003025818
63	0x3c5a1e26	0.013312852
64	0xbcc20af0	-0.023686856
65	0x3c81d11e	0.015846785
66	0x3d8d27e8	0.06892377
67	0x3da05917	0.078294925
68	0x3c9861fe	0.018601414
69	0xbca182f3	-0.019715762
70	0xbd975005	-0.073883094
71	0x3d742b5c	0.059611663
72	0xbbb33987	-0.0054695043
73	0x3d4bacf9	0.049725506
74	0xbdc6b94c	-0.09703311
75	0x3b797d53	0.0038069084
76	0xbda11f13	-0.07867255
77	0xbd8dfc44	-0.069328815
78	0x3daa419c	0.08313295
79	0x3da5508e	0.08072005
80	0x3d2f484f	0.04279357
81	0x3d85900d	0.06521616
82	0x3c97ee07	0.018546117
83	0xbd331760	-0.043723464
84	0x3d964855	0.07338015
85	0x3d795fba	0.060882308
86	0x3cc04ce2	0.02347416
87	0xbd2fed07	-0.042950656
88	0x3d23b59b	0.039968114
89	0xbceb8881	-0.028751614
90	0xbc36aeb5	-0.011150052
91	0xbd8d22e9	-0.06891424
92	0x3d8dabe0	0.06917548
93	0xbd4aae09	-0.04948238
94	0xbdab051a	-0.083505824
95	0xbd740bbe	-0.05958151
96	0xbcfa6435	-0.03056536
97	0xbd5dcdbd	-0.054151285
98	0x3cc1bf90	0.023650914
99	0xbd99011b	-0.07470914
100	0xbd866022	-0.06561305
101	0xbdac726a	-0.0842026
102	0x3d783502	0.060597427
103	0xbdc380f8	-0.09546083
104	0xbd98800b	-0.07446297
105	0x3da562ed	0.08075509
106	0x3c089533	0.008336353
107	0x3c591ed9	0.013251984
108	0xbd57cf93	-0.052688193
109	0xbcf88de5	-0.030341098
110	0xbdb63970	-0.08897674
111	0xbd3020e5	-0.04300012
112	0xbb86f0cc	-0.0041180607
113	0x3da0f1b3	0.078586005
114	0xbd00702f	-0.031356987
115	0x3d9e1e2c	0.077205986
116	0x3bdfa766	0.0068253754
117	0xbcc53f69	-0.024078088
118	0xbdce3a54	-0.10069719
119	0xbc62663b	-0.013818319
120	0x3d1d0281	0.038332466
121	0xbd7b02b0	-0.06128186
122	0xbd0087b9	-0.031379435
123	0x3d9f4296	0.07776372
124	0x3b856ac3	0.004071565
125	0x3c4050bb	0.011737998
126	0xbd72159a	-0.059102632
127	0x3d86f66b	0.06589969
128	0x3c1bb4e3	0.009503576
129	0xbccfcac6	-0.025365245
130	0x3cd9dae1	0.026593627
131	0x3c794a71	0.015215502
132	0xbda72317	-0.0816099
133	0xbc21bb12	-0.009871261
134	0xbcba3295	-0.022729198
135	0x3d371ae4	0.04470338
136	0xbbb897e4	-0.005633341
137	0xbdc1ca59	-0.09462423
138	0xbd9de640	-0.07709932
139	0xbd0f1bda	-0.03493867
140	0xbd2e64a9	-0.042576466
141	0x3d0d95af	0.034566578
142	0xbd4dabac	-0.050212547
143	0x3dbed1be	0.09317349
144	0x3d9992ed	0.07498727
145	0xbd232b20	-0.03983605
146	0x3cec750f	0.028864412
147	0xbcc08d25	-0.023504803
148	0xbd1fd6c6	-0.039023183
149	0xbdc10499	-0.09424705
150	0x3d83c91a	0.064348415
151	0xbd3c77dd	-0.046012748
152	0xbd9f0292	-0.07764162
153	0x3d918890	0.07106125
154	0xbda426e8	-0.08015233
155	0xbd0401f3	-0.03222842
156	0x3c6cfaf7	0.014464132
157	0x3a18f366	0.0005834609
158	0x3d397d77	0.04528567
159	0x3bdef746	0.0068043796
160	0x3d7a34d1	0.061085526
161	0xbd93f6d9	-0.07224817
162	0xbdb8132c	-0.08988032
163	0x3d9e37cd	0.07725487
164	0x3cf99958	0.030468628
165	0x3d837de8	0.06420499
166	0x3d2a9085	0.04164173
167	0x3dbf69cd	0.09346352
168	0x3c4baeb5	0.01243179
169	0xbdc6971d	-0.09696791
170	0x3d0efb26	0.034907483
171	0x3d20b273	0.039232682
172	0x3ceb0609	0.028689401
173	0x3ccfe032	0.02537546
174	0x3c5b7eec	0.01339696
175	0x3ce07b4d	0.027402544
176	0xbdcce661	-0.10004879
177	0xbc9622b4	-0.018327095
178	0x3c8f438d	0.017488265
179	0xbdacaee9	-0.08431799
180	0xbdaa2ac1	-0.08308936
181	0xbc6eddfd	-0.014579293
182	0xbdc21efb	-0.09478565
183	0xbce439dc	-0.02785962
184	0x3dab4375	0.08362476
185	0xbdbea40b	-0.093086325
186	0xbdc6c823	-0.09706142
187	0xbd64f3b0	-0.05589646
188	0xba52321f	-0.0008018333
189	0x3d92ccea	0.071679905
190	0xbdba4245	-0.09094671
191	0xbce07a9d	-0.027402217
192	0xbce868c0	-0.028370261
193	0xbd27f413	-0.04100425
194	0x3d4d2773	0.05008645
195	0x3ce423ab	0.027849039
196	0xbd816d72	-0.06319703
197	0xbcc0bd7a	-0.02352785
198	0x3cbab258	0.022790119
199	0x3d8bf3de	0.06833623
200	0xbda39ecb	-0.07989272
201	0xbb71d88c	-0.0036902754
202	0xbdd8f362	-0.105932966
203	0xbc6dd20c	-0.014515411
204	0xbd476f4c	-0.048690125
205	0x3cb67d91	0.022276672
206	0xbd818abe	-0.06325291
207	0xbc9645e7	-0.018343879
208	0x3db4f712	0.088361874
209	0xbdbe7d18	-0.093012035
210	0xbd5fc19c	-0.054628
211	0xbc782cd2	-0.015147405
212	0xbd80814c	-0.062746614
213	0xbdb96ca1	-0.090539224
214	0xbd31dab2	-0.043421455
215	0x3d8bbbde	0.06822942
216	0x3d874ca5	0.06606416
217	0xbd25d196	-0.04048308
218	0x3d56687c	0.052345738
219	0xbd7cbb65	-0.06170215
220	0xbd9da2f6	-0.07697098
221	0xbd8ba7bd	-0.06819103
222	0x3ccaafa9	0.024741964
223	0xbd403277	-0.046923127
224	0xbc5343f1	-0.012894616
225	0x3d32705e	0.043564193
226	0xbc6aa0bd	-0.01432055
227	0xbc47c89c	-0.012193825
228	0x3d78a5e9	0.0607051
229	0x3db4fcae	0.08837257
230	0x3d8b0be5	0.06789378
231	0x3c6b78a1	0.014372022
232	0x3da25f95	0.07928387
233	0x3da30e4b	0.079617105
234	0x3d7f6843	0.06235529
235	0x3d83e982	0.064410225
236	0x3d898868	0.067154706
237	0xbc32ddfc	-0.010917183
238	0x3d49a6f9	0.049231503
239	0x3c22c224	0.009933982
240	0x3dc71015	0.09719864
241	0xbd617f8c	-0.05505328
242	0x3d9e780a	0.077377394
243	0x3cdab25e	0.02669638
244	0x3be40411	0.0069584926
245	0x3da9bfa4	0.08288506
246	0xbd4dbd46	-0.050229333
247	0xbd61c1ea	-0.05511657
248	0xbd743454	-0.059620216
249	0xbd790a1b	-0.060800653
250	0x3bc34a51	0.005959787
251	0xbdb24432	-0.087044135
252	0x3cf8f0c0	0.030388236
253	0xbb50a27f	-0.0031835136
254	0xbd9fbe8c	-0.07800016
255	0x3bd71822	0.006564156

conv1.bias f4 [35]
0	0x3d066286	0.032808803
1	0xbd554da1	-0.052075986
2	0xbcc73fe1	-0.024322452
3	0x3cfc4918	0.030796573
4	0xbcdc0bfd	-0.026861185
5	0x3da923fc	0.082588166
6	0x3d97fef4	0.07421675
7	0xbd9d4db9	-0.0768084
8	0x3cf63c49	0.030058043
9	0x3cc0d0d5	0.023537079
10	0x3dd0ba03	0.10191729
11	0xbd3aaec1	-0.045576815
12	0xbd1755d8	-0.0369471
13	0xbd300e40	-0.04298234
14	0xbd524a97	-0.051340666
15	0x3d87ee60	0.06637263
16	0xbd4692fc	-0.04848002
17	0xbc810c3b	-0.015752902
18	0x3da3c922	0.079973474
19	0x3d3100b0	0.043213546
20	0xbd06d9eb	-0.032922667
21	0x3dac78db	0.08421489
22	0x3dbf10ec	0.093293995
23	0xbd7a3794	-0.06108816
24	0x3da9207b	0.08258148
25	0xbb9804ac	-0.004639229
26	0xbc5e5b7b	-0.013571615
27	0x3db02d02	0.086023346
28	0xbcf3cb67	-0.029760076
29	0xbd0fc1ed	-0.03509705
30	0xbcb01555	-0.021494547
31	0x3d3353ee	0.043781213
32	0x3d58550e	0.05281549
33	0xbc957db2	-0.018248413
34	0x3d2ce537	0.042210784

lstm.weight_ih_l0 f4 [200, 1050]
0	0x3be8284e	0.007084883
1	0x3dce7eda	0.10082789
2	0x3dde17af	0.10844361
3	0xbc8759ca	-0.016522307
4	0xbdf9a47e	-0.121895775
5	0x3d2e0093	0.042481016
6	0x3d190ad5	0.037363846
7	0x3dcba1b4	0.09942952
8	0xbbe16e97	-0.0068796384
9	0xbd8ed747	-0.06974655
10	0x3d33acd7	0.043866005
11	0xbdd7466c	-0.10511479
12	0x3de51e00	0.11187363
13	0x3da2e11e	0.07953094
14	0x3daae3ee	0.083442554
15	0xbd9e19dc	-0.07719776
16	0xbbc043fd	-0.00586748
17	0xbe057f1e	-0.13036773
18	0xbd6b2bec	-0.057414934
19	0xbe053431	-0.1300819
20	0x3e0d66d9	0.13808765
21	0xbd169129	-0.03675953
22	0x3d1d6807	0.038429286
23	0x3a8f4b68	0.0010932507
24	0xbb2cff38	-0.002639724
25	0xbd89383b	-0.06700178
26	0xbdc491b1	-0.09598101
27	0x3cae336c	0.021264754
28	0xbd12b7bd	-0.035819758
29	0x3ca4caa6	0.020116162
30	0x3d7be931	0.061501686
31	0xbda89a35	-0.08232538
32	0xbd09b5eb	-0.033620756
33	0xbdd36e8b	-0.10323819
34	0xbda31a8a	-0.07964046
35	0x3cd458a5	0.025921175
36	0xbda1dd9b	-0.07903596
37	0x3e03ecb7	0.12883268
38	0x3a965bfd	0.0011471506
39	0x3c51a29d	0.012795118
40	0x3d78f7f2	0.060783334
41	0xbce8b05f	-0.028404413
42	0x3e0ed290	0.1394751
43	0xbe03e86f	-0.12881635
44	0x3d6a6d45	0.057233114
45	0xbd879d78	-0.06621832
46	0x3d2db4dd	0.042408813
47	0xbdd68ca4	-0.10476044
48	0xbde501fa	-0.111820176
49	0x3db93008	0.09042364
50	0x3d98cf96	0.07461469
51	0xbc49040d	-0.012269032
52	0xbd2eb83c	-0.04265617
53	0xbd71468f	-0.05890518
54	0x3c3923a2	0.011299999
55	0xbd868454	-0.06568208
56	0x3e19942a	0.14997926
57	0x3d4b0039	0.04956076
58	0x3d72e4c8	0.059300214
59	0x3e17e374	0.1483286
60	0x3d4c890f	0.049935397
61	0x3dc6c9a3	0.09706428
62	0xbd40be79	-0.04705665
63	0x3c15d91d	0.009146002
64	0x3df2a6b2	0.11848201
65	0xbdafee43	-0.08590367
66	0x3ca7fc85	0.020506153
67	0xbd68050c	-0.056645438
68	0x3d8aace1	0.06771255
69	0xbdc28648	-0.09498268
70	0x3e009a61	0.12558891
71	0x3d5affe2	0.053466685
72	0x3d8e9214	0.06961456
73	0xbd4c5ee8	-0.049895197
74	0x3d967236	0.07346003
75	0xbd10f802	-0.03539277
76	0xbd5d6157	-0.05404791
77	0xbc832f1c	-0.016013674
78	0xbe049bc6	-0.12950048
79	0xbcd07165	-0.025444696
80	0x3dcf0242	0.101078525
81	0x3d9d7bd8	0.07689637
82	0xbd6294f3	-0.05531783
83	0xbd912619	-0.07087345
84	0x3db1bdbc	0.08678767
85	0xbe10d775	-0.1414469
86	0xbd713686	-0.05888989
87	0x3c1e9c2d	0.00968079
88	0xbcfcd258	-0.030862018
89	0x3d83c3dd	0.06433842
90	0x3d8f2f61	0.06991459
91	0x3dea736f	0.114477985
92	0xbc46c16b	-0.012131075
93	0x3a9326b3	0.0011226743
94	0xbdb99806	-0.09062199
95	0xbca6b50f	-0.020350007
96	0xbccf3a4b	-0.025296351
97	0x3dda1186	0.106478736
98	0x3dd20679	0.10255141
99	0xbd30c4f3	-0.043156575
100	0xbbaedf6c	-0.0053366926
101	0xbd816ec9	-0.06319959
102	0xbd9c434f	-0.076300256
103	0xbcfef63d	-0.031123275
104	0x3cbc6a54	0.02299992
105	0xbc90edbe	-0.01769149
106	0x3c5c7ed4	0.013457973
107	0xbd7cd3a7	-0.061725285
108	0x3ddc4a22	0.10756327
109	0xbe04f15a	-0.12982693
110	0xbd8e6e7f	-0.06954669
111	0x3cdc4cae	0.026892032
112	0xbd854de6	-0.065089986
113	0xbdaacc7f	-0.08339786
114	0xbe0109eb	-0.1260144
115	0xbd39e8d0	-0.045388043
116	0xbdb46305	-0.08807949
117	0x3ddbc021	0.10730005
118	0xbc186209	-0.009300717
119	0x3dac550c	0.08414659
120	0x3d910553	0.07081094
121	0x3db99076	0.09060757
122	0x3dac1b5e	0.084036574
123	0xbd7fb103	-0.06242467
124	0xbdc53f7a	-0.09631248
125	0x3be68d7f	0.0070359106
126	0x3c8fe527	0.017565323
127	0xbde01725	-0.109419145
128	0x3d822341	0.063543804
129	0x3d31cdba	0.043409087
130	0x3db172fb	0.08664509
131	0x3b035295	0.0020038236
132	0x3db7d8d7	0.08976906
133	0x3de72258	0.112858474
134	0x3d096c75	0.0335507
135	0x3d28c4d0	0.04120332
136	0xbd5c6077	-0.053802934
137	0xbd8b23a1	-0.06793905
138	0xbde49f4a	-0.111631945
139	0xbc93a6b3	-0.018023824
140	0xbdc01818	-0.093795955
141	0xbbbd14ab	-0.005770286
142	0xbd7f2dc7	-0.062299516
143	0x3d58c067	0.052917864
144	0xbc8b45aa	-0.017000992
145	0xbde98dac	-0.11403975
146	0x3dacec7a	0.08443542
147	0xbd7d6e9e	-0.06187307
148	0x3de8ffc1	0.11376906
149	0x3e18a511	0.14906718
150	0x3e06092d	0.13089438
151	0x3da66b30	0.08125913
152	0x3e07e0ef	0.13269399
153	0x3dee03af	0.11621796
154	0x3c3532e8	0.0110595
155	0x3daa028e	0.083012685
156	0x3d6a77f4	0.057243302
157	0xbc3388fe	-0.010957954
158	0xbd2ca468	-0.042148978
159	0xbcab6cb8	-0.020925865
160	0x3cdac80d	0.02670672
161	0xbd29f425	-0.0414926
162	0xbd9603ce	-0.073249444
163	0xbe014ebb	-0.1262769
164	0xbdb14baa	-0.0865701
165	0xbced11a4	-0.028939076
166	0xbdb14c60	-0.086571455
167	0x3d84bf76	0.06481831
168	0xbe0a24a8	-0.13490546
169	0xbdd0a971	-0.101885684
170	0xbd353820	-0.044242978
171	0x3db0a512	0.08625235
172	0x3d99f0a1	0.075165994
173	0xbde9492e	-0.11390911
174	0xbe00d2d3	-0.12580423
175	0x3d03dcde	0.032193057
176	0xbc91e2a6	-0.01780827
177	0xbdfb065f	-0.122570746
178	0xbbeb5e37	-0.007182862
179	0xbe16c2d6	-0.14722762
180	0xbd506a3d	-0.050882567
181	0xbd3ab108	-0.045578986
182	0x3dec7efd	0.115476586
183	0xbdd8201f	-0.105530016
184	0x3d9dc6e4	0.07703951
185	0xbce86d00	-0.028372288
186	0x3db06de5	0.08614711
187	0x3d07c1a8	0.03314367
188	0x3c919aec	0.017774068
189	0x3d217cb1	0.039425556
190	0x3dc63eaf	0.09679925
191	0x3d8c53ad	0.068518974
192	0x3da449de	0.080219015
193	0xbc69355b	-0.014233912
194	0xbda79059	-0.08181829
195	0x3db00318	0.0859434
196	0x3da5f649	0.08103616
197	0x3d0aacdd	0.03385626
198	0xbc1bef2c	-0.009517472
199	0x3d2ea1b0	0.042634666
200	0xbb847d74	-0.0040432755
201	0xbddf6b04	-0.109090835
202	0xbe0943df	-0.13404797
203	0xbdc99385	-0.0984259
204	0x3d910ac7	0.07082134
205	0x3d7c4bc9	0.06159571
206	0xbdfd9aff	-0.12383079
207	0xbcb30eeb	-0.0218577
208	0x3c0827c6	0.008310264
209	0x3dd82311	0.105535634
210	0x3dfc8fc8	0.123321116
211	0xbdf4200b	-0.11920174
212	0x3d8ce8a1	0.06880308
213	0x3da510e3	0.080598615
214	0xbd54df03	-0.051970493
215	0xbd93e525	-0.0722144
216	0x3e0e6db7	0.1390904
217	0x3d7ea58e	0.062169604
218	0x3dca4c90	0.098778844
219	0xbd7d82e2	-0.061892398
220	0xbe095a31	-0.13413312
221	0x3d91f6a2	0.071271196
222	0xbd2e0bc0	-0.042491674
223	0xbd906713	-0.0705091
224	0xbcce2448	-0.025163785
225	0xb8410444	-4.601876e-05
226	0x3de0ed17	0.10982721
227	0xbd8ceb24	-0.06880787
228	0xbdec2108	-0.11529738
229	0xbd85e531	-0.065378554
230	0x3dd5088a	0.10402019
231	0xbdd08de0	-0.101833105
232	0x3c34cbf0	0.011034951
233	0xbdf86a59	-0.12129659
234	0x3d9e29a0	0.07722783
235	0x3dc9d864	0.09855726
236	0x3df43b6f	0.119253986
237	0xbde60389	-0.11231143
238	0x3d59fa12	0.053217
239	0xbd8c0784	-0.06837371
240	0xbda3c988	-0.079974234
241	0xbdbc9949	-0.09208924
242	0x3c8381d7	0.016053123
243	0x3dab5085	0.08364967
244	0xbc944ef6	-0.018104058
245	0xbdb063f4	-0.086128145
246	0x3d314849	0.043281827
247	0xbde4f669	-0.111798115
248	0xbd90cec6	-0.07070689
249	0x3d7bf711	0.061514918
250	0xbdf46696	-0.11933629
251	0x3cf73c0b	0.030179998
252	0x3da68e2e	0.081325874
253	0x3dcd110e	0.100130185
254	0x3d9147c1	0.07093764
255	0xbaa98004	-0.0012931828

lstm.weight_hh_l0 f4 [200, 50]
0	0x3d5a9a2a	0.05336968
1	0xbdea23ed	-0.114326335
2	0xbd8c050a	-0.068368986
3	0x3d4b4055	0.0496219
4	0x3c047ae5	0.008085941
5	0xbdd0e6ad	-0.10200248
6	0xbe10b2f1	-0.1413076
7	0x3de33d70	0.11095703
8	0x3b8cf020	0.004301086
9	0x3dbbf440	0.09177446
10	0xbde8cc43	-0.11367085
11	0xbdc31bf3	-0.09526815
12	0xbd066745	-0.03281333
13	0x3c18255a	0.009286249
14	0x3d2d9a95	0.04238375
15	0x3d00b423	0.03142179
16	0xbd2db38b	-0.042407554
17	0x3e108dd4	0.14116603
18	0xbc3999b0	-0.011328146
19	0x3d774fda	0.060378887
20	0xbd97ae9f	-0.07406353
21	0x3c2a00f1	0.010376201
22	0x3e04a688	0.12954152
23	0x3c0826da	0.008310044
24	0xbc9de17c	-0.019272558
25	0x3d80321a	0.06259556
26	0x3cdfa09b	0.027298262
27	0x3e0ce36f	0.13758634
28	0xbdc2597a	-0.094897225
29	0xbda02a3e	-0.07820557
30	0x3cabddc7	0.020979775
31	0x3dbd1c3c	0.09233901
32	0xba90bab3	-0.0011041969
33	0xbe0d64e3	-0.13808016
34	0x3dcc103f	0.09964036
35	0x3dd6b1c5	0.104831256
36	0x3dc3bb60	0.09557223
37	0xbd976607	-0.07392507
38	0xbda0110b	-0.07815751
39	0x3cc94853	0.02457062
40	0x3e105cdb	0.14097922
41	0xbdaa676b	-0.08320507
42	0x3d20ffea	0.03930656
43	0x3db0571d	0.086103655
44	0x3d0113f8	0.031513184
45	0x3b11a0ef	0.0022221168
46	0x3dfb4b7e	0.12270258
47	0xbde07acb	-0.10960921
48	0xbdea5e7b	-0.11443802
49	0xbdcfd38e	-0.10147773
50	0x3adea4c5	0.0016986361
51	0xbdc710ad	-0.097199775
52	0x3d850c6a	0.064965084
53	0xbd91ab27	-0.07112723
54	0xbdf2dad4	-0.118581444
55	0xbe043b13	-0.1291316
56	0x3d82611d	0.06366179
57	0x3dcd1648	0.100140154
58	0xbd1ccddf	-0.03828227
59	0xbd43a238	-0.047762126
60	0x3cb96e22	0.022635523
61	0xbc272d80	-0.010203719
62	0x3df4f5ce	0.11960946
63	0x3dd327ce	0.103103265
64	0xbe043ac3	-0.12913041
65	0x3db79c4a	0.08965357
66	0xbe0e6b2a	-0.13908067
67	0xbd92cdf3	-0.07168188
68	0xbd3ec064	-0.046570197
69	0x3dd51d94	0.10406032
70	0x3dcbcc84	0.09951118
71	0xbdddfada	-0.10838862
72	0x3cade0fa	0.021225441
73	0x3e00474c	0.12527198
74	0xbcadd16b	-0.021218022
75	0xbe0e39c7	-0.13889228
76	0xbe066095	-0.1312278
77	0xbdc03e93	-0.09386935
78	0x3dd9258a	0.10602863
79	0xbc230e00	-0.009952068
80	0x3d5e77a3	0.054313313
81	0x3d04d594	0.032430246
82	0x3d9e48ad	0.077287056
83	0x3cc40494	0.023927964
84	0x3d433d3a	0.047665812
85	0xbca9c868	-0.020725444
86	0x3def52b2	0.11685695
87	0x3b4a213a	0.0030842558
88	0xbd9669eb	-0.07344421
89	0x3dffb37a	0.12485404
90	0xbd42dbc5	-0.04757287
91	0x3df538b7	0.11973708
92	0x3d8968a5	0.067094125
93	0x3db414e1	0.08793045
94	0xbc48db9b	-0.012259389
95	0xbd16e6cd	-0.036841203
96	0x3ca50c7f	0.02014756
97	0x3df49b52	0.119436875
98	0xbddc8f27	-0.10769492
99	0x3e0635a6	0.13106403
100	0x3dc610c1	0.09671164
101	0x3c165042	0.009174408
102	0x3dd28e0c	0.102809995
103	0xbd9cfe51	-0.076656945
104	0x3dd6d3bf	0.10489606
105	0x3bb2d4c8	0.0054574944
106	0xbd90b704	-0.070661575
107	0x3c4c22cd	0.012459469
108	0x3b98a197	0.004657935
109	0xbd19c96d	-0.03754561
110	0xbd9ca77c	-0.076491326
111	0x3dad93d9	0.08475465
112	0xbd4c938c	-0.0499454
113	0xbdbc044f	-0.09180509
114	0x3d1df177	0.038560357
115	0x3d08ba32	0.033380695
116	0xbca4fa41	-0.020138862
117	0xbd79154d	-0.06081133
118	0x3e02725e	0.1273894
119	0xbe0f07d7	-0.13967834
120	0xbcf1ed8b	-0.029532215
121	0x3dc9cdd1	0.098537095
122	0x3dc287ad	0.09498534
123	0x3d3e0c77	0.046398606
124	0xbe0a0f47	-0.1348239
125	0xbd78ac15	-0.060710985
126	0xbd9b701a	-0.07589741
127	0x3db0837e	0.0861883
128	0x3dc45136	0.09585802
129	0x3e0bbf32	0.13647154
130	0xbd43f46c	-0.04784052
131	0x3d1ed809	0.038780246
132	0xbd399b8c	-0.045314357
133	0x3b981036	0.0046406044
134	0xbdc8cbf6	-0.098045275
135	0xbc836e5f	-0.01604384
136	0x3df042b2	0.11731471
137	0x3da67473	0.0812768
138	0xbcce9c82	-0.025221113
139	0xbe0fa09e	-0.14026114
140	0xbccd78a7	-0.025081946
141	0x3d1cbb38	0.038264483
142	0xbd857a54	-0.06517473
143	0xbdf296ca	-0.11845167
144	0x3d75967e	0.059957974
145	0x39ab5983	0.00032682353
146	0x3dce39a6	0.10069589
147	0xbd566a75	-0.05234762
148	0xbd1e7fe0	-0.03869617
149	0x3c23e8da	0.010004247
150	0xbd5d57e1	-0.054038886
151	0xbdc62dff	-0.09676742
152	0xbd5939b1	-0.053033534
153	0xbc9250cb	-0.01786079
154	0xbdce4afd	-0.10072897
155	0xbdcd8561	-0.10035206
156	0x3b8fb6e9	0.0043858183
157	0x3d079a82	0.033106335
158	0xbdb0f744	-0.08640912
159	0x3ba5a25e	0.005054756
160	0x3dc4c71f	0.09608292
161	0xbae3e83b	-0.0017387936
162	0xbdeab336	-0.11459963
163	0x3d974271	0.073857196
164	0xbdf2539d	-0.11832354
165	0xbe02cfc3	-0.12774567
166	0x3d1e51b3	0.038652133
167	0x3de832f4	0.113378435
168	0xbdd58b57	-0.104269676
169	0xbde40075	-0.111329
170	0xbd3e778a	-0.04650072
171	0xbdee95b2	-0.11649646
172	0x3c7808b5	0.015138795
173	0xbc87f15c	-0.016594581
174	0x3d6e0ef5	0.058119733
175	0x3dabac26	0.08382444
176	0xbdb253fc	-0.08707425
177	0x3dafd7fc	0.085861176
178	0xbd71b636	-0.05901166
179	0x3e0b6073	0.13611011
180	0x3d5b8a9a	0.053598978
181	0xbdd2119f	-0.10257267
182	0x3d557650	0.052114785
183	0xbbffbb58	-0.0078043155
184	0x3dfd417e	0.12366007
185	0x3d63aef9	0.05558679
186	0xbe0163a3	-0.12635665
187	0xbda3ab96	-0.07991712
188	0xbdd698b4	-0.104783446
189	0x3c8c0ff0	0.017097443
190	0xbddf205d	-0.10894845
191	0x3d3641ee	0.04449647
192	0xbd8f73be	-0.07004498
193	0x3d490f03	0.049086582
194	0x3dc68978	0.09694189
195	0xbd15cce5	-0.036572356
196	0xbd075b3d	-0.033045996
197	0x3e059954	0.13046771
198	0xbc0e8ec6	-0.008701032
199	0x3dff2613	0.12458434
200	0xbd815e69	-0.063168354
201	0x3e053f9f	0.13012551
202	0x3da2ac9b	0.07943078
203	0xbddb59a6	-0.107104585
204	0xbc59dab7	-0.013296775
205	0xbdd00ecb	-0.101590715
206	0x3d046d5f	0.032330867
207	0x3bdf179a	0.0068082334
208	0xbe0449c9	-0.12918772
209	0x3c90a984	0.017658956
210	0x3e031f16	0.12804827
211	0xbd8637de	-0.065536246
212	0x3de65a72	0.1124772
213	0x3ddd0571	0.107920535
214	0xbc938700	-0.018008709
215	0x3d10ce0f	0.035352763
216	0xbe0d5a12	-0.1380389
217	0xbd74a3fe	-0.059726708
218	0x3da0d0f6	0.07852356
219	0x3dc57f9b	0.096434794
220	0xbda7443b	-0.08167311
221	0x3b6a471a	0.0035747946
222	0x3daaf342	0.08347179
223	0xbe09694e	-0.13419077
224	0xbdf01165	-0.11722068
225	0xbd02099e	-0.031747453
226	0x3c9ec6f9	0.019381987
227	0x3c89573a	0.016765226
228	0x3d9fe6f2	0.07807721
229	0xbdb409e0	-0.08790946
230	0x3cad7a8d	0.0211766
231	0x3d05a195	0.0326248
232	0x3e054dec	0.13018006
233	0x3dc9e388	0.09857851
234	0xbdad9066	-0.084748074
235	0x3cf2032e	0.029542532
236	0x3dec01f4	0.1152381
237	0x3d343a30	0.044000804
238	0x3dc527dc	0.09626743
239	0x3dbc1eff	0.091855995
240	0xbe0f0b8b	-0.13969247
241	0x3da91740	0.08256388
242	0xbdcba679	-0.099438615
243	0x3cbd5585	0.023112068
244	0xbdc47f7b	-0.095946275
245	0x3e04b253	0.1295865
246	0x3de07dac	0.1096147
247	0x3dde8b70	0.10866439
248	0x3d8b9937	0.06816333
249	0xbe05512c	-0.13019246
250	0x3dc3c7df	0.09559607
251	0xbd8a8500	-0.06763649
252	0xbd8d260b	-0.06892022
253	0xbdc2f10e	-0.09518634
254	0x3d860f28	0.065458596
255	0x3dcf6cd9	0.10128183

lstm.bias_ih_l0 f4 [200]
0	0xbe0d2306	-0.13782892
1	0x3d986542	0.074411884
2	0xbe135a90	-0.14390016
3	0x3c4eb2ad	0.012615842
4	0xbc201bad	-0.009772223
5	0x3d405a69	0.04696122
6	0x3daa66f9	0.08320422
7	0xbd9bb1fb	-0.076023065
8	0xbe045b77	-0.12925516
9	0xbd0aca43	-0.033884298
10	0xbbc49ac4	-0.005999895
11	0xbd05ed0e	-0.032696776
12	0x3d704313	0.058657717
13	0x3de8561d	0.1134455
14	0xbd07a93d	-0.033120383
15	0x3dff94fb	0.12479588
16	0xbe081795	-0.13290246
17	0x3dd5d3db	0.10440799
18	0xbd767191	-0.0601669
19	0x3d6629c4	0.056192175
20	0xbdf82932	-0.121172324
21	0x3dcfb6b7	0.10142272
22	0x3d848cc0	0.064721584
23	0x3e0c5134	0.13702852
24	0xbd72fc27	-0.059322502
25	0xbc987d52	-0.018614445
26	0xbd9e5ca6	-0.07732515
27	0xbde8667f	-0.113476746
28	0xbd3d0417	-0.04614648
29	0xbdbbc9bc	-0.09169337
30	0xbd423d3d	-0.047421683
31	0x3c1527a8	0.009103693
32	0xbbbe9937	-0.0058166045
33	0x3de87fce	0.11352502
34	0x3dc82145	0.09771971
35	0x3d316a58	0.043314308
36	0xbcbc059b	-0.022951892
37	0xbdd481a0	-0.103762865
38	0xbdc48587	-0.09595781
39	0x3dd2b74f	0.102888696
40	0xbd031196	-0.031999193
41	0x3d6497c6	0.055808805
42	0x3e05afbb	0.13055317
43	0x3def5694	0.11686435
44	0xbce96e58	-0.028494999
45	0x3d9c5d70	0.07635009
46	0xbe019ad7	-0.12656723
47	0xbc24beea	-0.010055283
48	0x3da0da2b	0.07854112
49	0x3d891320	0.06693101
50	0x3ddff4b5	0.10935346
51	0xbdae6b2c	-0.08516535
52	0x3d47e1d6	0.04879936
53	0xbe018815	-0.12649567
54	0x3dd5acf2	0.10433377
55	0x3da346b4	0.0797247
56	0x3d685211	0.05671889
57	0x3db30593	0.087412976
58	0x3d910957	0.070818596
59	0xbdacc496	-0.08435933
60	0x3deef3cf	0.116675965
61	0xbe00f486	-0.12593278
62	0xbe0069e0	-0.12540388
63	0xbd62b52c	-0.05534856
64	0xbda23cdd	-0.07921765
65	0x3d1878b4	0.037224486
66	0x3c920be2	0.017827932
67	0xb8375a51	-4.3714714e-05
68	0xbe0a9096	-0.13531718
69	0x3d4431d5	0.047899086
70	0x3d0ea24e	0.034822755
71	0xbdbbd744	-0.09171918
72	0x3c00f7f3	0.007871616
73	0x3de370e4	0.111055166
74	0xbe01bad8	-0.12668931
75	0x3e10235f	0.14075993
76	0x3d23ea24	0.040018216
77	0x3ad58d8a	0.0016292792
78	0x3dd86b5b	0.105673514
79	0xbdabde06	-0.08391957
80	0x3d84fd3b	0.064936124
81	0xbdbb509c	-0.091462344
82	0xbcaa4bee	-0.02078816
83	0x3cd7af12	0.026328597
84	0xbe00ac1e	-0.12565657
85	0x3dd7bb40	0.10533762
86	0xbdec131f	-0.115270846
87	0x3d44a3b6	0.04800769
88	0x3db937a4	0.09043816
89	0xbdaeff0b	-0.08544739
90	0x3e08ea69	0.1337067
91	0x3d884d56	0.06655376
92	0xbde0e840	-0.10981798
93	0xbca19209	-0.019722955
94	0x3ddd3b5c	0.108023375
95	0xbd84680a	-0.064651564
96	0xbdf11dff	-0.117732994
97	0xbde1d0b9	-0.11026139
98	0x3ce247a4	0.027622052
99	0x3e04def3	0.12975673
100	0xbda3a6dc	-0.0799081
101	0x3d971b86	0.073782966
102	0x3be7623f	0.0070612724
103	0xbe0361ae	-0.1283023
104	0x3e0eb5e3	0.13936572
105	0x3d9177e7	0.07102948
106	0xbda888ce	-0.082292184
107	0x3df66b47	0.1203218
108	0xbd5e5495	-0.054279882
109	0xbdccac5e	-0.09993814
110	0x3cbf0999	0.023320006
111	0xbd63da62	-0.055628188
112	0x3e0232e3	0.12714724
113	0x3da35844	0.0797582
114	0x3d9c6201	0.0763588
115	0xbcb1badf	-0.021695552
116	0x3da89d17	0.082330875
117	0xbd76d00f	-0.060257014
118	0x3d30f714	0.043204382
119	0x3b903647	0.0044010016
120	0xbdc861bf	-0.097842686
121	0x3d0fb7c6	0.03508737
122	0x3db41b52	0.087942734
123	0xbdc86759	-0.09785337
124	0xbdfb60ec	-0.12274346
125	0xbdb73536	-0.08945696
126	0xbde51b35	-0.1118683
127	0xbdc925c2	-0.09821655
128	0xbdd58bd5	-0.104270615
129	0xbdd6d591	-0.10489953
130	0x3de99409	0.114051886
131	0xbde4d7ee	-0.11173998
132	0xbb19a9a7	-0.0023447068
133	0x3cc00262	0.023438636
134	0x3d7b4136	0.061341487
135	0xbdc3ddff	-0.09563827
136	0xbddcaebc	-0.107755154
137	0x3d733f56	0.059386574
138	0xbcc6d3c4	-0.0242709
139	0xbcbc2e06	-0.022971164
140	0x3de71c14	0.11284652
141	0xbd8c8f8b	-0.06863316
142	0x3def6a19	0.116901584
143	0xbe09d830	-0.13461375
144	0xbdeede40	-0.116634846
145	0x3dee326b	0.1163071
146	0xbd9b707f	-0.07589816
147	0xbb4bb9de	-0.0031086127
148	0xbddbd737	-0.10734408
149	0x3d25b5da	0.04045663
150	0xbd53f7c7	-0.05174997
151	0x3c886411	0.016649278
152	0xbd9ed155	-0.07754771
153	0x3addb3b5	0.0016914519
154	0xbe0ebb57	-0.13938652
155	0x3d44c529	0.04803959
156	0xbe100b6d	-0.14066859
157	0xbd318d4b	-0.043347638
158	0x3dc2f94c	0.09520206
159	0xbc4b35d3	-0.012402969
160	0xbdd7f03c	-0.10543868
161	0xbdc057b8	-0.09391731
162	0x3da266b6	0.07929747
163	0x3b87baad	0.0041421265
164	0xbcb176ee	-0.021663155
165	0x3d88b3fe	0.06674956
166	0x3e0b8411	0.13624598
167	0xbdb34509	-0.08753402
168	0x3e0304ee	0.1279485
169	0xbda6448d	-0.08118544
170	0xbdf25082	-0.11831762
171	0x3c0c6bdc	0.008570638
172	0x3dfb7553	0.12278237
173	0xbcd8b891	-0.026455196
174	0x3d9c326d	0.076268055
175	0x3b91e1a7	0.0044519487
176	0xbe06851a	-0.13136712
177	0x3d891fc4	0.06695512
178	0x3e013b35	0.12620242
179	0x3dcf7145	0.10129026
180	0xbc07d8b9	-0.008291417
181	0x3d215c9a	0.039394952
182	0x3dd7fad6	0.1054589
183	0xbdde15e6	-0.108440205
184	0xbcff7c77	-0.03118728
185	0xbda84e75	-0.082180895
186	0xbe0b767a	-0.13619414
187	0xbdc64a55	-0.096821465
188	0x3d19ccd2	0.037548847
189	0x3dfa2193	0.12213435
190	0x3e016e14	0.12639648
191	0x3daf4731	0.085585006
192	0x3de66dc6	0.11251406
193	0x3daf4e2e	0.085598335
194	0x3d90064a	0.070324495
195	0x3dcc305b	0.099701606
196	0x3bfd9d9a	0.007739735
197	0x3e01e3be	0.12684533
198	0xbcbd9a50	-0.023144871
199	0xbdd55d64	-0.104182035

lstm.bias_hh_l0 f4 [200]
0	0xbd8cf933	-0.068834685
1	0xbd4028e0	-0.04691398
2	0xbd85b8df	-0.06529402
3	0x3b86fdcd	0.004119611
4	0x3dba03ff	0.090827934
5	0x3d1a6061	0.03768957
6	0xbd3c0d10	-0.045910895
7	0xbdd79b85	-0.1052771
8	0x3cb79e51	0.022414358
9	0xbdaf50f6	-0.08560364
10	0x3d7f2e6d	0.062300134
11	0xbde820c0	-0.113343716
12	0xbdfe7e07	-0.124263816
13	0x3e06bc24	0.13157707
14	0xbcb33af0	-0.02187869
15	0x3d4d3dfe	0.05010795
16	0xbe05e263	-0.13074641
17	0x3d67dfff	0.056610104
18	0x3dfb7d81	0.12279797
19	0xbd11af7c	-0.035567746
20	0x3ddb6c30	0.107139945
21	0xbde27718	-0.110578716
22	0xbda596c0	-0.08085394
23	0x3da0c255	0.07849566
24	0xbdc5519b	-0.09634706
25	0xbdecc197	-0.11560362
26	0xbdcc8e4d	-0.09988079
27	0x3d9d53eb	0.07682022
28	0x3e0d12c1	0.13776685
29	0x3c6783f3	0.01413058
30	0xbe0874e6	-0.13325843
31	0xbd96a912	-0.07356466
32	0xbdef7ca2	-0.11693694
33	0xbdbe3f7a	-0.09289451
34	0x3d56f69e	0.052481286
35	0xbdea3f92	-0.11437906
36	0x3d9b14aa	0.07572301
37	0x3d9f78d4	0.07786718
38	0x3d43b0fd	0.04777621
39	0x3dfae258	0.12250203
40	0xbd6f9159	-0.058488224
41	0xbdc1a175	-0.094546236
42	0x3dfae308	0.12250334
43	0xbd73465c	-0.05939327
44	0xbd8ded48	-0.069300234
45	0x3d96abfc	0.07357022
46	0x3d244f26	0.040114544
47	0xbd03d86c	-0.032188818
48	0xbd58e23e	-0.052950136
49	0xbe0530e0	-0.13006926
50	0xbdd17afb	-0.10228535
51	0x3d4f33ac	0.050586388
52	0xbe01abba	-0.12663165
53	0xbd396706	-0.045264266
54	0xbcb36e0c	-0.02190306
55	0x3d80eb5a	0.0629489
56	0x3c423dbb	0.011855538
57	0x3c5f22eb	0.013619165
58	0xbc7d888e	-0.015474452
59	0xbd2c8be7	-0.04212561
60	0x3e1085bf	0.1411352
61	0xbd6e5672	-0.05818791
62	0x3b0b3d8a	0.0021246397
63	0xbe08d621	-0.13362934
64	0xbd459e42	-0.04824663
65	0x3d8eb4e0	0.06968093
66	0x3e0d8f82	0.13824275
67	0xbdeaf468	-0.11472398
68	0xbd819475	-0.06327144
69	0x3e0b5c25	0.13609369
70	0xbda2b640	-0.07944918
71	0xbd9ee35b	-0.07758208
72	0xbc3328ee	-0.010935051
73	0xbdfe1ead	-0.12408195
74	0x3d647889	0.055779014
75	0xbda7db3c	-0.081961125
76	0xbdf03603	-0.11729052
77	0x3b9985d8	0.004685145
78	0xbc0b5d5b	-0.008506144
79	0x3c0f0f2f	0.008731647
80	0xbd4f539d	-0.05061685
81	0x3d4d92de	0.05018889
82	0xbdb07af2	-0.086172
83	0x3dfa03cd	0.12207756
84	0xbc89a925	-0.016804287
85	0x3d7ab4b6	0.061207496
86	0xbdea46b0	-0.11439264
87	0xbe0b51e9	-0.13605465
88	0x3da5dcbd	0.08098743
89	0xbcc133ee	-0.023584332
90	0xbd007041	-0.031357054
91	0x3debdea7	0.11517077
92	0xbd344ba3	-0.044017445
93	0xbcd6780d	-0.026180292
94	0xbbbcf728	-0.005766768
95	0xbd981ca1	-0.074273355
96	0xbdd70793	-0.104994915
97	0x3e075c21	0.13218738
98	0x3dbd3588	0.09238726
99	0xbdc1a99c	-0.094561785
100	0x3df5209c	0.1196911
101	0xbd678217	-0.056520548
102	0x3db93c65	0.090447225
103	0xbd71c7ae	-0.05902832
104	0xbced8f8a	-0.028999109
105	0x3d8b4ea8	0.06802112
106	0xbded00ca	-0.11572416
107	0x3df67bd4	0.12035337
108	0x3dcd7862	0.10032727
109	0xbdb66a8e	-0.089070424
110	0xbdaf702b	-0.08566316
111	0x3d81304b	0.06308039
112	0x3d8fd287	0.07022577
113	0xbe03932d	-0.12849112
114	0xbde88259	-0.11352987
115	0x3d40d7b5	0.047080714
116	0x3d8f474b	0.0699602
117	0x3e07817a	0.13232985
118	0x3ced774f	0.028987555
119	0x3d8e8881	0.0695963
120	0xbd725e99	-0.059172247
121	0x3dbdc2c7	0.092656665
122	0xbd36a846	-0.04459407
123	0x3d4b980e	0.049705558
124	0x3b8781f4	0.0041353647
125	0xbdc79163	-0.09744527
126	0x3d5c3102	0.053757675
127	0x3e0cd143	0.13751702
128	0xbd01062e	-0.031500034
129	0xbdba3735	-0.09092561
130	0x3d758203	0.059938442
131	0x3d93440a	0.07190712
132	0x3d51ba09	0.051202808
133	0x3d9665c9	0.07343633
134	0xbdf1a174	-0.11798373
135	0xbdb72d00	-0.0894413
136	0x3d2ad137	0.04170343
137	0x3d8dc712	0.06922735
138	0x3d2a8d4b	0.041638654
139	0xbb6d509f	-0.0036211384
140	0xbc72b114	-0.0148127265
141	0x3de9bcff	0.11413001
142	0x3dc475f5	0.09592811
143	0x3dddaf3b	0.10824438
144	0x3d8c4d63	0.06850698
145	0x3dca598f	0.09880363
146	0xbde7c2be	-0.11316441
147	0xbb4ae9f6	-0.0030962205
148	0x3d4ea0a4	0.050446168
149	0xbdc3fcd5	-0.09569708
150	0x3ddaba10	0.1068002
151	0x3dcdbd4e	0.10045873
152	0xbd25b95b	-0.040459972
153	0x3c7e0b13	0.01550557
154	0xbd9a67b6	-0.075393125
155	0x3ddad747	0.10685592
156	0x3d943e2b	0.0723842
157	0xbb895fb5	-0.0041923174
158	0xbdfb2285	-0.122624435
159	0xbd6d1781	-0.057883743
160	0xbcd483e0	-0.02594179
161	0xbdfa6c27	-0.1222766
162	0xbc763ca2	-0.015029104
163	0xbbebd7b1	-0.0071973433
164	0x3e09ca25	0.13456018
165	0x3bf96aca	0.007611607
166	0xbc53f695	-0.012937208
167	0x3dae9f93	0.0852653
168	0x3c89bd15	0.016813794
169	0x3d74c93f	0.059762236
170	0xbd831949	-0.06401307
171	0xbda37f1d	-0.07983229
172	0x3da5a478	0.080880105
173	0x3da11bbf	0.0786662
174	0xbd547718	-0.05187139
175	0x3d8f0049	0.06982476
176	0x3ca953d6	0.020669859
177	0xbe122894	-0.14273292
178	0x3deb557c	0.11490914
179	0x3d8ffee4	0.070310384
180	0x3d46470b	0.048407596
181	0xbddf227e	-0.10895251
182	0x3e0d6dba	0.13811389
183	0x3c498b5e	0.012301294
184	0x3d71d768	0.059043318
185	0xbe0cd484	-0.13752943
186	0xbdbeb5d1	-0.093120225
187	0x3d197307	0.037463214
188	0xbddb6618	-0.10712832
189	0xbdc8144e	-0.09769498
190	0xbdd5366f	-0.10410773
191	0xbdcef262	-0.101048246
192	0xbdcec02b	-0.10095247
193	0x3d085b6d	0.033290315
194	0xbd1fcabc	-0.039011702
195	0xbc21a596	-0.009866139
196	0xbdea8a05	-0.114521064
197	0x3dd2cb22	0.10292651
198	0xbd8efb98	-0.069815814
199	0xbd3dbfc9	-0.04632548

lstm.weight_ih_l1 f4 [200, 50]
0	0x3e094a98	0.13407362
1	0x3ddac169	0.10681421
2	0xbe0ec12f	-0.13940881
3	0x3c4e443b	0.01258951
4	0x3d934609	0.071910925
5	0xbd395c48	-0.045254022
6	0xbb7cdab6	-0.003858251
7	0x3dee9755	0.11649958
8	0xbdc07f65	-0.093992986
9	0x3dbaa6c6	0.09113841
10	0xbdb760ac	-0.089539856
11	0x3e0a8ee4	0.13531071
12	0xbd4e83db	-0.050418716
13	0x3d456882	0.04819537
14	0xbe0ed305	-0.13947685
15	0xbe0d73d8	-0.13813722
16	0x3d7f6a7e	0.06235742
17	0x3cc4301a	0.023948718
18	0xbe0452ef	-0.12922262
19	0x3b646b19	0.0034853874
20	0x3db55079	0.088532396
21	0xbd31b016	-0.04338082
22	0xbdda3b91	-0.10655893
23	0x3e08291a	0.13296929
24	0x3da2d317	0.079504184
25	0x3e05a7cc	0.1305229
26	0x3df42d4b	0.119227014
27	0x3cf5d716	0.030009788
28	0xbd0b0136	-0.0339367
29	0x3e017281	0.12641336
30	0xbddad6a6	-0.10685472
31	0x3d4f393e	0.0505917
32	0xbe088cb8	-0.1333493
33	0xbcd90c8d	-0.026495242
34	0xbcde149b	-0.027109435
35	0xbe0749c5	-0.13211735
36	0xbe024350	-0.1272099
37	0xbd8e720e	-0.06955348
38	0xbd7d8d5e	-0.061902396
39	0xbcdb094c	-0.026737832
40	0xbcc7d58e	-0.024393823
41	0xbdb95b45	-0.090506114
42	0xbca32336	-0.01991425
43	0x3dd8390e	0.10557757
44	0xbdd86220	-0.10565591
45	0xbe08849d	-0.13331838
46	0x3c4ba8a6	0.012430346
47	0x3dabc930	0.08387983
48	0x3bfdad33	0.007741594
49	0x3e11419c	0.14185184
50	0xbcf7a666	-0.030230712
51	0xbe0602a3	-0.13086943
52	0xbd2d1d31	-0.042264167
53	0xbd90e6f7	-0.07075303
54	0x3e08985f	0.13339375
55	0xbd9f8232	-0.07788505
56	0x3e132283	0.14368634
57	0xbdde2b09	-0.10848052
58	0x3e007fc0	0.12548733
59	0xbe02a766	-0.1275917
60	0xbdc1eba8	-0.09468776
61	0xbc2be116	-0.010490676
62	0x3c3a0dd4	0.011355836
63	0x3dfdddbd	0.12395809
64	0x3da0adff	0.07845687
65	0xbd870cc7	-0.06594234
66	0x3d80ba76	0.062855646
67	0x3d202645	0.039098997
68	0x3d839bb0	0.064261794
69	0x3e0ef10b	0.13959138
70	0xbcadba74	-0.021207072
71	0x3c21d37a	0.00987708
72	0x3d325a4d	0.04354315
73	0x3d2059fd	0.03914832
74	0x3d34d4e5	0.044148345
75	0xbdc59db4	-0.0964922
76	0xbde704fb	-0.11280247
77	0xbdf34688	-0.11878687
78	0xbdc7319e	-0.097262606
79	0x3de80bcc	0.11330375
80	0x3b24baaa	0.0025135675
81	0xbd343016	-0.04399117
82	0x3e07c4b9	0.13258637
83	0xbd9b3e97	-0.075802974
84	0x3ce3e49f	0.027818976
85	0xbe02176c	-0.12704247
86	0xbc1f5eea	-0.009727219
87	0xbd3fc0eb	-0.04681484
88	0xbdd089b0	-0.10182512
89	0xbdb3eb7c	-0.087851495
90	0xbdcaf36d	-0.09909711
91	0xbdaf2d1f	-0.08553528
92	0xbd4351a6	-0.047685288
93	0x3c5f78dd	0.013639656
94	0x3c86fcc6	0.016477954
95	0xbd82c3de	-0.06385015
96	0xbdaab6a9	-0.08335621
97	0xbc83f94c	-0.016110085
98	0x3dc88ca1	0.09792448
99	0x3e085846	0.13314924
100	0x3cd30d79	0.02576326
101	0xbd20a504	-0.03921987
102	0x3e06b5e2	0.1315532
103	0xbd46748a	-0.048450984
104	0xbda3b567	-0.07993584
105	0xbd577998	-0.052606195
106	0xbdddfe1d	-0.10839484
107	0x3d94460b	0.07239922
108	0xbd86da2c	-0.06584582
109	0xbd405e85	-0.04696514
110	0x3c8897d0	0.016673952
111	0xbe03e17c	-0.12878984
112	0xbda9e20a	-0.08295067
113	0x3ddc00b4	0.107423216
114	0xbe0bda33	-0.13657455
115	0x3d342a24	0.0439855
116	0xbda9ca5d	-0.08290551
117	0x3c6d48b8	0.0144826695
118	0xbd1dd444	-0.03853251
119	0x3d9c2abf	0.07625341
120	0x3e05bd47	0.13060485
121	0x3cf5b2a6	0.029992413
122	0x3c1b0c1c	0.009463336
123	0x3bc268c7	0.0059329006
124	0xbdd661a7	-0.104678445
125	0xbdf721a0	-0.1206696
126	0x3e1354b5	0.14387782
127	0x3d624132	0.055237956
128	0x3d82838c	0.06372747
129	0x3d74f0bc	0.059799895
130	0xbdfe7564	-0.12424734
131	0xb9685f96	-0.00022160853
132	0x3daa72dc	0.08322689
133	0x3d7074b0	0.058705032
134	0x3daeafb2	0.08529605
135	0x3e0eda75	0.13950522
136	0x3d88768c	0.06663236
137	0xbd297f0c	-0.041380927
138	0x3df1adf9	0.11800761
139	0xbda93ba8	-0.08263332
140	0xbd79e88c	-0.06101279
141	0x3d320277	0.043459382
142	0xbe0585ed	-0.1303937
143	0xbd898042	-0.06713916
144	0x3d9589ae	0.07301651
145	0xbb74b9e3	-0.0037342242
146	0x3dfcda94	0.12346378
147	0x3dcfae23	0.10140636
148	0xbe0e50c3	-0.13897996
149	0x3d133a97	0.035944548
150	0x3bd807f9	0.0065927473
151	0x3dca367c	0.09873673
152	0x3d84e856	0.06489627
153	0x3def45c6	0.1168323
154	0xbd4428c8	-0.047890455
155	0xbcb43c82	-0.022001509
156	0xbc003991	-0.007826225
157	0xbda8f392	-0.08249582
158	0x3d097bfe	0.033565514
159	0x3b3d2947	0.0028863715
160	0xbd0d6905	-0.034523983
161	0x3bf0a292	0.0073435986
162	0xbe03b56b	-0.12862174
163	0x3dcedb43	0.101004146
164	0x3c19d9a2	0.009390267
165	0xbdb3142a	-0.0874408
166	0xbd864f0f	-0.06558048
167	0xbde4d919	-0.111742206
168	0x3df5c5c3	0.12000611
169	0xbcd0cc92	-0.025488172
170	0xbdd520d3	-0.10406651
171	0x3de9ea6b	0.11421665
172	0x3dad6179	0.08465857
173	0x3d32a6dd	0.043616164
174	0x3d4db178	0.050218076
175	0x3d8506db	0.06495448
176	0x3d9222e2	0.071355596
177	0xbb9c0c1a	-0.004762185
178	0x3d8b0b2e	0.06789242
179	0x3db5e558	0.088816345
180	0x3dce2584	0.10065749
181	0xbd29c509	-0.041447673
182	0x3d570497	0.05249461
183	0xbc8247b1	-0.015903326
184	0xbdbfc3e6	-0.093635365
185	0x3b9096f5	0.0044125267
186	0x3d0f4284	0.034975544
187	0x3d9f0f19	0.077665515
188	0xbdbae271	-0.091252215
189	0xbdaab071	-0.08334435
190	0xbda1bc21	-0.07897211
191	0xbdfb10ee	-0.122590885
192	0x3d0ca665	0.034338374
193	0x3de559e0	0.11198783
194	0xbdbe3c44	-0.092888385
195	0x3e0eb492	0.1393607
196	0x3d2de404	0.04245378
197	0x3cacd1dc	0.021096162
198	0xbd993cc1	-0.07482291
199	0xbe0fbf3d	-0.14037795
200	0xbdaad581	-0.08341504
201	0x3d92ec13	0.07173934
202	0xbc8adedb	-0.016951969
203	0x3d9b7228	0.07590133
204	0xbe0f3070	-0.13983321
205	0xbe0f241b	-0.13978617
206	0x3da86ca3	0.08223846
207	0xbc5fc57c	-0.013657924
208	0xbd2e14a4	-0.042500153
209	0xbdd7062a	-0.104992226
210	0x3dd92338	0.106024206
211	0xbe0c053d	-0.13673873
212	0x3dc0e192	0.09418024
213	0xbdec2962	-0.11531331
214	0xbe0c47f2	-0.1369932
215	0xbc6ace75	-0.01433145
216	0x3dd7d5d0	0.105388284
217	0x3da6bdeb	0.08141693
218	0xbdce52a8	-0.10074359
219	0x3d0f4c40	0.034984827
220	0x3e0a5392	0.13508442
221	0x3c1f1ca7	0.009711421
222	0x3dc47305	0.09592251
223	0x3da8873f	0.08228921
224	0x3dbdef19	0.0927412
225	0xbdea96d4	-0.114545494
226	0x3dd79332	0.10526122
227	0xbcaad93c	-0.020855539
228	0xbd2b9982	-0.041894443
229	0x3cdc3746	0.026881825
230	0xbcd35c04	-0.025800712
231	0x3b7183a9	0.0036852157
232	0xbdee4e89	-0.11636073
233	0x3dc23b52	0.09483971
234	0xbdba0a01	-0.09083939
235	0xbd897d6a	-0.06713374
236	0x3d851fcc	0.065002054
237	0x3dc33559	0.0953166
238	0xbd342f22	-0.04399026
239	0x3da2308a	0.07919414
240	0x3df15749	0.117842264
241	0x3b990f28	0.004670996
242	0x3db3680c	0.0876008
243	0x3dab3c2f	0.083610885
244	0x3c01d7e9	0.007925012
245	0x3de5812d	0.11206279
246	0xbcf46d06	-0.029837143
247	0xbd1dad65	-0.03849544
248	0xbe0482fe	-0.12940595
249	0x3baf6a25	0.0053532296
250	0x3de45bf2	0.1115035
251	0x3d9b6855	0.07588259
252	0xbe043823	-0.1291204
253	0x3d9ffe49	0.07812173
254	0x3da7d4d4	0.081948906
255	0x3cd16982	0.025563005

lstm.weight_hh_l1 f4 [200, 50]
0	0xbdbde1f6	-0.09271614
1	0xbdf54a47	-0.11977058
2	0x3cd579b4	0.02605901
3	0xbca83e95	-0.020537654
4	0x3cf25d44	0.029585488
5	0x3dd2573c	0.10270545
6	0x3ddbc54a	0.10730989
7	0xbcc527d6	-0.024066847
8	0x3d746f50	0.05967647
9	0xbcdd9038	-0.027046308
10	0x3dcebff4	0.10095206
11	0xbd4083f7	-0.04700085
12	0x3c953b64	0.018216796
13	0x3e022cf5	0.12712462
14	0xbd3cbaa1	-0.04607642
15	0x3d782d6c	0.060590193
16	0x3d79744d	0.06090193
17	0x3d188cdf	0.03724372
18	0x3da24bb7	0.07924598
19	0x3d845e8c	0.06463346
20	0xbd937318	-0.07199687
21	0x3b1a03fe	0.0023500915
22	0x3de9d82f	0.11418187
23	0xbc3def90	-0.011592761
24	0x3d9837bf	0.07432508
25	0x3db8e92d	0.0902885
26	0x3d80d5b7	0.06290763
27	0x3bccbe02	0.0062482366
28	0x3c0f9698	0.008763932
29	0xbcda1c05	-0.026624689
30	0xbcc9a616	-0.024615329
31	0x3dfb2062	0.12262036
32	0xbcd4da6e	-0.025983062
33	0xbc9efac5	-0.019406686
34	0x3dce91e9	0.10086424
35	0xbbc55423	-0.006021993
36	0x3a92723d	0.0011172962
37	0x3d845e34	0.0646328
38	0xbe062016	-0.13098177
39	0x3d421e6d	0.047392298
40	0x3da3d8e8	0.08000356
41	0x3d0025ac	0.031285927
42	0x3d9e5cd2	0.07732548
43	0xbe0a2855	-0.13491948
44	0x3deb4f11	0.1148969
45	0x3d6e246b	0.0581402
46	0xbc2e4030	-0.010635421
47	0xbd1b20a8	-0.03787294
48	0xbcbb9eb1	-0.022902818
49	0x3ce1a717	0.027545495
50	0xbe013178	-0.12616527
51	0x3dfed569	0.124430485
52	0xbd97a6cf	-0.07404863
53	0x3e010078	0.12597835
54	0x3dd0c870	0.101944804
55	0x3db92fe8	0.090423405
56	0x3db07524	0.08616093
57	0xbdcc5e7f	-0.09978961
58	0xbd2a17f9	-0.04152677
59	0x3d36c081	0.04461718
60	0xbc42662d	-0.011865181
61	0xbdd65137	-0.10464709
62	0xbe09a1a8	-0.13440573
63	0xbd0530d5	-0.032517273
64	0xbe0f4732	-0.13992003
65	0x3d247e3e	0.040159456
66	0x3d9f506b	0.077790104
67	0xbe0887aa	-0.13333002
68	0x3c8299f4	0.015942551
69	0x3cb8f6ea	0.022578675
70	0xbd003ff1	-0.03131098
71	0xbdc2c083	-0.09509375
72	0xbda1a802	-0.07893373
73	0xbddf0595	-0.108897366
74	0xbd2232c3	-0.03959919
75	0x3dc479cf	0.09593546
76	0xbd31f5fe	-0.043447487
77	0xbcb0d6e3	-0.021586841
78	0x3d95db35	0.07317201
79	0x3c16316e	0.009167058
80	0x3da1f19f	0.07907414
81	0x3d79891c	0.060921773
82	0x3cf2e726	0.029651236
83	0xbca93c42	-0.020658616
84	0x3e08e16f	0.13367246
85	0x3df1f49a	0.11814232
86	0x3dc72f93	0.09725871
87	0xbcfecf98	-0.031104848
88	0x3d687bbb	0.056758624
89	0xbd50d178	-0.050981015
90	0xbd38eebf	-0.04514956
91	0xbc2161b5	-0.009849955
92	0x3e0abd52	0.13548782
93	0x3b1d6e8b	0.0024022188
94	0xbde70f28	-0.11282188
95	0xbe0a910d	-0.13531895
96	0x3d12f21a	0.035875417
97	0x3dc34db8	0.09536308
98	0xbcd01bd5	-0.025403896
99	0x3e04c2b3	0.12964897
100	0xbdab9416	-0.083778545
101	0x3c92f4bc	0.017938964
102	0x3db30c2d	0.08742557
103	0x3d7a2aee	0.061076097
104	0xbe0af9b4	-0.13571817
105	0xbd6d30ad	-0.05790775
106	0xbd4e30fa	-0.050339676
107	0xbd81fafd	-0.063467
108	0xbdc5dd3a	-0.09661336
109	0xb904bddb	-0.00012659228
110	0x3de1d568	0.11027032
111	0xbcd216dd	-0.025645668
112	0xbe049e33	-0.12950973
113	0x3c1c7a3d	0.009550628
114	0xbdfea8e1	-0.12434555
115	0x3e0e9622	0.13924459
116	0x3e0be8fe	0.13663098
117	0x3c581235	0.013187935
118	0xbe0962ba	-0.13416567
119	0xbd73fb6f	-0.059565958
120	0xbc168319	-0.00918653
121	0x3c56a064	0.013099764
122	0xbca0ef1e	-0.01964527
123	0x3dbc0706	0.09181027
124	0xbd923e71	-0.07140816
125	0xbcf409a1	-0.029789748
126	0xbd1fe325	-0.03903498
127	0x3df98db4	0.12185231
128	0xbd08f874	-0.03344007
129	0x3c3803ab	0.011231343
130	0x3bdeb37a	0.0067962976
131	0xbe060959	-0.13089503
132	0xbc42ddf6	-0.01189374
133	0xbde30dea	-0.11086638
134	0x3df99dca	0.12188299
135	0xbc447f3a	-0.011993224
136	0x3e104cd5	0.14091809
137	0x3e1010b6	0.14068875
138	0x3bf0580d	0.007334715
139	0xbda98ac4	-0.082784206
140	0x3d4ce154	0.050019577
141	0x3db87524	0.09006718
142	0x3d9d2ebc	0.076749295
143	0x3e058d41	0.13042165
144	0x3bfa3764	0.0076359976
145	0xbd889573	-0.0666913
146	0xbdac3561	-0.08408619
147	0x3df2b835	0.11851541
148	0x3d8b2bec	0.06795487
149	0x3cb4f37d	0.02208876
150	0x3e006632	0.12538984
151	0x3d4ec573	0.05048127
152	0xbdc5a0cb	-0.096498094
153	0xbdc84fd6	-0.097808525
154	0xbde29441	-0.110634334
155	0x3e04744d	0.1293499
156	0x3db0ace9	0.0862673
157	0x3d6331bf	0.055467363
158	0xbd311bf0	-0.043239534
159	0x3c638d16	0.013888618
160	0x3d962036	0.073303625
161	0x3d8750c8	0.06607205
162	0x3c9f4c32	0.019445512
163	0xbca0926b	-0.019601068
164	0x3d8ba436	0.0681843
165	0xbdd14c8b	-0.102196775
166	0x3da191fe	0.07889174
167	0xbe0c2ac8	-0.13688195
168	0xbdabed4c	-0.0839487
169	0xbdba54ca	-0.090982035
170	0x3db9df74	0.090758234
171	0xbdf32081	-0.11871434
172	0x3db5674b	0.08857592
173	0xbe00b799	-0.12570037
174	0xbd59791e	-0.053094022
175	0xbdeb631f	-0.11493515
176	0xbc2eba4e	-0.010664536
177	0x3c1efcc9	0.009703823
178	0xbda7991c	-0.081835
179	0xbc77f7e1	-0.0151347825
180	0xbdc9dbdc	-0.09856388
181	0xbdf461dc	-0.11932728
182	0x3df78c46	0.12087302
183	0x3df68388	0.12036806
184	0xbdab4df1	-0.083644755
185	0xbde85be7	-0.11345654
186	0xbce4640c	-0.027879737
187	0xbd932c37	-0.07186168
188	0x3d96150c	0.07328233
189	0xbb5e0587	-0.0033877806
190	0xbdfa54ca	-0.122232035
191	0x3e04dc9a	0.12974778
192	0xbcfc149e	-0.03077155
193	0xbd574119	-0.052552316
194	0xbe0cef63	-0.13763194
195	0xbd984a0b	-0.074359976
196	0xbdb504bb	-0.08838793
197	0x3caf7c95	0.02142171
198	0x3d3c1ae9	0.0459241
199	0x3df7c990	0.12098992
200	0x3e00fd80	0.12596703
201	0x3dc58f96	0.096465275
202	0x3d814346	0.063116595
203	0xbd7cf673	-0.06175847
204	0x3dc6be2a	0.0970424
205	0x3dd8f550	0.10593665
206	0x3df4064c	0.119152635
207	0xbd3a7f52	-0.04553158
208	0xbcf31faf	-0.029678194
209	0x3d3c8530	0.046025455
210	0xbd4cf47a	-0.05003784
211	0xbd84f529	-0.06492073
212	0xbd8a4a93	-0.06752505
213	0x3d9a6eef	0.0754069
214	0x3cb8e749	0.022571223
215	0xbd4a2cfc	-0.049359307
216	0xbd9a3013	-0.07528701
217	0xbdc5bf21	-0.096555956
218	0x3de653ba	0.11246438
219	0x3dcb6441	0.09931231
220	0xbd89ddac	-0.06731734
221	0xbd72f7c0	-0.059318304
222	0xbd4d6f95	-0.05015524
223	0xbdfa6270	-0.12225807
224	0xbdc08372	-0.09400071
225	0xbc8b3f4e	-0.01699796
226	0xbe0c8880	-0.13723946
227	0x3d8117d2	0.063033715
228	0x3db580db	0.08862468
229	0x3da6da7a	0.0814714
230	0xbceee26a	-0.029160697
231	0xbe0594f8	-0.13045108
232	0x3d316c9e	0.043316476
233	0xbe0adb86	-0.13560304
234	0xbd4be59e	-0.049779527
235	0x3d8a3abf	0.06749486
236	0x3d4d7c9c	0.050167665
237	0xbd3af313	-0.04564197
238	0xbdd3a1bd	-0.103335835
239	0xbdf95206	-0.12173848
240	0xbd8bc352	-0.06824364
241	0xbdf28654	-0.11842027
242	0x3dc4ff68	0.096190274
243	0x3cf43eb3	0.029815054
244	0x3c1eb0c5	0.0096857
245	0x3d39d38c	0.045367762
246	0xbd2a8c15	-0.0416375
247	0x3e0e229b	0.13880388
248	0x3de3d578	0.111247
249	0xbda93b27	-0.082632355
250	0xbd37b6ce	-0.04485207
251	0xbcfb9c2a	-0.030714113
252	0x3df1f323	0.11813953
253	0x3d20ac0d	0.03922658
254	0xbd32ddf5	-0.043668706
255	0xbd6df291	-0.058092657
