DeepLearning/LSTM/tcn_stock_model.pth (torch, 206776 bytes, 43 tensors)

tcn.network.0.conv1.bias f4 [25]
0	0x3dacc501	0.08436013
1	0xbcc66021	-0.02421576
2	0x3db2f013	0.08737197
3	0x3db3e7f8	0.08784479
4	0x3d9b75a4	0.075907975
5	0xbc809031	-0.015693756
6	0x3d864b22	0.06557299
7	0xbdd98bf6	-0.106223986
8	0x3c5fe663	0.013665768
9	0xbde842cf	-0.11340868
10	0x3bfdd7e3	0.007746683
11	0x3d02f3a8	0.03197065
12	0x3d8c54d6	0.06852119
13	0xbc2b40b8	-0.010452442
14	0xbdaf50e5	-0.08560351
15	0x3c21e3b5	0.00988095
16	0x3dda2f2d	0.10653529
17	0x3d8e9165	0.069613256
18	0x3da65443	0.081215404
19	0xbd6c6c4d	-0.05772047
20	0x3d619692	0.055075236
21	0xbd9d7b64	-0.076895505
22	0xbd6e14c5	-0.058125276
23	0xbaf29df5	-0.001851021
24	0xbcaa254c	-0.020769738

tcn.network.0.conv1.weight_g f4 [25, 1, 1]
0	0x3f0b133f	0.5432624
1	0x3f15d324	0.585253
2	0x3f1bd885	0.6087726
3	0x3f0c7d28	0.54878473
4	0x3f0866e2	0.53281987
5	0x3f081f09	0.53172356
6	0x3f07340c	0.5281379
7	0x3f282298	0.65677786
8	0x3f1b00ed	0.6054829
9	0x3f24c3a6	0.64361036
10	0x3f13d41c	0.5774553
11	0x3f1a7b03	0.6034395
12	0x3f14125c	0.57840514
13	0x3f14f157	0.58180755
14	0x3f052853	0.52014655
15	0x3f140ac5	0.57828933
16	0x3f27f4c9	0.6560789
17	0x3f0d6d77	0.55245155
18	0x3f13984f	0.5765428
19	0x3f19df6c	0.6010654
20	0x3f11bf35	0.56932384
21	0x3f146095	0.5795987
22	0x3f143552	0.5789386
23	0x3f224d72	0.6339942
24	0x3f10a8da	0.5650765

tcn.network.0.conv1.weight_v f4 [25, 35, 2]
0	0xbccd9451	-0.025095137
1	0x3d9e2680	0.07722187
2	0x3da6f4e0	0.08152175
3	0x3d8ad34f	0.06778585
4	0xbddf7cb0	-0.10912454
5	0x3d681307	0.05665877
6	0xbca2dfde	-0.019882139
7	0xbdd6e4c3	-0.104928516
8	0x3b773570	0.003772106
9	0xbd8ff931	-0.07029951
10	0xba9c7f9b	-0.0011939885
11	0x3ceb1f42	0.028701428
12	0x3de90a20	0.11378884
13	0x3d867c16	0.06566636
14	0x3cae181c	0.02125173
15	0xbdbf0f1d	-0.093290545
16	0x3ba19002	0.004930497
17	0x3d9a34c2	0.07529594
18	0x3de4a4e7	0.11164265
19	0xbdcfa664	-0.10139158
20	0xbbe10e42	-0.0068681547
21	0x3cea0095	0.02856473
22	0x3cddfa05	0.027096758
23	0xbd3ea125	-0.0465404
24	0xbd0920a0	-0.03347838
25	0xbd7501a4	-0.059816018
26	0x3de45247	0.11148506
27	0x3a480cc8	0.0007631299
28	0xbdc72b0f	-0.0972501
29	0xbda2d8da	-0.079515174
30	0x3b45c665	0.0030178067
31	0xbc31720c	-0.010830414
32	0xbd503686	-0.050833248
33	0xbdb31ece	-0.0874611
34	0xbc3f249e	-0.011666445
35	0xbd3c2a49	-0.045938764
36	0x3d82dcf2	0.06389798
37	0xbcbfb030	-0.023399442
38	0x3dcf54be	0.10123585
39	0x3d2aa3ba	0.041660048
40	0x3c0560ee	0.008140786
41	0xbd027433	-0.031849097
42	0xbd1c5d74	-0.03817506
43	0xbddedc02	-0.10881807
44	0x3d0bf09f	0.03416502
45	0x3d18f4df	0.037342902
46	0xbde8a23b	-0.11359068
47	0x3d8c2901	0.068437584
48	0x3cbbfc16	0.022947352
49	0xbd934e4f	-0.071926706
50	0xbce8ec3e	-0.028432962
51	0xbd9efcb5	-0.07763044
52	0xbc081169	-0.008304932
53	0xbbcdb50d	-0.0062776865
54	0x3de42043	0.11138966
55	0xbd8299cb	-0.0637699
56	0x3de66b16	0.11250894
57	0xbc2d2bad	-0.010569495
58	0xbdb7346c	-0.089455456
59	0xbda5ff08	-0.08105284
60	0x3cdfa33b	0.027299514
61	0x3d896bec	0.067100376
62	0xbc3b1835	-0.011419346
63	0xbdafd394	-0.08585277
64	0x3cfcfdd9	0.030882763
65	0xbddef466	-0.10886459
66	0x3c1c7f4f	0.009551837
67	0x3c990bd6	0.018682402
68	0x3d5e6bf3	0.054302167
69	0x3b7803ae	0.003784399
70	0xbd435ba3	-0.047694813
71	0xbb187579	-0.0023263379
72	0x3db170f8	0.08664125
73	0xbdec80c3	-0.11547997
74	0xbd25ed24	-0.040509358
75	0xbd25bc51	-0.040462796
76	0x3dcae7a1	0.09907461
77	0x3d5c8616	0.05383881
78	0xbd8b477e	-0.068007454
79	0x3d2424f7	0.040074315
80	0xbdb969b4	-0.090533644
81	0xbdae7a06	-0.08519368
82	0x3d6bdeb2	0.057585426
83	0xbd83f3dc	-0.06442997
84	0x3c8ee99f	0.017445384
85	0x3d195d9a	0.03744278
86	0x3de5fab9	0.11229462
87	0xbde850d0	-0.11343539
88	0xbcfc9336	-0.030831914
89	0xbd085c07	-0.03329089
90	0x3d26c4f8	0.040715188
91	0x3d1d64c9	0.038426194
92	0x3d6ae0e7	0.05734339
93	0x3dd91918	0.106004894
94	0xbd9edfb2	-0.0775751
95	0xbd9975dc	-0.07493183
96	0xbd715616	-0.05891999
97	0x3d9b2a1a	0.075763896
98	0xbdd98c86	-0.10622506
99	0xbdc4637c	-0.09589288
100	0xbde8d5db	-0.11368915
101	0xbd62d961	-0.05538309
102	0xbdbbc9fe	-0.09169386
103	0xbc7acfcd	-0.015308333
104	0x3cd75fed	0.026290858
105	0xbdd197e6	-0.102340505
106	0xbd804da7	-0.06264811
107	0xbd35cfd9	-0.044387672
108	0x3dc991d8	0.098422706
109	0xbdd5c411	-0.10437787
110	0xbd6fc7c6	-0.05854013
111	0x3ce06bfb	0.02739524
112	0xbda072ae	-0.078343734
113	0xbce413ef	-0.027841536
114	0xbdbe2c1f	-0.09285759
115	0x3ce49e13	0.027907407
116	0x3d982a85	0.07429985
117	0x3c338122	0.010956081
118	0xbcb51e2d	-0.022109115
119	0xbcdfc89f	-0.027317343
120	0xbd77067c	-0.06030892
121	0x3cc18b5e	0.023626026
122	0xbdd683c0	-0.10474348
123	0xbcf30b5c	-0.029668503
124	0xbd28d177	-0.041215386
125	0xbd9566b4	-0.0729498
126	0xbdd23f59	-0.10265989
127	0xbd0ef911	-0.034905497
128	0x3d610a18	0.054941267
129	0x3dd71456	0.10501926
130	0x3c9db57a	0.019251574
131	0xbdc7a5f8	-0.09748453
132	0xbde7c243	-0.11316349
133	0x3d8b87af	0.06812989
134	0x3c9028b0	0.017597526
135	0xbdacb77f	-0.084334366
136	0xbc51e9e6	-0.012812113
137	0x3d5a1598	0.05324325
138	0xbccce553	-0.025011694
139	0xbdc3d548	-0.095621645
140	0xbdb6d2b8	-0.0892691
141	0x3c344385	0.011002426
142	0x3d099b6f	0.0335955
143	0xbddf0900	-0.108903885
144	0x3d05cdd5	0.032667
145	0xbd14d732	-0.03633804
146	0xbda5257b	-0.080637895
147	0x3d9122f0	0.07086742
148	0xbb39702b	-0.0028295617
149	0x3d6da521	0.058018807
150	0xbd9b58e2	-0.075853124
151	0x3d7ebe8a	0.06219343
152	0x3d985ae3	0.0743921
153	0xbd7bbad0	-0.061457455
154	0xbdcc54ad	-0.09977088
155	0xbcf1667b	-0.029467812
156	0xbbe22dd6	-0.0069024367
157	0xbd47494a	-0.04865388
158	0x3d4c4e98	0.04987964
159	0x3ccb16ed	0.024791205
160	0xbd07b2c3	-0.033129465
161	0xbc7e5987	-0.015524275
162	0x3d769109	0.06019691
163	0x3d390b55	0.045176823
164	0xbda3ba1d	-0.07994483
165	0x3d0ca589	0.034337554
166	0xbcba08ba	-0.02270924
167	0xbdaf8faa	-0.085723236
168	0xbdcfed7e	-0.1015272
169	0x3d21efbd	0.039535273
170	0x3cc6b548	0.024256364
171	0xbdf84c46	-0.12123923
172	0xbd53fdb1	-0.05175561
173	0x3ddf7ab2	0.10912074
174	0x3d84a031	0.064758666
175	0x3be3b90b	0.006949549
176	0xbd5dd423	-0.054157387
177	0x3d899b70	0.067191005
178	0x3de673af	0.11252534
179	0x3d3189d5	0.043344337
180	0x3dbdc640	0.09266329
181	0xbcac1e47	-0.021010531
182	0x3da620c8	0.08111721
183	0xbde85ffd	-0.11346433
184	0x3dd22d32	0.102625266
185	0x3d0e9df4	0.034818605
186	0x3d982eb6	0.074307844
187	0xbd2d418c	-0.04229884
188	0x3d860c61	0.0654533
189	0xbdf10756	-0.11768977
190	0xbd42368b	-0.047415297
191	0x3ddf690c	0.10908708
192	0xbd8b7a97	-0.068104915
193	0xbde45ccf	-0.11150514
194	0x3d5e1ca8	0.054226547
195	0xbd5e8221	-0.05432332
196	0x3da01c84	0.07817939
197	0xbd791642	-0.060812242
198	0x3de00f9e	0.10940479
199	0xbde7ad2a	-0.11312325
200	0xbde48741	-0.1115861
201	0x3dd3677b	0.10322472
202	0x3d8e573c	0.069502324
203	0xbdf44ce3	-0.119287275
204	0x3dd5674d	0.10420094
205	0xbd47063c	-0.04858993
206	0x3c51e057	0.012809834
207	0xbc416e8d	-0.0118061425
208	0x3dc68042	0.09692432
209	0xbd4b8ae3	-0.049693
210	0xbdc95dde	-0.09832357
211	0xbdde2f55	-0.108488716
212	0xbd269161	-0.040665988
213	0xbd31e510	-0.04343134
214	0x3d9af0a0	0.07565427
215	0xbc353163	-0.011059138
216	0xbd95964c	-0.073040575
217	0xbdd80de0	-0.105495214
218	0xbdef11a9	-0.1167329
219	0x3cba0454	0.022707142
220	0xbdbb08f5	-0.09132568
221	0xbd8f8a3c	-0.07008788
222	0x3cca4eb8	0.02469574
223	0xbd770bca	-0.060313977
224	0xbdf4bbd8	-0.11949891
225	0xbd801e54	-0.06255785
226	0xbd7a5d58	-0.061124176
227	0x3d84e0c4	0.06488183
228	0xbd9046f1	-0.07044781
229	0xbdb75b53	-0.089529656
230	0x3cd3dc19	0.025861787
231	0xbda11424	-0.0786517
232	0xbdaf4bb4	-0.08559361
233	0xbdd2d6b9	-0.10294861
234	0x3cf2ec9d	0.029653842
235	0xbdc9fbf9	-0.09862513
236	0xbd6ba9d6	-0.057535015
237	0xbd12d983	-0.035851967
238	0xbd23df9d	-0.040008176
239	0xbc374e97	-0.011188171
240	0xbdf49da7	-0.11944132
241	0x3cbc1d95	0.022963325
242	0x3ca74118	0.020416781
243	0xbd82ffda	-0.06396456
244	0x3ce91976	0.028454524
245	0x3c1cd417	0.0095720505
246	0xbd732457	-0.05936083
247	0x3c0bdae5	0.008536075
248	0xbdb9fd0a	-0.090814665
249	0x3cc8f805	0.024532327
250	0xbd411aac	-0.047144577
251	0xbccbd89c	-0.02488356
252	0x3d90f2c7	0.07077556
253	0x3d46f406	0.048572563
254	0x3dde7fa1	0.10864187
255	0x3c112f7d	0.00886142

tcn.network.0.conv2.bias f4 [25]
0	0x3d4e5afb	0.050379734
1	0x3d496630	0.04916972
2	0xbd30ee5e	-0.043196075
3	0xbd0297be	-0.031882994
4	0x3d1e2619	0.03861055
5	0xbc2dc405	-0.010605817
6	0x3dd6b563	0.104838155
7	0xbcb17ed2	-0.021666918
8	0xbdfc1cde	-0.123101935
9	0xbcf80092	-0.03027371
10	0x3dd71f76	0.105040476
11	0x3d4f6bc2	0.050639875
12	0x3d1f308d	0.03886466
13	0x3e058864	0.1304031
14	0xbdca92b9	-0.098912664
15	0xbda64d9e	-0.08120273
16	0xbcb7c209	-0.02243139
17	0x3c8c471d	0.017123753
18	0x3d2c5f63	0.042083155
19	0x3c91ab8b	0.017781993
20	0xbe056d46	-0.13029966
21	0x3cb185bd	0.021670217
22	0x3cf2418b	0.029572269
23	0x3db0371a	0.0860426
24	0x3cca5feb	0.02470394

tcn.network.0.conv2.weight_g f4 [25, 1, 1]
0	0x3f135ffe	0.5756835
1	0x3f196da2	0.5993291
2	0x3f13c65c	0.5772455
3	0x3f2052ef	0.62626547
4	0x3f184e56	0.5949453
5	0x3f0732f1	0.52812105
6	0x3f155e61	0.58347136
7	0x3f1a600a	0.60302794
8	0x3f1895e4	0.59603715
9	0x3f1df648	0.6170392
10	0x3f0a9dd0	0.5414705
11	0x3f0ee923	0.5582449
12	0x3f0fe752	0.5621234
13	0x3f1c2b58	0.6100364
14	0x3f167d98	0.5878539
15	0x3f13f48a	0.5779501
16	0x3f18fc35	0.5975984
17	0x3f04f8e1	0.5194226
18	0x3f0e9b65	0.55705863
19	0x3f14a5de	0.58065593
20	0x3f20f3d2	0.6287204
21	0x3f1e1ac6	0.61759603
22	0x3f046c28	0.51727533
23	0x3f156519	0.5835739
24	0x3f14a984	0.5807116

tcn.network.0.conv2.weight_v f4 [25, 25, 2]
0	0x3c2bbde6	0.010482287
1	0xbd9156e2	-0.0709665
2	0x3d7a06b6	0.061041556
3	0x3d833665	0.06406859
4	0x3d7e7e3d	0.06213211
5	0xbcdd52ed	-0.027017081
6	0x3ccc1a1c	0.024914794
7	0xbdf8160d	-0.12113581
8	0xbda84a2a	-0.08217271
9	0xbd7946c0	-0.060858488
10	0xbe0ac409	-0.13551344
11	0x3e0a6d27	0.13518201
12	0xbdff9d16	-0.12481134
13	0xbda18059	-0.078858085
14	0x3d841d8a	0.06450947
15	0xbdcf7f72	-0.1013173
16	0x3d2ec89a	0.042671777
17	0xbd90c56b	-0.070689045
18	0x3db25fee	0.087097034
19	0x3dc1ce2d	0.09463153
20	0x3d9c6071	0.07635582
21	0x3d841701	0.064497
22	0xbe13bbea	-0.14427152
23	0xbc10757d	-0.008817074
24	0x3d841e96	0.06451146
25	0x3ca4e121	0.020126881
26	0xbc9aa821	-0.018878998
27	0x3db8f3e4	0.090308934
28	0x3dbdac94	0.09261432
29	0x3d7fb494	0.062428072
30	0x3de570d4	0.11203161
31	0xbe101852	-0.14071777
32	0xbde760e5	-0.11297778
33	0x3dbf0b17	0.09328287
34	0xbd826d43	-0.06368496
35	0xbd9a96d7	-0.07548302
36	0xbc1e8cfa	-0.009677166
37	0x3cf79388	0.030221716
38	0x3dcce821	0.100052126
39	0x3cceb2b0	0.02523169
40	0xbe015565	-0.12630232
41	0x3b46598c	0.0030265776
42	0x3dfaa7c8	0.12239033
43	0xbe03c83e	-0.12869355
44	0x3dac3276	0.08408062
45	0x3d35acc7	0.044354226
46	0x3dc7f6ff	0.09763908
47	0x3bdf74e9	0.0068193567
48	0x3d5f1125	0.05445971
49	0x3da9bfcf	0.08288538
50	0xbd78da20	-0.060754895
51	0x3dad7a0a	0.08470543
52	0xbcf75285	-0.030190716
53	0x3e06f7eb	0.1318051
54	0x3ce39fd4	0.027786173
55	0x3e08b405	0.13349922
56	0xbdcd00c1	-0.100099094
57	0xbcc43f1f	-0.02395588
58	0xbdc0d1d1	-0.09415019
59	0x3dbd623d	0.09247253
60	0xbda40de9	-0.08010466
61	0xbdea17f0	-0.11430347
62	0x3ddaded3	0.106870316
63	0x3e13aa55	0.14420445
64	0xbdcdfdc8	-0.100581706
65	0x3df86f43	0.121305965
66	0xbaeae839	-0.0017921991
67	0x3d004f95	0.031325895
68	0xbbd30f83	-0.006441058
69	0xbc249b5b	-0.010046805
70	0x3dd60521	0.10450197
71	0xbe0483d5	-0.12940915
72	0x3da269b7	0.0793032
73	0x3df55b1c	0.11980268
74	0x3c231ff4	0.009956349
75	0x3be5d3f9	0.0070137945
76	0x3d444bc5	0.047923822
77	0xbb3cff10	-0.0028838553
78	0x3d7b8e4b	0.061414998
79	0xbdcf727d	-0.10129259
80	0x3c2b11c8	0.010441251
81	0x3d5c6d9c	0.05381547
82	0xbe062899	-0.13101424
83	0x3d89eee6	0.067350194
84	0x3d0e7846	0.03478267
85	0x3e0366cb	0.12832181
86	0xbca21fa7	-0.019790484
87	0x3de45cbe	0.11150502
88	0xbd2f53d9	-0.042804573
89	0xbdeab821	-0.11460901
90	0xbdf4faeb	-0.11961921
91	0x3d7c07a0	0.06153071
92	0x3d674c5b	0.056469303
93	0x3d6f2f61	0.058394793
94	0xbe04a9a3	-0.12955336
95	0xbd6ec1be	-0.058290236
96	0x3de81445	0.11331991
97	0xbc9f23b2	-0.0194262
98	0x3da570f7	0.08078187
99	0x3d0dc7e2	0.03461445
100	0x3db0d7f6	0.08634941
101	0x3deccf0b	0.11562928
102	0xbda87733	-0.082258604
103	0x3cba6eae	0.022757854
104	0x3db25d26	0.08709173
105	0xbd849054	-0.06472841
106	0xbdd2e4d3	-0.10297551
107	0xbde1bc35	-0.11022226
108	0x3c1a70e6	0.009426331
109	0xbd7296c9	-0.05922583
110	0xbe01bc03	-0.12669377
111	0x3e08de51	0.13366057
112	0xbd644499	-0.055729482
113	0xbbcd7ecc	-0.006271219
114	0xbd97c417	-0.07410448
115	0x3e09cc75	0.134569
116	0x3d5a327d	0.053270806
117	0x3dee2fb0	0.116301894
118	0xbd7022a9	-0.058626805
119	0xbda47112	-0.08029379
120	0x3db515cd	0.08842049
121	0xbd773157	-0.06034979
122	0x3df30f20	0.11868119
123	0xbd9f9b88	-0.07793337
124	0x3d8b5c1d	0.068046786
125	0x3db44191	0.08801568
126	0x3d623f64	0.055236235
127	0xbdc33b04	-0.09532741
128	0x3da49398	0.08035964
129	0x3d1c04c6	0.03809049
130	0xbddab0da	-0.10678263
131	0xbe014294	-0.12623054
132	0x3defe753	0.117140435
133	0x3dc73c1c	0.09728262
134	0x3dad367d	0.084576584
135	0xbb813681	-0.003943265
136	0x3dc26122	0.09491183
137	0xbd941204	-0.07229999
138	0x3ddd44f4	0.108041674
139	0xbe05da64	-0.1307159
140	0x3d29e97a	0.041482426
141	0x3bef9d06	0.00731242
142	0x3dd66cfe	0.10470007
143	0xbc11186c	-0.00885592
144	0x3d9dca76	0.07704632
145	0xbd716b93	-0.05894048
146	0x3bee2764	0.0072678793
147	0xbb460957	-0.003021797
148	0x3d4de746	0.050269388
149	0x3dd3b8a5	0.103379525
150	0x3dd9adc0	0.10628843
151	0xbd37f952	-0.044915505
152	0xbdeb37b2	-0.114852324
153	0x3df7143b	0.120644055
154	0x3db04962	0.08607747
155	0x3d81a5fd	0.06330488
156	0xbe129fe6	-0.14318809
157	0xbd8cf45c	-0.06882545
158	0x3dc63c00	0.09679413
159	0x3dbd172c	0.09232935
160	0xbd7e2ac8	-0.062052518
161	0x3de5971c	0.112104625
162	0xbdb14ca7	-0.086571984
163	0x3dc12028	0.094299614
164	0x3d2796b8	0.04091522
165	0xbe12e67b	-0.14345734
166	0x3db93871	0.090439685
167	0x3db4555e	0.08805345
168	0x3c88d214	0.016701736
169	0xbe0be47a	-0.13661376
170	0xbe14bc5c	-0.14524978
171	0xbd4a9455	-0.049457867
172	0x3df94c50	0.121727586
173	0xbdcb5d8f	-0.09929954
174	0xbd0e587d	-0.034752358
175	0xbd19fc25	-0.03759398
176	0x3d981974	0.0742673
177	0xbd5488f6	-0.05188843
178	0xbd39127a	-0.045183636
179	0xbd7abe30	-0.061216533
180	0x3ce15f4f	0.027511267
181	0x3e08c932	0.13358
182	0x3dd926ad	0.1060308
183	0x3c97ba84	0.018521555
184	0xbce97d0a	-0.028502006
185	0xbd173b4c	-0.036921784
186	0x3e03dcf4	0.12877256
187	0x3dca2a78	0.098713815
188	0xbda5c071	-0.08093346
189	0x3e09cad5	0.1345628
190	0xbd8e0389	-0.06934268
191	0x3ccb3e0d	0.024809862
192	0xbdddb450	-0.108254075
193	0xbdf8d4e4	-0.12149981
194	0x3ce07a7b	0.027402153
195	0x3df3b043	0.11898854
196	0xbde9d3f0	-0.11417377
197	0xbdcf9af7	-0.10136979
198	0x3d928897	0.07154959
199	0x3d92196a	0.071337536
200	0xbd5007fb	-0.05078886
201	0x3e00d5f5	0.12581618
202	0xbd5e7402	-0.054309852
203	0x3e138a69	0.14408268
204	0x3d524c25	0.05134215
205	0x3deb2972	0.114825144
206	0x3dc678bf	0.09690999
207	0xbdb26df5	-0.08712379
208	0x3da7a2a5	0.08185319
209	0xbd662463	-0.056187045
210	0x3d881d0e	0.06646167
211	0xbcf637f6	-0.030055981
212	0xbe07050d	-0.1318552
213	0xbdfad580	-0.12247753
214	0xbd09fac3	-0.03368641
215	0xbdf3bbe5	-0.119010724
216	0xbdce5abe	-0.100759014
217	0xbd47602e	-0.04867571
218	0x3d30ec77	0.04319426
219	0x3d89c639	0.06727261
220	0xbe04c33a	-0.12965098
221	0x3de161b1	0.11004961
222	0x3d2bdb78	0.04195735
223	0x3dc80b25	0.09767751
224	0x3c959dbe	0.018263694
225	0x3b7c5199	0.0038500784
226	0x3de9d640	0.11417818
227	0x3d7b889e	0.061409585
228	0xbe0ab206	-0.13544473
229	0x3be36652	0.0069396878
230	0x3d95dbd6	0.07317321
231	0xbd46d8d3	-0.048546623
232	0x3d603ffa	0.054748513
233	0x3d5ce8c3	0.053932916
234	0xbe0c69a2	-0.1371217
235	0x3dd79547	0.10526519
236	0x3d00aee3	0.031416785
237	0xbd22dfab	-0.039764088
238	0xbce05f15	-0.027389089
239	0xbdfec499	-0.12439842
240	0x3dfd4a33	0.12367668
241	0xbd921830	-0.0713352
242	0xbdbccea8	-0.09219104
243	0x3c95db93	0.018293178
244	0xbe0e02c5	-0.13868244
245	0xbe119b9d	-0.14219518
246	0xbd0d64c3	-0.034519922
247	0x3d2d7789	0.042350326
248	0x3d8aaf79	0.0677175
249	0x3cbd8802	0.023136143
250	0xbbd37582	-0.006453217
251	0x3da959e7	0.08269101
252	0x3d1d94c1	0.03847194
253	0xbe089226	-0.13337001
254	0xbdf3d52c	-0.11905894
255	0x3de262f8	0.11054033

tcn.network.0.net.0.bias f4 [25]
0	0x3dacc501	0.08436013
1	0xbcc66021	-0.02421576
2	0x3db2f013	0.08737197
3	0x3db3e7f8	0.08784479
4	0x3d9b75a4	0.075907975
5	0xbc809031	-0.015693756
6	0x3d864b22	0.06557299
7	0xbdd98bf6	-0.106223986
8	0x3c5fe663	0.013665768
9	0xbde842cf	-0.11340868
10	0x3bfdd7e3	0.007746683
11	0x3d02f3a8	0.03197065
12	0x3d8c54d6	0.06852119
13	0xbc2b40b8	-0.010452442
14	0xbdaf50e5	-0.08560351
15	0x3c21e3b5	0.00988095
16	0x3dda2f2d	0.10653529
17	0x3d8e9165	0.069613256
18	0x3da65443	0.081215404
19	0xbd6c6c4d	-0.05772047
20	0x3d619692	0.055075236
21	0xbd9d7b64	-0.076895505
22	0xbd6e14c5	-0.058125276
23	0xbaf29df5	-0.001851021
24	0xbcaa254c	-0.020769738

tcn.network.0.net.0.weight_g f4 [25, 1, 1]
0	0x3f0b133f	0.5432624
1	0x3f15d324	0.585253
2	0x3f1bd885	0.6087726
3	0x3f0c7d28	0.54878473
4	0x3f0866e2	0.53281987
5	0x3f081f09	0.53172356
6	0x3f07340c	0.5281379
7	0x3f282298	0.65677786
8	0x3f1b00ed	0.6054829
9	0x3f24c3a6	0.64361036
10	0x3f13d41c	0.5774553
11	0x3f1a7b03	0.6034395
12	0x3f14125c	0.57840514
13	0x3f14f157	0.58180755
14	0x3f052853	0.52014655
15	0x3f140ac5	0.57828933
16	0x3f27f4c9	0.6560789
17	0x3f0d6d77	0.55245155
18	0x3f13984f	0.5765428
19	0x3f19df6c	0.6010654
20	0x3f11bf35	0.56932384
21	0x3f146095	0.5795987
22	0x3f143552	0.5789386
23	0x3f224d72	0.6339942
24	0x3f10a8da	0.5650765

tcn.network.0.net.0.weight_v f4 [25, 35, 2]
0	0xbccd9451	-0.025095137
1	0x3d9e2680	0.07722187
2	0x3da6f4e0	0.08152175
3	0x3d8ad34f	0.06778585
4	0xbddf7cb0	-0.10912454
5	0x3d681307	0.05665877
6	0xbca2dfde	-0.019882139
7	0xbdd6e4c3	-0.104928516
8	0x3b773570	0.003772106
9	0xbd8ff931	-0.07029951
10	0xba9c7f9b	-0.0011939885
11	0x3ceb1f42	0.028701428
12	0x3de90a20	0.11378884
13	0x3d867c16	0.06566636
14	0x3cae181c	0.02125173
15	0xbdbf0f1d	-0.093290545
16	0x3ba19002	0.004930497
17	0x3d9a34c2	0.07529594
18	0x3de4a4e7	0.11164265
19	0xbdcfa664	-0.10139158
20	0xbbe10e42	-0.0068681547
21	0x3cea0095	0.02856473
22	0x3cddfa05	0.027096758
23	0xbd3ea125	-0.0465404
24	0xbd0920a0	-0.03347838
25	0xbd7501a4	-0.059816018
26	0x3de45247	0.11148506
27	0x3a480cc8	0.0007631299
28	0xbdc72b0f	-0.0972501
29	0xbda2d8da	-0.079515174
30	0x3b45c665	0.0030178067
31	0xbc31720c	-0.010830414
32	0xbd503686	-0.050833248
33	0xbdb31ece	-0.0874611
34	0xbc3f249e	-0.011666445
35	0xbd3c2a49	-0.045938764
36	0x3d82dcf2	0.06389798
37	0xbcbfb030	-0.023399442
38	0x3dcf54be	0.10123585
39	0x3d2aa3ba	0.041660048
40	0x3c0560ee	0.008140786
41	0xbd027433	-0.031849097
42	0xbd1c5d74	-0.03817506
43	0xbddedc02	-0.10881807
44	0x3d0bf09f	0.03416502
45	0x3d18f4df	0.037342902
46	0xbde8a23b	-0.11359068
47	0x3d8c2901	0.068437584
48	0x3cbbfc16	0.022947352
49	0xbd934e4f	-0.071926706
50	0xbce8ec3e	-0.028432962
51	0xbd9efcb5	-0.07763044
52	0xbc081169	-0.008304932
53	0xbbcdb50d	-0.0062776865
54	0x3de42043	0.11138966
55	0xbd8299cb	-0.0637699
56	0x3de66b16	0.11250894
57	0xbc2d2bad	-0.010569495
58	0xbdb7346c	-0.089455456
59	0xbda5ff08	-0.08105284
60	0x3cdfa33b	0.027299514
61	0x3d896bec	0.067100376
62	0xbc3b1835	-0.011419346
63	0xbdafd394	-0.08585277
64	0x3cfcfdd9	0.030882763
65	0xbddef466	-0.10886459
66	0x3c1c7f4f	0.009551837
67	0x3c990bd6	0.018682402
68	0x3d5e6bf3	0.054302167
69	0x3b7803ae	0.003784399
70	0xbd435ba3	-0.047694813
71	0xbb187579	-0.0023263379
72	0x3db170f8	0.08664125
73	0xbdec80c3	-0.11547997
74	0xbd25ed24	-0.040509358
75	0xbd25bc51	-0.040462796
76	0x3dcae7a1	0.09907461
77	0x3d5c8616	0.05383881
78	0xbd8b477e	-0.068007454
79	0x3d2424f7	0.040074315
80	0xbdb969b4	-0.090533644
81	0xbdae7a06	-0.08519368
82	0x3d6bdeb2	0.057585426
83	0xbd83f3dc	-0.06442997
84	0x3c8ee99f	0.017445384
85	0x3d195d9a	0.03744278
86	0x3de5fab9	0.11229462
87	0xbde850d0	-0.11343539
88	0xbcfc9336	-0.030831914
89	0xbd085c07	-0.03329089
90	0x3d26c4f8	0.040715188
91	0x3d1d64c9	0.038426194
92	0x3d6ae0e7	0.05734339
93	0x3dd91918	0.106004894
94	0xbd9edfb2	-0.0775751
95	0xbd9975dc	-0.07493183
96	0xbd715616	-0.05891999
97	0x3d9b2a1a	0.075763896
98	0xbdd98c86	-0.10622506
99	0xbdc4637c	-0.09589288
100	0xbde8d5db	-0.11368915
101	0xbd62d961	-0.05538309
102	0xbdbbc9fe	-0.09169386
103	0xbc7acfcd	-0.015308333
104	0x3cd75fed	0.026290858
105	0xbdd197e6	-0.102340505
106	0xbd804da7	-0.06264811
107	0xbd35cfd9	-0.044387672
108	0x3dc991d8	0.098422706
109	0xbdd5c411	-0.10437787
110	0xbd6fc7c6	-0.05854013
111	0x3ce06bfb	0.02739524
112	0xbda072ae	-0.078343734
113	0xbce413ef	-0.027841536
114	0xbdbe2c1f	-0.09285759
115	0x3ce49e13	0.027907407
116	0x3d982a85	0.07429985
117	0x3c338122	0.010956081
118	0xbcb51e2d	-0.022109115
119	0xbcdfc89f	-0.027317343
120	0xbd77067c	-0.06030892
121	0x3cc18b5e	0.023626026
122	0xbdd683c0	-0.10474348
123	0xbcf30b5c	-0.029668503
124	0xbd28d177	-0.041215386
125	0xbd9566b4	-0.0729498
126	0xbdd23f59	-0.10265989
127	0xbd0ef911	-0.034905497
128	0x3d610a18	0.054941267
129	0x3dd71456	0.10501926
130	0x3c9db57a	0.019251574
131	0xbdc7a5f8	-0.09748453
132	0xbde7c243	-0.11316349
133	0x3d8b87af	0.06812989
134	0x3c9028b0	0.017597526
135	0xbdacb77f	-0.084334366
136	0xbc51e9e6	-0.012812113
137	0x3d5a1598	0.05324325
138	0xbccce553	-0.025011694
139	0xbdc3d548	-0.095621645
140	0xbdb6d2b8	-0.0892691
141	0x3c344385	0.011002426
142	0x3d099b6f	0.0335955
143	0xbddf0900	-0.108903885
144	0x3d05cdd5	0.032667
145	0xbd14d732	-0.03633804
146	0xbda5257b	-0.080637895
147	0x3d9122f0	0.07086742
148	0xbb39702b	-0.0028295617
149	0x3d6da521	0.058018807
150	0xbd9b58e2	-0.075853124
151	0x3d7ebe8a	0.06219343
152	0x3d985ae3	0.0743921
153	0xbd7bbad0	-0.061457455
154	0xbdcc54ad	-0.09977088
155	0xbcf1667b	-0.029467812
156	0xbbe22dd6	-0.0069024367
157	0xbd47494a	-0.04865388
158	0x3d4c4e98	0.04987964
159	0x3ccb16ed	0.024791205
160	0xbd07b2c3	-0.033129465
161	0xbc7e5987	-0.015524275
162	0x3d769109	0.06019691
163	0x3d390b55	0.045176823
164	0xbda3ba1d	-0.07994483
165	0x3d0ca589	0.034337554
166	0xbcba08ba	-0.02270924
167	0xbdaf8faa	-0.085723236
168	0xbdcfed7e	-0.1015272
169	0x3d21efbd	0.039535273
170	0x3cc6b548	0.024256364
171	0xbdf84c46	-0.12123923
172	0xbd53fdb1	-0.05175561
173	0x3ddf7ab2	0.10912074
174	0x3d84a031	0.064758666
175	0x3be3b90b	0.006949549
176	0xbd5dd423	-0.054157387
177	0x3d899b70	0.067191005
178	0x3de673af	0.11252534
179	0x3d3189d5	0.043344337
180	0x3dbdc640	0.09266329
181	0xbcac1e47	-0.021010531
182	0x3da620c8	0.08111721
183	0xbde85ffd	-0.11346433
184	0x3dd22d32	0.102625266
185	0x3d0e9df4	0.034818605
186	0x3d982eb6	0.074307844
187	0xbd2d418c	-0.04229884
188	0x3d860c61	0.0654533
189	0xbdf10756	-0.11768977
190	0xbd42368b	-0.047415297
191	0x3ddf690c	0.10908708
192	0xbd8b7a97	-0.068104915
193	0xbde45ccf	-0.11150514
194	0x3d5e1ca8	0.054226547
195	0xbd5e8221	-0.05432332
196	0x3da01c84	0.07817939
197	0xbd791642	-0.060812242
198	0x3de00f9e	0.10940479
199	0xbde7ad2a	-0.11312325
200	0xbde48741	-0.1115861
201	0x3dd3677b	0.10322472
202	0x3d8e573c	0.069502324
203	0xbdf44ce3	-0.119287275
204	0x3dd5674d	0.10420094
205	0xbd47063c	-0.04858993
206	0x3c51e057	0.012809834
207	0xbc416e8d	-0.0118061425
208	0x3dc68042	0.09692432
209	0xbd4b8ae3	-0.049693
210	0xbdc95dde	-0.09832357
211	0xbdde2f55	-0.108488716
212	0xbd269161	-0.040665988
213	0xbd31e510	-0.04343134
214	0x3d9af0a0	0.07565427
215	0xbc353163	-0.011059138
216	0xbd95964c	-0.073040575
217	0xbdd80de0	-0.105495214
218	0xbdef11a9	-0.1167329
219	0x3cba0454	0.022707142
220	0xbdbb08f5	-0.09132568
221	0xbd8f8a3c	-0.07008788
222	0x3cca4eb8	0.02469574
223	0xbd770bca	-0.060313977
224	0xbdf4bbd8	-0.11949891
225	0xbd801e54	-0.06255785
226	0xbd7a5d58	-0.061124176
227	0x3d84e0c4	0.06488183
228	0xbd9046f1	-0.07044781
229	0xbdb75b53	-0.089529656
230	0x3cd3dc19	0.025861787
231	0xbda11424	-0.0786517
232	0xbdaf4bb4	-0.08559361
233	0xbdd2d6b9	-0.10294861
234	0x3cf2ec9d	0.029653842
235	0xbdc9fbf9	-0.09862513
236	0xbd6ba9d6	-0.057535015
237	0xbd12d983	-0.035851967
238	0xbd23df9d	-0.040008176
239	0xbc374e97	-0.011188171
240	0xbdf49da7	-0.11944132
241	0x3cbc1d95	0.022963325
242	0x3ca74118	0.020416781
243	0xbd82ffda	-0.06396456
244	0x3ce91976	0.028454524
245	0x3c1cd417	0.0095720505
246	0xbd732457	-0.05936083
247	0x3c0bdae5	0.008536075
248	0xbdb9fd0a	-0.090814665
249	0x3cc8f805	0.024532327
250	0xbd411aac	-0.047144577
251	0xbccbd89c	-0.02488356
252	0x3d90f2c7	0.07077556
253	0x3d46f406	0.048572563
254	0x3dde7fa1	0.10864187
255	0x3c112f7d	0.00886142

tcn.network.0.net.4.bias f4 [25]
0	0x3d4e5afb	0.050379734
1	0x3d496630	0.04916972
2	0xbd30ee5e	-0.043196075
3	0xbd0297be	-0.031882994
4	0x3d1e2619	0.03861055
5	0xbc2dc405	-0.010605817
6	0x3dd6b563	0.104838155
7	0xbcb17ed2	-0.021666918
8	0xbdfc1cde	-0.123101935
9	0xbcf80092	-0.03027371
10	0x3dd71f76	0.105040476
11	0x3d4f6bc2	0.050639875
12	0x3d1f308d	0.03886466
13	0x3e058864	0.1304031
14	0xbdca92b9	-0.098912664
15	0xbda64d9e	-0.08120273
16	0xbcb7c209	-0.02243139
17	0x3c8c471d	0.017123753
18	0x3d2c5f63	0.042083155
19	0x3c91ab8b	0.017781993
20	0xbe056d46	-0.13029966
21	0x3cb185bd	0.021670217
22	0x3cf2418b	0.029572269
23	0x3db0371a	0.0860426
24	0x3cca5feb	0.02470394

tcn.network.0.net.4.weight_g f4 [25, 1, 1]
0	0x3f135ffe	0.5756835
1	0x3f196da2	0.5993291
2	0x3f13c65c	0.5772455
3	0x3f2052ef	0.62626547
4	0x3f184e56	0.5949453
5	0x3f0732f1	0.52812105
6	0x3f155e61	0.58347136
7	0x3f1a600a	0.60302794
8	0x3f1895e4	0.59603715
9	0x3f1df648	0.6170392
10	0x3f0a9dd0	0.5414705
11	0x3f0ee923	0.5582449
12	0x3f0fe752	0.5621234
13	0x3f1c2b58	0.6100364
14	0x3f167d98	0.5878539
15	0x3f13f48a	0.5779501
16	0x3f18fc35	0.5975984
17	0x3f04f8e1	0.5194226
18	0x3f0e9b65	0.55705863
19	0x3f14a5de	0.58065593
20	0x3f20f3d2	0.6287204
21	0x3f1e1ac6	0.61759603
22	0x3f046c28	0.51727533
23	0x3f156519	0.5835739
24	0x3f14a984	0.5807116

tcn.network.0.net.4.weight_v f4 [25, 25, 2]
0	0x3c2bbde6	0.010482287
1	0xbd9156e2	-0.0709665
2	0x3d7a06b6	0.061041556
3	0x3d833665	0.06406859
4	0x3d7e7e3d	0.06213211
5	0xbcdd52ed	-0.027017081
6	0x3ccc1a1c	0.024914794
7	0xbdf8160d	-0.12113581
8	0xbda84a2a	-0.08217271
9	0xbd7946c0	-0.060858488
10	0xbe0ac409	-0.13551344
11	0x3e0a6d27	0.13518201
12	0xbdff9d16	-0.12481134
13	0xbda18059	-0.078858085
14	0x3d841d8a	0.06450947
15	0xbdcf7f72	-0.1013173
16	0x3d2ec89a	0.042671777
17	0xbd90c56b	-0.070689045
18	0x3db25fee	0.087097034
19	0x3dc1ce2d	0.09463153
20	0x3d9c6071	0.07635582
21	0x3d841701	0.064497
22	0xbe13bbea	-0.14427152
23	0xbc10757d	-0.008817074
24	0x3d841e96	0.06451146
25	0x3ca4e121	0.020126881
26	0xbc9aa821	-0.018878998
27	0x3db8f3e4	0.090308934
28	0x3dbdac94	0.09261432
29	0x3d7fb494	0.062428072
30	0x3de570d4	0.11203161
31	0xbe101852	-0.14071777
32	0xbde760e5	-0.11297778
33	0x3dbf0b17	0.09328287
34	0xbd826d43	-0.06368496
35	0xbd9a96d7	-0.07548302
36	0xbc1e8cfa	-0.009677166
37	0x3cf79388	0.030221716
38	0x3dcce821	0.100052126
39	0x3cceb2b0	0.02523169
40	0xbe015565	-0.12630232
41	0x3b46598c	0.0030265776
42	0x3dfaa7c8	0.12239033
43	0xbe03c83e	-0.12869355
44	0x3dac3276	0.08408062
45	0x3d35acc7	0.044354226
46	0x3dc7f6ff	0.09763908
47	0x3bdf74e9	0.0068193567
48	0x3d5f1125	0.05445971
49	0x3da9bfcf	0.08288538
50	0xbd78da20	-0.060754895
51	0x3dad7a0a	0.08470543
52	0xbcf75285	-0.030190716
53	0x3e06f7eb	0.1318051
54	0x3ce39fd4	0.027786173
55	0x3e08b405	0.13349922
56	0xbdcd00c1	-0.100099094
57	0xbcc43f1f	-0.02395588
58	0xbdc0d1d1	-0.09415019
59	0x3dbd623d	0.09247253
60	0xbda40de9	-0.08010466
61	0xbdea17f0	-0.11430347
62	0x3ddaded3	0.106870316
63	0x3e13aa55	0.14420445
64	0xbdcdfdc8	-0.100581706
65	0x3df86f43	0.121305965
66	0xbaeae839	-0.0017921991
67	0x3d004f95	0.031325895
68	0xbbd30f83	-0.006441058
69	0xbc249b5b	-0.010046805
70	0x3dd60521	0.10450197
71	0xbe0483d5	-0.12940915
72	0x3da269b7	0.0793032
73	0x3df55b1c	0.11980268
74	0x3c231ff4	0.009956349
75	0x3be5d3f9	0.0070137945
76	0x3d444bc5	0.047923822
77	0xbb3cff10	-0.0028838553
78	0x3d7b8e4b	0.061414998
79	0xbdcf727d	-0.10129259
80	0x3c2b11c8	0.010441251
81	0x3d5c6d9c	0.05381547
82	0xbe062899	-0.13101424
83	0x3d89eee6	0.067350194
84	0x3d0e7846	0.03478267
85	0x3e0366cb	0.12832181
86	0xbca21fa7	-0.019790484
87	0x3de45cbe	0.11150502
88	0xbd2f53d9	-0.042804573
89	0xbdeab821	-0.11460901
90	0xbdf4faeb	-0.11961921
91	0x3d7c07a0	0.06153071
92	0x3d674c5b	0.056469303
93	0x3d6f2f61	0.058394793
94	0xbe04a9a3	-0.12955336
95	0xbd6ec1be	-0.058290236
96	0x3de81445	0.11331991
97	0xbc9f23b2	-0.0194262
98	0x3da570f7	0.08078187
99	0x3d0dc7e2	0.03461445
100	0x3db0d7f6	0.08634941
101	0x3deccf0b	0.11562928
102	0xbda87733	-0.082258604
103	0x3cba6eae	0.022757854
104	0x3db25d26	0.08709173
105	0xbd849054	-0.06472841
106	0xbdd2e4d3	-0.10297551
107	0xbde1bc35	-0.11022226
108	0x3c1a70e6	0.009426331
109	0xbd7296c9	-0.05922583
110	0xbe01bc03	-0.12669377
111	0x3e08de51	0.13366057
112	0xbd644499	-0.055729482
113	0xbbcd7ecc	-0.006271219
114	0xbd97c417	-0.07410448
115	0x3e09cc75	0.134569
116	0x3d5a327d	0.053270806
117	0x3dee2fb0	0.116301894
118	0xbd7022a9	-0.058626805
119	0xbda47112	-0.08029379
120	0x3db515cd	0.08842049
121	0xbd773157	-0.06034979
122	0x3df30f20	0.11868119
123	0xbd9f9b88	-0.07793337
124	0x3d8b5c1d	0.068046786
125	0x3db44191	0.08801568
126	0x3d623f64	0.055236235
127	0xbdc33b04	-0.09532741
128	0x3da49398	0.08035964
129	0x3d1c04c6	0.03809049
130	0xbddab0da	-0.10678263
131	0xbe014294	-0.12623054
132	0x3defe753	0.117140435
133	0x3dc73c1c	0.09728262
134	0x3dad367d	0.084576584
135	0xbb813681	-0.003943265
136	0x3dc26122	0.09491183
137	0xbd941204	-0.07229999
138	0x3ddd44f4	0.108041674
139	0xbe05da64	-0.1307159
140	0x3d29e97a	0.041482426
141	0x3bef9d06	0.00731242
142	0x3dd66cfe	0.10470007
143	0xbc11186c	-0.00885592
144	0x3d9dca76	0.07704632
145	0xbd716b93	-0.05894048
146	0x3bee2764	0.0072678793
147	0xbb460957	-0.003021797
148	0x3d4de746	0.050269388
149	0x3dd3b8a5	0.103379525
150	0x3dd9adc0	0.10628843
151	0xbd37f952	-0.044915505
152	0xbdeb37b2	-0.114852324
153	0x3df7143b	0.120644055
154	0x3db04962	0.08607747
155	0x3d81a5fd	0.06330488
156	0xbe129fe6	-0.14318809
157	0xbd8cf45c	-0.06882545
158	0x3dc63c00	0.09679413
159	0x3dbd172c	0.09232935
160	0xbd7e2ac8	-0.062052518
161	0x3de5971c	0.112104625
162	0xbdb14ca7	-0.086571984
163	0x3dc12028	0.094299614
164	0x3d2796b8	0.04091522
165	0xbe12e67b	-0.14345734
166	0x3db93871	0.090439685
167	0x3db4555e	0.08805345
168	0x3c88d214	0.016701736
169	0xbe0be47a	-0.13661376
170	0xbe14bc5c	-0.14524978
171	0xbd4a9455	-0.049457867
172	0x3df94c50	0.121727586
173	0xbdcb5d8f	-0.09929954
174	0xbd0e587d	-0.034752358
175	0xbd19fc25	-0.03759398
176	0x3d981974	0.0742673
177	0xbd5488f6	-0.05188843
178	0xbd39127a	-0.045183636
179	0xbd7abe30	-0.061216533
180	0x3ce15f4f	0.027511267
181	0x3e08c932	0.13358
182	0x3dd926ad	0.1060308
183	0x3c97ba84	0.018521555
184	0xbce97d0a	-0.028502006
185	0xbd173b4c	-0.036921784
186	0x3e03dcf4	0.12877256
187	0x3dca2a78	0.098713815
188	0xbda5c071	-0.08093346
189	0x3e09cad5	0.1345628
190	0xbd8e0389	-0.06934268
191	0x3ccb3e0d	0.024809862
192	0xbdddb450	-0.108254075
193	0xbdf8d4e4	-0.12149981
194	0x3ce07a7b	0.027402153
195	0x3df3b043	0.11898854
196	0xbde9d3f0	-0.11417377
197	0xbdcf9af7	-0.10136979
198	0x3d928897	0.07154959
199	0x3d92196a	0.071337536
200	0xbd5007fb	-0.05078886
201	0x3e00d5f5	0.12581618
202	0xbd5e7402	-0.054309852
203	0x3e138a69	0.14408268
204	0x3d524c25	0.05134215
205	0x3deb2972	0.114825144
206	0x3dc678bf	0.09690999
207	0xbdb26df5	-0.08712379
208	0x3da7a2a5	0.08185319
209	0xbd662463	-0.056187045
210	0x3d881d0e	0.06646167
211	0xbcf637f6	-0.030055981
212	0xbe07050d	-0.1318552
213	0xbdfad580	-0.12247753
214	0xbd09fac3	-0.03368641
215	0xbdf3bbe5	-0.119010724
216	0xbdce5abe	-0.100759014
217	0xbd47602e	-0.04867571
218	0x3d30ec77	0.04319426
219	0x3d89c639	0.06727261
220	0xbe04c33a	-0.12965098
221	0x3de161b1	0.11004961
222	0x3d2bdb78	0.04195735
223	0x3dc80b25	0.09767751
224	0x3c959dbe	0.018263694
225	0x3b7c5199	0.0038500784
226	0x3de9d640	0.11417818
227	0x3d7b889e	0.061409585
228	0xbe0ab206	-0.13544473
229	0x3be36652	0.0069396878
230	0x3d95dbd6	0.07317321
231	0xbd46d8d3	-0.048546623
232	0x3d603ffa	0.054748513
233	0x3d5ce8c3	0.053932916
234	0xbe0c69a2	-0.1371217
235	0x3dd79547	0.10526519
236	0x3d00aee3	0.031416785
237	0xbd22dfab	-0.039764088
238	0xbce05f15	-0.027389089
239	0xbdfec499	-0.12439842
240	0x3dfd4a33	0.12367668
241	0xbd921830	-0.0713352
242	0xbdbccea8	-0.09219104
243	0x3c95db93	0.018293178
244	0xbe0e02c5	-0.13868244
245	0xbe119b9d	-0.14219518
246	0xbd0d64c3	-0.034519922
247	0x3d2d7789	0.042350326
248	0x3d8aaf79	0.0677175
249	0x3cbd8802	0.023136143
250	0xbbd37582	-0.006453217
251	0x3da959e7	0.08269101
252	0x3d1d94c1	0.03847194
253	0xbe089226	-0.13337001
254	0xbdf3d52c	-0.11905894
255	0x3de262f8	0.11054033

tcn.network.0.downsample.weight f4 [25, 35, 1]
0	0x3a7c08f1	0.00096143695
1	0x3bebc2a2	0.007194833
2	0xbb996e46	-0.004682335
3	0xbadc4b87	-0.0016807177
4	0xbb4055bc	-0.0029347977
5	0xbbe3f771	-0.0069569875
6	0xbb75981d	-0.00374747
7	0xbc90cfba	-0.017677177
8	0xbc151fe4	-0.009101842
9	0x3c15b7f6	0.009138098
10	0x3b3e12ea	0.0029002973
11	0xb92a3fa5	-0.00016236173
12	0x3bf5f359	0.007505816
13	0xbbb60373	-0.0055546104
14	0x3ca4804e	0.020080712
15	0x3be8de2d	0.0071065635
16	0xbc0fbb3b	-0.008772667
17	0x3b39c41d	0.0028345652
18	0xbc84fb03	-0.016232973
19	0x3a0adfae	0.0005297613
20	0x3c0e80cb	0.008697699
21	0x3b7b0abb	0.0038305956
22	0xbbe0f169	-0.006864716
23	0x3c382e60	0.011241525
24	0x3b8fb9ce	0.0043861633
25	0xb878a98e	-5.9285718e-05
26	0xbc822172	-0.015885089
27	0x3baf253d	0.0053450153
28	0x3a14bb1c	0.00056736334
29	0xbcfb4e49	-0.030676978
30	0xbca99965	-0.020703027
31	0xbc0e3f08	-0.00868202
32	0xbb2b432e	-0.0026132572
33	0xbbb698c9	-0.0055724126
34	0x3a30ab6a	0.000673941
35	0x3bb7ac8e	0.005605287
36	0x3ca9d068	0.020729259
37	0xbb8d9db2	-0.0043217773
38	0x3a6c6aa6	0.00090185774
39	0x3bb01882	0.0053740153
40	0x3c8a8061	0.016906919
41	0x3ba73668	0.0051029213
42	0x3b806df8	0.0039193593
43	0x3bb1dafb	0.005427716
44	0xbb4cdf73	-0.0031261116
45	0xbc698c6c	-0.014254671
46	0x3c9849c3	0.01858986
47	0xbb0d0c32	-0.0021522162
48	0xbc215226	-0.009846246
49	0x3c654a1b	0.013994719
50	0xba09e606	-0.00052604114
51	0xbc17851b	-0.009248043
52	0x3c6642bd	0.014053998
53	0xbc3517c8	-0.011053033
54	0xbbe27540	-0.00691095
55	0x3c7d7e5c	0.015472021
56	0x3c67c88f	0.014146938
57	0x3bf16a71	0.007367425
58	0x3bd98073	0.006637627
59	0x3c225232	0.009907292
60	0x3ae0057a	0.0017091476
61	0x3bf3ad49	0.0074364287
62	0xbc9fec08	-0.019521728
63	0xbb834f26	-0.004007238
64	0xbc38c747	-0.01127798
65	0x3bd57239	0.0065138605
66	0x3968bbb6	0.00022195172
67	0x3cdc3c34	0.026884176
68	0x3a8eb293	0.001088696
69	0x3c49f637	0.012326769
70	0x3c329b95	0.010901351
71	0xbcf89f9a	-0.030349541
72	0xbc005d5f	-0.007834761
73	0xbb8a40db	-0.004219157
74	0xbbb9e72f	-0.005673311
75	0xbb0af9b9	-0.0021205975
76	0xbc85366f	-0.016261308
77	0xbc32585e	-0.010885326
78	0xbc1479bc	-0.009062227
79	0xbc9b0807	-0.018924726
80	0xbc837295	-0.016045848
81	0xbcb0120e	-0.021492984
82	0xbc2bdc2b	-0.010489504
83	0xbccdc6a5	-0.025119135
84	0xbbaed51b	-0.0053354627
85	0xbc03901c	-0.008029964
86	0xbb45e380	-0.0030195415
87	0xbc9d20c7	-0.019180669
88	0xbc2f8155	-0.0107119875
89	0x3c46a706	0.012124782
90	0xbc726dcb	-0.0147966845
91	0x3b6c5484	0.0036061117
92	0x3bb61dd1	0.0055577536
93	0xbc8532d5	-0.01625959
94	0x3bd17f41	0.0063933437
95	0x3c330c4d	0.010928226
96	0x39725b11	0.00023112843
97	0xbc0a4575	-0.008439411
98	0xbcb7a9ed	-0.022419894
99	0xbc17ffb7	-0.009277276
100	0xbc26bd49	-0.010176965
101	0xbcc0d36a	-0.02353831
102	0xbb6e54e7	-0.0036366524
103	0xbc13174b	-0.008977721
104	0x3c61923c	0.013767775
105	0xbb52f72a	-0.0032190778
106	0xba2b5b62	-0.00065367494
107	0x39a321be	0.00031114923
108	0x3b4e7be7	0.0031506957
109	0x39a1e8df	0.00030881815
110	0xba9fbd96	-0.0012187238
111	0xbc4880d0	-0.012237743
112	0xbc3c8676	-0.011506667
113	0xba5b2287	-0.0008359332
114	0xb8c4c555	-9.382764e-05
115	0x3c307900	0.010771036
116	0xbc3e9c08	-0.01163388
117	0xbbdfdb4c	-0.006831562
118	0xbc27a2f6	-0.010231724
119	0xbb9a8057	-0.0047150063
120	0xbc3ae79f	-0.011407762
121	0x3c522510	0.012826219
122	0x3bc55ea6	0.006023246
123	0xbc1b81af	-0.009491368
124	0x3bcfb394	0.006338546
125	0x3ca3897c	0.019963019
126	0xbc8e5dd5	-0.017378727
127	0xbc0b2da4	-0.008494768
128	0xbc28019f	-0.010254293
129	0xbbb8e980	-0.0056430697
130	0x3b88081c	0.0041513573
131	0x3c98ad3d	0.018637294
132	0xbc0848ff	-0.008318185
133	0xbc11fc92	-0.008910315
134	0x3bbbc14c	0.00572983
135	0xbc80197e	-0.015637156
136	0xbc49ad2b	-0.012309353
137	0x3ca0a2aa	0.019608814
138	0xbc36bfd7	-0.011154137
139	0xba565304	-0.00081758224
140	0x3b0a5763	0.0021109215
141	0x3c27924f	0.010227754
142	0x3c01865b	0.007905568
143	0xbbbd3b76	-0.0057749106
144	0x3b70904e	0.0036707106
145	0xbb039091	-0.0020075182
146	0xbc9c4f06	-0.01908065
147	0xba8c529f	-0.0010705775
148	0xbabc10b5	-0.0014348241
149	0x3b6072b4	0.0034248056
150	0xbb843d36	-0.004035617
151	0xbca72fc3	-0.020408517
152	0xbc16245b	-0.009163941
153	0xbc1b1050	-0.009464338
154	0xbbb6c82c	-0.0055780616
155	0xbbbf71f8	-0.0058424436
156	0xbbdfc7ae	-0.0068292236
157	0xbc4ae20b	-0.012382994
158	0xbb15d1db	-0.002286068
159	0xbc08186c	-0.008306604
160	0x3c014a65	0.007891272
161	0x3c147777	0.009061686
162	0xbb988147	-0.004654083
163	0x3bead98d	0.0071670474
164	0xbc838fe8	-0.01605983
165	0xbb0ffbd4	-0.002197017
166	0x3c86070d	0.016360784
167	0x3932480e	0.00017002245
168	0xbcd46398	-0.025926396
169	0xbc01046f	-0.007874592
170	0xbb25fb59	-0.0025326817
171	0xbc54d85a	-0.012991035
172	0x3a969fbe	0.0011491699
173	0x3af5ff69	0.0018768135
174	0xbc009eda	-0.007850373
175	0xbc2d990a	-0.010595569
176	0x3bae0d5f	0.0053116526
177	0xbb65e91d	-0.0035081573
178	0xbcb21091	-0.021736415
179	0x3ae950cb	0.0017800567
180	0xbb53e3cf	-0.003233183
181	0xbc703733	-0.014661598
182	0xbb0dcad8	-0.0021635797
183	0x3b88fefd	0.0041807876
184	0x3c0f5479	0.008748167
185	0xbcbae909	-0.022816198
186	0x3adddcf1	0.0016926808
187	0xbcd978f6	-0.026546936
188	0x3b01bb68	0.001979554
189	0xbc0b96da	-0.0085198525
190	0xbccd729a	-0.02507906
191	0xbc284fcd	-0.010272932
192	0xbc9f830d	-0.01947167
193	0xbc32d80a	-0.010915766
194	0xbc84347d	-0.01613831
195	0xbc9aa3fb	-0.01887702
196	0xbc9f696c	-0.019459449
197	0xba307305	-0.00067310064
198	0xbb200758	-0.002441844
199	0xbc293be8	-0.010329224
200	0x3b9a2ff3	0.004705423
201	0x3c98d941	0.018658282
202	0x3b910970	0.004426174
203	0xbc00c06a	-0.007858375
204	0xbaaca8eb	-0.00131729
205	0xb9b417c1	-0.00034349973
206	0xbc7d6171	-0.015465126
207	0xbaf3bf5e	-0.001859646
208	0xbc5b7a89	-0.013395914
209	0xbc5df563	-0.013547274
210	0x39c998a3	0.0003845143
211	0x3b0f7faf	0.0021896174
212	0xbabbace3	-0.0014318492
213	0x3cbf0a49	0.023320334
214	0x3b067e0e	0.0020521912
215	0x3bdfc20f	0.0068285535
216	0x3c912423	0.017717427
217	0xbbffb8b4	-0.0078040008
218	0xbaa0c10f	-0.0012264567
219	0x3c9875db	0.018610885
220	0x3b0734c1	0.002063081
221	0x3c1e9a73	0.009680378
222	0x3bd61f1b	0.00653447
223	0x3c8e9cd7	0.017408771
224	0xbbc12772	-0.005894595
225	0xbc31a45e	-0.010842411
226	0xbbe8acaa	-0.0071006613
227	0xbab52546	-0.0013820312
228	0xbbbbc57f	-0.0057303305
229	0x3c3ed300	0.011646986
230	0x3cb377c2	0.02190769
231	0x3a202271	0.0006108648
232	0xbbff76dd	-0.007796152
233	0x3bb04eb4	0.005380476
234	0x3c2edc77	0.01067268
235	0xbc378439	-0.011200958
236	0x3b89e7d5	0.0042085447
237	0x3c60176f	0.013677462
238	0xbc28c8ea	-0.010301808
239	0x3bf4da1e	0.0074722907
240	0x3c2da8e2	0.010599347
241	0xba95a4e8	-0.0011416944
242	0x3ca30b39	0.019902812
243	0xb80b4581	-3.3204913e-05
244	0xbc28f820	-0.010313064
245	0xbb7bf2ca	-0.0038444274
246	0x3c1211ff	0.008915423
247	0xbb9770d6	-0.0046216054
248	0x3c9c2a79	0.019063221
249	0xbb3b11be	-0.002854451
250	0x39ca124e	0.0003854208
251	0x3bce4097	0.006294321
252	0xbbe663f5	-0.007030959
253	0x3ad78683	0.0016443286
254	0xbd0fe82c	-0.035133526
255	0xbbb84794	-0.005623767

tcn.network.0.downsample.bias f4 [25]
0	0xbdb50e41	-0.08840609
1	0x3d20ebb2	0.039287277
2	0x3ca3a275	0.019974926
3	0xbddf454e	-0.10901891
4	0xba547cb5	-0.0008105741
5	0xbd013be9	-0.031551275
6	0x3dae2204	0.08502582
7	0xbe05b9b0	-0.13059115
8	0xbc9e0f56	-0.019294422
9	0xbc5c3eee	-0.013442738
10	0xbd26e6fa	-0.04074762
11	0xbc5bca4b	-0.01341493
12	0x3c8e938b	0.017404338
13	0xbd90da84	-0.070729285
14	0x3debc0cb	0.11511382
15	0xbe07aa79	-0.13248624
16	0xbd965eb3	-0.07342281
17	0x3d9e24b5	0.07721845
18	0x3d8ceb8a	0.06880863
19	0xbe2ba0ad	-0.16760512
20	0xbe0512b9	-0.12995423
21	0x3d114313	0.035464358
22	0x3c91de5d	0.017806226
23	0x3e1e07f5	0.15432723
24	0xbd1cb29c	-0.038256273

tcn.network.1.conv1.bias f4 [50]
0	0xbd4891f3	-0.048967313
1	0x3d1d3f91	0.0383907
2	0x3e11c40f	0.14234947
3	0xbd652837	-0.055946555
4	0x3d8c5ad7	0.06853264
5	0x3c911422	0.017709795
6	0x3dc8a5d4	0.09797254
7	0x3da8caf3	0.082418345
8	0x3d415e9f	0.04720938
9	0xbbbe3cf2	-0.005805605
10	0x3b259498	0.002526557
11	0x3e0389dd	0.1284556
12	0x3d6fe3ea	0.058566965
13	0xbca86bbd	-0.020559186
14	0xbcf6feed	-0.030150855
15	0x3b8b4cd3	0.0042511015
16	0x3d107cd7	0.035275307
17	0xbd99f603	-0.07517626
18	0xbd15f77b	-0.03661297
19	0xbe0fcb70	-0.14042449
20	0x3e01f40a	0.1269075
21	0x3de9e6b6	0.11420958
22	0xbdf68b9f	-0.12038349
23	0xbce375ad	-0.027766073
24	0xbd5e742d	-0.054310013
25	0xbe0469fd	-0.12931056
26	0xbdeb8bdd	-0.11501286
27	0xbdbbf955	-0.09178416
28	0xbdde6e99	-0.108609386
29	0x3df186a4	0.11793259
30	0xbd9b5b8e	-0.07585822
31	0x3d612fee	0.05497735
32	0xbc963666	-0.018336486
33	0x3bc678fb	0.0060569025
34	0xbd9f120e	-0.077671155
35	0x3d3eb050	0.046554863
36	0x3dbc1aa8	0.09184772
37	0x3e0f43ce	0.13990709
38	0x3dc7544b	0.097328745
39	0x3de88f7c	0.113554925
40	0x3d840a46	0.06447272
41	0xbc32ae27	-0.010905779
42	0x3d9a9548	0.075480044
43	0x3dbf16a9	0.09330494
44	0xbd8de4a1	-0.06928373
45	0xb9aedff6	-0.0003335473
46	0xbd31720f	-0.043321665
47	0x3d7e4d61	0.062085513
48	0x3d1250a7	0.035721447
49	0x3db01831	0.08598364

tcn.network.1.conv1.weight_g f4 [50, 1, 1]
0	0x3f144698	0.5792022
1	0x3f0badef	0.54562277
2	0x3f0d1725	0.5511344
3	0x3f1dc030	0.6162138
4	0x3f0c59c4	0.5482447
5	0x3f13ff8c	0.5781181
6	0x3f15f6a5	0.58579475
7	0x3f1bde51	0.608861
8	0x3f11b133	0.5691101
9	0x3f14bf7b	0.58104676
10	0x3f1ca827	0.6119408
11	0x3f13fd6f	0.57808584
12	0x3f1e367f	0.61801904
13	0x3f118c5f	0.56854814
14	0x3f208fa7	0.62719196
15	0x3f0e7999	0.55654293
16	0x3f052412	0.52008164
17	0x3f12ed94	0.57393765
18	0x3efb973e	0.49138826
19	0x3f18383e	0.5946082
20	0x3f07e979	0.53090626
21	0x3f17330c	0.59062266
22	0x3f0e98db	0.5570199
23	0x3f11d644	0.5696757
24	0x3f21fc9b	0.6327607
25	0x3f055fcf	0.5209932
26	0x3f20d2a7	0.6282143
27	0x3f218995	0.6310056
28	0x3f08fda1	0.53512007
29	0x3f1b594b	0.60683125
30	0x3f141817	0.5784926
31	0x3f14e40c	0.5816047
32	0x3f06809b	0.52539986
33	0x3f1136a0	0.56723976
34	0x3f1eb367	0.61992496
35	0x3f147088	0.5798421
36	0x3f107dc7	0.5644192
37	0x3f17c72e	0.592883
38	0x3f16dd3a	0.58931315
39	0x3f0d3271	0.5515509
40	0x3f1a2274	0.6020882
41	0x3f0d8dea	0.5529467
42	0x3f13c34a	0.5771986
43	0x3f11ddea	0.5697924
44	0x3f245c71	0.64203554
45	0x3f189205	0.5959781
46	0x3f13e7d9	0.57775646
47	0x3f10349c	0.56330276
48	0x3f07e15f	0.53078264
49	0x3f16dddb	0.58932275

tcn.network.1.conv1.weight_v f4 [50, 25, 2]
0	0x3d289370	0.041156232
1	0x3d437afc	0.04772471
2	0x3c235b47	0.009970493
3	0x3c070e09	0.008243092
4	0x3e0de509	0.13856901
5	0xbd32b656	-0.04363092
6	0xbdcfeb1f	-0.10152268
7	0x3ca94396	0.02066211
8	0xbe04ab57	-0.12955986
9	0x3de99246	0.114048526
10	0xbd2616c7	-0.040549066
11	0xbdb74f28	-0.08950645
12	0xbd5db6b5	-0.05412932
13	0xbd90a468	-0.07062608
14	0x3d3816dd	0.04494368
15	0x3d2e150e	0.042500548
16	0xbd3d4d08	-0.04621604
17	0xbe09b112	-0.13446453
18	0xbdb27ef9	-0.08715624
19	0xbdbab33d	-0.09116218
20	0x3da3e5e3	0.08002832
21	0xbdebbe77	-0.11510938
22	0x3d118b50	0.03553325
23	0x3d3d98ee	0.046288423
24	0x3d28a87b	0.0411763
25	0x3d681551	0.056660954
26	0x3e06febd	0.13183112
27	0x3cc37c32	0.023862932
28	0xbc8cfab9	-0.017209398
29	0xbe08f7d7	-0.13375793
30	0xbe0edc02	-0.13951114
31	0xbdb1a550	-0.08674109
32	0xbdaf172c	-0.085493416
33	0x3dc6c148	0.09704834
34	0x3dba7745	0.0910478
35	0x3c57299b	0.013132478
36	0x3c8e25ce	0.017352011
37	0x3b34bd48	0.002757864
38	0x3df61d58	0.120173156
39	0x3db0b870	0.08628929
40	0x3db73f93	0.08947673
41	0x3d5dd7c5	0.054160852
42	0x3e0ebddc	0.13939613
43	0xbe0a98e3	-0.13534884
44	0xbcac5152	-0.02103487
45	0xbd545116	-0.051835142
46	0x3dec6f39	0.115446515
47	0xbd5999a1	-0.053125028
48	0x3d8a6515	0.06757561
49	0x3d377a53	0.04479439
50	0xbc80ced0	-0.015723616
51	0xbda8c5b8	-0.08240837
52	0x3d19dcf1	0.03756422
53	0x3dd6df72	0.104918376
54	0xbe0062cb	-0.12537687
55	0xbdb668cd	-0.08906708
56	0x3c90fdb5	0.017699102
57	0x3ddc99c1	0.10771514
58	0x3c7b8fba	0.015354091
59	0x39e607fe	0.00043874973
60	0x3d3809aa	0.04493109
61	0x3d983f16	0.07433908
62	0x3d05aa27	0.032632973
63	0xbc3ed669	-0.011647799
64	0x3d5f3b27	0.05449977
65	0xbcb034e8	-0.021509603
66	0xbd5cc96c	-0.05390303
67	0xbd3b9c97	-0.045803633
68	0x3c9b9d50	0.01899591
69	0x3db33373	0.087500475
70	0x3c22081f	0.0098896315
71	0xbca2809b	-0.019836714
72	0xbdcbb58f	-0.09946739
73	0x3d2f53fb	0.0428047
74	0x3de5bb01	0.11217309
75	0x3cf9ccc1	0.030493142
76	0x3deac2e8	0.11462957
77	0xbd511592	-0.05104596
78	0xbbde1547	-0.006777439
79	0x3d9c9b30	0.07646787
80	0x3cbc43ba	0.022981513
81	0xbdbe703d	-0.092987515
82	0x3d856ae5	0.06514529
83	0x3d236f4f	0.039901074
84	0x3db1bb29	0.08678276
85	0xbe0423e3	-0.12904315
86	0xbcafac35	-0.02144442
87	0x3df9c9e5	0.121967115
88	0x3c83d5db	0.016093185
89	0x3ca79e72	0.020461295
90	0x3e063eca	0.1310989
91	0xbd9bf756	-0.07615535
92	0x3d5ca83e	0.053871386
93	0x3e1578cb	0.1459686
94	0x3e14aeb0	0.14519763
95	0xbdcc5072	-0.09976281
96	0xbc911877	-0.017711861
97	0xbd8f7e98	-0.07006568
98	0x3dc1bce3	0.094598554
99	0xbdaf2b7b	-0.08553215
100	0x3e0e7d90	0.13915086
101	0x3d9d2b0d	0.07674227
102	0xbd83896d	-0.06422696
103	0xbca18efc	-0.0197215
104	0x3d9bc18a	0.07605274
105	0xbda85c8d	-0.08220778
106	0xbbd4aba3	-0.0064901873
107	0xbd8bc4a1	-0.06824613
108	0xbd6e527b	-0.05818413
109	0x3cd3b4bd	0.025843019
110	0x3d6cdc1a	0.057827093
111	0xbd55a69e	-0.05216085
112	0x3d86fa9f	0.06590771
113	0x3d1df395	0.038562376
114	0xbddc9bf8	-0.10771936
115	0x3dbf244a	0.093330935
116	0xbd8f90c1	-0.070100315
117	0x3de0f8c8	0.10984951
118	0xbd4719ef	-0.048608717
119	0xbdf3aa58	-0.11897725
120	0x3d12ce5c	0.03584133
121	0xbd21c8cb	-0.03949813
122	0xbc872a7a	-0.016499747
123	0xbda3771b	-0.07981702
124	0xbdb0fd84	-0.08642104
125	0x3d952d45	0.07284025
126	0x3d244410	0.040103972
127	0xbc7dde95	-0.015494962
128	0xbc3b4cad	-0.011431855
129	0x3db99455	0.09061495
130	0xbdf7660a	-0.12080009
131	0xbdec6c37	-0.11544078
132	0x3db27799	0.08714218
133	0x3d5c2828	0.053749233
134	0xbd9cd890	-0.076584935
135	0xbdb6ab70	-0.08919418
136	0x3dcaa469	0.0989464
137	0x3d560917	0.052254763
138	0x3e12484d	0.14285393
139	0x3e12198f	0.14267562
140	0xbe046860	-0.12930441
141	0xbb466c3e	-0.003027692
142	0xbe0231da	-0.1271433
143	0xbde1dbd2	-0.110282555
144	0xbd71249a	-0.058872797
145	0x3d9f121f	0.07767128
146	0x3d95fd3f	0.073236935
147	0x3d85b7ff	0.06529235
148	0xbd5a2e91	-0.053267065
149	0xbd653234	-0.05595608
150	0xba87112f	-0.0010304804
151	0x3dada9f8	0.084796846
152	0xbe0924d2	-0.13392952
153	0xbcbcc4dc	-0.023043089
154	0x3e098dd2	0.13433006
155	0xbcf5261f	-0.029925404
156	0xbd09e123	-0.033661973
157	0x3df25715	0.11833016
158	0xbdf94e92	-0.12173189
159	0x3dcd9e00	0.10039902
160	0xbd47aa86	-0.04874661
161	0xbd0e7f14	-0.03478916
162	0x3df2c8ea	0.118547276
163	0x3d322564	0.04349269
164	0x3dc45196	0.09585874
165	0x3dc7029c	0.097172946
166	0x3dda6e39	0.106655546
167	0x3e01e67f	0.12685584
168	0x3ca2835e	0.019838031
169	0xbe161f67	-0.14660417
170	0xbd468b69	-0.048472796
171	0x3de2b524	0.11069706
172	0x3d2d2689	0.042273078
173	0x3df2b1e8	0.11850339
174	0x3cbb028d	0.022828365
175	0x3d89490b	0.06703385
176	0x3bd67366	0.0065445183
177	0x3d1b8afb	0.03797434
178	0xbde47b28	-0.11156303
179	0x3dbfaa2c	0.093586296
180	0x3bf2c89e	0.0074091693
181	0x3d5a15d5	0.053243477
182	0x3da0f6d4	0.07859579
183	0xbd7efa2f	-0.062250312
184	0xbd90098e	-0.070330724
185	0xbdd24bf3	-0.102683924
186	0xbd8fed7c	-0.070277184
187	0x3ce08fa0	0.027412236
188	0x3dad467d	0.0846071
189	0xbdf4f7e2	-0.119613424
190	0xbd283d87	-0.041074302
191	0xbe048bdc	-0.12943977
192	0x3dd57c15	0.104240574
193	0x3d8f2fb5	0.06991521
194	0xbe081d06	-0.13292322
195	0xbe0039cc	-0.12522048
196	0x3d632f49	0.055465017
197	0x3e01f20d	0.12689991
198	0xbb534e57	-0.003224274
199	0xbdfcd52d	-0.123453476
200	0x3c3487e6	0.011018729
201	0xbd65f13f	-0.056138273
202	0x3c731871	0.01483737
203	0xbdf45c73	-0.11931696
204	0xbd782d1e	-0.060589902
205	0x3d0c4203	0.03424264
206	0x3dfab74b	0.122419916
207	0x3e1067c8	0.1410209
208	0xbd4e8c69	-0.050426874
209	0xbc8726f7	-0.016498072
210	0xbd71972c	-0.05898206
211	0xbdc2f140	-0.09518671
212	0x3df67040	0.12033129
213	0x3d6d5a1b	0.05794726
214	0xbae48a53	-0.0017436243
215	0xbd406116	-0.04696759
216	0xbd17f77b	-0.03710125
217	0xbdf6fe84	-0.12060264
218	0xbdebed39	-0.11519856
219	0x3884b878	6.3286105e-05
220	0x3d3bb1b6	0.045823775
221	0xbdd78db8	-0.105250776
222	0x3ded3bc0	0.11583662
223	0x3defbaf4	0.1170558
224	0xbaed7bac	-0.0018118522
225	0xbdd859c2	-0.10563995
226	0xbe0036ea	-0.12520948
227	0xbdc7bb55	-0.097525276
228	0x3ca56d54	0.020193733
229	0x3e0438de	0.12912318
230	0x3cdb414f	0.02676454
231	0x3da9af74	0.08285418
232	0xbcd976e2	-0.026545946
233	0x3d43b916	0.047783934
234	0x3d332f60	0.043746352
235	0xbc7de3b8	-0.015496187
236	0xbda53bdd	-0.08068059
237	0xbdd07dfa	-0.10180278
238	0x3cfa10b4	0.030525543
239	0xbd974335	-0.073858656
240	0x3d5dfe5d	0.054197658
241	0x3cde95d9	0.027171062
242	0xbd928bc0	-0.071555614
243	0x3d979eb6	0.074033186
244	0xbd1b12c2	-0.037859686
245	0x3abd61bc	0.0014448683
246	0x3d77052d	0.06030767
247	0x3d8ac881	0.06776524
248	0x3dcd53db	0.1002576
249	0x3debf3bb	0.11521097
250	0xbd4a4467	-0.04938164
251	0x3d608f5a	0.05482421
252	0x3da2ebd8	0.0795514
253	0x3df1d5a1	0.118083246
254	0xbdbf8f61	-0.09353519
255	0xbdea8fdc	-0.1145322
