DeepLearning/model_0321/model_best_8_r2_-0.0052339492722205975.pth (torch, 666311 bytes, 9 tensors)

fc1.weight f4 [256, 478]
00000000: 3aa1 0cbd 0944 f7bc 7778 923c a72b 853c
00000010: 6b15 ab3c 33db 22bd 1fab e93b 6c48 1a3c
00000020: 0f0a d43c 0d4e 45bd 8871 80bc 5f3a 913b
00000030: 2163 9bbc d113 a23c eff2 6e3c 09ca 0cbd
00000040: 6e64 a53c 5db8 0bbd c965 42bd 333b 9b3c
00000050: 9721 94bc db9b 823c c0d8 b3bb 9026 22bb
00000060: 4f52 2a3d 918e 1dbc cd64 943c 0200 093d
00000070: dce7 42bd 7bfd 2fbd 240e 1a3d 48f8 c2bc
00000080: 479b 003d 0c7f bbbb 2673 64bb 6bf1 b7bc
00000090: 86e2 66bc 097b ef3b ce2f 91bb a738 15bd
000000a0: afaa e3bc 881a 30bd 5739 b93c 39c6 2abd
000000b0: 140c 4abd d0f5 23bd 1007 0abd 782e 11bd
000000c0: 7673 943c 2fa3 dcbc 900f e0bb 4f5a b63c
000000d0: 660b 92bc f70f 2b3b 23b0 45bd ab0f 14bc
000000e0: 752c 573c 2306 cfbc bab5 6a3c e569 2dbc
000000f0: 2c0b 263d 9126 31bd 4f92 503b 2bc3 133d
00000100: 4abe 0dbd 745c 233d 46ce 98bb 65ef d33c
00000110: f776 99bb 9532 bf3c 9918 193d ceba 0fbd
00000120: 06cc 063c fbb3 63bc 5d5b ed3c ad37 813c
00000130: a983 283d 7a68 abbc 9d06 d1bc ba2a 3fbd
00000140: 5255 d13c c7dc 1c3d 1742 533b 451b 003d
00000150: 97ff 7e3c 0e34 e6bc 090f 803b fdfe d83c
00000160: bf06 8abc 7dff 063d b67b 13bd ff13 8cbc
00000170: cb59 bd3c a04e 39bc 9c2c f0bc 9596 27bd
00000180: a3af ff3c 509b 1c3d b29f 04bd e180 803c
00000190: 46e5 393b 9fca a3bc f8b3 90bc cd3a f2bb
000001a0: c866 983c 3cbd 46bd 34dd 93bc 88b5 27bd
000001b0: e595 99bc ba4a bc3c 57e4 203d 7135 2d3d
000001c0: 71db dd3b 9d53 a2bc b3ea c9bb f2d8 863c
000001d0: 4719 fc3b f12b dd3c 9c97 cd3b 7565 a53c
000001e0: ae12 f5bb f76f 953c 44ac 393c 178c 1ebc
000001f0: 934a 2a3d 8c17 eabc 4f01 dc3c f4d2 6dbc
00000200: 8a09 24bd c9ca d73c 5de2 6abc 1ce2 093d
00000210: fac0 69bc 0a84 70bc 1f47 8e3b 8a6b c23c
00000220: 227d bebc d971 e3bb 8788 64bc a329 f83c
00000230: 7343 0f3d db22 09bd ce3f 38bd 6935 1b3d
00000240: 2915 6cbc e9c5 babc 0c1e f5bc db65 3238
00000250: 109d 863c cd6a 79bc 5f32 433c 87a3 04bd
00000260: 3bd3 703c 6531 c33c d02e 33bd 2422 11bb
00000270: d6e9 3bbd 5bcd 37bc c640 4e3c 8229 a2bb
00000280: 1e38 23bc a6da e7bc ee3c fa3c 6690 3ebc
00000290: 0eb3 ff3c e27e 05bd e036 eebc 0b2d 413c
000002a0: f837 183d 1a29 223d 0f75 163d aa20 91bb
000002b0: be27 9a3c 0250 4b3c d0aa 233d c74f ac3c
000002c0: 3653 803c fc65 1ebd 694b 0eb9 20c5 2abd
000002d0: 3646 193d 93b5 4fbc 73c0 393d c4d9 38bc
000002e0: e97c 133d 0df4 05bd 24a2 063d 78ea b53b
000002f0: c281 803c e65b 08bd 8e56 833c 27b8 febb
00000300: feb1 893c 0532 73bc 733b 2cbd 8b64 353b
00000310: 2541 683c 5c8a caba 6893 52bc ea2d a43a
00000320: d646 7139 dc5d 82bc c31f 3bbd 6f15 f73c
00000330: 06c0 2fbd 2193 a13a 1670 11bc f011 63bc
00000340: d2b5 1e3d 47a4 033d 0f11 a03c 23e3 bbbc
00000350: 0c6e feba b741 253c 8fca 2f3c 49bc 203d
00000360: ac68 1bbd 0e94 89bc 6e0a dd3c 34a0 d8bc
00000370: 3ace 4a3c f487 ce3c 844b 73bc 6b31 2bbd
00000380: 57b0 a53c 6d14 ef3c dad7 69ba acd8 23bd
00000390: a47a 84bc 8ee3 0d3d 9b64 41bd 9b91 a7bc
000003a0: fa8c 993c 11ff b2bc 3ad0 debc 2919 273d
000003b0: 9415 293c cbc4 a63c 4bc6 9f3c 8116 c13c
000003c0: ecd2 2ab8 8304 8fbb 2507 153c 25df f4bc
000003d0: 26c7 013d 4d85 49bd 3859 053d 8034 10bd
000003e0: e802 b23a b101 c33c 258e cc3c 03d1 2fbd
000003f0: 54f1 c73c c19d e53c 5d82 f93c 8852 10bc
-0.034333445 -0.030183809 0.017879708 0.016256167 0.020884236 -0.039759826 0.007130995 0.009416681
0.025883703 -0.04817014 -0.015679136 0.004432007 -0.018968167 0.01978484 0.014584287 -0.034372363
0.02018949 -0.03411137 -0.04746035 0.018949127 -0.018082423 0.015943458 -0.005488485 -0.0024742223
0.0415824 -0.00961651 0.018114472 0.033447273 -0.0475844 -0.042966347 0.03761114 -0.02380003
0.031398084 -0.0057219323 -0.0034858673 -0.022453984 -0.014092093 0.007308368 -0.0044307476 -0.03643098
-0.02779135 -0.042994052 0.02261035 -0.041692946 -0.049327925 -0.040029347 -0.03369814 -0.035444707
0.018121462 -0.02693328 -0.0068377927 0.02225986 -0.0178277 0.0026102045 -0.04826368 -0.009036939
0.013133158 -0.02527148 0.014325554 -0.010584329 0.040537998 -0.04324967 0.0031825488 0.0360748
-0.034605302 0.039883092 -0.0046632616 0.025870988 -0.004683371 0.02333955 0.037376974 -0.03509026
0.008227354 -0.013897891 0.02897423 0.015773619 0.041141186 -0.020923842 -0.025515849 -0.046671607
0.02555338 0.038296487 0.0032235438 0.031276006 0.015563867 -0.028100993 0.0039080423 0.026488775
-0.01684892 0.032958496 -0.03600665 -0.017099379 0.023114106 -0.01131025 -0.029318146 -0.04091509
0.03121168 0.038234055 -0.03237886 0.015686454 0.0028365417 -0.019994078 -0.01766394 -0.0073922635
0.018603697 -0.04852031 -0.018049814 -0.040944606 -0.018748233 0.022984851 0.03928026 0.042287294
0.006770544 -0.01981526 -0.0061620115 0.01646087 0.007693443 0.026998492 0.0062741768 0.02018998
-0.0074790334 0.018241866 0.011332575 -0.009676955 0.041575026 -0.028575681 0.026856093 -0.014515627
-0.04004816 0.026341813 -0.014336196 0.0336629 -0.014267201 -0.014679918 0.0043419744 0.02373292
-0.023253027 -0.006941062 -0.013948566 0.030293291 0.034976434 -0.033480506 -0.044982724 0.037892733
-0.014409342 -0.022799449 -0.029921554 4.2533367e-05 0.016432315 -0.015223217 0.011913865 -0.032382514
0.014698799 0.023827264 -0.043745816 -0.0022145594 -0.0458773 -0.011218394 0.012588685 -0.004948796
-0.00996211 -0.028302502 0.030546632 -0.011631107 0.03121331 -0.032591708 -0.0290789 0.011790524
0.03716275 0.03958998 0.03673273 -0.0044289427 0.018817779 0.012409212 0.03995782 0.021034135
0.015664678 -0.03867148 -0.00013570268 -0.0416919 0.037420474 -0.012677568 0.04534955 -0.011282388
0.036007795 -0.032703448 0.032869473 0.0055516325 0.015686873 -0.033290766 0.016032483 -0.0077734175
0.016808506 -0.014843469 -0.042048883 0.0027678336 0.014175688 -0.0015452611 -0.012852527 0.001252589
0.0002300994 -0.015913896 -0.045684587 0.030161588 -0.042907737 0.0012327173 -0.008876821 -0.013859257
0.038747616 0.03213909 0.019539384 -0.022935456 -0.0019411459 0.010086468 0.010729446 0.039242063
-0.03794162 -0.01679423 0.026982512 -0.026443578 0.01237827 0.025211312 -0.014849547 -0.041795176
0.020225687 0.029184544 -0.0008920409 -0.040001556 -0.01617176 0.03464084 -0.047215085 -0.020455172
0.01874398 -0.02185014 -0.0271989 0.04079548 0.010320086 0.02035751 0.019503733 0.023570301
-4.0727595e-05 -0.0043645515 0.009095942 -0.02989156 0.031684063 -0.04919939 0.03255579 -0.035206318
0.0013581188 0.023804517 0.024970124 -0.04292394 0.024407066 0.028029324 0.03045767 -0.0088087395

fc1.bias f4 [256]
00000000: da95 233d 05ba efbc c5b9 9cbc 301b 373d
00000010: 0eca 143d ac7a d8bc 9ee2 833c e702 72bc
00000020: fd6b 6f3d 3172 d83c 40b4 aabc 4d8b 27ba
00000030: c08a e83a 0c60 edbc 1ddd 1d3d 6327 dbbc
00000040: 29ee 61bc 8027 46bc 5549 983c f6ef 693c
00000050: ee5e 4bba 9a9a f2bc a27c 7a3b bdd2 943c
00000060: 694c 9abb a3bf 08bd e16e f3ba ad61 113c
00000070: 7faa b1bc af3d a4bb b7fe fbbc 4ffb 82bc
00000080: 15bf d23c 6c0c 03bd 4268 dabc 470b d3bc
00000090: 71c0 5bbc e73e 13bd 954a a83c 4e21 053d
000000a0: 0ca6 913d 5375 0a3d b810 053d e966 41bc
000000b0: 4839 c9bc ef54 63bc 567c 16bd 1bd1 0dbd
000000c0: fab1 643c c35c 293d b4e0 b13c 83c2 37bd
000000d0: 4e66 4cbd 6f75 003d b706 c2bb 0a9d 803c
000000e0: 6f8f b93c f22b 31bd d011 33bd 72ec 43bd
000000f0: 7ff5 773c ddac 05bd 5a94 91bc ca02 103d
00000100: 7618 0e3d d780 ebbc e905 a13c 48ea 4abd
00000110: 3ba6 20bd 6d30 f8bc 6452 d13c 9b09 b5bb
00000120: 9f99 803b bcf7 19bd 0334 cfbc 156a ed3b
00000130: 2d7d 91bc dbe7 33bd 7bcb 9dbc e910 b03c
00000140: c12a f03b 8530 a7bc 05fa 39bd ecff 5cbc
00000150: 1667 49bc c3f5 34bd c9b9 c83c d198 803d
00000160: 2148 b8bc bf0f 98bc 8e18 31bc b386 1cbd
00000170: 7d36 c9bc 8f4e 03bd 144a c0bc fc51 19bd
00000180: 83fb 28ba dd7d 7d3c 5fba e738 83b4 eabc
00000190: f5c0 783c d2f4 1d3d d404 b23c fc72 053d
000001a0: 24c1 fb3c 8897 d03b 9a3c 1cbd 00ee 2ebd
000001b0: 0988 bb3c fdf3 1ebc 48e5 a7bc 421a e43c
000001c0: a2db 06bd 5432 573c 65a5 26bc 298e 1dbd
000001d0: abbb c1bb 87a8 61bc cade 243c 24f8 13bd
000001e0: 311d 99bb 6fcd b63c 2236 d23c a973 c13c
000001f0: 52f6 c0bc d8df ba3c d0b2 86bc 2565 b23c
00000200: f38f 1abd 88bc 22bd 0ccc adbc 29b1 1a3d
00000210: 6d79 9c3c ead9 0abd d798 4ebc 757a 183c
00000220: 4677 dabb b2d7 cf3c 3c5c 163c cd6b 17bd
00000230: 6a7c 213d 5a40 0e3d 7c6c 8fbc d227 c23b
00000240: abf8 07bb 17f0 8b3c 0522 6f3c 22cd 55bc
00000250: 858a 5abc 18a3 413c f5a9 26bd 21b9 44bd
00000260: 3012 db3c e5fa 93bc 986f 61bc 659a 18bd
00000270: 0838 95bc 1000 9cbc 794d 0bbd 5a98 3ebd
00000280: 85a7 d73b 3383 163d ee31 fd3c 3d6a 78bc
00000290: 466e d9bc 3244 46bd fe19 0fbd aa50 5d3b
000002a0: 91a6 88bc 060b 0e3c 8fc1 a6bc 033c 833a
000002b0: 1e7b c73c 9603 e3bc 9f06 8abc 0afa 25bd
000002c0: cadd 85bc a4c4 efbc d594 183d 5457 23bd
000002d0: d6ea 08bc 6b64 073d b8d4 3fbd bf22 91bc
000002e0: 1e4d 2fbd c8c6 d33c e795 263c 55ba ab3a
000002f0: fb80 9f3c 9df9 42bc 5973 be3a 9f27 d6bc
00000300: 2473 f3bc c7ce 5e3c 3014 9e3c b1aa d43c
00000310: c6d2 17bd 047e 26bd 5715 24bd e4a4 1ebd
00000320: e754 efbb 5ba6 12bc b156 0dbd 458a 073a
00000330: bc27 a83c 5020 263a 59f9 3c3d b4cc 3f3c
00000340: 089b c9bc c5f5 f23c 9d1b 64bb 1a8d cd3c
00000350: c649 bc3c 25dd 293b 351c cabc 8f19 0e3d
00000360: fcb5 9d3c 8f08 3dbd 4b1a bfbc dbf6 68bc
00000370: 5533 edbc 8cc4 ef3c 9436 87bb 7612 5cbc
00000380: 88a6 813c 3715 673c 623a 3dbc b999 ae3c
00000390: bd3a b73c a39f a03c 3449 1c3d 54a0 a3bc
000003a0: 9b15 143d ea4b 943c 47a3 873c 8335 73bb
000003b0: b23f f83c f875 953c 5369 06bd 38f9 483c
000003c0: 6d10 5abb 2286 3fbc 9bfe df3b 4874 3dbc
000003d0: 4ce2 5b3c f9df 333d 5a73 a8bc 1b74 0dbd
000003e0: 3ecf 13bd 9b26 b0bc 858b f83c 3de1 1ebd
000003f0: 5a43 c03c 8238 4fbd 83aa 2bbd 1ca6 ac3c
0.03993783 -0.029263506 -0.01913155 0.044703662 0.036325507 -0.026425682 0.01609927 -0.0147712
0.058452595 0.026421638 -0.020837903 -0.0006391302 0.0017741546 -0.028976463 0.03854095 -0.02675218
-0.013789692 -0.0120943785 0.018589655 0.014278403 -0.0007757981 -0.029614735 0.003822126 0.018166894
-0.004708816 -0.033385884 -0.0018572473 0.008873385 -0.021687744 -0.005012236 -0.030761106 -0.015988974
0.02572588 -0.03199427 -0.026661042 -0.025762213 -0.013412581 -0.03594866 0.020543376 0.032502465
0.07111749 0.033803295 0.032486647 -0.011804321 -0.024563447 -0.01387523 -0.03673967 -0.034623247
0.013958449 0.04134823 0.021713592 -0.044863235 -0.049902253 0.031361993 -0.0059212106 0.015699882
0.022651402 -0.0432548 -0.04371816 -0.047832914 0.015134214 -0.03263556 -0.017770935 0.03515891
0.034691297 -0.028747959 0.019656138 -0.049539834 -0.03922103 -0.030296529 0.025551982 -0.0055248267
0.003924563 -0.037589774 -0.025293356 0.007245312 -0.017759884 -0.043922286 -0.019262066 0.021492438
0.0073293154 -0.020408878 -0.045404453 -0.013488751 -0.012292644 -0.04417969 0.024502652 0.062791474
-0.022495331 -0.018562196 -0.010809077 -0.038214397 -0.024562115 -0.03205734 -0.023472823 -0.037431702
-0.00064461696 0.015471903 0.00011049653 -0.028650528 0.015182723 0.038563557 0.021730818 0.03258036
0.030731745 0.00636572 -0.03814373 -0.042707443 0.022892015 -0.009701726 -0.020495072 0.027844552
-0.032924302 0.013134558 -0.010171269 -0.038465653 -0.0059122643 -0.01377309 0.010062883 -0.036125317
-0.0046726693 0.022314755 0.025660578 0.023614721 -0.023554955 0.022811815 -0.016442686 0.021776745
-0.037734937 -0.03973058 -0.021215461 0.03776661 0.01910087 -0.033899225 -0.012609682 0.00930654
-0.0066670505 0.025371406 0.009177264 -0.03696804 0.03942529 0.03472934 -0.017507784 0.005925157
-0.0020747583 0.017082257 0.014595513 -0.013049396 -0.01333869 0.01181867 -0.040689427 -0.048028115
0.02674207 -0.018063972 -0.013759516 -0.037256617 -0.018215194 -0.019042999 -0.03400943 -0.046532013
0.006581249 0.036746215 0.030907597 -0.015162048 -0.02654184 -0.04840488 -0.034936897 0.0033770003
-0.016680988 0.00866962 -0.020355968 0.0010012392 0.024350699 -0.02771167 -0.01684886 -0.04052166
-0.016341109 -0.02926857 0.037251312 -0.039878204 -0.0083567705 0.03305475 -0.046833724 -0.017716764
-0.042798154 0.025851622 0.010167575 0.0013101796 0.019470682 -0.011900333 0.0014530226 -0.02614194
-0.02971799 0.013599104 0.019296736 0.025960298 -0.037066244 -0.04064752 -0.040059414 -0.03873147
-0.0073038223 -0.008950795 -0.034506503 0.0005170445 0.02052676 0.00063372124 0.046136234 0.01170652
-0.024610057 0.029658208 -0.0034806498 0.025091697 0.022984397 0.0025919166 -0.024671653 0.034692343
0.019251816 -0.04615074 -0.023327967 -0.014219011 -0.028955141 0.029268526 -0.0041263793 -0.013432136
0.015826479 0.014104179 -0.011549564 0.021313535 0.022366876 0.01960737 0.03815575 -0.019973911
0.036153417 0.018102605 0.016557349 -0.0037110753 0.03030381 0.018244728 -0.03281529 0.01226645
-0.003327395 -0.011689695 0.0068357713 -0.011563368 0.013420653 0.04391477 -0.020562816 -0.034534555
-0.036086313 -0.021502784 0.030339966 -0.038789023 0.023469616 -0.050591 -0.04191066 0.0210753

fc2.weight f4 [128, 256]
00000000: 0196 723d b622 5d3d 7d1f 263b f25e 293d
00000010: 6dce 713c d501 eebc 89c3 933b a276 2a3d
00000020: 3dc0 893c 9e8e a23a 71de ec3c a0ba dabc
00000030: c0f4 ffbc cf5d 37bd 5fca 40bd 3f35 00bd
00000040: 6b0a 6d3b 32fd 77bb 1b95 4d3d f298 c6bc
00000050: a965 8b3d e35b cd3c 4911 a5bd 24ce 75bc
00000060: 7fc8 dcbc fbad 2e3d 45e7 3dbd 8506 a5bc
00000070: 9ce9 803d 42b7 603d 3472 8a3c b33b 19bd
00000080: 588d 9ebb 7978 1ebd 666e 203d b38c 51bc
00000090: 692f 683d 9f15 573d 415b b3bc 7881 863c
000000a0: 8c06 69bd 7bd2 93bc 3452 a93c 2337 bc3c
000000b0: c7c3 09bd 3ee6 a53c 0005 0e3d 73fa 3c3d
000000c0: 1c4c 483d cdfb 6ebd 3997 543d c3e6 41bd
000000d0: 1f46 09bc ee97 7a3d 8ca4 0c3d d812 733d
000000e0: a3a7 58bd b66d 683d d37d 42bc 5d70 5ebc
000000f0: ac18 4cbc a0e3 60bc dd92 113d 2d20 ceba
00000100: 6818 273d a7ce fa3c 2b53 9e3c bca8 39bd
00000110: 79cd 34bd f6bd 4e3c 5186 e23c 02de 383d
00000120: 3d7f 45bc fb5a cdbb 2e2b 09bc 7de1 4ebc
00000130: 1459 593c ee5d dbbc 18a7 573b ba23 b5bc
00000140: 891e a6bd 923d 9ebc 5cfa 813d a7f5 693c
00000150: 3ef6 f53b 75cc d53c f3c5 23bd 6d86 1f3d
00000160: dba0 4cbc 708a b43c 4361 98bd 8323 edbc
00000170: 9d90 57bd 5000 29bd a567 513d 7ffe 843d
00000180: fd2c 0abd fc74 7a3c 0ed7 b53a 4535 12bd
00000190: 177e febc 3dac 26bc 21f6 2ebd 6259 133d
000001a0: 0fb2 bfbc 2b8c 103d a4c0 1fbd 27f5 24bd
000001b0: cac7 063c 9203 533d 99f7 533c 6edc 5a3d
000001c0: 790f 27bd 790b d63b 1e42 c439 d08a 643c
000001d0: 2f14 ba3b 9291 9e3c ba33 3fbb 6f3e 57bd
000001e0: faa8 393d 03a9 6ebb d0df 5ebb 53f2 7b3d
000001f0: 7175 73bc 6be8 603d edc8 1bbc d8af 2dbb
00000200: c635 1dbc 892e e53c 5e35 03bd 1ad7 32bc
00000210: 4e76 e6bb f41e 68bc fbad b0bb c481 043c
00000220: 3346 7d3d cc78 653d f4db f53c e6f4 d93c
00000230: f814 483c eef4 6abc 334d 90bc c3f2 963c
00000240: 9c88 b6bc f9df b83c a804 8abc 7bf7 54bd
00000250: f5cc e2bc 8e6b 3abd ffda 463d 2a39 a9bc
00000260: 1d31 50bd 008e 01bd 5850 febb 5dce 16bd
00000270: 2af0 fd3c fe00 8cbd 8f57 1bbd 146e 00bd
00000280: 113c 7b3c fec5 28bd dabb b43c e78f 383c
00000290: 6048 623d 2d11 7dbc e855 bebc 7b82 9abb
000002a0: 111c 7b3c 0350 dbbb 9880 b9ba ef2a 6fbd
000002b0: c33a 3b3c 4c23 a4bc d8bb f83c 6f56 f63c
000002c0: b955 da3c 1cad 063d 2a63 41bd d16d 603d
000002d0: b8c5 623d c90b 313d 929a ee3c d74c 4abd
000002e0: 9b33 b03c 0b89 c7bc b780 153d fd90 393c
000002f0: ea34 b2bc 3102 b2bd f1b1 513d a485 19bc
00000300: f2f9 f8bb 633f 223b 1290 183c ca8e 4cbd
00000310: 2027 aabc a281 b03c d78f 583d 5a89 8bbb
00000320: 3fae 343a 8087 ff3c e560 3abd 3bd7 693d
00000330: 0512 57bd 1de5 debc 8d43 c4bc c4d0 503d
00000340: 0581 513c b28f e4bb 108f bcbc 93a3 3d3b
00000350: 8bfd f63c f682 503d 0ee8 523a 1dc8 a03c
00000360: 5cd9 18bc 4c83 86bc 02a8 2d3d e392 983c
00000370: 6890 b4bc 22b0 83bc 3314 a13c 7b0f 76bc
00000380: 61f8 02bd c79f af3c 4fa6 50bd 80d8 793a
00000390: 43ec ec3b f062 323d 0791 65bb 8baf a3bb
000003a0: 2b27 9d3c 9ebf 203d f8ef 5c3d eac1 89bd
000003b0: 6128 0c3c f087 a1bc c864 953c fa8b 60bd
000003c0: 2ab0 ee3c a3ef 1a3d e31e 1a3d 23f2 b33c
000003d0: 8e16 45bd ccd8 7cbc 8bea 763c 2046 3f3d
000003e0: 1c36 0f3c f6b4 2a3d b859 c9bc b134 d23b
000003f0: f3d5 c8bd 25f9 6d3d 961a 39bd 8712 b3bc
0.059225086 0.05398818 0.0025348358 0.041350313 0.014758688 -0.029053608 0.0045093936 0.041617043
0.0168153 0.0012402122 0.028914662 -0.026700318 -0.031244636 -0.044767197 -0.047067996 -0.03130078
0.003616954 -0.0037840125 0.050191026 -0.024242852 0.068064995 0.025068229 -0.080599375 -0.015002761
-0.026951073 0.04264639 -0.046363134 -0.02014471 0.062945575 0.05486227 0.01690016 -0.03741045
-0.004838627 -0.03868911 0.039167784 -0.012789893 0.05668584 0.052510854 -0.0218941 0.016419157
-0.05689101 -0.0180447 0.02066908 0.02297551 -0.033633973 0.02025139 0.034672737 0.046137284
0.04890071 -0.058345605 0.05190203 -0.047339212 -0.008378535 0.061180048 0.03433661 0.059344143
-0.052894246 0.056745254 -0.011870819 -0.013576594 -0.012457054 -0.013726145 0.03554045 -0.0015726142
0.04079476 0.030616118 0.019326767 -0.045326933 -0.044141266 0.012618532 0.027651938 0.0451336
-0.012054262 -0.006266949 -0.008372111 -0.012627003 0.013265867 -0.026778188 0.0032905992 -0.022111762
-0.08111293 -0.019316468 0.063465804 0.0142797595 0.007506161 0.02609847 -0.0399837 0.038946558
-0.012489523 0.022038668 -0.07440426 -0.028947597 -0.05262815 -0.041260064 0.051124234 0.06493854
-0.03373431 0.01528668 0.0013873295 -0.035695333 -0.031065984 -0.010172901 -0.042715196 0.035973914
-0.023400335 0.035289925 -0.039002076 -0.040272858 0.008226344 0.051517077 0.01293745 0.053432874
-0.04078624 0.0065321294 0.00037433294 0.013949111 0.0056786756 0.019356523 -0.0029175119 -0.052549776
0.045327164 -0.0036416657 -0.0034007914 0.061510395 -0.014859543 0.05490915 -0.009508354 -0.0026502516
-0.00959534 0.027976291 -0.032033317 -0.010915542 -0.007033146 -0.014167536 -0.005391834 0.008087579
0.061834525 0.056023404 0.030012108 0.026606034 0.012212031 -0.014340622 -0.017614936 0.018426305
-0.022281937 0.022567736 -0.016847923 -0.05199383 -0.027685622 -0.04551273 0.048548695 -0.02065714
-0.050828088 -0.031629562 -0.0077610426 -0.036817897 0.030998308 -0.06836127 -0.0379253 -0.03135498
0.015334145 -0.041204445 0.02206223 0.011264778 0.055244803 -0.01544599 -0.023234323 -0.0047152615
0.015326516 -0.0066928877 -0.0014152704 -0.058390554 0.011427584 -0.020036362 0.030363008 0.030070512
0.026652204 0.032879934 -0.04721371 0.05479223 0.05536434 0.04322413 0.02912644 -0.049389686
0.021508982 -0.02435734 0.036499705 0.011326072 -0.021753747 -0.08691824 0.05119509 -0.009370241
-0.007598155 0.002475702 0.009311693 -0.04994086 -0.02077061 0.021546189 0.05287155 -0.004258317
0.000689242 0.031192541 -0.045502562 0.057090025 -0.05250742 -0.02720886 -0.023957992 0.050980344
0.012787108 -0.0069751376 -0.023017436 0.002893661 0.030150196 0.050906144 0.0008045443 0.019626671
-0.009329166 -0.01642003 0.042396553 0.018624729 -0.022041515 -0.016075198 0.019662952 -0.015018339
-0.031975154 0.021438492 -0.050939854 0.0009530857 0.007230313 0.043551385 -0.003502907 -0.0049952916
0.019183716 0.03924524 0.05393979 -0.06726439 0.008554549 -0.01971814 0.018236533 -0.054820992
0.029136736 0.03782619 0.037627112 0.021966046 -0.048117213 -0.015432548 0.015070568 0.046697736
0.008740928 0.041676484 -0.024578914 0.0064149727 -0.098064326 0.05809893 -0.04519137 -0.02185942

fc2.bias f4 [128]
00000000: 491b ce3c 71fa 493d 73c5 b5bb 7c32 3abd
00000010: e770 7abb 5e88 81bd a7a8 efbc 4636 d13c
00000020: 3324 95bd f48f 06bd af59 773c 70bd 0abd
00000030: 2a2c 163d 3f22 f93c 9eaf b6bc 8fb8 493c
00000040: e8f7 b6bd 3c81 4e3d 436d 443d dbe8 c1bc
00000050: c4ca 0a3d b878 2b3c da24 38bd 2453 953d
00000060: 38a2 bcbc 35e0 fcbb b658 afbc c7db 553d
00000070: e139 c73c 4ad7 833c 192d 82bd 86dc 9cbd
00000080: 8a81 01bd 2d69 99bd f88e 1dbd 2ffb 86bd
00000090: 6147 75bd 9cb3 55bb 18d4 5abd b639 53bd
000000a0: a7a2 04bd f701 31bd f7ae 9cbd acec 4c3d
000000b0: 3e16 243d 541a a23c cfc1 683d 5d18 3f3d
000000c0: df45 9d39 aa6f 6fbd ad5c 64bd 1520 46bb
000000d0: eb2a 42bd 858c 2b3d c4a5 823c 27b0 a53d
000000e0: 6b28 483d bcc6 273c bd65 99bd 2d5c 8d3c
000000f0: 3bce d83a bde1 6fbc 8846 88bc f8be 36bd
00000100: 6f01 78bd b114 16bc c7f5 60bd f767 c63c
00000110: d11c 4bbd 5ca9 97bd f44e fabc 244a debc
00000120: bd43 d13c 56a9 483d 3742 fbbc 207f ca3a
00000130: 5909 08bb 4b16 e2bc 1a70 913c 4ca9 8cbd
00000140: cf06 263c 0e39 da3c ef90 8a3c ad16 373d
00000150: 05b5 c2bc e0fc babc fe9b ac3b 55b7 433d
00000160: 7105 d2bb 54f5 52bd e3f8 55bd 9b68 84bd
00000170: 8767 5dbc aa77 b9bc f74f c4bb e058 2dbc
00000180: f424 0c3d ff22 a73b ac7d 79bd 04a1 a93c
00000190: c463 9ebd 25de 2fbd ee70 5b3d a617 42bd
000001a0: 6255 263d 5c44 6cbd de48 10bc 9de7 853d
000001b0: 4109 b2bd 9725 97bb 687d b9bd cad0 33bd
000001c0: a058 853d 6103 dcba c87c 863d a76a 83bb
000001d0: 3f0f 203b 72e2 983c f103 323d 3fe1 41bc
000001e0: 637b cbbc 0491 9bbd a8b5 f3bc 8e56 3d3d
000001f0: 93c2 47bd 4c36 debc 4de3 76bd a931 e6bc
0.025159495 0.049311105 -0.0055472194 -0.045458302 -0.0038214268 -0.06324838 -0.029255224 0.025538575
-0.07282295 -0.03285213 0.015097066 -0.033872068 0.036663212 0.030411838 -0.022300538 0.012312069
-0.08934003 0.050416216 0.047955763 -0.023670604 0.03388478 0.010465793 -0.04495702 0.072912484
-0.02302657 -0.0077171572 -0.021404605 0.05221155 0.024319591 0.016093869 -0.06356258 -0.07659249
-0.03161768 -0.07490764 -0.038466424 -0.06590878 -0.059882525 -0.0032608276 -0.053424925 -0.05156871
-0.03238168 -0.043214764 -0.076505594 0.050030395 0.040060274 0.019787945 0.056825455 0.046654094
0.00029997432 -0.0584561 -0.055752445 -0.0030231525 -0.04740421 0.041882057 0.015948184 0.08090239
0.04886667 0.010240253 -0.07490108 0.017255867 0.0016540954 -0.014641223 -0.016635194 -0.044615716
-0.060548242 -0.009160207 -0.05492189 0.024219496 -0.04958803 -0.074053496 -0.030555226 -0.027134962
0.025544995 0.048989616 -0.030671222 0.0015449263 -0.0020757525 -0.02759852 0.01775365 -0.06868228
0.010133459 0.026638534 0.016914813 0.04469936 -0.023767957 -0.022825658 0.005267619 0.04778226
-0.00640934 -0.051503494 -0.05223931 -0.064652644 -0.013513452 -0.022640068 -0.005990978 -0.0105802715
0.03421493 0.0051006074 -0.060910866 0.020706661 -0.077338725 -0.042936463 0.053574495 -0.047385834
0.04060877 -0.05768238 -0.008806435 0.06538317 -0.08693171 -0.0046126354 -0.090571225 -0.04390029
0.065110445 -0.0016785675 0.06566769 -0.0040105167 0.002442315 0.018662665 0.04346079 -0.011833488
-0.024839109 -0.07596019 -0.029749706 0.046225123 -0.048769545 -0.0271255 -0.060275365 -0.028099852

fc3.weight f4 [64, 128]
00000000: e87a c4bd fd8d 7d3d da02 84bd 05ab 973d
00000010: 7e8a e5bc 6f7d 8fbb ccfb 70bc 7856 7bbd
00000020: 0b33 48bd c977 213d a4c7 1a3d 4ab2 203d
00000030: 454f b0bd 27cb 1a3c abf2 abbd d1f0 73bd
00000040: 60c4 f3bc 33dd 12bd a5b0 6d3d 095c 473c
00000050: 87fe babd 23b6 b3bd ab77 b53c 14f8 8ebc
00000060: 062c 793d 72a9 8e3d c277 c7bb 209c 80bd
00000070: 59a3 cd3c bf89 b7bd 1f15 c2bd 9d05 41bb
00000080: ff76 a6bd 429a b13d c44e 843d 5622 9ebd
00000090: 73be 20bd 412a 8c3d 0c0f 8fbd 54e2 423d
000000a0: 93c6 9dbc 39d7 493b 0d27 4c3d 92ed 9d3d
000000b0: 2cff 2ebd b4a2 d1bc 4891 a4bd 2ddf a23d
000000c0: 2770 133c df8e 84bd 4148 86bd 100c aabd
000000d0: c46a 39bd e1a4 28bc 2b04 533d 0f87 f4bc
000000e0: 620f a13d de4b 8f3d 0266 a03d bb0d 493d
000000f0: db08 a3bd c491 88bd 95c3 903d 37e7 543c
00000100: 4054 0a3d e579 95bc 4efb 3f3d 78c5 39bc
00000110: d623 ce3c ac15 9a3d ada9 a3bd 8a97 8c3d
00000120: cf55 303d 7f78 d6bb 4eb3 8b3c 3f03 9bbd
00000130: 690f 383d d3ba 103d c2c3 abbd 40c8 863b
00000140: f9f4 953c 2110 a4bd 2519 bbbd ac9b 6d3d
00000150: ad31 8abd 294e 07bd 2979 3a3d f835 3bbd
00000160: 57bc 15bd d614 ce3c 52de 30bd fac9 96bd
00000170: 6b86 3b3b 7edb 92bd bd8a 963b 6f3d 4bbd
00000180: 7b7e 093c 126d 103d fc8b 6cbd 686a 2c3d
00000190: 4609 3bbd 2efa 84bd 30d9 8ebd cb1e 21b8
000001a0: 94a6 2e3d c72a 843d 295d 1e3a 6d2f 3c39
000001b0: d7eb 48bd 002b ebbc 76b2 0d3d 8a51 813d
000001c0: b17c a0bd 02cf 703d e708 6cbd b49c 36bd
000001d0: c64b c23c 186e 4bbc 6918 d73b fbae 82bd
000001e0: f090 583d 1c08 993d fb4e 223d fd43 a7bd
000001f0: 5e26 673d f4f1 10bd 231d a33d bb03 3dbd
00000200: 39be 373d 4d9f 98bd 1b9d 66bc a703 acbd
00000210: b214 8c3c 6c78 c93a ff66 413d 95e3 973d
00000220: 8ddf 343d 1200 47bd cbf4 a6bd 4178 953d
00000230: d9b3 623b 7bba 6a3d 5096 a83d 021e 793c
00000240: 1a07 823d 8700 3f3d a140 76bd 719f 44bd
00000250: a4a1 2b3d 2601 51bd fd57 8b3d f52f c7bc
00000260: 83ad 3c3d 37a6 b5bc fc27 383d 6f48 a1bc
00000270: d7b5 06bd ffd3 83bd 9faf 9dbd 6b31 163d
00000280: e143 91bd 4c45 90bd fc5e d03c 5225 4c3d
00000290: e242 a43d dee1 97bd ce40 c3bc 1ac3 b13c
000002a0: 60c1 b2ba bd57 9f3d a891 bcba ba4e 52bd
000002b0: 9eec 5c3d 0ca3 9c3d b29b 993d 6dce 65bc
000002c0: 48cf babd 95f9 94bb c3d8 963c 7206 ed3c
000002d0: e740 463d 1a6b 8abd 9b77 6dbc fcb1 8fbd
000002e0: 12d9 19bd ad4b 5d3c 945a 39bd 912c 5e3d
000002f0: 402f 883d 6feb adbc 2f7b 81ba 63c9 883c
00000300: 0a62 bbbd 68a5 86bd 855f 3dbd 09bf e6bc
00000310: 71b8 56b9 00f3 b13d a0b4 733c 01ed d63c
00000320: 648b afbd eeb0 ae3c 504d d1bd 7322 133d
00000330: 41af 883c 0421 c43c e73c acbd e23b 35bd
00000340: d796 b53c 1830 56bc 40bb 65bd b246 363d
00000350: e8a8 6c3a 3989 ba3b 0d9c 543d e898 68bd
00000360: f0a7 8b3b 8c77 8e3d f348 f7bc 3955 49bd
00000370: 8637 83bc 6f1c babc ee77 773c b865 2b3c
00000380: 9e90 803d 70d5 173d 37eb 073c 75e0 9fbd
00000390: 1c7f a9bd 82b6 2fbd e72c b9bd 63eb d43c
000003a0: d004 b5bc 9334 a1bd 3fc8 cebc 0add 7f3d
000003b0: 1c54 90bd 63fb 8dbd edc5 b23c 7b60 a03d
000003c0: 2b73 4dbd 9732 6f3d 8844 1ebd 12e5 98bd
000003d0: f71b 00be d129 01bd d70c c63b a8ae d2bc
000003e0: 40f2 543d d620 a4bd 5128 4d3d 0bc6 8cbc
000003f0: 3986 a6bd 07ac ffbc 463e 713d 575f 203d
-0.09593755 0.06190299 -0.064458564 0.07405666 -0.02802014 -0.0043789665 -0.014708471 -0.06136176
-0.048876803 0.039420877 0.03778805 0.03923253 -0.086088695 0.009447849 -0.083958946 -0.059555832
-0.029756725 -0.035855483 0.05802979 0.012167939 -0.091305785 -0.08774974 0.022151789 -0.017452277
0.060833 0.06965913 -0.0060872743 -0.062797785 0.025102304 -0.0896182 -0.09476685 -0.0029452809
-0.081281655 0.086720005 0.06460336 -0.07721393 -0.039244127 0.06843997 -0.06985292 0.047579125
-0.019259727 0.0030798449 0.04984193 0.077113286 -0.04272382 -0.025590278 -0.08035523 0.07952724
0.008998907 -0.06472563 -0.0655675 -0.08303082 -0.045267835 -0.010293216 0.051517647 -0.029849557
0.07864262 0.069968924 0.078319564 0.04908536 -0.079606734 -0.066684276 0.07068554 0.012994579
0.033771753 -0.0182466 0.046870522 -0.011338584 0.025163572 0.07523665 -0.079913475 0.06864841
0.043050583 -0.006545126 0.017053273 -0.075689785 0.04493657 0.03533442 -0.08386947 0.004113227
0.018305289 -0.08010889 -0.09135655 0.05800979 -0.06747756 -0.033033524 0.045525704 -0.045705765
-0.036556568 0.02515642 -0.04318077 -0.07362743 0.0028614055 -0.07170771 0.0045941756 -0.049619135
0.008391972 0.035260268 -0.057750687 0.042093664 -0.04566314 -0.064930305 -0.06975019 -3.841407e-05
0.04263933 0.06453472 0.00060411036 0.00017946745 -0.04905304 -0.028707027 0.03459402 0.063143805
-0.07836283 0.058791168 -0.057625677 -0.044583037 0.023717772 -0.012416385 0.006564189 -0.06381031
0.0528726 0.0747225 0.039626103 -0.081672646 0.056433074 -0.035386994 0.07964542 -0.046146136
0.044859145 -0.07452259 -0.014075543 -0.08399134 0.017099712 0.0015370972 0.047217365 0.07416455
0.044158507 -0.04858405 -0.08152159 0.07298327 0.003459206 0.057306748 0.08231795 0.015204908
0.06349011 0.046631362 -0.06012023 -0.048003618 0.0419022 -0.051026486 0.06803892 -0.02431486
0.04606391 -0.022173984 0.044960007 -0.01968786 -0.03288826 -0.064369194 -0.07699513 0.036668222
-0.07093025 -0.07044467 0.025435917 0.04984028 0.080205694 -0.074161276 -0.023834612 0.021699477
-0.0013637953 0.077804066 -0.0014386671 -0.05134461 0.053936593 0.07648286 0.075004 -0.0140262665
-0.09121567 -0.004546354 0.018413907 0.028933737 0.04840174 -0.06758709 -0.014493848 -0.0701637
-0.03756053 0.013506812 -0.045252398 0.05424172 0.06649637 -0.021230428 -0.000987863 0.016697591
-0.09149559 -0.065745175 -0.046233673 -0.028167265 -0.0002047734 0.08688927 0.014874607 0.02623606
-0.085715085 0.021324601 -0.10219824 0.035921525 0.01668513 0.023941524 -0.08410054 -0.04424656
0.022166653 -0.01307299 -0.05608678 0.044501014 0.00090278545 0.0056926277 0.051906634 -0.056786448
0.004261963 0.069563955 -0.030186152 -0.04915354 -0.016017687 -0.022718636 0.015104277 0.010461263
0.062775835 0.037068784 0.008295826 -0.07806484 -0.08276197 -0.042898662 -0.090417676 0.025991147
-0.022097021 -0.07871356 -0.02524197 0.06246666 -0.070472926 -0.06932714 0.021822894 0.07830902
-0.05015866 0.058397856 -0.038639575 -0.07465567 -0.12510668 -0.03153402 0.006044011 -0.025718048
0.05198884 -0.080140755 0.050087277 -0.017184278 -0.0813107 -0.031209959 0.05889728 0.039153423

fc3.bias f4 [64]
00000000: 4fbc d9bc 7b4b f5bc 4588 393d 0d3c 9cbd
00000010: c0e1 cabc 735a 45bc f122 8fbd 6979 4abd
00000020: b952 04bc e59a 93bd 8929 b7bc 26a9 653c
00000030: 2250 753c 84c3 aabc e957 68bc c0b3 d1bb
00000040: a6df 2cbc 9433 853c 441e e23d 0c2c b3bd
00000050: 285e 28bb d7de 0c3d b797 da3d 18b0 fc3d
00000060: fbe8 8c3d 41f4 abbd c0e3 ea3d 74c5 86bd
00000070: 6593 b63c 1c7b 88bd 7dbc c5bd 08c7 f1bd
00000080: d3a3 87bd e512 153d 60a0 53ba 6792 30bc
00000090: c96d 84bd 5366 2e3d 1fec f5bd 8d9c bcbd
000000a0: 6d3d f4bd 1ef3 07bd 389f 41bc 595a 17bd
000000b0: 33f4 c9bd 0fb3 bd3d 7e67 ea3d 23d7 6abd
000000c0: 44e6 13bc ef17 23bd af7b 2e3d 404e f6bd
000000d0: beff c53d 2603 8dbc be8c a9bd 8ab8 a8bb
000000e0: b192 dc3d 2c38 80bd 628c 1d3c 7e38 a5bd
000000f0: 5aaa 1e3d a26f d23d 4dbb f73d 2a88 4a3b
-0.02657905 -0.029943218 0.045295972 -0.07628641 -0.02476585 -0.012045491 -0.069890864 -0.049432192
-0.008076363 -0.07207278 -0.022358673 0.014017379 0.014972718 -0.020845182 -0.014181116 -0.0063996017
-0.010551369 0.016259946 0.11040929 -0.08748636 -0.0025690887 0.034392204 0.106734686 0.12338275
0.06880375 -0.08396197 0.11469221 -0.0658063 0.02228708 -0.06664106 -0.09655092 -0.1180554
-0.06623044 0.036394972 -0.0008072909 -0.010777093 -0.06466252 0.042578053 -0.12007927 -0.09209547
-0.119257785 -0.03319084 -0.011817746 -0.036951397 -0.098610304 0.09262668 0.11445521 -0.057334077
-0.009027068 -0.039817747 0.042598423 -0.12026644 0.096679196 -0.017213415 -0.082787976 -0.005148952
0.10770167 -0.06260714 0.009615989 -0.08067416 0.03873668 0.102751985 0.12096272 0.0030903914

fc4.weight f4 [32, 64]
00000000: e9fa f3bd fcc8 4dbd 10c7 14be 5cfa 2abd
00000010: bd2d 02bd 5897 c03d 161d f3bd 63ba a8bc
00000020: a8b6 2dbd 6412 febd 85b5 b6bd 5a2e 9d3d
00000030: 89f0 713d b0e2 a7bd 4c5b 7c3d 4b1a b2bd
00000040: 5793 adbc 6f6f a43d fff4 84bd 557e debd
00000050: b503 cbbb acfa febd 369d 623c 333d 79bd
00000060: 9f51 17bd 73e1 91bc 1f6f 63bc 61dd 2fbd
00000070: f4fb 86bd 2075 d8bc b125 6ebc dfb1 36bd
00000080: 3da2 453d 21f6 cabd dc99 04be be8f c4bd
00000090: 5847 df3d 3507 a73c bd1f b43c f4ba 84bd
000000a0: 6f13 e5bd af77 01bd d1a5 dabc 02af 903d
000000b0: c565 f9bc c1dc af3d 9139 ba3c a9be a23d
000000c0: a23f 7e3d 8cb1 31bd 69c0 73bc acdf e23c
000000d0: 2d38 23bb decc dabd a0b1 bd3b 440f 54bd
000000e0: 5c58 adbd fbed d1bd f80a f3bd 3f55 95bd
000000f0: 0447 d0bd 46df 01be 2598 82bc 7d13 04be
00000100: e516 8e3d 727b 223d 9540 d33d d004 35bd
00000110: 083b e33d f483 823d d32f cabd 637b b63d
00000120: 8046 cebb f3b7 c3bb e298 e13d cacd 38bd
00000130: 0c7d 8f3d d140 9abd 5b15 263d 74f0 323d
00000140: dbea 833c eac0 9e3d db27 8ebd 7117 263c
00000150: e046 6f3d d1da 06bd 82d6 cebb ff73 3c3d
00000160: a2df 843d a39e fcbd 7c78 59bd 786f 833d
00000170: 91b0 073d 4716 353d 35a2 bfbb c175 80bd
00000180: b1d6 a23d c7f8 2dbd 53e4 59bd d105 363c
00000190: 4ef2 583d f076 a43c 32c4 b73d 2163 233b
000001a0: 8d7b a2bb d67b b1bd 88ca bd3c afe4 9a3d
000001b0: 7366 babd b3e7 b7bd cd97 193d e30d fa3d
000001c0: d8ee 4e3d 9c99 05bd d6b0 84bd e996 a5ba
000001d0: eae0 623d 2622 c9bd 166e d53d 107f 293d
000001e0: e3eb 553d 468f a23d 8c55 823d 8eb2 d13d
000001f0: c3c6 65bd d64b d9bd 1c1f 8d3d f47d 473d
00000200: c945 283d f429 1f3d 78d5 043d 3209 f4bd
00000210: 8ab5 ac3c 80d9 cd3b fe31 f9bd 8455 c9bc
00000220: e8e8 523d 46f0 e4bd 2300 2ebd 186c 3ebd
00000230: 1f06 67bd d494 fbbd fa77 b93c eb7a 083d
00000240: dd2e 8a3c 1c06 6e3d bf9b 81bd 601d ae3c
00000250: 10f9 3cbd 9f1d ce3d 0c40 e53c 8121 323c
00000260: 28fe babd f05e fb3d 2a60 bfbc 58f8 3b3d
00000270: 080d 973c 3a77 973d 8456 643d e07b 003d
00000280: 06a1 83bd a2e3 7b3d a08a de3d 30d1 3fbc
00000290: e58d 8abc 8a00 90bd 682b fb3d 2074 93bc
000002a0: 9c5a 46bd 1021 013d 63fc 73bd 707f 8b3d
000002b0: dcfd bfbd 68c7 e93d 34b4 f5bd a809 8bbd
000002c0: 07c1 cebb 76c0 7cbc 644b 593d 2b38 313d
000002d0: e0df b43b d312 b9bd 58bb d93c 4ccd cf3d
000002e0: f3eb 79bc b4c9 943c 2424 1dbc 0e2b f6bd
000002f0: e8cb 13bd 49ac 18bd 953b 513d c11c 4d3d
00000300: 24fd 50bd 16d2 bb3d bcdb c73d e4f6 60bd
00000310: 88d0 b63c d038 833c 8868 8dbc aee5 b53d
00000320: 5e92 b5bd 7028 c6bc 8884 713d 6e79 a3bd
00000330: c06b 2f3c 00ef b53c 20d9 79bc 7493 e4bd
00000340: fede 89bd da9d fa3d 2037 f0bc e064 7bbc
00000350: a26a 8a3d e2ad 973d d863 a6bc 1a65 953d
00000360: 605a 0d3c cc80 1fbd 7616 c7bd 36f0 f4bd
00000370: 9c0b 753d 78ff cabc 60fe 14bd 1ce1 7dbd
00000380: f676 b23d f8cb cfbc 7a59 f8bd facd e93d
00000390: 7c0a e3bd c80f 83bc c0b2 9fbc 2892 bebc
000003a0: 8885 cabc 121b e43d 6831 bfbc 4c78 f3bd
000003b0: 605b f13c 487a 1c3d 5e41 a8bd d8e8 3bbd
000003c0: c03d 90bd 00a1 6b3b 00ce 10bc 8815 7ebd
000003d0: eadd f5bd 54a0 84bd c01a d93d ae55 ffbd
000003e0: e86b f4bc 665c ac3d ccb7 b8bd b818 d63d
000003f0: 9412 e03d 70f3 79bd 00ee c0bb 0068 4a3a
-0.11913092 -0.0502405 -0.14529061 -0.041742668 -0.0317819 0.094038665 -0.11870782 -0.020596689
-0.042410523 -0.124058515 -0.08921341 0.076748565 0.059067283 -0.08197534 0.061610505 -0.08696421
-0.021188421 0.08029067 -0.06492042 -0.1086394 -0.0061955103 -0.124501556 0.013831427 -0.06084938
-0.036943074 -0.017807698 -0.013881474 -0.042935733 -0.06591025 -0.026423037 -0.0145353535 -0.044603225
0.048250426 -0.099102266 -0.12949318 -0.09597729 0.109022796 0.020389179 0.02198779 -0.06480971
-0.11185347 -0.03160828 -0.026690396 0.0706463 -0.030444035 0.08587027 0.022732528 0.07946522
0.062072404 -0.043382213 -0.014877417 0.027694546 -0.002490531 -0.106836066 0.005788997 -0.05177237
-0.08464119 -0.10250469 -0.118673265 -0.0729165 -0.10169795 -0.12682828 -0.015941689 -0.12898059
0.069379605 0.039668508 0.103150524 -0.044194043 0.11095244 0.06372824 -0.09872403 0.08910253
-0.0062950253 -0.005972856 0.11015488 -0.04511813 0.07006273 -0.07531894 0.04054771 0.043686345
0.016103199 0.07751639 -0.069411956 0.010137425 0.0584172 -0.032923523 -0.0063121924 0.04600906
0.06487967 -0.12334945 -0.05309342 0.06417745 0.03312737 0.0442107 -0.005848194 -0.0627246
0.079511054 -0.04247358 -0.053196263 0.011109785 0.052965455 0.020076245 0.08972968 0.0024930912
-0.004958576 -0.08666198 0.023167863 0.07563149 -0.09101572 -0.0897974 0.037498284 0.1220968
0.050520748 -0.032617196 -0.06479041 -0.0012633476 0.055390276 -0.098209664 0.10421388 0.041380942
0.052226912 0.079374835 0.06363973 0.10239135 -0.056097757 -0.10610168 0.06890699 0.048704103
0.041082177 0.03885837 0.032430142 -0.11915816 0.021082658 0.0062820315 -0.121677384 -0.02457691
0.051491648 -0.11178641 -0.0424806 -0.046489805 -0.056402322 -0.12284246 0.022640217 0.03332035
0.01686805 0.058111295 -0.06328534 0.021254241 -0.046135962 0.100642435 0.027984641 0.010872246
-0.09130508 0.12273967 -0.023361284 0.045891136 0.018438831 0.073957875 0.05574657 0.031368136
-0.06427197 0.061496384 0.10866284 -0.011707589 -0.016913364 -0.07031353 0.122641385 -0.017999709
-0.048426256 0.03152567 -0.059566867 0.06811416 -0.09374592 0.11414987 -0.11997262 -0.06788951
-0.0063096317 -0.015426746 0.053050414 0.043266457 0.005519852 -0.090367936 0.02657859 0.10146579
-0.015254009 0.018162586 -0.009591136 -0.12019931 -0.036083132 -0.03727368 0.051082212 0.05007625
-0.051022664 0.0917093 0.09758708 -0.054922953 0.022316232 0.016018301 -0.017261758 0.088816985
-0.08865808 -0.024189204 0.058964282 -0.07982145 0.010706842 0.02220869 -0.015249521 -0.11160937
-0.067319855 0.12237139 -0.02932316 -0.015343875 0.0675862 0.074062124 -0.020311281 0.07294674
0.008627504 -0.03894119 -0.09721081 -0.11959879 0.059825525 -0.02478002 -0.036375403 -0.06198226
0.08714096 -0.025365815 -0.12126441 0.1141624 -0.11085984 -0.015998736 -0.019494414 -0.023263052
-0.024721876 0.11137976 -0.023338988 -0.11888179 0.029462516 0.038202554 -0.08215593 -0.045876354
-0.07043028 0.0035954118 -0.008838177 -0.062032253 -0.120052174 -0.06475893 0.10600805 -0.12467514
-0.02983661 0.08416061 -0.090194315 0.104539335 0.109410435 -0.061023176 -0.005887747 0.00077211857

fc4.bias f4 [32]
00000000: f9d5 983c 81e0 dabd 4474 16bd f465 33bd
00000010: 0c4a 543d 1c0a 3f3d b05f 66bd e67b d8bd
00000020: 5ba1 ad3c c52f edbd 2166 dc3c a4b1 103e
00000030: 0a35 b43d 9ea6 94bd 4308 7d3d 406e abbb
00000040: 5a12 893d 3051 f2bc f07d 1a3c 0242 9ebd
00000050: 5415 78bd 1bc1 84bd 68bc 8ebd 8557 153e
00000060: f171 293e 2ad6 adbd 1c25 04be 00e4 eebd
00000070: f6f5 e4bd 6a44 7bbd 9aa5 1a3c b760 a23c
0.018656718 -0.10687352 -0.036731973 -0.043798402 0.05182843 0.0466405 -0.0562436 -0.10570507
0.021195104 -0.11581377 0.026904168 0.14130265 0.08799179 -0.07258342 0.061775457 -0.0052316487
0.066929534 -0.029579729 0.00942944 -0.07727434 -0.060567215 -0.064821444 -0.069695294 0.14584167
0.16547371 -0.08488114 -0.12904781 -0.11664581 -0.11179726 -0.06134454 0.009438897 0.019821508

fc5.weight f4 [1, 32]
00000000: 865e 1c3d 8ea2 aebd fd91 8b3d 43d1 143e
00000010: f7e1 a73d 378d 97bd dcdc cebd 4dbe 9ebd
00000020: 5704 143d f1f6 fd3d 890a 083d 188c 8dbd
00000030: 8684 07be 2663 1fbe 4f9b 643d a04f 32be
00000040: 4c3b c43d 42a7 223e 74d3 8a3d fc17 213e
00000050: ccce 7ebd 1bad 2c3e 86ff e0bd f73b 6fbd
00000060: c485 aabd b4d9 9fbd 0551 eebc 2b15 b0bc
00000070: d56f 63ba a37d db3b 001b 0f3e 21f0 1fbe
0.038176082 -0.085270986 0.068149544 0.14532952 0.08197396 -0.073999815 -0.10100719 -0.07751141
0.03613695 0.12400616 0.033213172 -0.069114864 -0.13234147 -0.15565166 0.055812176 -0.17413187
0.095816225 0.15884116 0.06778613 0.15731806 -0.062208936 0.1686291 -0.10986237 -0.058406796
-0.08326295 -0.078051955 -0.029091367 -0.021494469 -0.0008676027 0.0066983267 0.13975143 -0.15618946
