DeepLearning/model_0321/model_best_2_r2_-0.011921210580532842.pth (torch, 666311 bytes, 9 tensors)

fc1.weight f4 [256, 478]
000000 c8 93 08 bd 7b 8f ec bc 61 a5 9e 3c 19 b7 89 3c
       -0.03334406 -0.02887701 0.019365968 0.01681094
000010 44 4e b0 3c c1 95 20 bd 7b b5 fc 3b ca cf 22 3c
       0.021521695 -0.039205316 0.007712064 0.009937236
000020 3d 9d d8 3c b9 7c 43 bd 35 40 77 bc 44 f5 a7 3b
       0.026442165 -0.047726367 -0.015090992 0.0051256735
000030 03 bd 91 bc c6 01 ab 3c ab 6e 80 3c 12 43 08 bd
       -0.017790323 0.02087487 0.01567777 -0.03326709
000040 c5 64 ae 3c 37 25 07 bd f3 19 3e bd 35 41 a4 3c
       0.021288285 -0.032994475 -0.046411466 0.020050624
000050 b9 71 8b bc bd e2 8a 3c 40 bf 95 bb 8c 50 a2 ba
       -0.017022 0.01695382 -0.004569918 -0.0012383624
000060 a1 3b 2f 3d a9 cb 0b bc 61 54 9d 3c bc 4e 0d 3d
       0.042781476 -0.008532443 0.019205274 0.034498915
000070 7b bd 3d bd 70 dd 2a bd 80 9e 1f 3d 8f 22 b9 bc
       -0.04632328 -0.041715086 0.038969517 -0.022599487
000080 73 c3 05 3d 6f e2 92 bb ea bf 13 bb ec 8f ae bc
       0.032657098 -0.0044825594 -0.002254481 -0.021308862
000090 62 22 54 bc 09 f6 09 3c 1d a6 59 bb 46 1f 15 bd
       -0.012947651 0.008420476 -0.0033210583 -0.036406778
0000a0 9e f4 da bc 28 b8 2b bd 8e e1 c1 3c da 61 26 bd
       -0.02672797 -0.041923672 0.023667123 -0.040620662
0000b0 e5 c7 43 bd 52 85 1e bd bb b4 03 bd 0b a0 0b bd
       -0.047798056 -0.038701363 -0.03215478 -0.034088176
0000c0 d2 b5 a0 3c 0b a2 d1 bc ad 7b df bb ea 69 b6 3c
       0.019617949 -0.025589963 -0.006820163 0.0222673
0000d0 2a b0 91 bc 0f 3f 2e 3b 41 a4 41 bd a8 19 09 bc
       -0.017784197 0.0026587879 -0.047275785 -0.008367933
0000e0 79 33 57 3c 85 63 c7 bc 18 12 7a 3c 94 0d 2c bc
       0.013134831 -0.024339447 0.015263103 -0.010501284
0000f0 88 18 26 3d cc c6 2f bd 59 96 52 3b d7 db 17 3d
       0.04055074 -0.042914197 0.0032133071 0.03707489
000100 b0 1e 09 bd 72 64 28 3d e5 a8 67 bb 6f f0 dd 3c
       -0.03347653 0.041111417 -0.0035348472 0.027092187
000110 e0 be 61 bb 6b 2d c8 3c b7 f9 1d 3d 9b 8b 0a bd
       -0.0034446046 0.02443572 0.038568225 -0.033824544
000120 54 fa 16 3c 90 69 63 bc 7e 79 ed 3c cc 44 81 3c
       0.009214956 -0.0138801485 0.028988596 0.015779875
000130 9b 4c 2a 3d 8f df a7 bc 2a 56 cd bc 30 7e 3b bd
       0.041576963 -0.020492343 -0.0250655 -0.04577464
000140 5c 5d d7 3c 51 f3 20 3d 38 87 80 3b 35 b1 04 3d
       0.026289634 0.039294545 0.0039223693 0.03239556
000150 0d 56 88 3c 2a 42 dd bc cc 12 a6 3b 47 5a e1 3c
       0.016642595 -0.027009089 0.0050681587 0.027508868
000160 9a 5c 80 bc 71 a0 0b 3d c1 b1 0e bd bc 80 82 bc
       -0.015669156 0.034088556 -0.034837488 -0.015930526
000170 21 55 c7 3c 79 ce 24 bc 39 65 e8 bc 73 a8 23 bd
       0.024332585 -0.010058993 -0.02836858 -0.039955568
000180 91 00 04 3d 76 6f 20 3d d5 d6 00 bd 00 90 87 3c
       0.032227103 0.039168797 -0.03145488 0.016548157
000190 a7 4d 85 3b 58 2b 9a bc d7 35 87 bc 56 8e c7 bb
       0.004068095 -0.018819496 -0.016505165 -0.006089966
0001a0 f6 7c a3 3c 6a 25 41 bd 4b c3 93 bc 52 ae 27 bd
       0.019957047 -0.04715482 -0.018037459 -0.04093773
0001b0 89 e7 98 bc fc 90 bc 3c 59 0f 21 3d 5e 58 2d 3d
       -0.018665092 0.023018353 0.039321277 0.0423206
0001c0 1e 6c df 3b 1d 0a a2 bc bf e4 c7 bb 43 29 87 3c
       0.0068183085 -0.019780213 -0.0061002667 0.016499167
0001d0 2f 91 fc 3b 13 99 dd 3c bf c5 cd 3b 3c 66 ae 3c
       0.007707737 0.02705053 0.0062796767 0.021288984
0001e0 c6 dc f2 bb de e0 95 3c 66 81 3a 3c 20 01 1e bc
       -0.007411572 0.018295702 0.01138339 -0.009643823
0001f0 43 ce 2a 3d 79 20 e9 bc 6e ed dc 3c 20 5b 6c bc
       0.041700613 -0.028457867 0.026968684 -0.014426023
000200 1f b0 23 bd ff 64 d8 3c 3c 84 58 bc 12 e8 09 3d
       -0.039962884 0.026415346 -0.013215121 0.033668585
000210 2e ac 69 bc c2 9c 70 bc d3 97 91 3b bf ba c2 3c
       -0.014262242 -0.0146858115 0.0044431477 0.023770688
000220 46 ef b4 bc 9c 2c bd bb da 2f 4f bc 80 93 f8 3c
       -0.02208675 -0.00577314 -0.012645686 0.030343771
000230 8b ca 15 3d 31 df 08 bd 92 31 38 bd c9 73 1b 3d
       0.036570113 -0.033415977 -0.04496915 0.03795222
000240 a3 c2 6b bc df 86 b0 bc ea 0c f5 bc d6 2a 44 38
       -0.014389667 -0.021548687 -0.029913384 4.6769936e-05
000250 f5 f3 86 3c 72 de 78 bc e6 ad 43 3c 6c 65 04 bd
       0.01647375 -0.015189754 0.011943316 -0.032323286
000260 87 6a 71 3c e7 4b c3 3c a8 02 33 bd 16 3e 11 bb
       0.014734871 0.023839904 -0.043703705 -0.002216225
000270 33 56 38 bd ae 0b 37 bc 1b df 4e 3c 45 fe a0 bb
       -0.04500408 -0.011172218 0.012626435 -0.004913124
000280 b6 49 21 bc 39 ec e6 bc ec 23 fb 3c cd 3a 3d bc
       -0.009844234 -0.028188812 0.030656777 -0.011549664
000290 05 2d 00 3d a4 64 05 bd ef 16 ee bc 7c 36 41 3c
       0.031292934 -0.03256668 -0.02906367 0.011792775
0002a0 16 76 18 3d 86 63 22 3d 93 93 16 3d 7d 45 59 bb
       0.03722199 0.039645694 0.03676183 -0.003315299
0002b0 f4 46 a3 3c 4e 5e 4b 3c f9 2f 24 3d 96 47 ad 3c
       0.019931294 0.012412621 0.040084813 0.021152299
0002c0 d9 3e 81 3c 87 05 1e bd 51 74 4f b8 a5 77 2a bd
       0.015777038 -0.03857949 -4.9460974e-05 -0.04161801
0002d0 9b 47 19 3d 30 dc 4f bc d5 1e 3a 3d 28 01 25 bc
       0.037421804 -0.012686774 0.04543956 -0.010071076
0002e0 d6 4c 18 3d 57 a2 00 bd aa ac 0c 3d 4e 97 e0 3b
       0.03718265 -0.03140482 0.034344353 0.0068539744
0002f0 69 a8 8b 3c 5e 08 03 bd 0a cf 8d 3c b5 79 fe bb
       0.017048078 -0.0319904 0.017310638 -0.0077659735
000300 50 85 8f 3c 21 16 73 bc 99 86 29 bd 9f 88 35 3b
       0.017519623 -0.014836819 -0.041388128 0.002769984
000310 07 84 69 3c cc 99 be ba bb e1 50 bc 16 5a b4 3a
       0.014252669 -0.0014541685 -0.012749131 0.0013759758
000320 76 4b b8 3a 7c 4f 71 bc 27 46 36 bd be 02 00 3d
       0.0014060575 -0.014728423 -0.044500496 0.031252615
000330 f6 d4 2b bd c6 89 0f 3b 22 05 01 bc f5 54 52 bc
       -0.041951142 0.0021902188 -0.007874759 -0.012837638
000340 2f 08 23 3d a4 6f 08 3d 77 88 a9 3c 2d 68 b2 bc
       0.039802726 0.033309594 0.020694954 -0.02177819
000350 fb 07 2e ba b8 75 3a 3c e0 99 44 3c d9 cb 25 3d
       -0.00066387624 0.011380605 0.011999577 0.040477607
000360 b1 8b 16 bd e9 3e 7e bc b2 2f e8 3c a3 58 cd bc
       -0.036754314 -0.015517929 0.028343055 -0.02506668
000370 65 43 61 3c bd ac d9 3c 99 89 5d bc d2 7c 26 bd
       0.013748978 0.026571626 -0.013521575 -0.04064638
000380 f9 c0 ae 3c 6f d3 f7 3c dc c7 3c 39 1b 21 1f bd
       0.02133225 0.030252187 0.0001800353 -0.03884993
000390 7c a3 76 bc cf 2d 12 3d c4 12 3d bd 28 e5 9f bc
       -0.015053626 0.035688218 -0.046160474 -0.01951845
0003a0 08 ed a0 3c 32 d9 ab bc 28 48 d7 bc 84 1f 2b 3d
       0.019644275 -0.02097759 -0.026279524 0.041778103
0003b0 5f 8e 39 3c f1 10 af 3c 17 65 ab 3c 37 d2 ca 3c
       0.011325448 0.021370383 0.020922227 0.024758441
0003c0 97 b5 94 3a 6b a3 4f bb ab b5 27 3c da a7 ef bc
       0.0011345622 -0.0031683098 0.010236184 -0.029254843
0003d0 51 bf 06 3d 95 5c 44 bd 2d e2 0c 3d 76 03 0c bd
       0.032897297 -0.047939856 0.034395386 -0.034182988
0003e0 f1 42 22 3b ed a0 c9 3c 28 fd d7 3c d2 3a 2e bd
       0.0024759138 0.024612868 0.026365831 -0.042536564
0003f0 14 58 d3 3c 16 af f1 3c 24 7f ff 3c ac 98 01 bc
       0.025798835 0.029502433 0.031188555 -0.007909935

fc1.bias f4 [256]
000000 d3 1c 2a 3d a4 f1 da bc fb 86 3f bc ce 59 83 3d
       0.041531395 -0.026726551 -0.011689897 0.06413613
000010 25 a9 4b 3d ac 7a d8 bc 9e e2 83 3c e7 02 72 bc
       0.049721856 -0.026425682 0.01609927 -0.0147712
000020 1b f3 49 3d 31 72 d8 3c 40 b4 aa bc 4d 8b 27 ba
       0.04930411 0.026421638 -0.020837903 -0.0006391302
000030 c0 8a e8 3a cb 37 d9 bc 4f 6e 2d 3d 63 27 db bc
       0.0017741546 -0.026515862 0.042341527 -0.02675218
000040 25 d6 5b bc 80 27 46 bc 56 c5 c8 3c 28 a6 8c 3c
       -0.013417755 -0.0120943785 0.02450816 0.017169073
000050 ee 5e 4b ba 9a 9a f2 bc 7d 33 8b bb ef c3 05 3b
       -0.0007757981 -0.029614735 -0.0042480812 0.0020410975
000060 69 4c 9a bb f8 bf 08 bd e1 6e f3 ba 2f 41 3d 3c
       -0.004708816 -0.0333862 -0.0018572473 0.0115511855
000070 84 a9 b1 bc 44 37 3b bb b7 fe fb bc 4f fb 82 bc
       -0.021687277 -0.0028566876 -0.030761106 -0.015988974
000080 15 bf d2 3c 6c 0c 03 bd f3 c1 bb bc ea 05 6f bb
       0.02572588 -0.03199427 -0.02291963 -0.003647203
000090 dc 2e 26 bc 22 04 03 bd fa a2 53 3c 59 e1 27 3d
       -0.010143008 -0.031986363 0.012917275 0.040986393
0000a0 24 17 5f 3d 46 c1 0c 3d d8 91 07 3d 19 d0 29 bc
       0.054465428 0.034364007 0.03309807 -0.010364556
0000b0 48 39 c9 bc 6f 6f 48 bc 56 7c 16 bd 96 ea 06 bd
       -0.024563447 -0.012233599 -0.03673967 -0.032938562
0000c0 86 ba 68 3c b4 63 29 3d ed 5d cc 3c c4 ee 32 bd
       0.014204627 0.04135485 0.024947131 -0.043684736
0000d0 df d4 03 bd 6f 75 00 3d 1f 9c 25 bb c2 d6 a7 3c
       -0.03218543 0.031361993 -0.0025270057 0.020488147
0000e0 6f 8f b9 3c 75 f5 2c bd d0 11 33 bd 72 ec 43 bd
       0.022651402 -0.042226274 -0.04371816 -0.047832914
0000f0 ee c2 a4 3c dd ac 05 bd d9 6c 6e bc ca 02 10 3d
       0.020112481 -0.03263556 -0.0145523185 0.03515891
000100 76 18 0e 3d d7 80 eb bc e9 05 a1 3c 48 ea 4a bd
       0.034691297 -0.028747959 0.019656138 -0.049539834
000110 3b a6 20 bd 67 68 e8 bc 64 52 d1 3c b5 39 2b 3c
       -0.03922103 -0.028370095 0.025551982 0.01045077
000120 31 3a 6f 3c bc f7 19 bd b6 24 b2 bc bb 1f 27 3c
       0.014601276 -0.037589774 -0.02174602 0.010200436
000130 ff 67 94 bc e6 94 26 bd 7b cb 9d bc dc 80 39 3d
       -0.018115995 -0.040669344 -0.019262066 0.045288906
000140 b8 b5 3d 3b 5b ab 8b bc 05 fa 39 bd 66 6a 5c bc
       0.0028947424 -0.017049482 -0.045404453 -0.013453102
000150 ac ed 29 bc 5b b4 16 bd c9 b9 c8 3c 80 8e 83 3d
       -0.010371607 -0.036793094 0.024502652 0.06423664
000160 d0 9d 40 bc bf 0f 98 bc 19 a4 8f bb b3 86 1c bd
       -0.011756375 -0.018562196 -0.0043835756 -0.038214397
000170 c3 ae a8 bc 8f 4e 03 bd 14 4a c0 bc fc 51 19 bd
       -0.020591145 -0.03205734 -0.023472823 -0.037431702
000180 83 fb 28 ba dd 7d 7d 3c 5f ba e7 38 83 b4 ea bc
       -0.00064461696 0.015471903 0.00011049653 -0.028650528
000190 e5 08 a8 3c fe 48 32 3d 38 e9 11 3d fc 72 05 3d
       0.020512054 0.043526642 0.035622805 0.03258036
0001a0 24 c1 fb 3c 88 97 d0 3b 9a 3c 1c bd 00 ee 2e bd
       0.030731745 0.00636572 -0.03814373 -0.042707443
0001b0 d0 a5 f8 3c fd f3 1e bc cb b7 a5 bc 26 66 1a 3d
       0.030352503 -0.009701726 -0.02022924 0.037695073
0001c0 a2 db 06 bd 28 7f 37 3d 65 a5 26 bc 81 4b 99 bc
       -0.032924302 0.044799 -0.010171269 -0.01871276
0001d0 ab bb c1 bb 87 a8 61 bc ca de 24 3c 24 f8 13 bd
       -0.0059122643 -0.01377309 0.010062883 -0.036125317
0001e0 65 24 99 bb cf e8 0c 3d 5f 82 1c 3d a9 73 c1 3c
       -0.004673528 0.03440171 0.03821027 0.023614721
0001f0 52 f6 c0 bc d8 df ba 3c b5 ea 3f bc 34 e2 1e 3d
       -0.023554955 0.022811815 -0.011713673 0.038789943
000200 79 78 18 bd 6c f4 1f bd 64 74 d5 bc 85 cd 3a 3d
       -0.037224267 -0.03905146 -0.026056476 0.045606155
000210 6d 79 9c 3c ea d9 0a bd d7 98 4e bc 01 cc 17 3c
       0.01910087 -0.033899225 -0.012609682 0.009264947
000220 46 77 da bb b2 d7 cf 3c 0b 88 17 3c cd 6b 17 bd
       -0.0066670505 0.025371406 0.009248744 -0.03696804
000230 f1 5b 24 3d 5a 40 0e 3d 7c 6c 8f bc d2 27 c2 3b
       0.040126745 0.03472934 -0.017507784 0.005925157
000240 ab f8 07 bb 17 f0 8b 3c 05 22 6f 3c 22 cd 55 bc
       -0.0020747583 0.017082257 0.014595513 -0.013049396
000250 85 8a 5a bc 44 a1 10 3c 5d a9 1f bd 41 75 bc bc
       -0.01333869 0.008827511 -0.038979877 -0.02300513
000260 30 12 db 3c 7e 0a bf bc af 3a 86 3b 65 9a 18 bd
       0.02674207 -0.023320433 0.004096351 -0.037256617
000270 8d 04 52 bc b6 0e 7b bb 79 4d 0b bd b8 e6 a4 bc
       -0.012818468 -0.003830833 -0.03400943 -0.020129547
000280 32 e0 0f 3b 33 83 16 3d ee 31 fd 3c 3d 6a 78 bc
       0.00219537 0.036746215 0.030907597 -0.015162048
000290 64 53 ce bc 08 4c 03 bd fe 19 0f bd aa 50 5d 3b
       -0.025186248 -0.03205493 -0.034936897 0.0033770003
0002a0 91 a6 88 bc 06 0b 0e 3c 8f c1 a6 bc 2a 96 d4 3c
       -0.016680988 0.00866962 -0.020355968 0.02595051
0002b0 47 eb b4 3c f9 0b bc bc 20 21 4a bc 60 e8 25 bd
       0.022084845 -0.022954928 -0.012336999 -0.040504813
0002c0 ca dd 85 bc a4 c4 ef bc d5 94 18 3d 54 57 23 bd
       -0.016341109 -0.02926857 0.037251312 -0.039878204
0002d0 d6 ea 08 bc 6b 64 07 3d b8 d4 3f bd bf 22 91 bc
       -0.0083567705 0.03305475 -0.046833724 -0.017716764
0002e0 1e 4d 2f bd c8 c6 d3 3c 24 90 35 3c 55 ba ab 3a
       -0.042798154 0.025851622 0.011081729 0.0013101796
0002f0 42 ca c6 3c 7a 9c 16 bc 59 73 be 3a c2 9f 9d bc
       0.024266366 -0.00919258 0.0014530226 -0.019241218
000300 02 72 ec bc c7 ce 5e 3c a1 a4 a9 3c 38 de e7 3c
       -0.028862957 0.013599104 0.020708384 0.028304204
000310 c6 d2 17 bd 04 7e 26 bd 27 70 22 bd e4 a4 1e bd
       -0.037066244 -0.04064752 -0.039657738 -0.03873147
000320 e7 54 ef bb ae f1 6b bb b1 56 0d bd 45 8a 07 3a
       -0.0073038223 -0.0036002207 -0.034506503 0.0005170445
000330 bc 27 a8 3c 50 20 26 3a 23 4a 4e 3d 82 8e 3f 3c
       0.02052676 0.00063372124 0.05036367 0.011691691
000340 08 9b c9 bc c1 04 1d 3d e9 63 45 bb 44 d7 a2 3c
       -0.024610057 0.03833461 -0.0030119366 0.019878037
000350 c6 49 bc 3c 25 dd 29 3b 35 1c ca bc 8f 19 0e 3d
       0.022984397 0.0025919166 -0.024671653 0.034692343
000360 fc b5 9d 3c 8f 08 3d bd 4b 1a bf bc db f6 68 bc
       0.019251816 -0.04615074 -0.023327967 -0.014219011
000370 55 33 ed bc 8c c4 ef 3c 94 36 87 bb 76 12 5c bc
       -0.028955141 0.029268526 -0.0041263793 -0.013432136
000380 88 a6 81 3c 74 91 6c 3c 62 3a 3d bc b9 99 ae 3c
       0.015826479 0.014438976 -0.011549564 0.021313535
000390 bd 3a b7 3c a3 9f a0 3c 34 49 1c 3d 54 a0 a3 bc
       0.022366876 0.01960737 0.03815575 -0.019973911
0003a0 c3 11 2f 3d ea 4b 94 3c 47 a3 87 3c 7e c1 6a bc
       0.04274155 0.018102605 0.016557349 -0.014328359
0003b0 b2 3f f8 3c f8 75 95 3c 65 8e 06 bd 99 0f 8d 3c
       0.03030381 0.018244728 -0.03285064 0.017219352
0003c0 6d 10 5a bb 9d 46 f9 bb 80 af 91 3c 3d e8 31 3c
       -0.003327395 -0.0076072947 0.01778388 0.010858593
0003d0 ce fe 61 3c 70 44 2c 3d 5a 73 a8 bc 1b 74 0d bd
       0.01379366 0.042057455 -0.020562816 -0.034534555
0003e0 3e cf 13 bd 90 5e 9d bc 22 d0 ff 3c 9a 7f 1b bd
       -0.036086313 -0.01921013 0.031227175 -0.037963487
0003f0 94 e7 10 3c e8 96 eb bc 72 28 06 bd 1c a6 ac 3c
       0.008844275 -0.028758481 -0.032753415 0.0210753

fc2.weight f4 [128, 256]
000000 9d 46 72 3d d5 7c 5d 3d c7 49 7d 3c b6 f7 39 3d
       0.059149373 0.054074127 0.015459484 0.04540225
000010 aa 7c 6a 3d d5 01 ee bc 89 c3 93 3b a2 76 2a 3d
       0.057247795 -0.029053608 0.0045093936 0.041617043
000020 31 2a 6d 3d 9e 8e a2 3a 71 de ec 3c a0 ba da bc
       0.057901565 0.0012402122 0.028914662 -0.026700318
000030 c0 f4 ff bc 44 8e a6 bc b0 fb 42 bd 3f 35 00 bd
       -0.031244636 -0.02033151 -0.04760331 -0.03130078
000040 25 02 6b 3b 32 fd 77 bb f7 aa 6b 3d 86 64 88 bc
       0.0035859433 -0.0037840125 0.05753609 -0.016649496
000050 a9 65 8b 3d e3 5b cd 3c a9 85 1f bd 5f 4b cc 3c
       0.068064995 0.025068229 -0.038945828 0.024938283
000060 7f c8 dc bc fb ad 2e 3d 45 e7 3d bd c1 47 3b bc
       -0.026951073 0.04264639 -0.046363134 -0.011430682
000070 9c e9 80 3d 8f b8 61 3d 34 72 8a 3c b3 3b 19 bd
       0.062945575 0.05510765 0.01690016 -0.03741045
000080 58 8d 9e bb 79 78 1e bd c1 93 25 3d 11 76 c8 bb
       -0.004838627 -0.03868911 0.040424112 -0.0061175902
000090 bd 9a 68 3d 20 76 5c 3d ed 69 5e 3c a4 fc e1 3c
       0.056788195 0.05382359 0.013575059 0.027586289
0000a0 8e e4 ab bc 85 9d 93 bc e2 ed a9 3c f1 d0 bb 3c
       -0.020983007 -0.018019447 0.020743314 0.02292678
0000b0 c7 c3 09 bd 89 c1 a3 3c 00 05 0e 3d c7 94 3e 3d
       -0.033633973 0.019989746 0.034672737 0.046528604
0000c0 64 53 48 3d 15 fb 6e bd d0 d0 4f 3d a2 8f 42 bd
       0.048907652 -0.05834492 0.05073625 -0.04750026
0000d0 dd 02 2f bc ee 97 7a 3d 1f 0b 22 3d 58 5e 76 3d
       -0.010681835 0.061180048 0.039561387 0.060148567
0000e0 a3 a7 58 bd 5e 10 68 3d d3 7d 42 bc 5d 70 5e bc
       -0.052894246 0.056656234 -0.011870819 -0.013576594
0000f0 a7 c7 3f bc a0 e3 60 bc 96 7c 0f 3d 2d 20 ce ba
       -0.011705316 -0.013726145 0.035030924 -0.0015726142
000100 68 18 27 3d a7 ce fa 3c 2b 53 9e 3c bc a8 39 bd
       0.04079476 0.030616118 0.019326767 -0.045326933
000110 79 cd 34 bd eb 5c 8f 3c 51 86 e2 3c ac 57 57 3d
       -0.044141266 0.017500361 0.027651938 0.052573845
000120 3a b6 5d bc fb 5a cd bb bf a4 6c 3b eb 46 4d bc
       -0.013532216 -0.006266949 0.0036108939 -0.012529115
000130 e4 f7 5c 3c 2b 84 c5 3c 18 a7 57 3b 2f d6 01 bd
       0.013486836 0.024110874 0.0032905992 -0.031698402
000140 be 98 df bc 73 8e a3 bc 5c fa 81 3d 59 02 6a 3c
       -0.027294513 -0.019965386 0.063465804 0.014282786
000150 9d 8a 0c 3c b1 62 07 3d f3 c5 23 bd c6 b4 8c 3d
       0.00857797 0.033053104 -0.0399837 0.06870417
000160 83 5f d9 bc 70 8a b4 3c e0 1b 34 bd 83 23 ed bc
       -0.026534801 0.022038668 -0.043971896 -0.028947597
000170 7b ec 34 bd 50 00 29 bd a5 67 51 3d 7f fe 84 3d
       -0.044170838 -0.041260064 0.051124234 0.06493854
000180 fd 2c 0a bd fc 74 7a 3c 0e d7 b5 3a 45 35 12 bd
       -0.03373431 0.01528668 0.0013873295 -0.035695333
000190 82 03 cd bc 42 20 0c bc 7f 4e 40 bd 62 59 13 3d
       -0.025026087 -0.008552613 -0.04694986 0.035973914
0001a0 0f b2 bf bc 2b 8c 10 3d a4 c0 1f bd 27 f5 24 bd
       -0.023400335 0.035289925 -0.039002076 -0.040272858
0001b0 2c 80 df 3c 92 03 53 3d 1c ae 53 3c 64 54 7f 3d
       0.027282797 0.051517077 0.012919929 0.06233634
0001c0 79 0f 27 bd a6 5d 43 bb 1e 42 c4 39 51 5f 01 3d
       -0.04078624 -0.0029810457 0.00037433294 0.03158504
0001d0 2f 14 ba 3b 92 91 9e 3c ba 33 3f bb 6f 3e 57 bd
       0.0056786756 0.019356523 -0.0029175119 -0.052549776
0001e0 ba a8 39 3d b1 43 11 3d 9f 24 53 3a 53 f2 7b 3d
       0.045326926 0.035464946 0.0008054468 0.061510395
0001f0 71 75 73 bc 6b e8 60 3d af 1d 0f 3a 10 46 9d 3c
       -0.014859543 0.05490915 0.000545944 0.019198447
000200 84 01 1d bc 99 e4 e5 3c 12 b3 b2 3b 68 30 54 bb
       -0.009582881 0.028063105 0.0054534758 -0.0032377485
000210 4e 76 e6 bb f4 1e 68 bc fb ad b0 bb c5 82 04 3c
       -0.007033146 -0.014167536 -0.005391834 0.0080878185
000220 33 46 7d 3d cc 78 65 3d fb 52 f6 3c e6 f4 d9 3c
       0.061834525 0.056023404 0.030068865 0.026606034
000230 3a b8 41 3d ee f4 6a bc 33 4d 90 bc c3 f2 96 3c
       0.047294833 -0.014340622 -0.017614936 0.018426305
000240 9c 88 b6 bc f9 df b8 3c a8 04 8a bc 7b f7 54 bd
       -0.022281937 0.022567736 -0.016847923 -0.05199383
000250 f5 cc e2 bc 90 c2 80 bc d8 aa 47 3d e2 16 08 3d
       -0.027685622 -0.015717775 0.048746914 0.033224948
000260 1d 31 50 bd a8 d6 e5 3c 72 47 4e 3d 5d ce 16 bd
       -0.050828088 0.028056458 0.050361104 -0.036817897
000270 06 44 16 3d 63 62 83 bc 8f 57 1b bd b8 23 e1 bc
       0.036685966 -0.016038125 -0.0379253 -0.027482852
000280 32 b8 56 3d fe c5 28 bd da bb b4 3c e7 8f 38 3c
       0.052421756 -0.041204445 0.02206223 0.011264778
000290 cd d2 63 3d d3 ff 91 bc e8 55 be bc 7b 82 9a bb
       0.055620957 -0.017822182 -0.023234323 -0.0047152615
0002a0 11 1c 7b 3c 03 50 db bb 98 80 b9 ba 40 f2 5d bd
       0.015326516 -0.0066928877 -0.0014152704 -0.054186106
0002b0 4c 8e 30 3d 8e 7f bc 3b 28 33 03 3d f5 61 f6 3c
       0.043104455 0.0057525104 0.03203121 0.030076006
0002c0 b9 55 da 3c 1c ad 06 3d 2a 63 41 bd d1 6d 60 3d
       0.026652204 0.032879934 -0.04721371 0.05479223
0002d0 b8 c5 62 3d c9 0b 31 3d 92 9a ee 3c d7 4c 4a bd
       0.05536434 0.04322413 0.02912644 -0.049389686
0002e0 9b 33 b0 3c 0b 89 c7 bc f4 75 15 3d fd 90 39 3c
       0.021508982 -0.02435734 0.036489442 0.011326072
0002f0 6f 50 81 bc 98 2b 7c bd f1 b1 51 3d c9 e5 08 bc
       -0.015785424 -0.06156501 0.05119509 -0.008355566
000300 e9 d3 fa bb 63 3f 22 3b bb 6a 17 3c ce 6d 46 bd
       -0.007654656 0.002475702 0.009241755 -0.04844456
000310 20 27 aa bc a2 81 b0 3c 3a 7b 58 3d 5a 89 8b bb
       -0.02077061 0.021546189 0.052851893 -0.004258317
000320 3f ae 34 3a 7f a4 06 3d e5 60 3a bd 3b d7 69 3d
       0.000689242 0.03287172 -0.045502562 0.057090025
000330 05 12 57 bd 1d e5 de bc c2 fe bc 3c fe cf 50 3d
       -0.05250742 -0.02720886 0.023070697 0.050979607
000340 05 81 51 3c b7 2b 0b 3d c0 3a bc bc ad e3 28 3d
       0.012787108 0.033977237 -0.022977233 0.041232754
000350 8b fd f6 3c f6 82 50 3d 0e e8 52 3a 1d c8 a0 3c
       0.030150196 0.050906144 0.0008045443 0.019626671
000360 5c d9 18 bc 4c 83 86 bc 02 a8 2d 3d e3 92 98 3c
       -0.009329166 -0.01642003 0.042396553 0.018624729
000370 68 90 b4 bc 22 b0 83 bc 33 14 a1 3c 7b 0f 76 bc
       -0.022041515 -0.016075198 0.019662952 -0.015018339
000380 61 f8 02 bd 24 4e b0 3c 4f a6 50 bd 80 d8 79 3a
       -0.031975154 0.021521635 -0.050939854 0.0009530857
000390 43 ec ec 3b f0 62 32 3d 07 91 65 bb 8b af a3 bb
       0.007230313 0.043551385 -0.003502907 -0.0049952916
0003a0 a4 f8 57 3d 9e bf 20 3d f8 ef 5c 3d 47 cc f3 bc
       0.052727357 0.03924524 0.05393979 -0.029760493
0003b0 61 28 0c 3c f0 87 a1 bc 1c 5d 95 3c 78 9c 71 bd
       0.008554549 -0.01971814 0.018232875 -0.05898711
0003c0 2a b0 ee 3c fe 5a 25 3d 60 4d 30 3d df b8 e4 3c
       0.029136736 0.04036998 0.04304254 0.027920185
0003d0 5b d3 44 bd 24 d0 41 3d 8b ea 76 3c 20 46 3f 3d
       -0.048053127 0.04731764 0.015070568 0.046697736
0003e0 1c 36 0f 3c 9b e4 38 3d 23 0f c8 bc 8a 2b d1 3b
       0.008740928 0.04513989 -0.02442128 0.006383364
0003f0 07 89 7e bd ea c0 6c 3d 92 d6 36 bd 87 12 b3 bc
       -0.0621424 0.057801165 -0.044638224 -0.02185942

fc2.bias f4 [128]
000000 52 46 20 3d 5e f9 6e 3d 03 fd b2 bb 7c 32 3a bd
       0.039129563 0.058343284 -0.0054622903 -0.045458302
000010 33 e1 d5 3c 80 10 41 bd 00 ff b6 ba 80 c9 d2 3c
       0.02610836 -0.047134876 -0.0013961494 0.025730848
000020 40 1b 73 bd f4 8f 06 bd 5a a2 3b 3d 70 bd 0a bd
       -0.05935216 -0.03285213 0.045809127 -0.033872068
000030 2a 2c 16 3d 28 47 f6 3c 9e af b6 bc 94 58 22 3d
       0.036663212 0.030063227 -0.022300538 0.039635256
000040 0f 53 74 bd 3c 81 4e 3d 43 6d 44 3d 79 64 a3 3b
       -0.059649523 0.050416216 0.047955763 0.0049863425
000050 f5 c9 0a 3d 32 76 63 3c 62 ed 24 bd 95 ea 66 3d
       0.033884007 0.01388316 -0.04026545 0.05637606
000060 38 a2 bc bc 35 e0 fc bb b5 33 9f bc c7 db 55 3d
       -0.02302657 -0.0077171572 -0.019433836 0.05221155
000070 e1 39 c7 3c 90 4b 3d 3d 02 76 6e bd c9 7f 5c bd
       0.024319591 0.04621464 -0.05821801 -0.053832803
000080 8a 81 01 bd 73 bc 48 bd fb 15 f8 b9 2f fb 86 bd
       -0.03161768 -0.049007844 -0.00047318623 -0.06590878
000090 f3 50 29 bd 9c b3 55 bb be f2 5a bd a3 23 53 bd
       -0.041336965 -0.0032608276 -0.053454153 -0.051547658
0000a0 a7 a2 04 bd 1f 37 30 bd f0 64 71 bd ac ec 4c 3d
       -0.03238168 -0.043021318 -0.058934152 0.050030395
0000b0 11 2c 29 3d 71 42 40 3d cf c1 68 3d 89 e2 da 3c
       0.04130179 0.046938363 0.056825455 0.026719349
0000c0 df 45 9d 39 bb 90 6e bd 6e f5 0e bd 15 20 46 bb
       0.00029997432 -0.058243494 -0.03490203 -0.0030231525
0000d0 4c 9c 3a bd 11 89 34 3d c4 a5 82 3c 18 84 81 3d
       -0.045559213 0.04407603 0.015948184 0.06324023
0000e0 c0 f7 8c 3d 5d 4a 28 3d 69 1d 0c bd dc 78 36 3d
       0.06883192 0.041086543 -0.034207735 0.044548854
0000f0 35 27 05 3c 4b cd b6 3c 82 52 cd bb f8 be 36 bd
       0.0081270235 0.022314688 -0.006265939 -0.044615716
000100 e8 6d bd bc 9e c9 83 bc e5 ed ea bc 39 2b 61 3d
       -0.023123696 -0.01608735 -0.02867789 0.05497286
000110 d1 1c 4b bd 13 c3 84 bd 29 f5 b5 b9 24 4a de bc
       -0.04958803 -0.0648252 -0.0003470567 -0.027134962
000120 30 c9 db 3c e9 a8 48 3d 5a 87 6b bc 20 7f ca 3a
       0.026829332 0.04898921 -0.014375532 0.0015449263
000130 fd a5 e8 3a b3 9c dd bc f6 06 90 3c 4c a9 8c bd
       0.0017749664 -0.02705226 0.017581444 -0.06868228
000140 a1 5c c7 3c 86 51 10 3d 3e df 8e 3c ad 16 37 3d
       0.024336161 0.035233997 0.017440435 0.04469936
000150 20 94 b4 bc 46 e4 ae bc bf a6 f9 3b df 20 51 3d
       -0.022043288 -0.021349084 0.0076187546 0.05105674
000160 71 05 d2 bb 54 f5 52 bd cc e1 55 bd 9b 68 84 bd
       -0.00640934 -0.051503494 -0.05221729 -0.064652644
000170 2c e0 04 bc aa 77 b9 bc f4 1f f2 3c d0 01 86 3a
       -0.008110087 -0.022640068 0.029556252 0.0010223929
000180 f4 24 0c 3d ff 22 a7 3b 3f af 2f bd 76 94 a2 3c
       0.03421493 0.0051006074 -0.042891737 0.019846182
000190 c2 2d 3f bd 34 13 2f bd ee 70 5b 3d a6 17 42 bd
       -0.046674497 -0.042742923 0.053574495 -0.047385834
0001a0 10 ee 41 3d a3 2e 02 bd 8c e4 d6 3b 4e 44 65 3d
       0.047346175 -0.031782757 0.0065580066 0.055973344
0001b0 0a 9e 67 bd 6a fb d0 ba fb a1 5d bd 58 dc 7c bc
       -0.056547202 -0.0015944068 -0.054109555 -0.015433393
0001c0 39 bb 3e 3d 1b 1b 2e 3c 81 00 83 3d a7 6a 83 bb
       0.04656527 0.01062658 0.063965805 -0.0040105167
0001d0 9d a2 05 3d 72 e2 98 3c 61 bf 76 3d 3f e1 41 bc
       0.032625783 0.018662665 0.060241107 -0.011833488
0001e0 63 7b cb bc 12 97 80 bd a8 b5 f3 bc 6c 81 86 3d
       -0.024839109 -0.062788144 -0.029749706 0.06567654
0001f0 93 c2 47 bd bf 47 32 bc 4d e3 76 bd 3e 73 ae 3c
       -0.048769545 -0.010881363 -0.060275365 0.021295186

fc3.weight f4 [64, 128]
000000 e8 7a c4 bd fd 8d 7d 3d da 02 84 bd 05 ab 97 3d
       -0.09593755 0.06190299 -0.064458564 0.07405666
000010 7e 8a e5 bc 6f 7d 8f bb cc fb 70 bc 78 56 7b bd
       -0.02802014 -0.0043789665 -0.014708471 -0.06136176
000020 0b 33 48 bd c9 77 21 3d a4 c7 1a 3d 4a b2 20 3d
       -0.048876803 0.039420877 0.03778805 0.03923253
000030 45 4f b0 bd 27 cb 1a 3c ab f2 ab bd d1 f0 73 bd
       -0.086088695 0.009447849 -0.083958946 -0.059555832
000040 60 c4 f3 bc 33 dd 12 bd a5 b0 6d 3d 09 5c 47 3c
       -0.029756725 -0.035855483 0.05802979 0.012167939
000050 87 fe ba bd 23 b6 b3 bd ab 77 b5 3c 14 f8 8e bc
       -0.091305785 -0.08774974 0.022151789 -0.017452277
000060 06 2c 79 3d 72 a9 8e 3d c2 77 c7 bb 20 9c 80 bd
       0.060833 0.06965913 -0.0060872743 -0.062797785
000070 59 a3 cd 3c bf 89 b7 bd 1f 15 c2 bd 9d 05 41 bb
       0.025102304 -0.0896182 -0.09476685 -0.0029452809
000080 ff 76 a6 bd 42 9a b1 3d c4 4e 84 3d 56 22 9e bd
       -0.081281655 0.086720005 0.06460336 -0.07721393
000090 73 be 20 bd 41 2a 8c 3d 0c 0f 8f bd 54 e2 42 3d
       -0.039244127 0.06843997 -0.06985292 0.047579125
0000a0 93 c6 9d bc 39 d7 49 3b 0d 27 4c 3d 92 ed 9d 3d
       -0.019259727 0.0030798449 0.04984193 0.077113286
0000b0 2c ff 2e bd b4 a2 d1 bc 48 91 a4 bd 2d df a2 3d
       -0.04272382 -0.025590278 -0.08035523 0.07952724
0000c0 27 70 13 3c df 8e 84 bd 41 48 86 bd 10 0c aa bd
       0.008998907 -0.06472563 -0.0655675 -0.08303082
0000d0 c4 6a 39 bd e1 a4 28 bc 2b 04 53 3d 0f 87 f4 bc
       -0.045267835 -0.010293216 0.051517647 -0.029849557
0000e0 62 0f a1 3d de 4b 8f 3d 02 66 a0 3d bb 0d 49 3d
       0.07864262 0.069968924 0.078319564 0.04908536
0000f0 db 08 a3 bd c4 91 88 bd 95 c3 90 3d 37 e7 54 3c
       -0.079606734 -0.066684276 0.07068554 0.012994579
000100 40 54 0a 3d e5 79 95 bc 4e fb 3f 3d 78 c5 39 bc
       0.033771753 -0.0182466 0.046870522 -0.011338584
000110 d6 23 ce 3c ac 15 9a 3d ad a9 a3 bd 8a 97 8c 3d
       0.025163572 0.07523665 -0.079913475 0.06864841
000120 cf 55 30 3d 7f 78 d6 bb 4e b3 8b 3c 3f 03 9b bd
       0.043050583 -0.006545126 0.017053273 -0.075689785
000130 69 0f 38 3d d3 ba 10 3d c2 c3 ab bd 40 c8 86 3b
       0.04493657 0.03533442 -0.08386947 0.004113227
000140 f9 f4 95 3c 21 10 a4 bd 25 19 bb bd ac 9b 6d 3d
       0.018305289 -0.08010889 -0.09135655 0.05800979
000150 ad 31 8a bd 29 4e 07 bd 29 79 3a 3d f8 35 3b bd
       -0.06747756 -0.033033524 0.045525704 -0.045705765
000160 57 bc 15 bd d6 14 ce 3c 52 de 30 bd fa c9 96 bd
       -0.036556568 0.02515642 -0.04318077 -0.07362743
000170 6b 86 3b 3b 7e db 92 bd bd 8a 96 3b 6f 3d 4b bd
       0.0028614055 -0.07170771 0.0045941756 -0.049619135
000180 7b 7e 09 3c 12 6d 10 3d fc 8b 6c bd 68 6a 2c 3d
       0.008391972 0.035260268 -0.057750687 0.042093664
000190 46 09 3b bd 2e fa 84 bd 30 d9 8e bd cb 1e 21 b8
       -0.04566314 -0.064930305 -0.06975019 -3.841407e-05
0001a0 94 a6 2e 3d c7 2a 84 3d 29 5d 1e 3a 6d 2f 3c 39
       0.04263933 0.06453472 0.00060411036 0.00017946745
0001b0 d7 eb 48 bd 00 2b eb bc 76 b2 0d 3d 8a 51 81 3d
       -0.04905304 -0.028707027 0.03459402 0.063143805
0001c0 b1 7c a0 bd 02 cf 70 3d e7 08 6c bd b4 9c 36 bd
       -0.07836283 0.058791168 -0.057625677 -0.044583037
0001d0 c6 4b c2 3c 18 6e 4b bc 69 18 d7 3b fb ae 82 bd
       0.023717772 -0.012416385 0.006564189 -0.06381031
0001e0 f0 90 58 3d 1c 08 99 3d fb 4e 22 3d fd 43 a7 bd
       0.0528726 0.0747225 0.039626103 -0.081672646
0001f0 5e 26 67 3d f4 f1 10 bd 23 1d a3 3d bb 03 3d bd
       0.056433074 -0.035386994 0.07964542 -0.046146136
000200 a0 c2 c9 3c 4d 9f 98 bd 1b 9d 66 bc a7 03 ac bd
       0.024628937 -0.07452259 -0.014075543 -0.08399134
000210 4b 03 63 bc 6c 78 c9 3a ff 66 41 3d 95 e3 97 3d
       -0.013855766 0.0015370972 0.047217365 0.07416455
000220 7f 64 57 3d 12 00 47 bd c2 1d a7 bd 41 78 95 3d
       0.052586075 -0.04858405 -0.08159973 0.07298327
000230 d9 b3 62 3b 7b ba 6a 3d 50 96 a8 3d 44 85 05 3d
       0.003459206 0.057306748 0.08231795 0.032597795
000240 1a 07 82 3d 87 00 3f 3d a1 40 76 bd 7b a8 4c bd
       0.06349011 0.046631362 -0.06012023 -0.049965363
000250 a4 a1 2b 3d 0e d0 51 bd fd 57 8b 3d 15 4d 05 bc
       0.0419022 -0.051223807 0.06803892 -0.008136054
000260 83 ad 3c 3d 37 a6 b5 bc fc 27 38 3d 6f 48 a1 bc
       0.04606391 -0.022173984 0.044960007 -0.01968786
000270 d7 b5 06 bd b1 c9 2c bd 9f af 9d bd 04 c5 22 3d
       -0.03288826 -0.042184535 -0.07699513 0.03973867
000280 e1 43 91 bd 4c 45 90 bd 5d 68 d0 3c 52 25 4c 3d
       -0.07093025 -0.07044467 0.02544039 0.04984028
000290 e8 98 a9 3d de e1 97 bd ce 40 c3 bc 1a c3 b1 3c
       0.08281118 -0.074161276 -0.023834612 0.021699477
0002a0 60 c1 b2 ba ee 53 9f 3d ce 8f 7c 3b ba 4e 52 bd
       -0.0013637953 0.0777968 0.0038537863 -0.05134461
0002b0 9e ec 5c 3d 0c a3 9c 3d b2 9b 99 3d 26 bb 5c bc
       0.053936593 0.07648286 0.075004 -0.013472354
0002c0 48 cf ba bd 95 f9 94 bb 2f a5 14 3c 72 06 ed 3c
       -0.09121567 -0.004546354 0.009072586 0.028933737
0002d0 b6 86 47 3d ce 66 8a bd 9b 77 6d bc 6b 36 99 bd
       0.048712455 -0.0675789 -0.014493848 -0.074810825
0002e0 c6 16 86 bc ab 12 b9 3b 94 5a 39 bd 40 43 5e 3d
       -0.016368281 0.0056479773 -0.045252398 0.054263353
0002f0 40 2f 88 3d d9 bb 78 bb 03 2b 81 ba 63 c9 88 3c
       0.06649637 -0.0037953763 -0.0009854737 0.016697591
000300 0a 62 bb bd 68 a5 86 bd 85 5f 3d bd 81 4d e6 bc
       -0.09149559 -0.065745175 -0.046233673 -0.028113129
000310 71 b8 56 b9 00 f3 b1 3d a0 f2 41 3d 01 ed d6 3c
       -0.0002047734 0.08688927 0.047350526 0.02623606
000320 64 8b af bd ee b0 ae 3c c2 e6 a8 bd 73 22 13 3d
       -0.085715085 0.021324601 -0.082471386 0.035921525
000330 92 a2 24 3c d7 b3 c3 3c e7 3c ac bd e2 3b 35 bd
       0.010048525 0.023889465 -0.08410054 -0.04424656
000340 d7 96 b5 3c 18 30 56 bc 40 bb 65 bd b2 46 36 3d
       0.022166653 -0.01307299 -0.05608678 0.044501014
000350 e8 a8 6c 3a 3b 3c ba 3b 06 0b dd 3c e8 98 68 bd
       0.00090278545 0.0056834496 0.026982795 -0.056786448
000360 f0 a7 8b 3b 8c 77 8e 3d f3 48 f7 bc 39 55 49 bd
       0.004261963 0.069563955 -0.030186152 -0.04915354
000370 86 37 83 bc 6f 1c ba bc 6c ef 77 3c 4d ff 83 3b
       -0.016017687 -0.022718636 0.015132766 0.004028237
000380 9e 90 80 3d 70 d5 17 3d 37 eb 07 3c 75 e0 9f bd
       0.062775835 0.037068784 0.008295826 -0.07806484
000390 1c 7f a9 bd 32 b5 2f bd e7 2c b9 bd 63 eb d4 3c
       -0.08276197 -0.04289741 -0.090417676 0.025991147
0003a0 b1 61 44 bd 93 34 a1 bd 3f c8 ce bc 62 bb 6e 3d
       -0.04794473 -0.07871356 -0.02524197 0.05828417
0003b0 1c 54 90 bd 19 f1 8d bd 97 a6 4b 3d 7b 60 a0 3d
       -0.070472926 -0.06930751 0.04971942 0.07830902
0003c0 02 b6 49 bd 97 32 6f 3d 88 44 1e bd 12 e5 98 bd
       -0.04924584 0.058397856 -0.038639575 -0.07465567
0003d0 70 09 c7 bd d1 29 01 bd d7 0c c6 3b a8 ae d2 bc
       -0.09718597 -0.03153402 0.006044011 -0.025718048
0003e0 40 f2 54 3d d6 20 a4 bd 51 28 4d 3d 0b c6 8c bc
       0.05198884 -0.080140755 0.050087277 -0.017184278
0003f0 39 86 a6 bd ef f6 fc bc 46 3e 71 3d 57 5f 20 3d
       -0.0813107 -0.030879466 0.05889728 0.039153423

fc3.bias f4 [64]
000000 4f bc d9 bc bc 04 06 bd 55 12 07 3d 0d 3c 9c bd
       -0.02657905 -0.03271936 0.032976467 -0.07628641
000010 85 3e 83 bc 73 5a 45 bc ab 05 48 bd 69 79 4a bd
       -0.016021023 -0.012045491 -0.04883353 -0.049432192
000020 b9 52 04 bc ba a5 32 bd 19 19 89 3c 26 a9 65 3c
       -0.008076363 -0.04361508 0.0167356 0.014017379
000030 69 d9 37 3c 84 c3 aa bc 63 8c 62 bc c0 b3 d1 bb
       0.011221268 -0.020845182 -0.013827416 -0.0063996017
000040 d7 d6 7e 3c 4d 91 94 3c 4d 47 8c 3d 20 aa 58 bd
       0.0155541515 0.018135691 0.06849537 -0.05289662
000050 28 5e 28 bb d7 de 0c 3d b4 92 91 3d 40 2d b7 3d
       -0.0025690887 0.034392204 0.071080595 0.08944178
000060 a4 d5 a3 3d d6 7a 4e bd 59 85 bc 3d d7 0b 10 bd
       0.07999733 -0.050410114 0.092051215 -0.03516754
000070 65 93 b6 3c d8 e8 1e bd 10 30 92 bd 61 84 c6 bd
       0.02228708 -0.038796276 -0.071380734 -0.09693218
000080 89 ee 4d bd 04 9f 7b 3c 82 c1 9c bc 4a e8 bc 3a
       -0.050276313 0.0153577365 -0.01913524 0.0014412489
000090 c1 1a a8 bc e5 ef e2 3b c5 85 a0 bd 8d 9c bc bd
       -0.02052057 0.0069255703 -0.078380145 -0.09209547
0000a0 bd 49 bf bd 1e f3 07 bd 54 86 0c bc 22 59 ee bc
       -0.09340236 -0.03319084 -0.008576948 -0.029095236
0000b0 19 5f 8a bd ee 07 87 3d e1 55 d4 3d 23 d7 6a bd
       -0.0675642 0.06593309 0.103679426 -0.057334077
0000c0 41 41 b2 bc 7c a7 b3 bc af 7b 2e 3d ed a3 a9 bd
       -0.021759631 -0.021930449 0.042598423 -0.082832195
0000d0 82 25 7d 3d 25 2c 2a b9 d5 7e b2 bd 26 90 18 3c
       0.06180335 -0.00016228908 -0.087155975 0.009311711
0000e0 25 79 a6 3d 22 8c 15 bd 62 8c 1d 3c d8 9a 14 bd
       0.08128575 -0.036510594 0.009615989 -0.036280483
0000f0 4f bd 65 3d 6c 5f ae 3d ff fb cb 3d 5f 34 76 3c
       0.056088742 0.08514294 0.09960174 0.015027135

fc4.weight f4 [32, 64]
000000 e9 fa f3 bd fc c8 4d bd d5 75 06 be 5c fa 2a bd
       -0.11913092 -0.0502405 -0.13130887 -0.041742668
000010 f0 29 4d bb 58 97 c0 3d 37 1d f3 bd 63 ba a8 bc
       -0.0031305514 0.094038665 -0.11870807 -0.020596689
000020 a8 b6 2d bd 58 11 f9 bd cc b4 b6 bd 5a 2e 9d 3d
       -0.042410523 -0.12161511 -0.08921203 0.076748565
000030 52 b5 94 3d b0 e2 a7 bd 31 63 7c 3d 4b 1a b2 bd
       0.072611466 -0.08197534 0.061618034 -0.08696421
000040 57 93 ad bc 8e 95 a4 3d 43 00 c8 bc 42 fa dd bd
       -0.021188421 0.08036338 -0.024414187 -0.108387485
000050 b5 03 cb bb ac fa fe bd dd 09 38 3d fa 44 ce bc
       -0.0061955103 -0.124501556 0.04493128 -0.025179375
000060 bc 2c 17 bd 5b 50 91 bc 70 ef a0 3b 61 dd 2f bd
       -0.036907896 -0.017738512 0.0049113557 -0.042935733
000070 f4 fb 86 bd 20 75 d8 bc b1 25 6e bc 00 2f 32 bd
       -0.06591025 -0.026423037 -0.0145353535 -0.043501854
000080 5c 69 5b 3d ef 4a 95 bd d8 fb 8f bd be 8f c4 bd
       0.053567275 -0.07289683 -0.07030457 -0.09597729
000090 8b 07 e7 3d aa 74 27 3d 88 3f c5 3c f4 ba 84 bd
       0.112807356 0.040882744 0.024078146 -0.06480971
0000a0 5d 03 e5 bd af 77 01 bd d1 a5 da bc 02 af 90 3d
       -0.11182282 -0.03160828 -0.026690396 0.0706463
0000b0 53 6c da bc a1 79 c5 3d 6a d5 62 3d a9 be a2 3d
       -0.026662981 0.096423395 0.05537931 0.07946522
0000c0 3b 58 d0 3d 8c b1 31 bd 69 c0 73 bc d4 db f3 3c
       0.101730786 -0.043382213 -0.014877417 0.029767908
0000d0 bd 1f 0d 3d 1d 43 cb bd a0 b1 bd 3b 68 6a 43 bd
       0.034454096 -0.0992491 0.005788997 -0.0477089
0000e0 fb 4c 7f bd fb ed d1 bd f8 0a f3 bd 62 4e 95 bd
       -0.062329274 -0.10250469 -0.118673265 -0.07290341
0000f0 7d f3 ca bd 54 a0 e2 bd be c3 8a 3c 83 b9 03 be
       -0.09909723 -0.110657364 0.01693904 -0.12863736
000100 e5 16 8e 3d 72 7b 22 3d 95 40 d3 3d d0 04 35 bd
       0.069379605 0.039668508 0.103150524 -0.044194043
000110 08 3b e3 3d f4 83 82 3d d3 2f ca bd 63 7b b6 3d
       0.11095244 0.06372824 -0.09872403 0.08910253
000120 80 46 ce bb f3 b7 c3 bb e2 98 e1 3d ca cd 38 bd
       -0.0062950253 -0.005972856 0.11015488 -0.04511813
000130 0c 7d 8f 3d d1 40 9a bd 5b 15 26 3d 74 f0 32 3d
       0.07006273 -0.07531894 0.04054771 0.043686345
000140 db ea 83 3c ea c0 9e 3d db 27 8e bd 71 17 26 3c
       0.016103199 0.07751639 -0.069411956 0.010137425
000150 e0 46 6f 3d d1 da 06 bd 82 d6 ce bb ff 73 3c 3d
       0.0584172 -0.032923523 -0.0063121924 0.04600906
000160 a2 df 84 3d a3 9e fc bd 7c 78 59 bd 78 6f 83 3d
       0.06487967 -0.12334945 -0.05309342 0.06417745
000170 91 b0 07 3d 47 16 35 3d 35 a2 bf bb c1 75 80 bd
       0.03312737 0.0442107 -0.005848194 -0.0627246
000180 b1 d6 a2 3d c7 f8 2d bd 53 e4 59 bd d1 05 36 3c
       0.079511054 -0.04247358 -0.053196263 0.011109785
000190 4e f2 58 3d f0 76 a4 3c 32 c4 b7 3d 21 63 23 3b
       0.052965455 0.020076245 0.08972968 0.0024930912
0001a0 8d 7b a2 bb d6 7b b1 bd 88 ca bd 3c af e4 9a 3d
       -0.004958576 -0.08666198 0.023167863 0.07563149
0001b0 73 66 ba bd b3 e7 b7 bd cd 97 19 3d e3 0d fa 3d
       -0.09101572 -0.0897974 0.037498284 0.1220968
0001c0 d8 ee 4e 3d 9c 99 05 bd d6 b0 84 bd e9 96 a5 ba
       0.050520748 -0.032617196 -0.06479041 -0.0012633476
0001d0 ea e0 62 3d 26 22 c9 bd 16 6e d5 3d 10 7f 29 3d
       0.055390276 -0.098209664 0.10421388 0.041380942
0001e0 e3 eb 55 3d 46 8f a2 3d 8c 55 82 3d 8e b2 d1 3d
       0.052226912 0.079374835 0.06363973 0.10239135
0001f0 c3 c6 65 bd d6 4b d9 bd 1c 1f 8d 3d f4 7d 47 3d
       -0.056097757 -0.10610168 0.06890699 0.048704103
000200 c9 45 28 3d f4 29 1f 3d 78 d5 04 3d 32 09 f4 bd
       0.041082177 0.03885837 0.032430142 -0.11915816
000210 8a b5 ac 3c 80 d9 cd 3b fe 31 f9 bd 84 55 c9 bc
       0.021082658 0.0062820315 -0.121677384 -0.02457691
000220 e8 e8 52 3d 46 f0 e4 bd 23 00 2e bd 18 6c 3e bd
       0.051491648 -0.11178641 -0.0424806 -0.046489805
000230 1f 06 67 bd d4 94 fb bd fa 77 b9 3c eb 7a 08 3d
       -0.056402322 -0.12284246 0.022640217 0.03332035
000240 dd 2e 8a 3c 1c 06 6e 3d bf 9b 81 bd 60 1d ae 3c
       0.01686805 0.058111295 -0.06328534 0.021254241
000250 10 f9 3c bd 9f 1d ce 3d 0c 40 e5 3c 81 21 32 3c
       -0.046135962 0.100642435 0.027984641 0.010872246
000260 28 fe ba bd f0 5e fb 3d 2a 60 bf bc 58 f8 3b 3d
       -0.09130508 0.12273967 -0.023361284 0.045891136
000270 08 0d 97 3c 3a 77 97 3d 84 56 64 3d e0 7b 00 3d
       0.018438831 0.073957875 0.05574657 0.031368136
000280 06 a1 83 bd a2 e3 7b 3d a0 8a de 3d 30 d1 3f bc
       -0.06427197 0.061496384 0.10866284 -0.011707589
000290 e5 8d 8a bc 8a 00 90 bd 68 2b fb 3d 20 74 93 bc
       -0.016913364 -0.07031353 0.122641385 -0.017999709
0002a0 9c 5a 46 bd 10 21 01 3d 63 fc 73 bd 70 7f 8b 3d
       -0.048426256 0.03152567 -0.059566867 0.06811416
0002b0 dc fd bf bd 68 c7 e9 3d 34 b4 f5 bd a8 09 8b bd
       -0.09374592 0.11414987 -0.11997262 -0.06788951
0002c0 07 c1 ce bb 76 c0 7c bc 64 4b 59 3d 2b 38 31 3d
       -0.0063096317 -0.015426746 0.053050414 0.043266457
0002d0 e0 df b4 3b d3 12 b9 bd 58 bb d9 3c 4c cd cf 3d
       0.005519852 -0.090367936 0.02657859 0.10146579
0002e0 f3 eb 79 bc b4 c9 94 3c 24 24 1d bc 0e 2b f6 bd
       -0.015254009 0.018162586 -0.009591136 -0.12019931
0002f0 e8 cb 13 bd 49 ac 18 bd 95 3b 51 3d c1 1c 4d 3d
       -0.036083132 -0.03727368 0.051082212 0.05007625
000300 24 fd 50 bd 16 d2 bb 3d bc db c7 3d e4 f6 60 bd
       -0.051022664 0.0917093 0.09758708 -0.054922953
000310 88 d0 b6 3c d0 38 83 3c 88 68 8d bc ae e5 b5 3d
       0.022316232 0.016018301 -0.017261758 0.088816985
000320 5e 92 b5 bd 70 28 c6 bc 88 84 71 3d 6e 79 a3 bd
       -0.08865808 -0.024189204 0.058964282 -0.07982145
000330 c0 6b 2f 3c 00 ef b5 3c 20 d9 79 bc 74 93 e4 bd
       0.010706842 0.02220869 -0.015249521 -0.11160937
000340 fe de 89 bd da 9d fa 3d 20 37 f0 bc e0 64 7b bc
       -0.067319855 0.12237139 -0.02932316 -0.015343875
000350 a2 6a 8a 3d e2 ad 97 3d d8 63 a6 bc 1a 65 95 3d
       0.0675862 0.074062124 -0.020311281 0.07294674
000360 60 5a 0d 3c cc 80 1f bd 76 16 c7 bd 36 f0 f4 bd
       0.008627504 -0.03894119 -0.09721081 -0.11959879
000370 9c 0b 75 3d 78 ff ca bc 60 fe 14 bd 1c e1 7d bd
       0.059825525 -0.02478002 -0.036375403 -0.06198226
000380 f6 76 b2 3d f8 cb cf bc 7a 59 f8 bd fa cd e9 3d
       0.08714096 -0.025365815 -0.12126441 0.1141624
000390 7c 0a e3 bd c8 0f 83 bc c0 b2 9f bc 28 92 be bc
       -0.11085984 -0.015998736 -0.019494414 -0.023263052
0003a0 88 85 ca bc 12 1b e4 3d 68 31 bf bc 4c 78 f3 bd
       -0.024721876 0.11137976 -0.023338988 -0.11888179
0003b0 60 5b f1 3c 48 7a 1c 3d 5e 41 a8 bd d8 e8 3b bd
       0.029462516 0.038202554 -0.08215593 -0.045876354
0003c0 c0 3d 90 bd 00 a1 6b 3b 00 ce 10 bc 88 15 7e bd
       -0.07043028 0.0035954118 -0.008838177 -0.062032253
0003d0 ea dd f5 bd 54 a0 84 bd c0 1a d9 3d ae 55 ff bd
       -0.120052174 -0.06475893 0.10600805 -0.12467514
0003e0 e8 6b f4 bc 66 5c ac 3d cc b7 b8 bd b8 18 d6 3d
       -0.02983661 0.08416061 -0.090194315 0.104539335
0003f0 94 12 e0 3d 70 f3 79 bd 00 ee c0 bb 00 68 4a 3a
       0.109410435 -0.061023176 -0.005887747 0.00077211857

fc4.bias f4 [32]
000000 fa 5f 25 3d 81 e0 da bd 44 74 16 bd f4 65 33 bd
       0.040374734 -0.10687352 -0.036731973 -0.043798402
000010 f9 95 ce 3d f4 02 92 3c b0 5f 66 bd e6 7b d8 bd
       0.10087199 0.017823674 -0.0562436 -0.10570507
000020 86 e8 c5 3c 41 56 ca bd d9 b4 9d 3d 9d 3e e6 3d
       0.024158727 -0.09879733 0.077005096 0.11242411
000030 fa 10 6c 3d 9e a6 94 bd 14 c4 c1 3d 40 6e ab bb
       0.057633378 -0.07258342 0.09461227 -0.0052316487
000040 5a 12 89 3d 30 51 f2 bc f0 7d 1a 3c 02 42 9e bd
       0.066929534 -0.029579729 0.00942944 -0.07727434
000050 54 15 78 bd 69 f5 48 bd 68 bc 8e bd ef 9c ee 3d
       -0.060567215 -0.049062166 -0.069695294 0.116510265
000060 de 40 0b 3e 2a d6 ad bd 1c 25 04 be 00 e4 ee bd
       0.13598964 -0.08488114 -0.12904781 -0.11664581
000070 f6 f5 e4 bd 12 7b bf bc 9a a5 1a 3c 17 e5 2d bc
       -0.11179726 -0.023374114 0.009438897 -0.010613701

fc5.weight f4 [1, 32]
000000 4d 67 1e 3d 8e a2 ae bd fd 91 8b 3d 43 d1 14 3e
       0.038672734 -0.085270986 0.068149544 0.14532952
000010 b2 76 bf 3d d0 2d 94 bd dc dc ce bd 4d be 9e bd
       0.09348811 -0.072353005 -0.10100719 -0.07751141
000020 a7 75 14 3d f9 d7 8e 3b 67 b8 3c 3d d7 3a 6e bd
       0.036245015 0.004359242 0.046074297 -0.058161583
000030 7c 10 03 be 26 63 1f be 14 21 d4 3d a0 4f 32 be
       -0.12799257 -0.15565166 0.10357872 -0.17413187
000040 4c 3b c4 3d 42 a7 22 3e 74 d3 8a 3d fc 17 21 3e
       0.095816225 0.15884116 0.06778613 0.15731806
000050 cc ce 7e bd 85 d1 29 3e 86 ff e0 bd 7b 7c da bc
       -0.062208936 0.16583832 -0.10986237 -0.026670685
000060 4e 4e 91 bd b4 d9 9f bd 05 51 ee bc 2b 15 b0 bc
       -0.070950136 -0.078051955 -0.029091367 -0.021494469
000070 d5 6f 63 ba 20 cb fa bb 00 1b 0f 3e bc d0 23 be
       -0.0008676027 -0.007653609 0.13975143 -0.15997595
