DeepLearning/model_0321/model_best_5_r2_-0.006136823069871479.pth (torch, 666311 bytes, 9 tensors)

fc1.weight f4 [256, 478]
000000 14 cb 09 bd 7b 09 ef bc ee 42 9b 3c e1 1f 89 3c
       -0.033640936 -0.029179325 0.018952813 0.016738834
000010 66 4a af 3c 11 e0 20 bd 9f d3 f9 3b 4c 55 22 3c
       0.02139778 -0.039276186 0.007624104 0.009908032
000020 e4 23 d8 3c e1 62 43 bd 77 a9 77 bc 98 24 a6 3b
       0.026384301 -0.04770172 -0.015116087 0.0050702803
000030 36 ea 94 bc f2 d8 a7 3c 44 83 7a 3c 36 d8 09 bd
       -0.018178087 0.02048919 0.015290085 -0.03365346
000040 66 3f ab 3c 9e b2 08 bd 54 9a 3f bd 6f 3c a1 3c
       0.020904254 -0.033373468 -0.04677804 0.019682137
000050 c9 46 8e bc a2 7c 88 3c ec 38 a0 bb ed d6 d5 ba
       -0.017367737 0.016660992 -0.004889598 -0.0016314663
000060 60 a0 2d 3d f0 20 12 bc 40 31 9a 3c a0 c8 0b 3d
       0.042389274 -0.008918986 0.018822312 0.034126878
000070 20 4a 3f bd ea 91 2c bd 3d bf 1d 3d b4 a1 bc bc
       -0.04670155 -0.042131342 0.038512457 -0.023026325
000080 88 d4 03 3d b4 1f a3 bb 27 42 36 bb 26 73 b1 bc
       0.032185107 -0.0049781445 -0.0027810426 -0.021661352
000090 a8 fb 59 bc de 2a 04 3c 37 ae 71 bb 84 31 15 bd
       -0.013304628 0.008066861 -0.0036877522 -0.036424175
0000a0 82 0f de bc 75 46 2d bd aa c5 be 3c 37 f2 27 bd
       -0.027107004 -0.04230352 0.023287613 -0.04100248
0000b0 1c 52 45 bd 7c b3 1f bd 86 49 05 bd aa e0 0c bd
       -0.04817401 -0.03898953 -0.03254082 -0.034393944
0000c0 b4 c1 9d 3c e7 10 d4 bc 53 f2 df bb 1e 5d b6 3c
       0.019257404 -0.025886966 -0.006834307 0.022261199
0000d0 99 fd 91 bc ab 8e 2b 3b 9a 31 43 bd 37 a1 0e bc
       -0.01782112 0.0026177566 -0.047654726 -0.008705429
0000e0 d4 2c 57 3c 6d 48 c9 bc 2e 19 77 3c 5d 63 2d bc
       0.013133246 -0.024570668 0.015081687 -0.010582772
0000f0 bf 0a 26 3d 08 b5 2f bd f9 67 50 3b 5e ff 16 3d
       0.040537592 -0.042897254 0.0031800254 0.03686463
000100 ec 3d 0a bd c5 20 27 3d b3 f5 76 bb a0 c0 db 3c
       -0.03375046 0.040802736 -0.003768307 0.02682525
000110 1d 01 76 bb 39 90 c6 3c 8d 1a 1d 3d 85 85 0b bd
       -0.0037537285 0.024238693 0.0383554 -0.03406288
000120 70 b4 11 3c 12 b4 63 bc 54 5b ed 3c e0 36 81 3c
       0.008893117 -0.013897913 0.028974213 0.015773237
000130 b2 c3 2a 3d dd fc a6 bc 99 9f cc bc e6 e3 3c bd
       0.041690536 -0.020384246 -0.024978446 -0.04611578
000140 b2 aa d4 3c b9 9c 1f 3d 0f 46 6e 3b 26 46 03 3d
       0.0259603 0.03896782 0.0036357676 0.03204932
000150 74 57 85 3c 1f 6d e0 bc 1c fe 9a 3b 6c 5d de 3c
       0.016277052 -0.027395783 0.004729999 0.027144156
000160 ac 5a 83 bc 07 2f 0a 3d a1 32 10 bd 9a 81 85 bc
       -0.016034447 0.033736255 -0.035204533 -0.01629715
000170 76 42 c4 3c f1 1f 2b bc 6b 45 eb bc c2 1d 25 bd
       0.023957472 -0.010444627 -0.028719625 -0.040311582
000180 b0 82 02 3d 48 f8 1e 3d 1f 4e 02 bd c5 c4 84 3c
       0.031862915 0.038811 -0.031812783 0.016207108
000190 76 57 71 3b b3 4a 9d bc e3 52 8a bc d2 49 d4 bb
       0.0036825812 -0.019200658 -0.016885227 -0.0064785266
0001a0 14 49 a0 3c 3c bf 42 bd 41 de 93 bc 4b b5 27 bd
       0.019566096 -0.047545657 -0.018050315 -0.04094438
0001b0 57 92 99 bc 86 4c bc 3c e5 e3 20 3d 88 35 2d 3d
       -0.018746538 0.022985708 0.039279837 0.04228738
0001c0 a4 c3 dd 3b 1c 57 a2 bc 1b dc c9 bb 37 da 86 3c
       0.006767707 -0.019816928 -0.006160272 0.016461475
0001d0 01 12 fc 3b f8 2c dd 3c cc 88 cd 3b e7 ff aa 3c
       0.007692576 0.026998982 0.006272411 0.020873977
0001e0 b3 03 f5 bb 1d 73 95 3c c9 b1 39 3c e3 8b 1e bc
       -0.0074772476 0.018243367 0.011333891 -0.009676906
0001f0 36 4f 2a 3d e7 0d ea bc 7e 0a dc 3c 9f c8 6d bc
       0.041579448 -0.028571082 0.026860472 -0.014513164
000200 64 06 24 bd 5b cf d7 3c 2b d0 5e bc f1 e1 09 3d
       -0.040045157 0.026343992 -0.013599436 0.03366274
000210 29 cd 69 bc 0d 8c 70 bc a1 60 8e 3b e7 6c c2 3c
       -0.014270105 -0.014681828 0.004345015 0.02373357
000220 6e 23 b8 bc ab 03 ca bb fe af 57 bc 27 2a f8 3c
       -0.022477832 -0.006164988 -0.013164518 0.030293537
000230 be 61 13 3d a3 22 09 bd fd 3e 38 bd 4d 36 1b 3d
       0.035981886 -0.033480298 -0.044981945 0.037893582
000240 22 18 6c bc e4 0f b4 bc 39 1f f5 bc 57 0b 31 38
       -0.014410051 -0.021980233 -0.029922115 4.221065e-05
000250 23 9b 86 3c 01 6c 79 bc c1 28 43 3c f5 a0 04 bd
       0.016431397 -0.015223504 0.011911572 -0.032380063
000260 7b d6 70 3c f9 2f c3 3c cd 2d 33 bd 0b 40 11 bb
       0.014699574 0.023826586 -0.04374485 -0.0022163417
000270 74 aa 39 bd 26 c9 37 bc a8 44 4e 3c 08 23 a2 bb
       -0.045328572 -0.011217391 0.012589611 -0.0049480237
000280 41 29 23 bc d2 d1 e7 bc 44 45 fa 3c d8 86 3e bc
       -0.009958566 -0.028298292 0.030550607 -0.011628829
000290 fe b8 ff 3c 89 80 05 bd 93 39 ee bc 48 26 41 3c
       0.03121614 -0.032593284 -0.029080188 0.011788912
0002a0 68 3a 18 3d 5f 2b 22 3d 78 75 16 3d 19 6b 72 bb
       0.037165076 0.039592143 0.03673312 -0.0036990105
0002b0 fd 21 a0 3c 60 4b 4b 3c 94 af 23 3d 9e 59 ac 3c
       0.019547457 0.0124081075 0.039962366 0.021038827
0002c0 83 5c 80 3c 26 63 1e bd ef 5c 0b b9 9d c2 2a bd
       0.015669113 -0.038668774 -0.00013290693 -0.041689504
0002d0 bc 42 19 3d 12 be 4f bc 94 c3 39 3d 10 71 2b bc
       0.03741716 -0.012679594 0.045352533 -0.010463968
0002e0 0e b3 16 3d b9 42 02 bd 1c 05 0b 3d be 87 d3 3b
       0.036791854 -0.031801913 0.03394042 0.0064553907
0002f0 86 67 88 3c 87 a4 04 bd 73 99 8a 3c 0c b4 fe bb
       0.016650926 -0.032383468 0.016918873 -0.007772928
000300 8b 51 8d 3c 73 30 73 bc 28 71 2a bd 5e 94 35 3b
       0.017250797 -0.014843094 -0.04161182 0.0027706842
000310 70 d2 68 3c 11 e4 c5 ba 81 fa 51 bc da 34 a9 3a
       0.014210328 -0.0015097876 -0.012816072 0.0012909428
000320 b1 e0 84 3a 62 bf 77 bc 8b d6 37 bd 20 fa fc 3c
       0.0010137764 -0.015121313 -0.04488234 0.030880988
000330 0e 45 2d bd 5f d5 f1 3a d7 ac 06 bc f8 f7 57 bc
       -0.042302184 0.001845043 -0.008219919 -0.013181679
000340 de 9e 21 3d 78 e3 06 3d 9f 7e a6 3c 64 5b b5 bc
       0.03945815 0.032931775 0.02032405 -0.022138305
000350 af ed 86 ba 01 83 34 3c 4a b4 3e 3c 9c 57 24 3d
       -0.0010294224 0.011017562 0.011639664 0.040122613
000360 cc 29 18 bd 73 65 82 bc 94 e1 e4 3c cf a8 d0 bc
       -0.037149236 -0.015917515 0.027939595 -0.02547112
000370 00 a2 5a 3c f0 5b d6 3c eb 27 64 bc 9a 15 28 bd
       0.013344288 0.026166886 -0.013925533 -0.041036226
000380 00 9a ab 3c b7 b6 f4 3c 7d 2d 51 b9 0e ba 20 bd
       0.020947456 0.029872281 -0.00019948739 -0.039239936
000390 8c f3 7c bc 57 a1 10 3d a8 9e 3e bd 3d c6 a2 bc
       -0.0154389255 0.035310116 -0.046538025 -0.019869918
0003a0 54 19 9e 3c 1b 99 ae bc 4c 09 da bc 9b bc 29 3d
       0.019299187 -0.02131324 -0.026615761 0.041439634
0003b0 05 07 34 3c a3 49 ac 3c 22 20 a8 3c d8 af c7 3c
       0.010988002 0.021031206 0.020523135 0.024375841
0003c0 65 b4 45 3a e6 a7 68 bb ec 7f 21 3c 9d 77 f3 bc
       0.00075418345 -0.0035500466 0.009857159 -0.029720122
0003d0 1f 53 06 3d b0 60 46 bd c8 a5 0a 3d f4 dd 0c bd
       0.032794114 -0.048432052 0.033849508 -0.03439136
0003e0 f3 44 0c 3b d0 9b c9 3c 33 39 d5 3c ae 08 2e bd
       0.0021403402 0.02461043 0.026028251 -0.042488746
0003f0 97 da d0 3c ac 6d ed 3c 62 34 ff 3c 6b 61 02 bc
       0.025494857 0.02898296 0.031152908 -0.007957797

fc1.bias f4 [256]
000000 7c 70 28 3d 98 78 e7 bc df a1 5d bc 11 35 8a 3d
       0.0411229 -0.028255746 -0.013527363 0.06748403
000010 c4 ab 4d 3d ac 7a d8 bc 9e e2 83 3c e7 02 72 bc
       0.050212637 -0.026425682 0.01609927 -0.0147712
000020 74 7d 4c 3d 31 72 d8 3c 40 b4 aa bc 4d 8b 27 ba
       0.04992433 0.026421638 -0.020837903 -0.0006391302
000030 c0 8a e8 3a ba 54 c3 bc 83 a6 25 3d 63 27 db bc
       0.0017741546 -0.023844112 0.040442 -0.02675218
000040 1d 85 60 bc 80 27 46 bc 7f a5 b6 3c 2f fa 7e 3c
       -0.013703612 -0.0120943785 0.022295712 0.015562578
000050 ee 5e 4b ba 9a 9a f2 bc 83 fb 94 bb 58 5a d7 3a
       -0.0007757981 -0.029614735 -0.004546584 0.0016430123
000060 69 4c 9a bb f8 bf 08 bd e1 6e f3 ba e0 19 31 3c
       -0.004708816 -0.0333862 -0.0018572473 0.010809392
000070 53 a9 b1 bc df fb 65 bb b7 fe fb bc 4f fb 82 bc
       -0.021687185 -0.0035092754 -0.030761106 -0.015988974
000080 15 bf d2 3c 6c 0c 03 bd ca 47 cf bc 6d e8 9d bb
       0.02572588 -0.03199427 -0.025302786 -0.004818967
000090 79 41 4f bc 16 ed 0a bd 85 e6 88 3c 56 70 24 3d
       -0.012649887 -0.03391751 0.016711483 0.040146194
0000a0 ad 45 67 3d ec f3 0a 3d df 38 06 3d 6a 11 32 bc
       0.056462932 0.03392403 0.03276908 -0.01086841
0000b0 48 39 c9 bc c4 17 53 bc 56 7c 16 bd 2b 1a 08 bd
       -0.024563447 -0.012884084 -0.03673967 -0.03322808
0000c0 e4 cb 64 3c ab 62 29 3d 9e 37 b6 3c 10 85 36 bd
       0.013964627 0.041353863 0.022243317 -0.044560492
0000d0 a6 7d f8 bc 6f 75 00 3d b9 8d ac bb 7e f7 88 3c
       -0.030333351 0.031361993 -0.005265918 0.016719576
0000e0 6f 8f b9 3c 66 2d 2f bd d0 11 33 bd 72 ec 43 bd
       0.022651402 -0.042767905 -0.04371816 -0.047832914
0000f0 92 09 6e 3c dd ac 05 bd 1b 7c 8b bc ca 02 10 3d
       0.014528649 -0.03263556 -0.017026952 0.03515891
000100 76 18 0e 3d d7 80 eb bc e9 05 a1 3c 48 ea 4a bd
       0.034691297 -0.028747959 0.019656138 -0.049539834
000110 3b a6 20 bd 60 cb f4 bc 64 52 d1 3c 5c 07 fb 3b
       -0.03922103 -0.029882133 0.025551982 0.0076607894
000120 fc 63 5d 3c bc f7 19 bd 15 a7 c0 bc b3 02 0f 3c
       0.013512608 -0.037589774 -0.02351717 0.008728671
000130 b8 83 9b bc 0b 41 2e bd 7b cb 9d bc 76 b9 34 3d
       -0.018983707 -0.0425425 -0.019262066 0.04412218
000140 3c 6b fb 3a a8 b8 99 bc 05 fa 39 bd 1f 96 5c bc
       0.0019181739 -0.018764809 -0.045404453 -0.013463526
000150 73 4c 4b bc db 23 24 bd c9 b9 c8 3c 2b 0b 90 3d
       -0.012408364 -0.040073257 0.024502652 0.0703338
000160 15 b1 5e bc bf 0f 98 bc 1e 4a f4 ba b3 86 1c bd
       -0.013592024 -0.018562196 -0.0018637811 -0.038214397
000170 b2 fc b7 bc 8f 4e 03 bd 14 4a c0 bc fc 51 19 bd
       -0.022459362 -0.03205734 -0.023472823 -0.037431702
000180 83 fb 28 ba dd 7d 7d 3c 5f ba e7 38 83 b4 ea bc
       -0.00064461696 0.015471903 0.00011049653 -0.028650528
000190 5a 6c 93 3c 87 56 25 3d 23 88 0d 3d fc 72 05 3d
       0.017996002 0.040365722 0.03455366 0.03258036
0001a0 24 c1 fb 3c 88 97 d0 3b 9a 3c 1c bd 00 ee 2e bd
       0.030731745 0.00636572 -0.03814373 -0.042707443
0001b0 3e 14 09 3d fd f3 1e bc ec 07 aa bc b0 3b 1b 3d
       0.03346657 -0.009701726 -0.02075573 0.03789872
0001c0 a2 db 06 bd b9 55 37 3d 65 a5 26 bc bd 14 9a bc
       -0.032924302 0.044759486 -0.010171269 -0.018808717
0001d0 ab bb c1 bb 87 a8 61 bc ca de 24 3c 24 f8 13 bd
       -0.0059122643 -0.01377309 0.010062883 -0.036125317
0001e0 b5 26 99 bb 85 04 15 3d d6 99 13 3d a9 73 c1 3c
       -0.0046738037 0.036381263 0.03603538 0.023614721
0001f0 52 f6 c0 bc d8 df ba 3c e2 ba 54 bc f9 61 2d 3d
       -0.023554955 0.022811815 -0.012984009 0.042329762
000200 a6 24 1a bd c7 1d 22 bd 76 50 ba bc f6 5f 33 3d
       -0.037632607 -0.03957918 -0.022743445 0.043792687
000210 6d 79 9c 3c ea d9 0a bd d7 98 4e bc 65 ca 17 3c
       0.01910087 -0.033899225 -0.012609682 0.009264563
000220 46 77 da bb b2 d7 cf 3c e8 cc 17 3c cd 6b 17 bd
       -0.0066670505 0.025371406 0.009265162 -0.03696804
000230 57 73 2d 3d 5a 40 0e 3d 7c 6c 8f bc d2 27 c2 3b
       0.042346325 0.03472934 -0.017507784 0.005925157
000240 ab f8 07 bb 17 f0 8b 3c 05 22 6f 3c 22 cd 55 bc
       -0.0020747583 0.017082257 0.014595513 -0.013049396
000250 85 8a 5a bc b7 9a 38 3c 60 3c 24 bd 0a d7 c6 bc
       -0.01333869 0.011267356 -0.04009664 -0.02427246
000260 30 12 db 3c 66 a7 c3 bc 75 6e a3 3b 65 9a 18 bd
       0.02674207 -0.023883533 0.0049875327 -0.037256617
000270 88 ed 75 bc 6c 78 6e bb 79 4d 0b bd a0 e1 ab bc
       -0.015010245 -0.0036387695 -0.03400943 -0.02098161
000280 3a 2a a4 3b 33 83 16 3d ee 31 fd 3c 3d 6a 78 bc
       0.0050099166 0.036746215 0.030907597 -0.015162048
000290 84 9b d1 bc 2e e9 05 bd fe 19 0f bd aa 50 5d 3b
       -0.025586851 -0.03269308 -0.034936897 0.0033770003
0002a0 91 a6 88 bc 06 0b 0e 3c 8f c1 a6 bc db fe cc 3c
       -0.016680988 0.00866962 -0.020355968 0.025023868
0002b0 d1 31 ce 3c 8d 14 94 bc e7 6b 66 bc af eb 25 bd
       0.025170239 -0.018076206 -0.014063812 -0.04050797
0002c0 ca dd 85 bc a4 c4 ef bc d5 94 18 3d 54 57 23 bd
       -0.016341109 -0.02926857 0.037251312 -0.039878204
0002d0 d6 ea 08 bc 6b 64 07 3d b8 d4 3f bd bf 22 91 bc
       -0.0083567705 0.03305475 -0.046833724 -0.017716764
0002e0 1e 4d 2f bd c8 c6 d3 3c 3f ec 30 3c 55 ba ab 3a
       -0.042798154 0.025851622 0.010798513 0.0013101796
0002f0 86 a8 be 3c 1b ad e2 bb 59 73 be 3a 48 65 a8 bc
       0.023273718 -0.0069176084 0.0014530226 -0.020556107
000300 d5 28 f0 bc c7 ce 5e 3c 09 74 a7 3c d9 9d de 3c
       -0.029316345 0.013599104 0.020441072 0.027174877
000310 c6 d2 17 bd 04 7e 26 bd 1e 55 23 bd e4 a4 1e bd
       -0.037066244 -0.04064752 -0.039876096 -0.03873147
000320 e7 54 ef bb 48 57 8d bb b1 56 0d bd 45 8a 07 3a
       -0.0073038223 -0.0043133833 -0.034506503 0.0005170445
000330 bc 27 a8 3c 50 20 26 3a cd 42 52 3d ec ac 3f 3c
       0.02052676 0.00063372124 0.051333237 0.011698943
000340 08 9b c9 bc 4e 8f 24 3d 82 41 5c bb ca a5 bc 3c
       -0.024610057 0.04017573 -0.0033608382 0.023028273
000350 c6 49 bc 3c 25 dd 29 3b 35 1c ca bc 8f 19 0e 3d
       0.022984397 0.0025919166 -0.024671653 0.034692343
000360 fc b5 9d 3c 8f 08 3d bd 4b 1a bf bc db f6 68 bc
       0.019251816 -0.04615074 -0.023327967 -0.014219011
000370 55 33 ed bc 8c c4 ef 3c 94 36 87 bb 76 12 5c bc
       -0.028955141 0.029268526 -0.0041263793 -0.013432136
000380 88 a6 81 3c b5 b2 6b 3c 62 3a 3d bc b9 99 ae 3c
       0.015826479 0.014385869 -0.011549564 0.021313535
000390 bd 3a b7 3c a3 9f a0 3c 34 49 1c 3d 54 a0 a3 bc
       0.022366876 0.01960737 0.03815575 -0.019973911
0003a0 da 9f 32 3d ea 4b 94 3c 47 a3 87 3c 09 cb 58 bc
       0.043609478 0.018102605 0.016557349 -0.013232001
0003b0 b2 3f f8 3c f8 75 95 3c cf 61 06 bd bf 3f 86 3c
       0.03030381 0.018244728 -0.03280812 0.016387818
0003c0 6d 10 5a bb 0d cd 1c bc 6f a5 7e 3c cf 1c 0d 3c
       -0.003327395 -0.009570372 0.015542372 0.008612826
0003d0 7e e3 5d 3c c9 88 28 3d 5a 73 a8 bc 1b 74 0d bd
       0.013543008 0.041146073 -0.020562816 -0.034534555
0003e0 3e cf 13 bd b9 ee a8 bc 2d a2 fd 3c a4 66 1c bd
       -0.036086313 -0.020621644 0.03096112 -0.038183823
0003f0 a8 4b 31 3c 2d 48 e6 bc 16 8b 08 bd 1c a6 ac 3c
       0.0108212605 -0.028110588 -0.033335768 0.0210753

fc2.weight f4 [128, 256]
000000 cc 95 72 3d 63 cf 5c 3d 2e 4a 0e 3c fa db 40 3d
       0.05922489 0.053908717 0.008684678 0.047084786
000010 0f 96 4a 3d d5 01 ee bc 89 c3 93 3b a2 76 2a 3d
       0.049459513 -0.029053608 0.0045093936 0.041617043
000020 0d f9 4a 3d 9e 8e a2 3a 71 de ec 3c a0 ba da bc
       0.04955392 0.0012402122 0.028914662 -0.026700318
000030 c0 f4 ff bc fe 56 d4 bc aa b4 40 bd 3f 35 00 bd
       -0.031244636 -0.025920387 -0.047047295 -0.03130078
000040 39 f1 6c 3b 32 fd 77 bb 1c cb 59 3d 7d da c2 bc
       0.0036154522 -0.0037840125 0.053172216 -0.023785824
000050 a9 65 8b 3d e3 5b cd 3c 2a 4f 3c bd b5 00 93 3c
       0.068064995 0.025068229 -0.045973934 0.017944673
000060 7f c8 dc bc fb ad 2e 3d 45 e7 3d bd a7 da 99 bc
       -0.026951073 0.04264639 -0.046363134 -0.01878102
000070 9c e9 80 3d 3c e4 60 3d 34 72 8a 3c b3 3b 19 bd
       0.062945575 0.05490516 0.01690016 -0.03741045
000080 58 8d 9e bb 79 78 1e bd 86 ee 20 3d 45 a2 46 bc
       -0.004838627 -0.03868911 0.039289974 -0.012123649
000090 ae 5d 68 3d a9 a1 57 3d 1b 08 eb 3b 03 ec a8 3c
       0.056729965 0.052644406 0.007172597 0.020620352
0000a0 62 09 d5 bc 4d ce 93 bc 59 6b a9 3c 46 8f bc 3c
       -0.02600545 -0.018042708 0.02068107 0.023017537
0000b0 c7 c3 09 bd b0 1c a6 3c 00 05 0e 3d 9f 0e 3d 3d
       -0.033633973 0.020277351 0.034672737 0.046156522
0000c0 36 44 48 3d 58 fb 6e bd 26 87 54 3d a1 00 42 bd
       0.048893176 -0.05834517 0.0518867 -0.04736388
0000d0 87 58 88 bc ee 97 7a 3d d4 60 0d 3d 00 ef 72 3d
       -0.016643776 0.061180048 0.03451617 0.05930996
0000e0 a3 a7 58 bd bd 6c 68 3d d3 7d 42 bc 5d 70 5e bc
       -0.052894246 0.056744326 -0.011870819 -0.013576594
0000f0 56 02 4c bc a0 e3 60 bc b4 48 11 3d 2d 20 ce ba
       -0.012451729 -0.013726145 0.035469726 -0.0015726142
000100 68 18 27 3d a7 ce fa 3c 2b 53 9e 3c bc a8 39 bd
       0.04079476 0.030616118 0.019326767 -0.045326933
000110 79 cd 34 bd 7a 6c 52 3c 51 86 e2 3c 40 59 43 3d
       -0.044141266 0.012843246 0.027651938 0.047692537
000120 8c 48 55 bc fb 5a cd bb 91 d0 02 bc 46 fb 4f bc
       -0.013017785 -0.006266949 -0.007984296 -0.012694186
000130 42 40 5a 3c cc db ba 3c 18 a7 57 3b 0c 62 23 bd
       0.013320984 0.022809885 0.0032905992 -0.039888427
000140 57 0f f4 bc 6c ff 9e bc 5c fa 81 3d d8 fa 69 3c
       -0.02979247 -0.019408904 0.063465804 0.014280997
000150 83 5f f7 3b 0c 2d dc 3c f3 c5 23 bd 3f 44 83 3d
       0.0075492277 0.026876949 -0.0399837 0.06409501
000160 03 48 fc bc 70 8a b4 3c 04 e5 3f bd 83 23 ed bc
       -0.030796057 0.022038668 -0.046849266 -0.028947597
000170 06 75 54 bd 50 00 29 bd a5 67 51 3d 7f fe 84 3d
       -0.051869415 -0.041260064 0.051124234 0.06493854
000180 fd 2c 0a bd fc 74 7a 3c 0e d7 b5 3a 45 35 12 bd
       -0.03373431 0.01528668 0.0013873295 -0.035695333
000190 97 7f f6 bc 1f ca 26 bc d9 f6 5d bd 62 59 13 3d
       -0.030090136 -0.010180025 -0.05419049 0.035973914
0001a0 0f b2 bf bc 2b 8c 10 3d a4 c0 1f bd 27 f5 24 bd
       -0.023400335 0.035289925 -0.039002076 -0.040272858
0001b0 1b be bd 3c 92 03 53 3d 46 5e 53 3c 00 cb 68 3d
       0.023161938 0.051517077 0.0129008945 0.05683422
0001c0 79 0f 27 bd e0 22 2d bc 1e 42 c4 39 da 55 bc 3c
       -0.04078624 -0.010567397 0.00037433294 0.022990156
0001d0 2f 14 ba 3b 92 91 9e 3c ba 33 3f bb 6f 3e 57 bd
       0.0056786756 0.019356523 -0.0029175119 -0.052549776
0001e0 ec a8 39 3d 95 63 f5 3c 0c ed 40 bb 53 f2 7b 3d
       0.045327112 0.029954711 -0.0029438166 0.061510395
0001f0 71 75 73 bc 6b e8 60 3d d6 7a ff bb b7 c0 78 3c
       -0.014859543 0.05490915 -0.0077966256 0.015182666
000200 7c 5b 1d bc 2b 36 e5 3c 89 b0 03 bb 22 61 03 bc
       -0.009604331 0.02797993 -0.0020094237 -0.008018764
000210 4e 76 e6 bb f4 1e 68 bc fb ad b0 bb 9e 81 04 3c
       -0.007033146 -0.014167536 -0.005391834 0.008087544
000220 33 46 7d 3d cc 78 65 3d b9 2b f6 3c e6 f4 d9 3c
       0.061834525 0.056023404 0.030050145 0.026606034
000230 4a b3 26 3d ee f4 6a bc 33 4d 90 bc c3 f2 96 3c
       0.040698327 -0.014340622 -0.017614936 0.018426305
000240 9c 88 b6 bc f9 df b8 3c a8 04 8a bc 7b f7 54 bd
       -0.022281937 0.022567736 -0.016847923 -0.05199383
000250 f5 cc e2 bc f6 c0 bd bc aa c7 46 3d 4b 1b fb 3c
       -0.027685622 -0.0231633 0.04853026 0.030652663
000260 1d 31 50 bd b4 9a a1 3c 3f 5f 29 3d 5d ce 16 bd
       -0.050828088 0.019727089 0.0413506 -0.036817897
000270 fe 30 01 3d 76 9a d4 bc 8f 57 1b bd 6b cb 10 bd
       0.031540863 -0.025952559 -0.0379253 -0.035350244
000280 74 8e 2f 3d fe c5 28 bd da bb b4 3c e7 8f 38 3c
       0.042860463 -0.041204445 0.02206223 0.011264778
000290 a1 76 62 3d cf 62 dd bc e8 55 be bc 7b 82 9a bb
       0.055288915 -0.027024655 -0.023234323 -0.0047152615
0002a0 11 1c 7b 3c 03 50 db bb 98 80 b9 ba 64 b6 79 bd
       0.015326516 -0.0066928877 -0.0014152704 -0.060964957
0002b0 72 0d 1d 3d f1 b0 0c 3b 14 62 fb 3c 95 5c f6 3c
       0.0383429 0.002146777 0.030686416 0.030073443
0002c0 b9 55 da 3c 1c ad 06 3d 2a 63 41 bd d1 6d 60 3d
       0.026652204 0.032879934 -0.04721371 0.05479223
0002d0 b8 c5 62 3d c9 0b 31 3d 92 9a ee 3c d7 4c 4a bd
       0.05536434 0.04322413 0.02912644 -0.049389686
0002e0 9b 33 b0 3c 0b 89 c7 bc 91 76 15 3d fd 90 39 3c
       0.021508982 -0.02435734 0.036490027 0.011326072
0002f0 dd 1a aa bc 7c 64 8a bd f1 b1 51 3d 85 d6 19 bc
       -0.020764763 -0.06757447 0.05119509 -0.009389524
000300 ff e3 f8 bb 63 3f 22 3b 8b e2 18 3c ee c4 4c bd
       -0.0075955386 0.002475702 0.009331356 -0.049992494
000310 20 27 aa bc a2 81 b0 3c 37 8b 58 3d 5a 89 8b bb
       -0.02077061 0.021546189 0.05286714 -0.004258317
000320 3f ae 34 3a f8 2d 03 3d e5 60 3a bd 3b d7 69 3d
       0.000689242 0.03202626 -0.045502562 0.057090025
000330 05 12 57 bd 1d e5 de bc 76 27 6c 3c 26 d0 50 3d
       -0.05250742 -0.02720886 0.014413705 0.050979756
000340 05 81 51 3c 70 47 f1 3c 1b 7b bc bc 8f 6b 08 3d
       0.012787108 0.02945301 -0.02300792 0.0333057
000350 8b fd f6 3c f6 82 50 3d 0e e8 52 3a 1d c8 a0 3c
       0.030150196 0.050906144 0.0008045443 0.019626671
000360 5c d9 18 bc 4c 83 86 bc 02 a8 2d 3d e3 92 98 3c
       -0.009329166 -0.01642003 0.042396553 0.018624729
000370 68 90 b4 bc 22 b0 83 bc 33 14 a1 3c 7b 0f 76 bc
       -0.022041515 -0.016075198 0.019662952 -0.015018339
000380 61 f8 02 bd 86 ff af 3c 4f a6 50 bd 80 d8 79 3a
       -0.031975154 0.021484148 -0.050939854 0.0009530857
000390 43 ec ec 3b f0 62 32 3d 07 91 65 bb 8b af a3 bb
       0.007230313 0.043551385 -0.003502907 -0.0049952916
0003a0 72 26 42 3d 9e bf 20 3d f8 ef 5c 3d 16 32 11 bd
       0.047399946 0.03924524 0.05393979 -0.035448156
0003b0 61 28 0c 3c f0 87 a1 bc 83 65 95 3c ac 8b 80 bd
       0.008554549 -0.01971814 0.018236881 -0.0627664
0003c0 2a b0 ee 3c a3 aa 1b 3d 1a 48 28 3d 53 8c b9 3c
       0.029136736 0.03800453 0.041084386 0.02264992
0003d0 d7 10 45 bd 41 43 25 3d 8b ea 76 3c 20 46 3f 3d
       -0.048111763 0.04034734 0.015070568 0.046697736
0003e0 1c 36 0f 3c 48 b6 2a 3d 8a 28 c9 bc 11 60 d3 3b
       0.008740928 0.041677743 -0.024555463 0.006450661
0003f0 09 52 92 bd 6e 0f 58 3d 2b cc 33 bd 87 12 b3 bc
       -0.07144553 0.05274909 -0.04389588 -0.02185942

fc2.bias f4 [128]
000000 86 d6 31 3d db bf 6b 3d 48 ca b3 bb 7c 32 3a bd
       0.043417476 0.057556015 -0.0054867603 -0.045458302
000010 18 42 d5 3c 80 10 41 bd 00 ff b6 ba 55 5e d2 3c
       0.026032493 -0.047134876 -0.0013961494 0.025679747
000020 40 1b 73 bd f4 8f 06 bd 51 ee 32 3d 70 bd 0a bd
       -0.05935216 -0.03285213 0.043684307 -0.033872068
000030 2a 2c 16 3d 3f 22 f9 3c 9e af b6 bc c6 53 22 3d
       0.036663212 0.030411838 -0.022300538 0.039630674
000040 0f 53 74 bd 3c 81 4e 3d 43 6d 44 3d 79 64 a3 3b
       -0.059649523 0.050416216 0.047955763 0.0049863425
000050 f5 c9 0a 3d f7 d9 97 3c e8 75 10 bd f7 33 6d 3d
       0.033884007 0.01853655 -0.035268694 0.057910886
000060 38 a2 bc bc 35 e0 fc bb b5 33 9f bc c7 db 55 3d
       -0.02302657 -0.0077171572 -0.019433836 0.05221155
000070 e1 39 c7 3c 30 83 3d 3d ff 59 72 bd d8 21 5d bd
       0.024319591 0.04626769 -0.05916786 -0.053987354
000080 8a 81 01 bd 73 bc 48 bd dd 9d ea bb 2f fb 86 bd
       -0.03161768 -0.049007844 -0.007159932 -0.06590878
000090 f3 50 29 bd 9c b3 55 bb 18 d4 5a bd b6 39 53 bd
       -0.041336965 -0.0032608276 -0.053424925 -0.05156871
0000a0 a7 a2 04 bd 0d 0f 31 bd 6a 50 81 bd ac ec 4c 3d
       -0.03238168 -0.043227244 -0.06314166 0.050030395
0000b0 7a 82 29 3d 71 42 40 3d cf c1 68 3d dc 95 0e 3d
       0.041384198 0.046938363 0.056825455 0.034810886
0000c0 df 45 9d 39 81 b5 6e bd 2a 01 ec bc 15 20 46 bb
       0.00029997432 -0.058278564 -0.028809149 -0.0030231525
0000d0 f0 9b 3a bd 30 89 34 3d c4 a5 82 3c 1d f8 90 3d
       -0.04555887 0.044076145 0.015948184 0.07078574
0000e0 68 a6 8e 3d f1 34 25 3d 1a 48 2c bd dc 78 36 3d
       0.06965333 0.040333692 -0.04206095 0.044548854
0000f0 98 97 8e 3b 96 57 8e 3c 6d 71 d4 bb f8 be 36 bd
       0.0043515675 0.017375749 -0.006483248 -0.044615716
000100 17 73 df bc 9e c9 83 bc cc 86 ee bc ac bc 59 3d
       -0.027276559 -0.01608735 -0.02911701 0.053158447
000110 d1 1c 4b bd a3 79 89 bd 29 f5 b5 b9 24 4a de bc
       -0.04958803 -0.067126535 -0.0003470567 -0.027134962
000120 71 ac db 3c e9 a8 48 3d 66 f0 6c bc 20 7f ca 3a
       0.026815625 0.04898921 -0.014461612 0.0015449263
000130 45 92 0a 3c b3 9c dd bc f6 06 90 3c 4c a9 8c bd
       0.008457725 -0.02705226 0.017581444 -0.06868228
000140 e9 5e c7 3c 01 3a 10 3d 13 de 8e 3c ad 16 37 3d
       0.024337249 0.035211567 0.017439878 0.04469936
000150 05 b5 c2 bc 46 e4 ae bc 09 1a 3f 3c 84 f9 5c 3d
       -0.023767957 -0.021349084 0.011663922 0.053948894
000160 71 05 d2 bb 54 f5 52 bd cc e1 55 bd 9b 68 84 bd
       -0.00640934 -0.051503494 -0.05221729 -0.064652644
000170 2c e0 04 bc aa 77 b9 bc 8d ae f2 3c 8f e5 07 3c
       -0.008110087 -0.022640068 0.029624248 0.008294477
000180 f4 24 0c 3d ff 22 a7 3b 20 c1 37 bd 76 94 a2 3c
       0.03421493 0.0051006074 -0.044861913 0.019846182
000190 c2 2d 3f bd 34 13 2f bd ee 70 5b 3d a6 17 42 bd
       -0.046674497 -0.042742923 0.053574495 -0.047385834
0001a0 21 f2 5b 3d a3 2e 02 bd 8c e4 d6 3b 7c dc 85 3d
       0.05369771 -0.031782757 0.0065580066 0.06536195
0001b0 ae b6 74 bd 79 d4 28 ba fb a1 5d bd 58 dc 7c bc
       -0.05974453 -0.00064403523 -0.054109555 -0.015433393
0001c0 d1 9f 4e 3d ab f3 9f 3b ba ff 88 3d a7 6a 83 bb
       0.05044538 0.0048813424 0.06689401 -0.0040105167
0001d0 c3 a1 05 3d 72 e2 98 3c 0b 35 82 3d 3f e1 41 bc
       0.03262497 0.018662665 0.063577734 -0.011833488
0001e0 63 7b cb bc 12 97 80 bd a8 b5 f3 bc 16 43 8e 3d
       -0.024839109 -0.062788144 -0.029749706 0.069463894
0001f0 93 c2 47 bd ab 7d 3c bc 4d e3 76 bd 60 b7 9f 3c
       -0.048769545 -0.011504571 -0.060275365 0.01949662

fc3.weight f4 [64, 128]
000000 e8 7a c4 bd fd 8d 7d 3d da 02 84 bd 05 ab 97 3d
       -0.09593755 0.06190299 -0.064458564 0.07405666
000010 7e 8a e5 bc 6f 7d 8f bb cc fb 70 bc 78 56 7b bd
       -0.02802014 -0.0043789665 -0.014708471 -0.06136176
000020 0b 33 48 bd c9 77 21 3d a4 c7 1a 3d 4a b2 20 3d
       -0.048876803 0.039420877 0.03778805 0.03923253
000030 45 4f b0 bd 27 cb 1a 3c ab f2 ab bd d1 f0 73 bd
       -0.086088695 0.009447849 -0.083958946 -0.059555832
000040 60 c4 f3 bc 33 dd 12 bd a5 b0 6d 3d 09 5c 47 3c
       -0.029756725 -0.035855483 0.05802979 0.012167939
000050 87 fe ba bd 23 b6 b3 bd ab 77 b5 3c 14 f8 8e bc
       -0.091305785 -0.08774974 0.022151789 -0.017452277
000060 06 2c 79 3d 72 a9 8e 3d c2 77 c7 bb 20 9c 80 bd
       0.060833 0.06965913 -0.0060872743 -0.062797785
000070 59 a3 cd 3c bf 89 b7 bd 1f 15 c2 bd 9d 05 41 bb
       0.025102304 -0.0896182 -0.09476685 -0.0029452809
000080 ff 76 a6 bd 42 9a b1 3d c4 4e 84 3d 56 22 9e bd
       -0.081281655 0.086720005 0.06460336 -0.07721393
000090 73 be 20 bd 41 2a 8c 3d 0c 0f 8f bd 54 e2 42 3d
       -0.039244127 0.06843997 -0.06985292 0.047579125
0000a0 93 c6 9d bc 39 d7 49 3b 0d 27 4c 3d 92 ed 9d 3d
       -0.019259727 0.0030798449 0.04984193 0.077113286
0000b0 2c ff 2e bd b4 a2 d1 bc 48 91 a4 bd 2d df a2 3d
       -0.04272382 -0.025590278 -0.08035523 0.07952724
0000c0 27 70 13 3c df 8e 84 bd 41 48 86 bd 10 0c aa bd
       0.008998907 -0.06472563 -0.0655675 -0.08303082
0000d0 c4 6a 39 bd e1 a4 28 bc 2b 04 53 3d 0f 87 f4 bc
       -0.045267835 -0.010293216 0.051517647 -0.029849557
0000e0 62 0f a1 3d de 4b 8f 3d 02 66 a0 3d bb 0d 49 3d
       0.07864262 0.069968924 0.078319564 0.04908536
0000f0 db 08 a3 bd c4 91 88 bd 95 c3 90 3d 37 e7 54 3c
       -0.079606734 -0.066684276 0.07068554 0.012994579
000100 40 54 0a 3d e5 79 95 bc 4e fb 3f 3d 78 c5 39 bc
       0.033771753 -0.0182466 0.046870522 -0.011338584
000110 d6 23 ce 3c ac 15 9a 3d ad a9 a3 bd 8a 97 8c 3d
       0.025163572 0.07523665 -0.079913475 0.06864841
000120 cf 55 30 3d 7f 78 d6 bb 4e b3 8b 3c 3f 03 9b bd
       0.043050583 -0.006545126 0.017053273 -0.075689785
000130 69 0f 38 3d d3 ba 10 3d c2 c3 ab bd 40 c8 86 3b
       0.04493657 0.03533442 -0.08386947 0.004113227
000140 f9 f4 95 3c 21 10 a4 bd 25 19 bb bd ac 9b 6d 3d
       0.018305289 -0.08010889 -0.09135655 0.05800979
000150 ad 31 8a bd 29 4e 07 bd 29 79 3a 3d f8 35 3b bd
       -0.06747756 -0.033033524 0.045525704 -0.045705765
000160 57 bc 15 bd d6 14 ce 3c 52 de 30 bd fa c9 96 bd
       -0.036556568 0.02515642 -0.04318077 -0.07362743
000170 6b 86 3b 3b 7e db 92 bd bd 8a 96 3b 6f 3d 4b bd
       0.0028614055 -0.07170771 0.0045941756 -0.049619135
000180 7b 7e 09 3c 12 6d 10 3d fc 8b 6c bd 68 6a 2c 3d
       0.008391972 0.035260268 -0.057750687 0.042093664
000190 46 09 3b bd 2e fa 84 bd 30 d9 8e bd cb 1e 21 b8
       -0.04566314 -0.064930305 -0.06975019 -3.841407e-05
0001a0 94 a6 2e 3d c7 2a 84 3d 29 5d 1e 3a 6d 2f 3c 39
       0.04263933 0.06453472 0.00060411036 0.00017946745
0001b0 d7 eb 48 bd 00 2b eb bc 76 b2 0d 3d 8a 51 81 3d
       -0.04905304 -0.028707027 0.03459402 0.063143805
0001c0 b1 7c a0 bd 02 cf 70 3d e7 08 6c bd b4 9c 36 bd
       -0.07836283 0.058791168 -0.057625677 -0.044583037
0001d0 c6 4b c2 3c 18 6e 4b bc 69 18 d7 3b fb ae 82 bd
       0.023717772 -0.012416385 0.006564189 -0.06381031
0001e0 f0 90 58 3d 1c 08 99 3d fb 4e 22 3d fd 43 a7 bd
       0.0528726 0.0747225 0.039626103 -0.081672646
0001f0 5e 26 67 3d f4 f1 10 bd 23 1d a3 3d bb 03 3d bd
       0.056433074 -0.035386994 0.07964542 -0.046146136
000200 a0 c2 c9 3c 4d 9f 98 bd 1b 9d 66 bc a7 03 ac bd
       0.024628937 -0.07452259 -0.014075543 -0.08399134
000210 4b 03 63 bc 6c 78 c9 3a ff 66 41 3d 95 e3 97 3d
       -0.013855766 0.0015370972 0.047217365 0.07416455
000220 7f 64 57 3d 12 00 47 bd c2 1d a7 bd 41 78 95 3d
       0.052586075 -0.04858405 -0.08159973 0.07298327
000230 d9 b3 62 3b 7b ba 6a 3d 50 96 a8 3d 44 85 05 3d
       0.003459206 0.057306748 0.08231795 0.032597795
000240 1a 07 82 3d 87 00 3f 3d a1 40 76 bd 7b a8 4c bd
       0.06349011 0.046631362 -0.06012023 -0.049965363
000250 a4 a1 2b 3d 0e d0 51 bd fd 57 8b 3d 15 4d 05 bc
       0.0419022 -0.051223807 0.06803892 -0.008136054
000260 83 ad 3c 3d 37 a6 b5 bc fc 27 38 3d 6f 48 a1 bc
       0.04606391 -0.022173984 0.044960007 -0.01968786
000270 d7 b5 06 bd b1 c9 2c bd 9f af 9d bd 04 c5 22 3d
       -0.03288826 -0.042184535 -0.07699513 0.03973867
000280 e1 43 91 bd 4c 45 90 bd 5d 68 d0 3c 52 25 4c 3d
       -0.07093025 -0.07044467 0.02544039 0.04984028
000290 e8 98 a9 3d de e1 97 bd ce 40 c3 bc 1a c3 b1 3c
       0.08281118 -0.074161276 -0.023834612 0.021699477
0002a0 60 c1 b2 ba ee 53 9f 3d ce 8f 7c 3b ba 4e 52 bd
       -0.0013637953 0.0777968 0.0038537863 -0.05134461
0002b0 9e ec 5c 3d 0c a3 9c 3d b2 9b 99 3d 26 bb 5c bc
       0.053936593 0.07648286 0.075004 -0.013472354
0002c0 48 cf ba bd 95 f9 94 bb 2f a5 14 3c 72 06 ed 3c
       -0.09121567 -0.004546354 0.009072586 0.028933737
0002d0 b6 86 47 3d ce 66 8a bd 9b 77 6d bc 6b 36 99 bd
       0.048712455 -0.0675789 -0.014493848 -0.074810825
0002e0 c6 16 86 bc ab 12 b9 3b 94 5a 39 bd 40 43 5e 3d
       -0.016368281 0.0056479773 -0.045252398 0.054263353
0002f0 40 2f 88 3d d9 bb 78 bb 03 2b 81 ba 63 c9 88 3c
       0.06649637 -0.0037953763 -0.0009854737 0.016697591
000300 0a 62 bb bd 68 a5 86 bd 85 5f 3d bd 81 4d e6 bc
       -0.09149559 -0.065745175 -0.046233673 -0.028113129
000310 71 b8 56 b9 00 f3 b1 3d a0 f2 41 3d 01 ed d6 3c
       -0.0002047734 0.08688927 0.047350526 0.02623606
000320 64 8b af bd ee b0 ae 3c c2 e6 a8 bd 73 22 13 3d
       -0.085715085 0.021324601 -0.082471386 0.035921525
000330 92 a2 24 3c d7 b3 c3 3c e7 3c ac bd e2 3b 35 bd
       0.010048525 0.023889465 -0.08410054 -0.04424656
000340 d7 96 b5 3c 18 30 56 bc 40 bb 65 bd b2 46 36 3d
       0.022166653 -0.01307299 -0.05608678 0.044501014
000350 e8 a8 6c 3a 3b 3c ba 3b 06 0b dd 3c e8 98 68 bd
       0.00090278545 0.0056834496 0.026982795 -0.056786448
000360 f0 a7 8b 3b 8c 77 8e 3d f3 48 f7 bc 39 55 49 bd
       0.004261963 0.069563955 -0.030186152 -0.04915354
000370 86 37 83 bc 6f 1c ba bc 6c ef 77 3c 4d ff 83 3b
       -0.016017687 -0.022718636 0.015132766 0.004028237
000380 9e 90 80 3d 70 d5 17 3d 37 eb 07 3c 75 e0 9f bd
       0.062775835 0.037068784 0.008295826 -0.07806484
000390 1c 7f a9 bd 32 b5 2f bd e7 2c b9 bd 63 eb d4 3c
       -0.08276197 -0.04289741 -0.090417676 0.025991147
0003a0 b1 61 44 bd 93 34 a1 bd 3f c8 ce bc 62 bb 6e 3d
       -0.04794473 -0.07871356 -0.02524197 0.05828417
0003b0 1c 54 90 bd 19 f1 8d bd 97 a6 4b 3d 7b 60 a0 3d
       -0.070472926 -0.06930751 0.04971942 0.07830902
0003c0 02 b6 49 bd 97 32 6f 3d 88 44 1e bd 12 e5 98 bd
       -0.04924584 0.058397856 -0.038639575 -0.07465567
0003d0 70 09 c7 bd d1 29 01 bd d7 0c c6 3b a8 ae d2 bc
       -0.09718597 -0.03153402 0.006044011 -0.025718048
0003e0 40 f2 54 3d d6 20 a4 bd 51 28 4d 3d 0b c6 8c bc
       0.05198884 -0.080140755 0.050087277 -0.017184278
0003f0 39 86 a6 bd ef f6 fc bc 46 3e 71 3d 57 5f 20 3d
       -0.0813107 -0.030879466 0.05889728 0.039153423

fc3.bias f4 [64]
000000 4f bc d9 bc bc 04 06 bd 54 d6 31 3d 0d 3c 9c bd
       -0.02657905 -0.03271936 0.04341729 -0.07628641
000010 d5 9f f0 bc 73 5a 45 bc 04 bb 57 bd 69 79 4a bd
       -0.029373089 -0.012045491 -0.052668586 -0.049432192
000020 b9 52 04 bc df 7c 67 bd 01 bb 15 3c 26 a9 65 3c
       -0.008076363 -0.05651557 0.0091388235 0.014017379
000030 55 1d a3 3c 84 c3 aa bc e9 57 68 bc c0 b3 d1 bb
       0.019911448 -0.020845182 -0.014181116 -0.0063996017
000040 d7 d6 7e 3c a2 e6 fa 3c a1 88 a4 3d 8b 7a 64 bd
       0.0155541515 0.030627552 0.080338724 -0.05578093
000050 28 5e 28 bb d7 de 0c 3d 28 28 b1 3d 79 b3 d5 3d
       -0.0025690887 0.034392204 0.08650237 0.10434622
000060 d6 ec a3 3d c7 d0 58 bd b5 89 d9 3d e7 0d 10 bd
       0.08004157 -0.05293348 0.10621969 -0.03516951
000070 65 93 b6 3c d8 e8 1e bd 10 30 92 bd 27 bd e1 bd
       0.02228708 -0.038796276 -0.071380734 -0.11022406
000080 90 cb 6f bd d8 03 e9 3c 39 e3 4d bc 39 1d 87 3a
       -0.05854374 0.028444216 -0.012566381 0.0010308392
000090 b5 cc f9 bc 38 43 b5 3c 8e 42 a4 bd 8d 9c bc bd
       -0.03049312 0.022126779 -0.08020507 -0.09209547
0000a0 98 15 ce bd 1e f3 07 bd 54 86 0c bc 22 59 ee bc
       -0.100627124 -0.03319084 -0.008576948 -0.029095236
0000b0 11 4a 8d bd 9d 84 a6 3d 17 a5 e5 3d 23 d7 6a bd
       -0.06898893 0.08130763 0.11213129 -0.057334077
0000c0 0b 08 92 bc 7c a7 b3 bc af 7b 2e 3d 9a 5f d7 bd
       -0.0178261 -0.021930449 0.042598423 -0.105162814
0000d0 1d 7d aa 3d 0a 0d 99 ba d5 7e b2 bd 7b 4a 74 bb
       0.08324645 -0.001167686 -0.087155975 -0.003727584
0000e0 af 07 c1 3d 22 8c 15 bd 62 8c 1d 3c 06 8b 2a bd
       0.09425294 -0.036510594 0.009615989 -0.04163649
0000f0 51 3f 5b 3d 7f 25 c5 3d 03 0f e8 3d db 9e 60 3b
       0.05352718 0.096262924 0.11330988 0.0034274373

fc4.weight f4 [32, 64]
000000 e9 fa f3 bd fc c8 4d bd d8 62 0b be 5c fa 2a bd
       -0.11913092 -0.0502405 -0.13611925 -0.041742668
000010 6f 13 ed bc 58 97 c0 3d 18 1d f3 bd 63 ba a8 bc
       -0.02893993 0.094038665 -0.118707836 -0.020596689
000020 a8 b6 2d bd 02 cc fd bd 85 b5 b6 bd 5a 2e 9d 3d
       -0.042410523 -0.12392427 -0.08921341 0.076748565
000030 26 83 8d 3d b0 e2 a7 bd 4c 5b 7c 3d 4b 1a b2 bd
       0.0690978 -0.08197534 0.061610505 -0.08696421
000040 57 93 ad bc 6f 6f a4 3d 73 10 0e bd 55 7e de bd
       -0.021188421 0.08029067 -0.034683656 -0.1086394
000050 b5 03 cb bb ac fa fe bd e3 f0 16 3d 56 10 0b bd
       -0.0061955103 -0.124501556 0.03685082 -0.033951126
000060 bc 2c 17 bd d2 be 91 bc 14 f6 5e 3b 61 dd 2f bd
       -0.036907896 -0.017791186 0.0034021186 -0.042935733
000070 f4 fb 86 bd 20 75 d8 bc b1 25 6e bc 35 08 35 bd
       -0.06591025 -0.026423037 -0.0145353535 -0.04419728
000080 17 9f 46 3d 98 0c a5 bd 25 c7 d4 bd be 8f c4 bd
       0.048491564 -0.08059043 -0.10389546 -0.09597729
000090 fd 46 e1 3d 3e ad 10 3d 88 3f c5 3c f4 ba 84 bd
       0.10999868 0.035321467 0.024078146 -0.06480971
0000a0 1c 0e e5 bd af 77 01 bd d1 a5 da bc 02 af 90 3d
       -0.11184332 -0.03160828 -0.026690396 0.0706463
0000b0 53 6c da bc 58 92 bf 3d 9a 13 42 3d a9 be a2 3d
       -0.026662981 0.09354085 0.047381975 0.07946522
0000c0 ac 35 bb 3d 8c b1 31 bd 69 c0 73 bc 0a 59 e8 3c
       0.091410965 -0.043382213 -0.014877417 0.02836277
0000d0 34 a6 80 3c 72 0e da bd a0 b1 bd 3b bc 83 49 bd
       0.015704252 -0.106472865 0.005788997 -0.049197897
0000e0 22 54 88 bd fb ed d1 bd f8 0a f3 bd 19 51 95 bd
       -0.06656672 -0.10250469 -0.118673265 -0.07290859
0000f0 0a f4 ca bd 9f cd e8 bd 09 c9 17 3c e5 0d 04 be
       -0.09909828 -0.11367344 0.009264239 -0.12895925
000100 e5 16 8e 3d 72 7b 22 3d 95 40 d3 3d d0 04 35 bd
       0.069379605 0.039668508 0.103150524 -0.044194043
000110 08 3b e3 3d f4 83 82 3d d3 2f ca bd 63 7b b6 3d
       0.11095244 0.06372824 -0.09872403 0.08910253
000120 80 46 ce bb f3 b7 c3 bb e2 98 e1 3d ca cd 38 bd
       -0.0062950253 -0.005972856 0.11015488 -0.04511813
000130 0c 7d 8f 3d d1 40 9a bd 5b 15 26 3d 74 f0 32 3d
       0.07006273 -0.07531894 0.04054771 0.043686345
000140 db ea 83 3c ea c0 9e 3d db 27 8e bd 71 17 26 3c
       0.016103199 0.07751639 -0.069411956 0.010137425
000150 e0 46 6f 3d d1 da 06 bd 82 d6 ce bb ff 73 3c 3d
       0.0584172 -0.032923523 -0.0063121924 0.04600906
000160 a2 df 84 3d a3 9e fc bd 7c 78 59 bd 78 6f 83 3d
       0.06487967 -0.12334945 -0.05309342 0.06417745
000170 91 b0 07 3d 47 16 35 3d 35 a2 bf bb c1 75 80 bd
       0.03312737 0.0442107 -0.005848194 -0.0627246
000180 b1 d6 a2 3d c7 f8 2d bd 53 e4 59 bd d1 05 36 3c
       0.079511054 -0.04247358 -0.053196263 0.011109785
000190 4e f2 58 3d f0 76 a4 3c 32 c4 b7 3d 21 63 23 3b
       0.052965455 0.020076245 0.08972968 0.0024930912
0001a0 8d 7b a2 bb d6 7b b1 bd 88 ca bd 3c af e4 9a 3d
       -0.004958576 -0.08666198 0.023167863 0.07563149
0001b0 73 66 ba bd b3 e7 b7 bd cd 97 19 3d e3 0d fa 3d
       -0.09101572 -0.0897974 0.037498284 0.1220968
0001c0 d8 ee 4e 3d 9c 99 05 bd d6 b0 84 bd e9 96 a5 ba
       0.050520748 -0.032617196 -0.06479041 -0.0012633476
0001d0 ea e0 62 3d 26 22 c9 bd 16 6e d5 3d 10 7f 29 3d
       0.055390276 -0.098209664 0.10421388 0.041380942
0001e0 e3 eb 55 3d 46 8f a2 3d 8c 55 82 3d 8e b2 d1 3d
       0.052226912 0.079374835 0.06363973 0.10239135
0001f0 c3 c6 65 bd d6 4b d9 bd 1c 1f 8d 3d f4 7d 47 3d
       -0.056097757 -0.10610168 0.06890699 0.048704103
000200 c9 45 28 3d f4 29 1f 3d 78 d5 04 3d 32 09 f4 bd
       0.041082177 0.03885837 0.032430142 -0.11915816
000210 8a b5 ac 3c 80 d9 cd 3b fe 31 f9 bd 84 55 c9 bc
       0.021082658 0.0062820315 -0.121677384 -0.02457691
000220 e8 e8 52 3d 46 f0 e4 bd 23 00 2e bd 18 6c 3e bd
       0.051491648 -0.11178641 -0.0424806 -0.046489805
000230 1f 06 67 bd d4 94 fb bd fa 77 b9 3c eb 7a 08 3d
       -0.056402322 -0.12284246 0.022640217 0.03332035
000240 dd 2e 8a 3c 1c 06 6e 3d bf 9b 81 bd 60 1d ae 3c
       0.01686805 0.058111295 -0.06328534 0.021254241
000250 10 f9 3c bd 9f 1d ce 3d 0c 40 e5 3c 81 21 32 3c
       -0.046135962 0.100642435 0.027984641 0.010872246
000260 28 fe ba bd f0 5e fb 3d 2a 60 bf bc 58 f8 3b 3d
       -0.09130508 0.12273967 -0.023361284 0.045891136
000270 08 0d 97 3c 3a 77 97 3d 84 56 64 3d e0 7b 00 3d
       0.018438831 0.073957875 0.05574657 0.031368136
000280 06 a1 83 bd a2 e3 7b 3d a0 8a de 3d 30 d1 3f bc
       -0.06427197 0.061496384 0.10866284 -0.011707589
000290 e5 8d 8a bc 8a 00 90 bd 68 2b fb 3d 20 74 93 bc
       -0.016913364 -0.07031353 0.122641385 -0.017999709
0002a0 9c 5a 46 bd 10 21 01 3d 63 fc 73 bd 70 7f 8b 3d
       -0.048426256 0.03152567 -0.059566867 0.06811416
0002b0 dc fd bf bd 68 c7 e9 3d 34 b4 f5 bd a8 09 8b bd
       -0.09374592 0.11414987 -0.11997262 -0.06788951
0002c0 07 c1 ce bb 76 c0 7c bc 64 4b 59 3d 2b 38 31 3d
       -0.0063096317 -0.015426746 0.053050414 0.043266457
0002d0 e0 df b4 3b d3 12 b9 bd 58 bb d9 3c 4c cd cf 3d
       0.005519852 -0.090367936 0.02657859 0.10146579
0002e0 f3 eb 79 bc b4 c9 94 3c 24 24 1d bc 0e 2b f6 bd
       -0.015254009 0.018162586 -0.009591136 -0.12019931
0002f0 e8 cb 13 bd 49 ac 18 bd 95 3b 51 3d c1 1c 4d 3d
       -0.036083132 -0.03727368 0.051082212 0.05007625
000300 24 fd 50 bd 16 d2 bb 3d bc db c7 3d e4 f6 60 bd
       -0.051022664 0.0917093 0.09758708 -0.054922953
000310 88 d0 b6 3c d0 38 83 3c 88 68 8d bc ae e5 b5 3d
       0.022316232 0.016018301 -0.017261758 0.088816985
000320 5e 92 b5 bd 70 28 c6 bc 88 84 71 3d 6e 79 a3 bd
       -0.08865808 -0.024189204 0.058964282 -0.07982145
000330 c0 6b 2f 3c 00 ef b5 3c 20 d9 79 bc 74 93 e4 bd
       0.010706842 0.02220869 -0.015249521 -0.11160937
000340 fe de 89 bd da 9d fa 3d 20 37 f0 bc e0 64 7b bc
       -0.067319855 0.12237139 -0.02932316 -0.015343875
000350 a2 6a 8a 3d e2 ad 97 3d d8 63 a6 bc 1a 65 95 3d
       0.0675862 0.074062124 -0.020311281 0.07294674
000360 60 5a 0d 3c cc 80 1f bd 76 16 c7 bd 36 f0 f4 bd
       0.008627504 -0.03894119 -0.09721081 -0.11959879
000370 9c 0b 75 3d 78 ff ca bc 60 fe 14 bd 1c e1 7d bd
       0.059825525 -0.02478002 -0.036375403 -0.06198226
000380 f6 76 b2 3d f8 cb cf bc 7a 59 f8 bd fa cd e9 3d
       0.08714096 -0.025365815 -0.12126441 0.1141624
000390 7c 0a e3 bd c8 0f 83 bc c0 b2 9f bc 28 92 be bc
       -0.11085984 -0.015998736 -0.019494414 -0.023263052
0003a0 88 85 ca bc 12 1b e4 3d 68 31 bf bc 4c 78 f3 bd
       -0.024721876 0.11137976 -0.023338988 -0.11888179
0003b0 60 5b f1 3c 48 7a 1c 3d 5e 41 a8 bd d8 e8 3b bd
       0.029462516 0.038202554 -0.08215593 -0.045876354
0003c0 c0 3d 90 bd 00 a1 6b 3b 00 ce 10 bc 88 15 7e bd
       -0.07043028 0.0035954118 -0.008838177 -0.062032253
0003d0 ea dd f5 bd 54 a0 84 bd c0 1a d9 3d ae 55 ff bd
       -0.120052174 -0.06475893 0.10600805 -0.12467514
0003e0 e8 6b f4 bc 66 5c ac 3d cc b7 b8 bd b8 18 d6 3d
       -0.02983661 0.08416061 -0.090194315 0.104539335
0003f0 94 12 e0 3d 70 f3 79 bd 00 ee c0 bb 00 68 4a 3a
       0.109410435 -0.061023176 -0.005887747 0.00077211857

fc4.bias f4 [32]
000000 30 ee 17 3d 81 e0 da bd 44 74 16 bd f4 65 33 bd
       0.037092388 -0.10687352 -0.036731973 -0.043798402
000010 ce d3 cc 3d d3 dc 0a 3d b0 5f 66 bd e6 7b d8 bd
       0.10001336 0.033902 -0.0562436 -0.10570507
000020 38 9f b1 3c ae ac ed bd e7 62 89 3d 76 b2 03 3e
       0.021682367 -0.11605202 0.06708317 0.12861046
000030 34 34 98 3d 9e a6 94 bd d0 a1 9e 3d 40 6e ab bb
       0.07431832 -0.07258342 0.07745707 -0.0052316487
000040 5a 12 89 3d 30 51 f2 bc f0 7d 1a 3c 02 42 9e bd
       0.066929534 -0.029579729 0.00942944 -0.07727434
000050 54 15 78 bd f8 7e 7a bd 68 bc 8e bd 24 7d 08 3e
       -0.060567215 -0.061156243 -0.069695294 0.13328987
000060 75 10 1c 3e 2a d6 ad bd 1c 25 04 be 00 e4 ee bd
       0.15240653 -0.08488114 -0.12904781 -0.11664581
000070 f6 f5 e4 bd b1 19 b8 bc 9a a5 1a 3c aa c2 c5 3b
       -0.11179726 -0.022473188 0.009438897 0.0060351687

fc5.weight f4 [1, 32]
000000 3b db 1d 3d 8e a2 ae bd fd 91 8b 3d 43 d1 14 3e
       0.038539153 -0.085270986 0.068149544 0.14532952
000010 6c 6f bf 3d 37 b0 92 bd dc dc ce bd 4d be 9e bd
       0.09347424 -0.071625166 -0.10100719 -0.07751141
000020 3a 0c 14 3d 13 5b 13 3d 40 2d 3c 3d 3c 2c 82 bd
       0.036144473 0.035975527 0.04594159 -0.06356093
000030 b4 e4 04 be 26 63 1f be b9 40 ac 3d a0 4f 32 be
       -0.12977868 -0.15565166 0.08410782 -0.17413187
000040 4c 3b c4 3d 42 a7 22 3e 74 d3 8a 3d fc 17 21 3e
       0.095816225 0.15884116 0.06778613 0.15731806
000050 cc ce 7e bd 09 8a 2f 3e 86 ff e0 bd c7 5d 3a bd
       -0.062208936 0.171425 -0.10986237 -0.04549959
000060 1b 7c 9e bd b4 d9 9f bd 05 51 ee bc 2b 15 b0 bc
       -0.07738515 -0.078051955 -0.029091367 -0.021494469
000070 d5 6f 63 ba 5e 68 93 ba 00 1b 0f 3e 5c 44 21 be
       -0.0008676027 -0.0011246314 0.13975143 -0.15748733
