DeepLearning/model_0321/model_best_0_r2_-0.040545567675612765.pth (torch, 666311 bytes, 9 tensors)

fc1.weight f4 [256, 478]
-0.032923173 -0.028459072 0.019828985 0.017075231 0.021827145 -0.038900282 0.007967475 0.010113652
0.026684023 -0.04751159 -0.0147955 0.0054501155 -0.017288603 0.021378834 0.016183034 -0.032767124
0.021787068 -0.03250287 -0.04592907 0.020536607 -0.016556824 0.017370058 -0.004130312 -0.00073526945
0.04328493 -0.008028307 0.019703938 0.034987498 -0.04590375 -0.041324385 0.03939287 -0.022142615
0.033140805 -0.0040316503 -0.0017582959 -0.020853585 -0.012487694 0.008872451 -0.002835895 -0.036188226
-0.026225451 -0.04142105 0.024170019 -0.040117197 -0.04731192 -0.0382649 -0.03166242 -0.03364453
0.020094018 -0.025149995 -0.006666449 0.022357997 -0.017499374 0.0029775118 -0.046771344 -0.007866953
0.013148123 -0.023961518 0.015596921 -0.010201032 0.04051574 -0.042713188 0.0031195239 0.037481766
-0.033004805 0.04158789 -0.003090579 0.027536135 -0.0029289366 0.024918795 0.03905888 -0.03337465
0.009640294 -0.013770684 0.02909652 0.015864247 0.041724104 -0.020346094 -0.024912953 -0.045300893
0.026758708 0.03974245 0.0043493398 0.032831665 0.017083783 -0.026538935 0.00551793 0.027996128
-0.015187722 0.03454918 -0.03437849 -0.015471503 0.024797944 -0.009580658 -0.027897675 -0.03948147
0.032707583 0.03964779 -0.030980628 0.017008558 0.0045671337 -0.018321771 -0.016007546 -0.0055904393
0.02045681 -0.046655748 -0.018072281 -0.040931642 -0.018364847 0.023235938 0.039355427 0.042332884
0.006738918 -0.019903535 -0.0059193517 0.016558386 0.0076720244 0.027017636 0.006062163 0.021761509
-0.007256001 0.018433658 0.011517006 -0.00968383 0.041971277 -0.028172206 0.027243821 -0.01426079
-0.039796565 0.026540246 -0.0127102975 0.03361429 -0.014340394 -0.014794209 0.004613918 0.023823375
-0.021582095 -0.005267378 -0.012088936 0.030376999 0.037185267 -0.033410527 -0.044924814 0.037945457
-0.014516247 -0.02104227 -0.02995136 3.7624923e-05 0.016483922 -0.015204776 0.01177787 -0.032159075
0.01477641 0.02378247 -0.04374665 -0.0024438384 -0.044613812 -0.011036361 0.012753584 -0.004780938
-0.009599865 -0.027919335 0.03093365 -0.011422717 0.031428475 -0.0325432 -0.02907161 0.011753188
0.03735169 0.03976648 0.036703646 -0.0028104878 0.02043605 0.012334627 0.040362354 0.021441355
0.016049203 -0.03840569 0.00012350436 -0.04149605 0.03730644 -0.01283362 0.04558969 -0.009565578
0.037687816 -0.030899173 0.034850605 0.0073603345 0.017552206 -0.03148804 0.017812068 -0.0077101607
0.01792862 -0.014776397 -0.041029427 0.0028568674 0.013286169 -0.0021484045 -0.013282375 0.0010420477
0.0019119177 -0.014222462 -0.04399927 0.031751063 -0.041459702 0.0026780819 -0.007388685 -0.012352945
0.04028645 0.033809584 0.02119171 -0.021287084 -0.00017278375 0.011869883 0.012487333 0.040962834
-0.036248427 -0.015011291 0.028850235 -0.024558954 0.014257099 0.027079927 -0.013013111 -0.04014117
0.021836448 0.030755248 0.0006825577 -0.038344786 -0.0145495245 0.03619084 -0.045658644 -0.019028774
0.020132404 -0.020493142 -0.025796467 0.042260528 0.0118065495 0.021851959 0.021425992 0.025254596
0.001635903 -0.002667405 0.010735846 -0.028797206 0.033207186 -0.047314826 0.035125393 -0.03387638
0.0029335313 0.02492132 0.026797818 -0.04241993 0.026269667 0.03009817 0.031374466 -0.007684439
00000000: 73da 06bd 0023 e9bc 6570 a23c 5be1 8b3c
00000010: d7ce b23c e755 1fbd 038a 023c bbb3 253c
00000020: 7498 da3c 839b 42bd d368 72bc e296 b23b
00000030: d4a0 8dbc aa22 af3c 4892 843c d236 06bd
00000040: cb7a b23c bb21 05bd 1f20 3cbd 633c a83c
00000050: 2da2 87bc a74b 8e3c 9157 87bb 19bf 40ba
00000060: 8a4b 313d 2989 03bc 276a a13c 0d4f 0f3d
00000070: 9205 3cbd c243 29bd 6b5a 213d 6e64 b5bc
00000080: a7be 073d ef1b 84bb 9f76 e6ba 23d5 aabc
00000090: 2f99 4cbc c25d 113c 6cda 39bb 1b3a 14bd
000000a0: c2d6 d6bc 1ea9 29bd 3400 c63c ee51 24bd
000000b0: 25ca 41bd a8bb 1cbd 74b0 01bd d9ce 09bd
000000c0: 369c a43c 5d07 cebc 3a72 dabb 1e28 b73c
000000d0: d95a 8fbc 5c22 433b 4f93 3fbd 64e4 00bc
000000e0: 3a6b 573c f24a c4bc 3a8a 7f3c 3b22 27bc
000000f0: d5f3 253d 06f4 2ebd ed70 4c3b 7b86 193d
00000100: 0c30 07bd 1058 2a3d 508b 4abb 7693 e13c
00000110: 67f3 3fbb 8022 cc3c 34fc 1f3d dbb3 08bd
00000120: 53f2 1d3c 6f9e 61bc d35b ee3c bdf5 813c
00000130: e5e6 2a3d daac a6bc 4016 ccbc 6e8d 39bd
00000140: 1435 db3c fbc8 223d e884 8e3b 7f7a 063d
00000150: 4af3 8b3c 2e68 d9bc c0cf b43b 2358 e53c
00000160: ecd5 78bc 7183 0d3d 76d0 0cbd 307c 7dbc
00000170: 0f25 cb3c 31f8 1cbc aa89 e4bc 52b7 21bd
00000180: 63f8 053d b965 223d 16cb fdbc 8855 8b3c
00000190: e5a7 953b 8a17 96bc 4222 83bc 0130 b7bb
000001a0: 0a95 a73c 191a 3fbd 520c 94bc f0a7 27bd
000001b0: e071 96bc 4b59 be3c 2833 213d 3f65 2d3d
000001c0: 24d2 dc3b bd0c a3bc 1ff7 c1bb 74a5 873c
000001d0: 9b65 fb3b 1754 dd3c 1ca5 c63b 3145 b23c
000001e0: bfc3 edbb 2f02 973c d3b1 3c3c eda8 1ebc
000001f0: 13ea 2b3d 66c9 e6bc 6f2e df3c 17a6 69bc
00000200: b901 23bd ee6a d93c da3e 50bc 23af 093d
00000210: f9f3 6abc 6963 72bc 5930 973b 3d29 c33c
00000220: efcc b0bc f899 acbb ac10 46bc 2fd9 f83c
00000230: 944f 183d 7ad9 08bd 1503 38bd b26c 1b3d
00000240: 8ed5 6dbc d760 acbc 8e5c f5bc 74cf 1d38
00000250: 4a09 873c 741d 79bc f8f7 403c 3cb9 03bd
00000260: c118 723c 74d3 c23c b02f 33bd ce28 20bb
00000270: f9bc 36bd dad1 34bc 69f4 503c 6aa9 9cbb
00000280: c148 1dbc 17b7 e4bc 9168 fd3c 5926 3bbc
00000290: 25bb 003d 054c 05bd 9627 eebc 7290 403c
000002a0: 16fe 183d 2de2 223d 9056 163d 2930 38bb
000002b0: 8169 a73c 2d17 4a3c ff52 253d c8a5 af3c
000002c0: 9e79 833c 494f 1dbd f380 0139 c3f7 29bd
000002d0: a3ce 183d 1b44 52bc 41bc 3a3d f1b8 1cbc
000002e0: 8a5e 1a3d 4320 fdbc 82bf 0e3d f62e f13b
000002f0: a5c9 8f3c 9af9 00bd 9dea 913c 84a5 fcbb
00000300: 0bdf 923c b318 72bc 790e 28bd 483a 3b3b
00000310: 3bae 593c 3fcc 0cbb 529e 59bc 5295 883a
00000320: 5099 fa3a 5405 69bc 9438 34bd 670d 023d
00000330: a6d1 29bd c282 2f3b c81c f2bb 0264 4abc
00000340: 6803 253d eb7b 0a3d 3d9a ad3c 4062 aebc
00000350: 492d 35b9 e679 423c ac97 4c3c a5c8 273d
00000360: 3b79 14bd ebf1 75bc 5457 ec3c dc2f c9bc
00000370: 9b96 693c b9d6 dd3c f234 55bc 116b 24bd
00000380: 5ae2 b23c 6ef2 fb3c aced 323a 6c0f 1dbd
00000390: 2161 6ebc d93c 143d 8f04 3bbd 3be2 9bbc
000003a0: b6ec a43c 3ce1 a7bc 1d53 d3bc 6019 2d3d
000003b0: 4270 413c e102 b33c 9085 af3c bae2 ce3c
000003c0: cc6b d63a a1cf 2ebb 67e5 2f3c 1ee8 ebbc
000003d0: 4204 083d 31cd 41bd a5df 0f3d f6c1 0abd
000003e0: 7d40 403b cc27 cc3c 1987 db3c 85c0 2dbd
000003f0: 7c33 d73c 7090 f63c 8382 003d bfcd fbbb

fc1.bias f4 [256]
0.042038184 -0.026625525 -0.010140076 0.055898782 0.0466909 -0.026425682 0.01609927 -0.0147712
0.04928253 0.026421638 -0.020837903 -0.0006391302 0.0017741546 -0.030349405 0.04351181 -0.02675218
-0.013350773 -0.0120943785 0.023345292 0.01673563 -0.0007757981 -0.029614735 -0.0075793024 0.0011200744
-0.004708816 -0.0333862 -0.0018572473 0.011452841 -0.021687323 -0.0020900175 -0.030761106 -0.015988974
0.02572588 -0.03199427 -0.018098816 -0.005807219 -0.006223776 -0.028848272 0.009219931 0.039788134
0.053133022 0.034931567 0.033626292 -0.008486523 -0.024563447 -0.00812613 -0.03673967 -0.031999245
0.014354159 0.04135068 0.030396342 -0.040490672 -0.036347754 0.031361993 0.0005435501 0.022061858
0.022651402 -0.04166525 -0.04371816 -0.047832914 0.025060019 -0.03263556 -0.011110551 0.03515891
0.034691297 -0.028747959 0.019656138 -0.049539834 -0.03922103 -0.027970396 0.025551982 0.010155301
0.021452243 -0.037589774 -0.022105208 0.010779569 -0.017568937 -0.03788797 -0.019262066 0.042427815
0.0084404 -0.016333412 -0.045404453 -0.013453234 -0.0072453446 -0.034988835 0.024502652 0.054788537
-0.013429998 -0.018562196 -0.006805478 -0.038214397 -0.020700812 -0.03205734 -0.023472823 -0.037431702
-0.00064461696 0.015471903 0.00011049653 -0.028650528 0.020350816 0.045504484 0.034284748 0.03258036
0.030731745 0.00636572 -0.03814373 -0.042707443 0.02621746 -0.009701726 -0.018363077 0.03455758
-0.032924302 0.04254128 -0.010171269 -0.020381194 -0.0059122643 -0.01377309 0.010062883 -0.036125317
-0.0046767127 0.03270988 0.038318183 0.023614721 -0.023554955 0.022811815 -0.013126277 0.0347454
-0.0372237 -0.038463034 -0.030084185 0.043505516 0.01910087 -0.033899225 -0.012609682 0.009260666
-0.0066670505 0.025371406 0.009252502 -0.03696804 0.036249578 0.03472934 -0.017507784 0.005925157
-0.0020747583 0.017082257 0.014595513 -0.013049396 -0.01333869 0.007190108 -0.034794953 -0.023603948
0.02674207 -0.025643561 0.0026479196 -0.037256617 -0.013903738 -0.005427567 -0.03400943 -0.022092536
-0.0013931867 0.036746215 0.030907597 -0.015162048 -0.024016397 -0.033510435 -0.034936897 0.0033770003
-0.016680988 0.00866962 -0.020355968 0.02542828 0.01946602 -0.027339779 -0.012341998 -0.040505324
-0.016341109 -0.02926857 0.037251312 -0.039878204 -0.0083567705 0.03305475 -0.046833724 -0.017716764
-0.042798154 0.025851622 0.01170127 0.0013101796 0.022416294 -0.011752889 0.0014530226 -0.019408751
-0.025614949 0.013599104 0.021712776 0.028169276 -0.037066244 -0.04064752 -0.039575893 -0.03873147
-0.0073038223 -0.0030537785 -0.034506503 0.0005170445 0.02052676 0.00063372124 0.046704672 0.011691008
-0.024610057 0.035581872 -0.0027309489 0.015586344 0.022984397 0.0025919166 -0.024671653 0.034692343
0.019251816 -0.04615074 -0.023327967 -0.014219011 -0.028955141 0.029268526 -0.0041263793 -0.013432136
0.015826479 0.014431776 -0.011549564 0.021313535 0.022366876 0.01960737 0.03815575 -0.019973911
0.040997263 0.018102605 0.016557349 -0.016259994 0.03030381 0.018244728 -0.032818906 0.01580079
-0.003327395 -0.0077579333 0.022230202 0.010416072 0.01407652 0.038994428 -0.020562816 -0.034534555
-0.036086313 -0.019909967 0.031702157 -0.038048387 0.005249349 -0.031050345 -0.028447574 0.0210753
00000000: 3b30 2c3d c61d dabc 9022 26bc 1ff6 643d
00000010: f53e 3f3d ac7a d8bc 9ee2 833c e702 72bc
00000020: 7adc 493d 3172 d83c 40b4 aabc 4d8b 27ba
00000030: c08a e83a 519f f8bc 7139 323d 6327 dbbc
00000040: 33bd 5abc 8027 46bc a03e bf3c 2919 893c
00000050: ee5e 4bba 9a9a f2bc cc5b f8bb 76cf 923a
00000060: 694c 9abb f8bf 08bd e16e f3ba b2a4 3b3c
00000070: 9da9 b1bc adf8 08bb b7fe fbbc 4ffb 82bc
00000080: 15bf d23c 6c0c 03bd f843 94bc 7c4a bebb
00000090: d1f0 cbbb 3653 ecbc 320f 173c e2f8 223d
000000a0: 03a2 593d 6714 0f3d b9bb 093d 0f0b 0bbc
000000b0: 4839 c9bc 7623 05bc 567c 16bd a411 03bd
000000c0: b52d 6b3c 555f 293d c001 f93c 8cd9 25bd
000000d0: 62e1 14bd 6f75 003d 087d 0e3a 12bb b43c
000000e0: 6f8f b93c 2ea9 2abd d011 33bd 72ec 43bd
000000f0: ab4a cd3c ddac 05bd 0709 36bc ca02 103d
00000100: 7618 0e3d d780 ebbc e905 a13c 48ea 4abd
00000110: 3ba6 20bd 2c22 e5bc 6452 d13c 6b62 263c
00000120: 9dbc af3c bcf7 19bd fb15 b5bc ca9c 303c
00000130: bbec 8fbc 6b30 1bbd 7bcb 9dbc cac8 2d3d
00000140: 9a49 0a3c a6cd 85bc 05fa 39bd f46a 5cbc
00000150: 5b6a edbb 7450 0fbd c9b9 c83c f269 603d
00000160: 7f09 5cbc bf0f 98bc 7d00 dfbb b386 1cbd
00000170: c094 a9bc 8f4e 03bd 144a c0bc fc51 19bd
00000180: 83fb 28ba dd7d 7d3c 5fba e738 83b4 eabc
00000190: c1b6 a63c e962 3a3d 2a6e 0c3d fc72 053d
000001a0: 24c1 fb3c 8897 d03b 9a3c 1cbd 00ee 2ebd
000001b0: 00c6 d63c fdf3 1ebc 2a6e 96bc 408c 0d3d
000001c0: a2db 06bd c43f 2e3d 65a5 26bc 76f6 a6bc
000001d0: abbb c1bb 87a8 61bc cade 243c 24f8 13bd
000001e0: 1c3f 99bb ccfa 053d 87f3 1c3d a973 c13c
000001f0: 52f6 c0bc d8df ba3c 990f 57bc 3151 0e3d
00000200: e177 18bd 6a8b 1dbd 1c73 f6bc d732 323d
00000210: 6d79 9c3c ead9 0abd d798 4ebc 0cba 173c
00000220: 4677 dabb b2d7 cf3c ce97 173c cd6b 17bd
00000230: 707a 143d 5a40 0e3d 7c6c 8fbc d227 c23b
00000240: abf8 07bb 17f0 8b3c 0522 6f3c 22cd 55bc
00000250: 858a 5abc ff9a eb3b 2785 0ebd 115d c1bc
00000260: 3012 db3c 7212 d2bc b888 2d3b 659a 18bd
00000270: 81cc 63bc bbd9 b1bb 794d 0bbd 68fb b4bc
00000280: 979b b6ba 3383 163d ee31 fd3c 3d6a 78bc
00000290: 09be c4bc 3d42 09bd fe19 0fbd aa50 5d3b
000002a0: 91a6 88bc 060b 0e3c 8fc1 a6bc f84e d03c
000002b0: 3477 9f3c acf7 dfbc 1736 4abc e9e8 25bd
000002c0: cadd 85bc a4c4 efbc d594 183d 5457 23bd
000002d0: d6ea 08bc 6b64 073d b8d4 3fbd bf22 91bc
000002e0: 1e4d 2fbd c8c6 d33c afb6 3f3c 55ba ab3a
000002f0: 60a2 b73c 308f 40bc 5973 be3a 1aff 9ebc
00000300: 71d6 d1bc c7ce 5e3c fede b13c 41c3 e63c
00000310: c6d2 17bd 047e 26bd 551a 22bd e4a4 1ebd
00000320: e754 efbb e721 48bb b156 0dbd 458a 073a
00000330: bc27 a83c 5020 263a 664d 3f3d a48b 3f3c
00000340: 089b c9bc 4cbe 113d b8f9 32bb dd5d 7f3c
00000350: c649 bc3c 25dd 293b 351c cabc 8f19 0e3d
00000360: fcb5 9d3c 8f08 3dbd 4b1a bfbc dbf6 68bc
00000370: 5533 edbc 8cc4 ef3c 9436 87bb 7612 5cbc
00000380: 88a6 813c 4173 6c3c 623a 3dbc b999 ae3c
00000390: bd3a b73c a39f a03c 3449 1c3d 54a0 a3bc
000003a0: bfec 273d ea4b 943c 47a3 873c ae33 85bc
000003b0: b23f f83c f875 953c 1e6d 06bd a970 813c
000003c0: 6d10 5abb 4336 febb 1d1c b63c 2ca8 2a3c
000003d0: 34a1 663c 9fb8 1f3d 5a73 a8bc 1b74 0dbd
000003e0: 3ecf 13bd 3a1a a3bc 1fda 013d a0d8 1bbd
000003f0: bb02 ac3b 4b5d febc e30a e9bc 1ca6 ac3c

fc2.weight f4 [128, 256]
0.0591051 0.058174945 0.018321726 0.044465065 0.060513336 -0.029053608 0.0045093936 0.041617043
0.060425892 0.0012402122 0.028914662 -0.026700318 -0.031244636 -0.017079132 -0.04578432 -0.03130078
0.0035767385 -0.0037840125 0.059400175 -0.013855077 0.068064995 0.025068229 -0.03450468 0.028123109
-0.026951073 0.04264639 -0.046363134 -0.006628931 0.062945575 0.055652156 0.01690016 -0.03741045
-0.004838627 -0.03868911 0.042572614 -0.002236418 0.05894683 0.057156637 0.017946357 0.030143378
-0.018261958 -0.01797434 0.020896021 0.02304881 -0.033633973 0.020349065 0.034672737 0.0464086
0.04891697 -0.058344573 0.049453553 -0.046930972 -0.008006446 0.061180048 0.042242672 0.061968975
-0.052894246 0.057017807 -0.011870819 -0.013576594 -0.010082984 -0.013726145 0.038150962 -0.0015726142
0.04079476 0.030616118 0.019326767 -0.045326933 -0.044141266 0.025820112 0.027651938 0.05550667
-0.015916407 -0.006266949 0.01135018 -0.00961974 0.014722576 0.026240462 0.0032905992 -0.026365947
-0.026184764 -0.019171247 0.063465804 0.0142828 0.010656551 0.037274852 -0.0399837 0.07202922
-0.023367079 0.022038668 -0.041791514 -0.028947597 -0.040257934 -0.041260064 0.051124234 0.06493854
-0.03373431 0.01528668 0.0013873295 -0.035695333 -0.022468364 -0.007327814 -0.04341792 0.035973914
-0.023400335 0.035289925 -0.039002076 -0.040272858 0.030160656 0.051517077 0.014145941 0.06446056
-0.04078624 0.001292666 0.00037433294 0.037528455 0.0056786756 0.019356523 -0.0029175119 -0.052549776
0.045326594 0.037783746 0.0033313134 0.061510395 -0.014859543 0.05490915 0.0052046 0.021731216
-0.009578495 0.028263412 0.008559551 -0.00012723441 -0.007033146 -0.014167536 -0.005391834 0.008087351
0.061834525 0.056023404 0.030070538 0.026606034 0.05090045 -0.014340622 -0.017614936 0.018426305
-0.022281937 0.022567736 -0.016847923 -0.05199383 -0.027685622 -0.0126529625 0.049612693 0.037083104
-0.050828088 0.035275538 0.056163974 -0.036817897 0.03948384 -0.011809637 -0.0379253 -0.021106767
0.057537854 -0.041204445 0.02206223 0.011264778 0.055950753 -0.012709649 -0.023234323 -0.0047152615
0.015326516 -0.0066928877 -0.0014152704 -0.051254418 0.045094535 0.0074673607 0.03683408 0.030075844
0.026652204 0.032879934 -0.04721371 0.05479223 0.05536434 0.04322413 0.02912644 -0.049389686
0.021508982 -0.02435734 0.036471285 0.011326072 -0.008870596 -0.058878943 0.05119509 -0.0067949244
-0.00783665 0.002475702 0.009470578 -0.046363655 -0.02077061 0.021546189 0.052845404 -0.004258317
0.000689242 0.036125697 -0.045502562 0.057090025 -0.05250742 -0.02720886 0.02833698 0.050979607
0.012787108 0.03634038 -0.022941133 0.044528686 0.030150196 0.050906144 0.0008045443 0.019626671
-0.009329166 -0.01642003 0.042396553 0.018624729 -0.022041515 -0.016075198 0.019662952 -0.015018339
-0.031975154 0.021524863 -0.050939854 0.0009530857 0.007230313 0.043551385 -0.003502907 -0.0049952916
0.055125393 0.03924524 0.05393979 -0.027268888 0.008554549 -0.01971814 0.018235786 -0.055088572
0.029136736 0.043576207 0.045658607 0.031339396 -0.047996383 0.051528066 0.015070568 0.046697736
0.008740928 0.05042663 -0.024239093 0.006359177 -0.057659235 0.05985254 -0.044821963 -0.02185942
00000000: 3018 723d da48 6e3d 7217 963c 0021 363d
00000010: d5dc 773d d501 eebc 89c3 933b a276 2a3d
00000020: 2481 773d 9e8e a23a 71de ec3c a0ba dabc
00000030: c0f4 ffbc 89e9 8bbc 5788 3bbd 3f35 00bd
00000040: b767 6a3b 32fd 77bb 994d 733d 6800 63bc
00000050: a965 8b3d e35b cd3c c854 0dbd 6f62 e63c
00000060: 7fc8 dcbc fbad 2e3d 45e7 3dbd 8137 d9bb
00000070: 9ce9 803d 84f3 633d 3472 8a3c b33b 19bd
00000080: 588d 9ebb 7978 1ebd 9f60 2e3d de90 12bb
00000090: 3b72 713d 141d 6a3d 3d04 933c 3fef f63c
000000a0: 1a9a 95bc ec3e 93bc 222e ab3c dcd0 bc3c
000000b0: c7c3 09bd 15b3 a63c 0005 0e3d f216 3e3d
000000c0: 295d 483d b8fa 6ebd cf8f 4a3d b13a 40bd
000000d0: 782d 03bc ee97 7a3d a706 2d3d 2ed3 7d3d
000000e0: a3a7 58bd 818b 693d d37d 42bc 5d70 5ebc
000000f0: 1a33 25bc a0e3 60bc 2f44 1c3d 2d20 ceba
00000100: 6818 273d a7ce fa3c 2b53 9e3c bca8 39bd
00000110: 79cd 34bd b384 d33c 5186 e23c f65a 633d
00000120: 2063 82bc fb5a cdbb 1bf6 393c 1d9c 1dbc
00000130: f636 713c 3df6 d63c 18a7 573b 66fd d7bc
00000140: 6e81 d6bc 050d 9dbc 5cfa 813d 6802 6a3c
00000150: d198 2e3c 84ad 183d f3c5 23bd 0e84 933d
00000160: 516c bfbc 708a b43c 942d 2bbd 8323 edbc
00000170: 81e5 24bd 5000 29bd a567 513d 7ffe 843d
00000180: fd2c 0abd fc74 7a3c 0ed7 b53a 4535 12bd
00000190: 930f b8bc 291e f0bb fdd6 31bd 6259 133d
000001a0: 0fb2 bfbc 2b8c 103d a4c0 1fbd 27f5 24bd
000001b0: 7b13 f73c 9203 533d 60c4 673c e603 843d
000001c0: 790f 27bd ac6e a93a 1e42 c439 70b7 193d
000001d0: 2f14 ba3b 9291 9e3c ba33 3fbb 6f3e 57bd
000001e0: 61a8 393d 21c3 1a3d 2a52 5a3b 53f2 7b3d
000001f0: 7175 73bc 6be8 603d 598b aa3b aa05 b23c
00000200: 1fef 1cbc ac88 e73c 5c3d 0c3c 3a6a 05b9
00000210: 4e76 e6bb f41e 68bc fbad b0bb cf80 043c
00000220: 3346 7d3d cc78 653d 7d56 f63c e6f4 d93c
00000230: fe7c 503d eef4 6abc 334d 90bc c3f2 963c
00000240: 9c88 b6bc f9df b83c a804 8abc 7bf7 54bd
00000250: f5cc e2bc 5f4e 4fbc ae36 4b3d 74e4 173d
00000260: 1d31 50bd 157d 103d 320c 663d 5dce 16bd
00000270: cfb9 213d 357d 41bc 8f57 1bbd 19e8 acbc
00000280: d0ac 6b3d fec5 28bd dabb b43c e78f 383c
00000290: 9e2c 653d 223c 50bc e855 bebc 7b82 9abb
000002a0: 111c 7b3c 0350 dbbb 9880 b9ba 27f0 51bd
000002b0: 0cb5 383d c3b0 f43b 55df 163d 9e61 f63c
000002c0: b955 da3c 1cad 063d 2a63 41bd d16d 603d
000002d0: b8c5 623d c90b 313d 929a ee3c d74c 4abd
000002e0: 9b33 b03c 0b89 c7bc ea62 153d fd90 393c
000002f0: fa55 11bc 0c2b 71bd f1b1 513d f5a7 debb
00000300: 4b65 00bc 633f 223b 7c2a 1b3c d1e7 3dbd
00000310: 2027 aabc a281 b03c 6c74 583d 5a89 8bbb
00000320: 3fae 343a 8af8 133d e560 3abd 3bd7 693d
00000330: 0512 57bd 1de5 debc f422 e83c fecf 503d
00000340: 0581 513c a6d9 143d 0bef bbbc b663 363d
00000350: 8bfd f63c f682 503d 0ee8 523a 1dc8 a03c
00000360: 5cd9 18bc 4c83 86bc 02a8 2d3d e392 983c
00000370: 6890 b4bc 22b0 83bc 3314 a13c 7b0f 76bc
00000380: 61f8 02bd e954 b03c 4fa6 50bd 80d8 793a
00000390: 43ec ec3b f062 323d 0791 65bb 8baf a3bb
000003a0: 2acb 613d 9ebf 203d f8ef 5c3d 0163 dfbc
000003b0: 6128 0c3c f087 a1bc 3763 953c 8ea4 61bd
000003c0: 2ab0 ee3c f77c 323d 8504 3b3d bd5d 003d
000003d0: db97 44bd 180f 533d 8bea 763c 2046 3f3d
000003e0: 1c36 0f3c 278c 4e3d 1091 c6bc a560 d03b
000003f0: 172c 6cbd f027 753d 3c97 37bd 8712 b3bc

fc2.bias f4 [128]
0.036834195 0.057947688 -0.0054622903 -0.045458302 0.026024017 -0.047134876 -0.0013961494 0.025730848
-0.05935216 -0.03285213 0.04730118 -0.033872068 0.036663212 0.035990532 -0.022300538 0.039693877
-0.059649523 0.050416216 0.047955763 0.0049863425 0.033884007 0.00884039 -0.044812016 0.053144895
-0.02302657 -0.0077171572 -0.019433836 0.05221155 0.024319591 0.04667913 -0.05821801 -0.05377221
-0.03161768 -0.04893146 0.006162978 -0.06590878 -0.041336965 -0.0032608276 -0.053454153 -0.051539194
-0.03238168 -0.042539477 -0.050648693 0.050030395 0.043638516 0.046938363 0.056825455 0.02020448
0.00029997432 -0.05834785 -0.04055961 -0.0030231525 -0.04556451 0.04407603 0.015948184 0.0584189
0.067455806 0.04122923 -0.028296651 0.044548854 0.011588503 0.022753045 -0.009499991 -0.044615716
-0.022736317 -0.01608735 -0.029978747 0.05506083 -0.04958803 -0.0643468 -0.0003470567 -0.027134962
0.026829332 0.04898921 -0.014375532 0.0015449263 -0.004677946 -0.02705226 0.017581444 -0.06868228
0.024336161 0.03526751 0.017440435 0.04469936 -0.021699699 -0.021349084 0.003014679 0.04811673
-0.00640934 -0.051503494 -0.05221729 -0.064652644 -0.008110087 -0.022640068 0.029556252 -0.0063353027
0.03421493 0.0051006074 -0.037082806 0.019846182 -0.046674497 -0.042742923 0.05505873 -0.047385834
0.04192396 -0.031782757 0.0065580066 0.04944664 -0.057609912 -0.0037105933 -0.054110173 -0.015433393
0.045775767 0.010473136 0.061870538 -0.0040105167 0.035480816 0.018662665 0.05426099 -0.011833488
-0.024839109 -0.062788144 -0.029749706 0.05836299 -0.048769545 -0.0016265551 -0.060275365 0.022556204
00000000: 74df 163d 8e5a 6d3d 03fd b2bb 7c32 3abd
00000010: 5230 d53c 8010 41bd 00ff b6ba 80c9 d23c
00000020: 401b 73bd f48f 06bd e2be 413d 70bd 0abd
00000030: 2a2c 163d cf6a 133d 9eaf b6bc 0c96 223d
00000040: 0f53 74bd 3c81 4e3d 436d 443d 7964 a33b
00000050: f5c9 0a3d 48d7 103c ce8c 37bd 76ae 593d
00000060: 38a2 bcbc 35e0 fcbb b533 9fbc c7db 553d
00000070: e139 c73c 9e32 3f3d 0276 6ebd 4040 5cbd
00000080: 8a81 01bd 5b6c 48bd cef2 c93b 2ffb 86bd
00000090: f350 29bd 9cb3 55bb bef2 5abd c31a 53bd
000000a0: a7a2 04bd e03d 2ebd 0175 4fbd acec 4c3d
000000b0: 4dbe 323d 7142 403d cfc1 683d de83 a53c
000000c0: df45 9d39 28fe 6ebd d521 26bd 1520 46bb
000000d0: daa1 3abd 1189 343d c4a5 823c a848 6f3d
000000e0: 4526 8a3d fbdf 283d 61ce e7bc dc78 363d
000000f0: b4dd 3d3c 9864 ba3c daa5 1bbc f8be 36bd
00000100: 8341 babc 9ec9 83bc fd95 f5bc 7787 613d
00000110: d11c 4bbd 41c8 83bd 29f5 b5b9 244a debc
00000120: 30c9 db3c e9a8 483d 5a87 6bbc 207f ca3a
00000130: 7549 99bb b39c ddbc f606 903c 4ca9 8cbd
00000140: a15c c73c aa74 103d 3edf 8e3c ad16 373d
00000150: 91c3 b1bc 46e4 aebc ec91 453b 0c16 453d
00000160: 7105 d2bb 54f5 52bd cce1 55bd 9b68 84bd
00000170: 2ce0 04bc aa77 b9bc f41f f23c 5f98 cfbb
00000180: f424 0c3d ff22 a73b 24e4 17bd 7694 a23c
00000190: c22d 3fbd 3413 2fbd 4385 613d a617 42bd
000001a0: 75b8 2b3d a32e 02bd 8ce4 d63b 8f88 4a3d
000001b0: 5ff8 6bbd 6d2d 73bb a1a2 5dbd 58dc 7cbc
000001c0: 5f7f 3b3d 8497 2b3c f66b 7d3d a76a 83bb
000001d0: 5554 113d 72e2 983c c640 5e3d 3fe1 41bc
000001e0: 637b cbbc 1297 80bd a8b5 f3bc 080e 6f3d
000001f0: 93c2 47bd 2232 d5ba 4de3 76bd cac7 b83c

fc3.weight f4 [64, 128]
-0.09593755 0.06190299 -0.064458564 0.07405666 -0.02802014 -0.0043789665 -0.014708471 -0.06136176
-0.048876803 0.039420877 0.03778805 0.03923253 -0.086088695 0.009447849 -0.083958946 -0.059555832
-0.029756725 -0.035855483 0.05802979 0.012167939 -0.091305785 -0.08774974 0.022151789 -0.017452277
0.060833 0.06965913 -0.0060872743 -0.062797785 0.025102304 -0.0896182 -0.09476685 -0.0029452809
-0.081281655 0.086720005 0.06460336 -0.07721393 -0.039244127 0.06843997 -0.06985292 0.047579125
-0.019259727 0.0030798449 0.04984193 0.077113286 -0.04272382 -0.025590278 -0.08035523 0.07952724
0.008998907 -0.06472563 -0.0655675 -0.08303082 -0.045267835 -0.010293216 0.051517647 -0.029849557
0.07864262 0.069968924 0.078319564 0.04908536 -0.079606734 -0.066684276 0.07068554 0.012994579
0.033771753 -0.0182466 0.046870522 -0.011338584 0.025163572 0.07523665 -0.079913475 0.06864841
0.043050583 -0.006545126 0.017053273 -0.075689785 0.04493657 0.03533442 -0.08386947 0.004113227
0.018305289 -0.08010889 -0.09135655 0.05800979 -0.06747756 -0.033033524 0.045525704 -0.045705765
-0.036556568 0.02515642 -0.04318077 -0.07362743 0.0028614055 -0.07170771 0.0045941756 -0.049619135
0.008391972 0.035260268 -0.057750687 0.042093664 -0.04566314 -0.064930305 -0.06975019 -3.841407e-05
0.04263933 0.06453472 0.00060411036 0.00017946745 -0.04905304 -0.028707027 0.03459402 0.063143805
-0.07836283 0.058791168 -0.057625677 -0.044583037 0.023717772 -0.012416385 0.006564189 -0.06381031
0.0528726 0.0747225 0.039626103 -0.081672646 0.056433074 -0.035386994 0.07964542 -0.046146136
0.024628937 -0.07452259 -0.014075543 -0.08399134 -0.013855766 0.0015370972 0.047217365 0.07416455
0.052586075 -0.04858405 -0.08159973 0.07298327 0.003459206 0.057306748 0.08231795 0.032597795
0.06349011 0.046631362 -0.06012023 -0.049965363 0.0419022 -0.051223807 0.06803892 -0.008136054
0.04606391 -0.022173984 0.044960007 -0.01968786 -0.03288826 -0.042184535 -0.07699513 0.03973867
-0.07093025 -0.07044467 0.02544039 0.04984028 0.08281118 -0.074161276 -0.023834612 0.021699477
-0.0013637953 0.0777968 0.0038537863 -0.05134461 0.053936593 0.07648286 0.075004 -0.013472354
-0.09121567 -0.004546354 0.009072586 0.028933737 0.048712455 -0.0675789 -0.014493848 -0.074810825
-0.016368281 0.0056479773 -0.045252398 0.054263353 0.06649637 -0.0037953763 -0.0009854737 0.016697591
-0.09149559 -0.065745175 -0.046233673 -0.028113129 -0.0002047734 0.08688927 0.047350526 0.02623606
-0.085715085 0.021324601 -0.082471386 0.035921525 0.010048525 0.023889465 -0.08410054 -0.04424656
0.022166653 -0.01307299 -0.05608678 0.044501014 0.00090278545 0.0056834496 0.026982795 -0.056786448
0.004261963 0.069563955 -0.030186152 -0.04915354 -0.016017687 -0.022718636 0.015132766 0.004028237
0.062775835 0.037068784 0.008295826 -0.07806484 -0.08276197 -0.04289741 -0.090417676 0.025991147
-0.04794473 -0.07871356 -0.02524197 0.05828417 -0.070472926 -0.06930751 0.04971942 0.07830902
-0.04924584 0.058397856 -0.038639575 -0.07465567 -0.09718597 -0.03153402 0.006044011 -0.025718048
0.05198884 -0.080140755 0.050087277 -0.017184278 -0.0813107 -0.030879466 0.05889728 0.039153423
00000000: e87a c4bd fd8d 7d3d da02 84bd 05ab 973d
00000010: 7e8a e5bc 6f7d 8fbb ccfb 70bc 7856 7bbd
00000020: 0b33 48bd c977 213d a4c7 1a3d 4ab2 203d
00000030: 454f b0bd 27cb 1a3c abf2 abbd d1f0 73bd
00000040: 60c4 f3bc 33dd 12bd a5b0 6d3d 095c 473c
00000050: 87fe babd 23b6 b3bd ab77 b53c 14f8 8ebc
00000060: 062c 793d 72a9 8e3d c277 c7bb 209c 80bd
00000070: 59a3 cd3c bf89 b7bd 1f15 c2bd 9d05 41bb
00000080: ff76 a6bd 429a b13d c44e 843d 5622 9ebd
00000090: 73be 20bd 412a 8c3d 0c0f 8fbd 54e2 423d
000000a0: 93c6 9dbc 39d7 493b 0d27 4c3d 92ed 9d3d
000000b0: 2cff 2ebd b4a2 d1bc 4891 a4bd 2ddf a23d
000000c0: 2770 133c df8e 84bd 4148 86bd 100c aabd
000000d0: c46a 39bd e1a4 28bc 2b04 533d 0f87 f4bc
000000e0: 620f a13d de4b 8f3d 0266 a03d bb0d 493d
000000f0: db08 a3bd c491 88bd 95c3 903d 37e7 543c
00000100: 4054 0a3d e579 95bc 4efb 3f3d 78c5 39bc
00000110: d623 ce3c ac15 9a3d ada9 a3bd 8a97 8c3d
00000120: cf55 303d 7f78 d6bb 4eb3 8b3c 3f03 9bbd
00000130: 690f 383d d3ba 103d c2c3 abbd 40c8 863b
00000140: f9f4 953c 2110 a4bd 2519 bbbd ac9b 6d3d
00000150: ad31 8abd 294e 07bd 2979 3a3d f835 3bbd
00000160: 57bc 15bd d614 ce3c 52de 30bd fac9 96bd
00000170: 6b86 3b3b 7edb 92bd bd8a 963b 6f3d 4bbd
00000180: 7b7e 093c 126d 103d fc8b 6cbd 686a 2c3d
00000190: 4609 3bbd 2efa 84bd 30d9 8ebd cb1e 21b8
000001a0: 94a6 2e3d c72a 843d 295d 1e3a 6d2f 3c39
000001b0: d7eb 48bd 002b ebbc 76b2 0d3d 8a51 813d
000001c0: b17c a0bd 02cf 703d e708 6cbd b49c 36bd
000001d0: c64b c23c 186e 4bbc 6918 d73b fbae 82bd
000001e0: f090 583d 1c08 993d fb4e 223d fd43 a7bd
000001f0: 5e26 673d f4f1 10bd 231d a33d bb03 3dbd
00000200: a0c2 c93c 4d9f 98bd 1b9d 66bc a703 acbd
00000210: 4b03 63bc 6c78 c93a ff66 413d 95e3 973d
00000220: 7f64 573d 1200 47bd c21d a7bd 4178 953d
00000230: d9b3 623b 7bba 6a3d 5096 a83d 4485 053d
00000240: 1a07 823d 8700 3f3d a140 76bd 7ba8 4cbd
00000250: a4a1 2b3d 0ed0 51bd fd57 8b3d 154d 05bc
00000260: 83ad 3c3d 37a6 b5bc fc27 383d 6f48 a1bc
00000270: d7b5 06bd b1c9 2cbd 9faf 9dbd 04c5 223d
00000280: e143 91bd 4c45 90bd 5d68 d03c 5225 4c3d
00000290: e898 a93d dee1 97bd ce40 c3bc 1ac3 b13c
000002a0: 60c1 b2ba ee53 9f3d ce8f 7c3b ba4e 52bd
000002b0: 9eec 5c3d 0ca3 9c3d b29b 993d 26bb 5cbc
000002c0: 48cf babd 95f9 94bb 2fa5 143c 7206 ed3c
000002d0: b686 473d ce66 8abd 9b77 6dbc 6b36 99bd
000002e0: c616 86bc ab12 b93b 945a 39bd 4043 5e3d
000002f0: 402f 883d d9bb 78bb 032b 81ba 63c9 883c
00000300: 0a62 bbbd 68a5 86bd 855f 3dbd 814d e6bc
00000310: 71b8 56b9 00f3 b13d a0f2 413d 01ed d63c
00000320: 648b afbd eeb0 ae3c c2e6 a8bd 7322 133d
00000330: 92a2 243c d7b3 c33c e73c acbd e23b 35bd
00000340: d796 b53c 1830 56bc 40bb 65bd b246 363d
00000350: e8a8 6c3a 3b3c ba3b 060b dd3c e898 68bd
00000360: f0a7 8b3b 8c77 8e3d f348 f7bc 3955 49bd
00000370: 8637 83bc 6f1c babc 6cef 773c 4dff 833b
00000380: 9e90 803d 70d5 173d 37eb 073c 75e0 9fbd
00000390: 1c7f a9bd 32b5 2fbd e72c b9bd 63eb d43c
000003a0: b161 44bd 9334 a1bd 3fc8 cebc 62bb 6e3d
000003b0: 1c54 90bd 19f1 8dbd 97a6 4b3d 7b60 a03d
000003c0: 02b6 49bd 9732 6f3d 8844 1ebd 12e5 98bd
000003d0: 7009 c7bd d129 01bd d70c c63b a8ae d2bc
000003e0: 40f2 543d d620 a4bd 5128 4d3d 0bc6 8cbc
000003f0: 3986 a6bd eff6 fcbc 463e 713d 575f 203d

fc3.bias f4 [64]
-0.02657905 -0.03271936 0.025792573 -0.07628641 -0.01639891 -0.012045491 -0.04883353 -0.049432192
-0.008076363 -0.036063343 0.016756965 0.014017379 0.0022253944 -0.020845182 -0.013682479 -0.0063996017
0.0155541515 0.011575985 0.06491676 -0.05289662 -0.0025690887 0.034392204 0.0673439 0.08305423
0.07999733 -0.049527466 0.087000616 -0.03516754 0.02228708 -0.038796276 -0.071380734 -0.08725814
-0.038524058 0.0056047114 -0.022693992 0.0021371269 -0.020002928 0.00046950325 -0.078380145 -0.09209547
-0.08383723 -0.03319084 -0.008576948 -0.029095236 -0.067506015 0.063769706 0.09791871 -0.053885657
-0.024317496 -0.021930449 0.042598423 -0.06239929 0.047104016 -0.005912836 -0.087155975 0.020332847
0.0742818 -0.036510594 0.009615989 -0.035267986 0.056088742 0.07406949 0.089779034 0.030303266
00000000: 4fbc d9bc bc04 06bd f24a d33c 0d3c 9cbd
00000010: 0257 86bc 735a 45bc ab05 48bd 6979 4abd
00000020: b952 04bc 28b7 13bd e745 893c 26a9 653c
00000030: ecd7 113b 84c3 aabc 7a2c 60bc c0b3 d1bb
00000040: d7d6 7e3c 33a9 3d3c 14f3 843d 20aa 58bd
00000050: 285e 28bb d7de 0c3d 99eb 893d 5618 aa3d
00000060: a4d5 a33d 50dd 4abd 612d b23d d70b 10bd
00000070: 6593 b63c d8e8 1ebd 1030 92bd 65b4 b2bd
00000080: 67cb 1dbd baa7 b73b c0e8 b9bc 0a0f 0c3b
00000090: 2edd a3bc a927 f639 c585 a0bd 8d9c bcbd
000000a0: dbb2 abbd 1ef3 07bd 5486 0cbc 2259 eebc
000000b0: 9840 8abd b199 823d 9b89 c83d 35b7 5cbd
000000c0: 7c35 c7bc 7ca7 b3bc af7b 2e3d 6696 7fbd
000000d0: 24f0 403d 77c0 c1bb d57e b2bd 1291 a63c
000000e0: 0e21 983d 228c 15bd 628c 1d3c 2a75 10bd
000000f0: 4fbd 653d bfb1 973d 12de b73d 8e3e f83c

fc4.weight f4 [32, 64]
-0.11913092 -0.0502405 -0.13130887 -0.041742668 -0.0031305514 0.094038665 -0.11870807 -0.020596689
-0.042410523 -0.12161511 -0.08921203 0.076748565 0.072611466 -0.08197534 0.061618034 -0.08696421
-0.021188421 0.08036338 -0.024414187 -0.108387485 -0.0061955103 -0.124501556 0.04493128 -0.025179375
-0.036907896 -0.017738512 0.0049113557 -0.042935733 -0.06591025 -0.026423037 -0.0145353535 -0.043501854
0.053567275 -0.07289683 -0.07030457 -0.09597729 0.112807356 0.040882744 0.024078146 -0.06480971
-0.11182282 -0.03160828 -0.026690396 0.0706463 -0.026662981 0.096423395 0.05537931 0.07946522
0.101730786 -0.043382213 -0.014877417 0.029767908 0.034454096 -0.0992491 0.005788997 -0.0477089
-0.062329274 -0.10250469 -0.118673265 -0.07290341 -0.09909723 -0.110657364 0.01693904 -0.12863736
0.069379605 0.039668508 0.10366773 -0.044194043 0.11579747 0.06372824 -0.09872403 0.08910253
-0.0062950253 -0.006453907 0.11015488 -0.04511813 0.07144779 -0.07531894 0.040699154 0.043686345
0.016103199 0.07826056 -0.06937672 0.010137425 0.0584172 -0.032923523 -0.00637253 0.046477765
0.06487967 -0.12335196 -0.053416383 0.06417745 0.03312737 0.0442107 -0.005848194 -0.064560436
0.07723424 -0.041167308 -0.051957242 0.011173621 0.052965455 0.02048176 0.08972968 0.0024930912
-0.0046950094 -0.08666198 0.023167863 0.07563149 -0.09101572 -0.08998482 0.0383808 0.12072684
0.051204327 -0.032617196 -0.06479041 -0.0015937798 0.055656496 -0.099250324 0.10421388 0.04093494
0.05271477 0.079374835 0.06363973 0.10239135 -0.056097757 -0.10311964 0.070335 0.04786225
0.041082177 0.03885837 0.032430142 -0.11915816 0.021082658 0.0062820315 -0.121677384 -0.02457691
0.051491648 -0.11178641 -0.0424806 -0.046489805 -0.056402322 -0.12284246 0.022640217 0.03332035
0.01686805 0.058111295 -0.06328534 0.021254241 -0.046135962 0.100642435 0.027984641 0.010872246
-0.09130508 0.12273967 -0.023361284 0.045891136 0.018438831 0.073957875 0.05574657 0.031368136
-0.06427197 0.061496384 0.10866284 -0.011707589 -0.016913364 -0.07031353 0.122641385 -0.017999709
-0.048426256 0.03152567 -0.059566867 0.06811416 -0.09374592 0.11414987 -0.11997262 -0.06788951
-0.0063096317 -0.015426746 0.053050414 0.043266457 0.005519852 -0.090367936 0.02657859 0.10146579
-0.015254009 0.018162586 -0.009591136 -0.12019931 -0.036083132 -0.03727368 0.051082212 0.05007625
-0.051022664 0.0917093 0.09758708 -0.054922953 0.022316232 0.016018301 -0.017261758 0.088816985
-0.08865808 -0.024189204 0.058964282 -0.07982145 0.010706842 0.02220869 -0.015249521 -0.11160937
-0.067319855 0.12237139 -0.02932316 -0.015343875 0.0675862 0.074062124 -0.020311281 0.07294674
0.008627504 -0.03894119 -0.09721081 -0.11959879 0.059825525 -0.02478002 -0.036375403 -0.06198226
0.08714096 -0.025365815 -0.12126441 0.1141624 -0.11085984 -0.015998736 -0.019494414 -0.023263052
-0.024721876 0.11137976 -0.023338988 -0.11888179 0.029462516 0.038202554 -0.08215593 -0.045876354
-0.07043028 0.0035954118 -0.008838177 -0.062032253 -0.120052174 -0.06475893 0.10600805 -0.12467514
-0.02983661 0.08416061 -0.090194315 0.104539335 0.109410435 -0.061023176 -0.005887747 0.00077211857
00000000: e9fa f3bd fcc8 4dbd d575 06be 5cfa 2abd
00000010: f029 4dbb 5897 c03d 371d f3bd 63ba a8bc
00000020: a8b6 2dbd 5811 f9bd ccb4 b6bd 5a2e 9d3d
00000030: 52b5 943d b0e2 a7bd 3163 7c3d 4b1a b2bd
00000040: 5793 adbc 8e95 a43d 4300 c8bc 42fa ddbd
00000050: b503 cbbb acfa febd dd09 383d fa44 cebc
00000060: bc2c 17bd 5b50 91bc 70ef a03b 61dd 2fbd
00000070: f4fb 86bd 2075 d8bc b125 6ebc 002f 32bd
00000080: 5c69 5b3d ef4a 95bd d8fb 8fbd be8f c4bd
00000090: 8b07 e73d aa74 273d 883f c53c f4ba 84bd
000000a0: 5d03 e5bd af77 01bd d1a5 dabc 02af 903d
000000b0: 536c dabc a179 c53d 6ad5 623d a9be a23d
000000c0: 3b58 d03d 8cb1 31bd 69c0 73bc d4db f33c
000000d0: bd1f 0d3d 1d43 cbbd a0b1 bd3b 686a 43bd
000000e0: fb4c 7fbd fbed d1bd f80a f3bd 624e 95bd
000000f0: 7df3 cabd 54a0 e2bd bec3 8a3c 83b9 03be
00000100: e516 8e3d 727b 223d bf4f d43d d004 35bd
00000110: 3927 ed3d f483 823d d32f cabd 637b b63d
00000120: 8046 cebb 4c7b d3bb e298 e13d cacd 38bd
00000130: 3853 923d d140 9abd 28b4 263d 74f0 323d
00000140: dbea 833c 1347 a03d 6215 8ebd 7117 263c
00000150: e046 6f3d d1da 06bd a8d0 d0bb 785f 3e3d
00000160: a2df 843d f49f fcbd 23cb 5abd 786f 833d
00000170: 91b0 073d 4716 353d 35a2 bfbb 4338 84bd
00000180: fc2c 9e3d 0d9f 28bd 1ed1 54bd 9011 373c
00000190: 4ef2 583d 5dc9 a73c 32c4 b73d 2163 233b
000001a0: 98d8 99bb d67b b1bd 88ca bd3c afe4 9a3d
000001b0: 7366 babd f649 b8bd 3035 1d3d a23f f73d
000001c0: a1bb 513d 9c99 05bd d6b0 84bd 60e6 d0ba
000001d0: 11f8 633d c143 cbbd 166e d53d 65ab 273d
000001e0: 71eb 573d 468f a23d 8c55 823d 8eb2 d13d
000001f0: c3c6 65bd 6430 d3bd cc0b 903d 350b 443d
00000200: c945 283d f429 1f3d 78d5 043d 3209 f4bd
00000210: 8ab5 ac3c 80d9 cd3b fe31 f9bd 8455 c9bc
00000220: e8e8 523d 46f0 e4bd 2300 2ebd 186c 3ebd
00000230: 1f06 67bd d494 fbbd fa77 b93c eb7a 083d
00000240: dd2e 8a3c 1c06 6e3d bf9b 81bd 601d ae3c
00000250: 10f9 3cbd 9f1d ce3d 0c40 e53c 8121 323c
00000260: 28fe babd f05e fb3d 2a60 bfbc 58f8 3b3d
00000270: 080d 973c 3a77 973d 8456 643d e07b 003d
00000280: 06a1 83bd a2e3 7b3d a08a de3d 30d1 3fbc
00000290: e58d 8abc 8a00 90bd 682b fb3d 2074 93bc
000002a0: 9c5a 46bd 1021 013d 63fc 73bd 707f 8b3d
000002b0: dcfd bfbd 68c7 e93d 34b4 f5bd a809 8bbd
000002c0: 07c1 cebb 76c0 7cbc 644b 593d 2b38 313d
000002d0: e0df b43b d312 b9bd 58bb d93c 4ccd cf3d
000002e0: f3eb 79bc b4c9 943c 2424 1dbc 0e2b f6bd
000002f0: e8cb 13bd 49ac 18bd 953b 513d c11c 4d3d
00000300: 24fd 50bd 16d2 bb3d bcdb c73d e4f6 60bd
00000310: 88d0 b63c d038 833c 8868 8dbc aee5 b53d
00000320: 5e92 b5bd 7028 c6bc 8884 713d 6e79 a3bd
00000330: c06b 2f3c 00ef b53c 20d9 79bc 7493 e4bd
00000340: fede 89bd da9d fa3d 2037 f0bc e064 7bbc
00000350: a26a 8a3d e2ad 973d d863 a6bc 1a65 953d
00000360: 605a 0d3c cc80 1fbd 7616 c7bd 36f0 f4bd
00000370: 9c0b 753d 78ff cabc 60fe 14bd 1ce1 7dbd
00000380: f676 b23d f8cb cfbc 7a59 f8bd facd e93d
00000390: 7c0a e3bd c80f 83bc c0b2 9fbc 2892 bebc
000003a0: 8885 cabc 121b e43d 6831 bfbc 4c78 f3bd
000003b0: 605b f13c 487a 1c3d 5e41 a8bd d8e8 3bbd
000003c0: c03d 90bd 00a1 6b3b 00ce 10bc 8815 7ebd
000003d0: eadd f5bd 54a0 84bd c01a d93d ae55 ffbd
000003e0: e86b f4bc 665c ac3d ccb7 b8bd b818 d63d
000003f0: 9412 e03d 70f3 79bd 00ee c0bb 0068 4a3a

fc4.bias f4 [32]
0.040374734 -0.1086724 -0.036731973 -0.043798402 0.10087199 0.008136406 -0.0562436 -0.106583215
0.024319604 -0.090177685 0.081293836 0.1027024 0.047986537 -0.07258342 0.104030155 -0.0052316487
0.066929534 -0.029579729 0.00942944 -0.07727434 -0.060567215 -0.036441375 -0.069695294 0.10478889
0.12624468 -0.08488114 -0.12904781 -0.11664581 -0.11154876 -0.029861428 0.009438897 -0.020176688
00000000: fa5f 253d a38f debd 4474 16bd f465 33bd
00000010: f995 ce3d 8f4e 053c b05f 66bd 4d48 dabd
00000020: e839 c73c 14af b8bd 627d a63d a355 d23d
00000030: 888d 443d 9ea6 94bd c30d d53d 406e abbb
00000040: 5a12 893d 3051 f2bc f07d 1a3c 0242 9ebd
00000050: 5415 78bd 8d43 15bd 68bc 8ebd 8f9b d63d
00000060: 4946 013e 2ad6 adbd 1c25 04be 00e4 eebd
00000070: ad73 e4bd f49f f4bc 9aa5 1a3c 9549 a5bc

fc5.weight f4 [1, 32]
0.038672734 -0.088634595 0.068149544 0.14532952 0.09348811 -0.073506646 -0.10100719 -0.08265579
0.036253836 -0.0034973267 0.046205252 -0.055646054 -0.12708469 -0.15565166 0.11411585 -0.17413187
0.095816225 0.15884116 0.06778613 0.15731806 -0.062208936 0.16931313 -0.10986237 -0.01967631
-0.068289176 -0.078051955 -0.029091367 -0.021494469 -0.0017785665 -0.011680057 0.13975143 -0.1628561
00000000: 4d67 1e3d 0e86 b5bd fd91 8b3d 43d1 143e
00000010: b276 bf3d a78a 96bd dcdc cebd 7047 a9bd
00000020: e77e 143d 6833 65bb b841 3d3d 1eed 63bd
00000030: 7d22 02be 2663 1fbe 92b5 e93d a04f 32be
00000040: 4c3b c43d 42a7 223e 74d3 8a3d fc17 213e
00000050: ccce 7ebd 6c60 2d3e 86ff e0bd 3630 a1bc
00000060: 32db 8bbd b4d9 9fbd 0551 eebc 2b15 b0bc
00000070: ca1e e9ba b65d 3fbc 001b 0f3e c0c3 26be
