DeepLearning/model_0325_dropout/model_best_0_r2_-0.013163345389728475.pth (torch, 666311 bytes, 9 tensors)

fc1.weight f4 [256, 478]
000000 79 b9 f2 3c fc 3a 25 3c 1c e8 0c ba b8 3c fd 3c
       0.029629456 0.010084864 -0.0005375163 0.030912742
000010 16 87 f0 3c 64 44 30 bd 61 a8 ab bc 5e a2 44 bc
       0.029361289 -0.043033972 -0.020954313 -0.012001602
000020 61 d1 e6 3c 51 d9 f2 ba dd 22 2e bd 23 19 a3 bc
       0.028176012 -0.00185279 -0.042513717 -0.019909447
000030 27 46 ec 3c 15 9e 16 bd e5 92 e2 bc d3 2e 61 3a
       0.028842045 -0.036771853 -0.027657935 0.0008590046
000040 1d 56 1c 3d fe 96 0b 3d 3c c9 a2 bc 93 82 3b 3d
       0.03816806 0.034079544 -0.019871347 0.045778822
000050 bb 8e 53 3c 63 3c 8d bc 23 a0 82 3c f0 37 9d bc
       0.012912448 -0.017240709 0.0159455 -0.019191712
000060 5e bc 41 3d 88 a1 7f b9 d9 d9 ab 3c bc 42 7e bc
       0.04729878 -0.0002437887 0.020977901 -0.01551884
000070 71 87 f5 3c 06 61 2f 3c 92 14 20 bd 21 29 44 bd
       0.02997181 0.0107042845 -0.039082117 -0.047890786
000080 df 2a 11 3d a3 48 40 bd 9e b1 f8 3b 6f 34 0a bb
       0.035441276 -0.04694427 0.007589533 -0.0021088382
000090 79 8d e4 3c b8 d2 1a bd ac 16 c3 3c 6c a1 c9 bc
       0.02789949 -0.037798613 0.023814522 -0.024613105
0000a0 6b 9d bd bc 51 9c 46 bc 91 33 73 3c 68 96 4d 3d
       -0.023146352 -0.01212223 0.014843837 0.050192267
0000b0 28 93 2c 3b 08 d4 6b 3b 8a 6c b3 3b 1f 27 95 bb
       0.002633283 0.0035984535 0.0054755853 -0.0045517827
0000c0 b2 64 0b 3d 63 d0 73 3b 31 69 0e 3d 4a e9 ab 3c
       0.034031577 0.0037203066 0.034768287 0.020985264
0000d0 b8 70 09 bd 4c 2e c4 3c 69 de a1 3c 80 36 39 3c
       -0.033554763 0.023947857 0.019759374 0.011304498
0000e0 f0 bb 5c bc 29 8c 48 bd e4 15 ee bc 9a a3 1e bc
       -0.013472542 -0.048961792 -0.029063173 -0.00968256
0000f0 1d 8d a1 bc 03 83 1f 3d a3 e3 74 3b 6f 93 4c 3c
       -0.019720608 0.038943302 0.0037367127 0.012486323
000100 88 d3 61 bc cb 8d 39 bd 11 11 86 3b 81 e9 16 bd
       -0.013783343 -0.04530124 0.00409139 -0.03684378
000110 47 89 14 3d e2 97 98 3c ed 0c a8 bc 1f ed 4a bd
       0.03626373 0.01862711 -0.020513976 -0.049542543
000120 18 92 ba bc 1f 72 00 3b 58 b5 77 bc dc 25 2b 3b
       -0.022774741 0.0019599271 -0.015118919 0.0026115095
000130 5f 3a 37 bd 68 f8 9f bc b8 b8 50 3c c5 a8 9b bb
       -0.0447334 -0.019527629 0.012739353 -0.0047503435
000140 19 8f 68 3c 52 49 42 3c 90 52 cd 3c 7e 47 d9 bb
       0.014194273 0.011858301 0.025063783 -0.006630837
000150 44 43 03 3d 9c 79 3d bd 56 57 11 3d 03 b5 c8 bc
       0.03204657 -0.046258554 0.03548368 -0.024500376
000160 85 bc 19 bc 4d 03 13 3d 02 72 05 bc 1b 97 10 3d
       -0.009383325 0.03589182 -0.008144857 0.035300355
000170 4e 60 ff ba 66 b5 04 bd 8f 45 29 ba 33 76 16 bd
       -0.0019483657 -0.032399558 -0.00064572034 -0.036733817
000180 80 df fa bb 28 df 40 bd db 30 cc 3b 0f 00 4a bd
       -0.007656038 -0.04708782 0.00623141 -0.049316462
000190 c3 1d 35 bc ad 38 9d bb 83 81 10 3d 92 2b 0f bd
       -0.011054459 -0.004798016 0.035279762 -0.03495366
0001a0 21 1f 8e 3c 6d 88 25 bd 47 df 08 3d 6f 24 35 bd
       0.017348828 -0.04041331 0.03341606 -0.0442242
0001b0 45 cd 87 bc 63 7d 0f bd c1 e3 ce 3c 31 ac 9a 3c
       -0.016577372 -0.035031687 0.025255086 0.018880935
0001c0 72 e0 35 bd b8 56 1f bd 90 54 de bc 33 24 a3 3c
       -0.0444035 -0.03890106 -0.027139932 0.019914722
0001d0 f3 00 b8 bc de 97 f1 3c 76 b1 49 bd 25 cf b8 bc
       -0.02246139 0.029491361 -0.049241506 -0.022559712
0001e0 1a b7 d4 3b e5 3a 40 bb 08 43 32 3c f2 b9 f0 bb
       0.006491554 -0.002933198 0.010880239 -0.007346385
0001f0 d6 68 30 bc b3 8f 20 bd 1d e2 0b 3b 1c 27 06 3d
       -0.010767182 -0.039199542 0.002134449 0.03275214
000200 0a d1 17 bd 4f 44 ac 3c de 98 e6 3c 24 c1 01 bd
       -0.03706459 0.021028666 0.028149065 -0.031678334
000210 a7 f5 c1 3c f5 29 a5 3c 87 41 db bb ef 3d b1 ba
       0.023676706 0.020161608 -0.006691161 -0.0013522486
000220 41 eb 83 3c 26 69 1e bd f9 01 d0 bc 9c 27 bd bc
       0.016103389 -0.038674496 -0.025391566 -0.023090176
000230 47 49 37 3d 6f fb 03 bc c8 53 f3 3c ee 03 b7 3c
       0.044747617 -0.008055552 0.029703036 0.022340741
000240 d7 27 b0 3c 37 b8 40 3a 15 d2 3b bd da e5 ca 3b
       0.021503372 0.0007351669 -0.045854647 0.006191951
000250 9a 95 eb bc af a8 aa bc 1b 8e 13 bc aa 69 28 bd
       -0.028757859 -0.020832388 -0.009006049 -0.041116394
000260 c0 33 0c 3d 2e ff 12 bd a2 1f d3 bc 57 7b a4 bc
       0.03422904 -0.03588789 -0.02577192 -0.020078344
000270 f7 4b c4 39 7e 17 f9 3c e0 c9 9e 3c ab 01 87 3c
       0.0003744063 0.03040671 0.01938337 0.016480288
000280 b5 bb fc bc 71 ef cf bc e1 2e 09 bc d9 b9 35 3c
       -0.030851224 -0.02538273 -0.008372993 0.011091673
000290 b3 31 12 3c 62 89 5a 3c f7 17 dc 3c c6 e7 22 bd
       0.008922982 0.013338419 0.026866896 -0.039771818
0002a0 63 9e 48 bb 40 01 06 3c ea 64 23 bd e0 fc 10 3d
       -0.0030611984 0.008179009 -0.03989116 0.03539741
0002b0 c1 92 98 3c b3 bf 63 bc 96 d7 1e bd 5b d4 40 bd
       0.018624665 -0.013900685 -0.038779818 -0.047077518
0002c0 7b 6f 29 3d 22 e7 26 3d 9f bd 0c 3d 1e c7 0d bd
       0.04136608 0.04074777 0.034360524 -0.03461372
0002d0 2e 91 5c 38 cd 40 69 3c 3e 61 0c bd 6b 8f 2e bd
       5.2587297e-05 0.014236641 -0.034272425 -0.042617243
0002e0 ce 99 8a 3b 85 9b dd 3c af 4d 48 3d 7c 9e d4 bc
       0.0042297607 0.027051697 0.04890221 -0.025954477
0002f0 08 48 b8 bc cb e6 0a bd ee ea 91 3c 32 5f 3a bd
       -0.022495285 -0.033911508 0.017812219 -0.04550094
000300 c4 e3 36 3c d7 f8 e7 3c 17 31 30 3d 5c 12 90 3c
       0.011162702 0.028316898 0.043015566 0.01758688
000310 8e ea f9 bc 5e 5d 81 bc 8d d9 fc bc a7 c2 0f 3d
       -0.030507352 -0.015791591 -0.030865455 0.035097744
000320 3f 8a db bc 94 29 a0 3c 09 63 3c bd c8 c0 84 bc
       -0.02679932 0.019551076 -0.045992885 -0.016205207
000330 9b 7b f2 3c ed 54 c8 3c bd 67 7a bc 2a b7 07 3d
       0.029599955 0.024454558 -0.015283522 0.033133663
000340 f0 49 72 3c 92 c4 22 3d de ed 9b bc 99 36 b8 3c
       0.014788136 0.039738245 -0.019034322 0.022486972
000350 44 63 27 3d 6d c9 65 3b e1 65 05 bc 29 90 bb 3c
       0.04086615 0.0035062686 -0.008141966 0.02289589
000360 8d 3a 36 3d 03 fd 83 3c 1f dc 8b 3c 95 20 1f 3d
       0.044489432 0.016111856 0.017072735 0.038849432
000370 d3 7e fe bc 5c 49 d1 bc ee 13 50 bc ca 75 73 3c
       -0.031066334 -0.025547676 -0.012700064 0.014859626
000380 f0 68 07 3d c4 8c e1 bc 7a bd 7a 3c ff 1d 1e bc
       0.03305906 -0.027532943 0.015303964 -0.009650706
000390 49 51 b2 bc 0e fc a1 bc 86 a9 c3 bc c3 f4 f7 3b
       -0.021767275 -0.01977351 -0.023884546 0.0075670197
0003a0 42 37 48 3d ef 44 21 3c e2 eb fb 3c 3f e7 26 bc
       0.048880823 0.009843095 0.030752126 -0.010186969
0003b0 16 11 26 3c 2e 06 a5 bc 7b 9d a8 3b 6b fc e8 bc
       0.01013591 -0.020144548 0.0051457263 -0.028440675
0003c0 73 d1 93 3b 49 65 b7 bc 12 c0 71 bc bd 6a c1 3a
       0.0045110523 -0.022387164 -0.014755266 0.0014756542
0003d0 d7 ed e9 bc c7 a4 41 bb 34 96 15 bc ce 82 0b 3d
       -0.028555794 -0.0029547678 -0.0091300495 0.034060292
0003e0 f6 79 92 bc bb fe 88 bc 42 f1 a6 bb 26 7f 18 bd
       -0.017880421 -0.016723027 -0.005094678 -0.037230633
0003f0 db d2 16 3d be 5a ae bc e7 7c ee 38 e5 b3 14 bd
       0.03682218 -0.021283504 0.00011371989 -0.036304373

fc1.bias f4 [256]
000000 c9 ac 9b bc d6 77 78 3c e7 e9 ab 3c 61 a2 4f b9
       -0.019003289 0.01516529 0.020985557 -0.00019801549
000010 fc 87 33 bd 29 6d 29 3d 93 28 e3 bc 25 d7 ca 3c
       -0.043830857 0.04136387 -0.027729308 0.024760792
000020 e1 76 e7 bc 32 7b 0a 3d 84 f6 d6 3c 9c 8e d8 bc
       -0.028254928 0.033808894 0.026240595 -0.026435189
000030 9d f4 0d 3d e9 d2 d2 3c 81 c8 14 3d 39 32 24 bd
       0.03465711 0.025735335 0.036324028 -0.04008696
000040 b3 10 88 bc 21 c8 00 bd 46 4d c0 bc b5 d0 a2 3b
       -0.016609525 -0.031440858 -0.023474347 0.0049687275
000050 75 85 6e 3c b6 aa 5d bd c8 57 15 bd aa 0b 65 3c
       0.014558186 -0.05411788 -0.036460668 0.013979832
000060 73 c1 b5 3c dc 06 fd 3b 42 0e 6d bc d5 e2 c5 3c
       0.02218697 0.007721765 -0.014468731 0.024156014
000070 35 72 e1 bc c7 d5 2d bd 21 49 07 bd 49 6f 20 bd
       -0.027520278 -0.042440202 -0.033028726 -0.03916863
000080 cc 73 27 3c 62 8c e5 3c c6 c4 3e bd ae ad 82 bc
       0.010220479 0.028021041 -0.046574377 -0.015951958
000090 60 74 40 bd d4 84 28 3c bc 44 30 bd 9b f8 7f bc
       -0.046985984 0.010285575 -0.0430343 -0.015623237
0000a0 6f b6 6b bc 8b 74 46 3d 07 fc b2 3c 0b 53 ce bc
       -0.014386757 0.048450988 0.021848692 -0.025186082
0000b0 10 a2 ce bc 13 e5 43 3d df 43 07 bd 16 1f 11 3d
       -0.025223762 0.047825884 -0.03302371 0.035430036
0000c0 9e 6b fb bc e5 7d 98 3c 59 65 e6 bc 99 02 8a bc
       -0.030690964 0.018614719 -0.028124498 -0.016846942
0000d0 2e b0 4e 3c 8c 87 30 3c ea af 2b bd c7 16 2c bc
       0.012615247 0.010774504 -0.04191581 -0.010503477
0000e0 fd 5a ad 3c b0 ab d7 3c ff a5 e2 bb 52 a7 36 bd
       0.02116155 0.026326984 -0.006916761 -0.044593163
0000f0 49 0c 1e bd 65 04 82 bb 48 74 2a bd 80 13 06 3d
       -0.038585935 -0.003967809 -0.0416148 0.03273344
000100 b2 88 a3 3c fb 78 cc 3c f1 74 d0 3c 5d c9 a8 bc
       0.019962642 0.024960032 0.025446387 -0.02060383
000110 dc 88 2a bc ed a4 49 bd 03 15 18 bd 21 8d 2e bd
       -0.010408606 -0.04922955 -0.037129413 -0.04261506
000120 e7 09 08 3d 8f 6b ad bc 16 23 63 bc e2 65 a8 3c
       0.03321257 -0.021169452 -0.013863346 0.020556394
000130 4c d2 b5 bc 0c d1 8a bb 3f cf 82 3c 2b 8c 0c bd
       -0.022195004 -0.004236346 0.015967963 -0.034313362
000140 ea 45 bb 3c 39 51 09 3d 68 02 c9 3c 56 31 10 bd
       0.022860486 0.033524726 0.02453728 -0.0352033
000150 19 d7 e4 bc 21 92 ab 3c df 91 15 3b ae 24 df ba
       -0.027934598 0.020943703 0.0022822542 -0.0017024481
000160 fe 4d 35 bd 93 99 66 3c f4 97 23 bd b6 2d a5 bc
       -0.044263832 0.014074701 -0.039939836 -0.020163398
000170 14 75 08 3d 2b e1 f0 bc 45 2c 48 bc ae 2f 7b bc
       0.03331478 -0.029404243 -0.012217586 -0.015331192
000180 1f f8 7d 3c a4 f9 08 3d 43 86 3b bd 76 bb 2f bd
       0.015501051 0.0334412 -0.04578234 -0.042903386
000190 e8 bf f2 bc d7 69 f6 bc 0b e0 02 bd 73 96 d5 3c
       -0.029632524 -0.030079765 -0.031951945 0.026072716
0001a0 d5 7c f4 3c 68 ec 53 3b f0 bb e8 bc 60 41 02 3d
       0.02984468 0.0032336954 -0.028409928 0.031800628
0001b0 27 82 0a bd f1 3f 22 bc 84 bf d0 bc f1 8b 8e 3c
       -0.03381553 -0.00990294 -0.025481947 0.017400714
0001c0 bf a3 d5 3b 0c c9 e1 b8 38 bf 58 bd 61 fd 17 bc
       0.006519764 -0.00010766284 -0.052916735 -0.009276719
0001d0 0e 6e 7e 3c 7c 8d d0 3c 33 33 2f bd f6 55 90 bc
       0.015529169 0.02545809 -0.042773437 -0.017619114
0001e0 7e f1 d8 b8 27 9b 2e bc bf 9f 02 bc ab 38 13 bd
       -0.00010344664 -0.010657108 -0.007972657 -0.035942715
0001f0 f0 89 97 ba c7 3d 13 bd 25 ee 3c bd ef 58 7b bc
       -0.0011561494 -0.035947587 -0.04612555 -0.015341028
000200 2a 1c f7 3c fd 72 ad 3c 1a 13 16 bd 64 e3 16 bd
       0.030164797 0.021172995 -0.03663931 -0.03683795
000210 40 c7 29 bd 8c 3a 3a bd 41 b1 64 3c fe 05 84 39
       -0.041449785 -0.04546599 0.013958276 0.00025181466
000220 3d bc 0d bd ef 82 f5 bc d0 c9 99 bc ea ca 36 bd
       -0.034603346 -0.02996966 -0.01877299 -0.044627108
000230 9b 87 0e bc 7c 8c fc 3c 54 41 43 bc 0f ac 7c 3b
       -0.008699323 0.030828707 -0.011917431 0.0038554703
000240 c8 5f 5f 3d 32 ba 0d 3d 7b 89 3e bd 6a 39 7a bb
       0.054534703 0.034601398 -0.04651783 -0.0038181194
000250 93 c3 ed bc 95 93 7c bb 41 e5 fe 3c b6 fc 20 3d
       -0.029023921 -0.0038540114 0.031115176 0.039303504
000260 95 16 4c bc 42 f5 d3 3c 01 e2 9d 3b 4a 9a b4 bc
       -0.012456556 0.025873784 0.0048182015 -0.022046227
000270 de 78 f5 bb d6 cf ff bc fa 10 20 3d 60 94 5f bc
       -0.007491215 -0.031227034 0.03907869 -0.013646215
000280 6a 68 47 3c f9 4e 0b bd 1d fa c1 3c d8 df f9 3c
       0.01217089 -0.03401086 0.023678834 0.030502245
000290 d9 42 b6 bc 60 09 c2 3c bc 0f 7c bc 3e f1 aa bc
       -0.022248672 0.023686111 -0.015384611 -0.020866986
0002a0 dd c3 46 3c 94 0d aa 3a f4 19 73 bc f1 b2 0c 3c
       0.012131658 0.0012974017 -0.014837731 0.008587585
0002b0 b0 e6 34 3c 38 b2 2d bd bf b1 05 bd 26 24 3e bc
       0.011041328 -0.04240629 -0.032640215 -0.011605298
0002c0 99 24 21 bd e7 31 8d bc f9 62 90 bb d6 56 09 3d
       -0.039341543 -0.01723571 -0.0044063297 0.03353008
0002d0 cd 9f a9 3c f3 ed 2a bc 99 d9 ca bb e3 72 cc bc
       0.020706082 -0.010432708 -0.0061904904 -0.024957126
0002e0 fc d9 41 3c 26 9c 55 bc 1e c8 93 3c ed 22 fa bc
       0.011831757 -0.013037717 0.01803976 -0.030534232
0002f0 aa 15 20 bd 38 f8 69 bc 7c 82 85 bb c8 5c f9 3c
       -0.03908316 -0.014280371 -0.004074393 0.03043975
000300 4d 97 a9 bb df 95 0a bd 1b cc c2 3c f7 96 99 3c
       -0.005175507 -0.033834334 0.023778966 0.018748743
000310 06 30 17 bb 79 06 1d ba 28 93 2d bd 22 8e 00 3d
       -0.0023069396 -0.0005990039 -0.042376667 0.03138555
000320 3a ac 10 3c 32 c2 cd 3a 35 30 44 3a ca f9 81 bc
       0.0088301245 0.0015698134 0.000748399 -0.015866179
000330 ff 06 6f 3c cf 54 2b 3c 46 23 b3 3c f5 c6 11 3d
       0.01458907 0.010457232 0.021867406 0.03559013
000340 f4 1f 43 bc 89 be fe bb c2 08 07 3d 1b b1 1d 3d
       -0.011909474 -0.0077741784 0.032967336 0.03849898
000350 c9 c8 9b bc d6 0f 1a 3c fd ae ed bc b9 6f 26 3d
       -0.01901664 0.00940319 -0.029014105 0.04063389
000360 77 ce 86 3c 79 4a 11 bd e0 97 13 3b 0f 96 00 bd
       0.016455872 -0.035471413 0.0022520944 -0.031393107
000370 4a a0 c7 bb fd 1c f3 bc 09 1a c4 3c c5 92 ba 3c
       -0.006092106 -0.029676909 0.023938196 0.022775063
000380 a3 c5 d8 bc 91 83 7a bb f8 05 35 3b 82 51 5e 3b
       -0.026461428 -0.0038225392 0.0027621966 0.0033923094
000390 1a be 1f 3c ab 7d 24 3d 21 f0 ba bc 01 36 94 bc
       0.009749914 0.04015891 -0.02281958 -0.018092157
0003a0 53 db 2b 3c af 3b 24 3d 1a f9 0c bc 75 e9 0e 3d
       0.010489303 0.04009598 -0.008604312 0.03489061
0003b0 03 58 d1 3c 72 08 41 bd eb 9d eb bb 5c a5 a1 bc
       0.025554663 -0.047127195 -0.007190456 -0.01973217
0003c0 e0 ba f9 ba 79 f6 a6 bb 39 90 1c 3c 10 68 83 bc
       -0.0019052885 -0.0050953 0.00955587 -0.016040832
0003d0 42 b6 51 3d 26 f0 eb 3a 4b 6e 5a bc 56 ee f1 3c
       0.051199205 0.0018000647 -0.01333196 0.029532593
0003e0 fc 50 3a bc 86 4f 01 bd da 16 aa 3b b4 ee 63 bc
       -0.011371847 -0.03156998 0.0051907124 -0.013911892
0003f0 6a 5b 16 bd 2e 30 c2 bc c3 f9 2c 3d 29 1b 22 bd
       -0.036708273 -0.023704614 0.04223038 -0.039576683

fc2.weight f4 [128, 256]
000000 56 32 38 bc 83 89 73 bd 9d e3 0f 3c b0 d1 bd bc
       -0.01124247 -0.059457313 0.008782295 -0.023171276
000010 4b b5 3c 3d 51 30 3f 3d cf c9 a7 3c 86 e7 52 bd
       0.046071332 0.046676937 0.020481972 -0.05149033
000020 4b 6a d4 ba e7 7a 63 bc 41 d0 70 3d c7 c1 74 3d
       -0.0016205994 -0.013884283 0.058792356 0.059755113
000030 f3 f3 70 3c 38 48 c1 bc 61 39 1a 3c 56 83 5b 3d
       0.0147065995 -0.023594007 0.009413094 0.05359205
000040 46 39 b6 3c ae eb eb bc a0 4f ce 3c 52 77 e8 3c
       0.022244107 -0.028798904 0.025184453 0.028377209
000050 fc 4d 27 3c 5f 29 be bb 51 46 6f 3d 9b e7 18 3d
       0.010211464 -0.0058032717 0.05841667 0.03733025
000060 9d ed e5 bb 6d 3b f8 3b be 23 2e 3c 0f 49 17 3d
       -0.007016851 0.0075754435 0.010628639 0.03693491
000070 af 21 e2 3c 67 f3 07 3d 80 34 43 3d b4 db 78 3d
       0.027603952 0.03319111 0.04765749 0.0607564
000080 8b d3 5f bb 40 0d bb 3c 6c 86 23 3c 27 9c a8 bc
       -0.003415319 0.022833467 0.009980779 -0.020582272
000090 74 79 10 3d 35 6e b2 3c dc aa 8b 3c e6 f3 11 bd
       0.035272077 0.021781066 0.017049246 -0.03563299
0000a0 3a 92 0a 3d 08 7b e5 3b a4 eb 81 3d 90 a9 12 bc
       0.03383086 0.007003192 0.06343773 -0.00895156
0000b0 32 6d 26 bd b9 d4 11 bd 67 51 d5 3c 0e 10 06 bd
       -0.04063148 -0.03560326 0.026039792 -0.032730155
0000c0 62 a6 17 3d d3 fa 2a 3d 1a c5 aa 3b d7 b1 a2 3c
       0.03702391 0.04174311 0.0052114846 0.019860191
0000d0 40 09 23 3c 7b 30 0c bd 45 c0 be 3c 20 07 c9 bc
       0.009950936 -0.034225922 0.02328504 -0.02453953
0000e0 79 15 49 bc 56 48 f2 bc 7d f6 0d bd 36 67 e3 3c
       -0.012273186 -0.029575508 -0.034658898 0.027759176
0000f0 65 e5 99 3c 45 e0 ea 3c 1b dd 50 3d 35 e9 7f 3d
       0.018786142 0.028671393 0.050992113 0.062478263
000100 aa a9 c4 3c aa 8d f7 3c 47 c1 fe 3c 72 a2 03 3c
       0.024006683 0.030218918 0.031098021 0.008034335
000110 77 96 46 3d ad 79 47 3d 93 b2 bf 3c 66 e2 6a bd
       0.04848334 0.048700023 0.02340058 -0.057344817
000120 92 a6 3f 3d 96 3f 1a 3d 24 1a f5 3c 92 83 39 3d
       0.046789713 0.037658297 0.029919691 0.04529149
000130 28 88 a6 3c da 39 17 bc 0b 02 a2 bc fa e0 33 3c
       0.020328596 -0.0092301015 -0.019776365 0.010978932
000140 b9 ea 21 3d e4 e4 59 3d 01 39 07 bd 4a 92 b8 bc
       0.03953049 0.053196803 -0.033013348 -0.022530694
000150 dd 6d 57 3d 1c 6f c1 3c a2 f7 be bc 34 89 d0 3b
       0.05259501 0.023612551 -0.02331144 0.006364012
000160 59 f1 f6 3c 5d 4d df 3c f3 71 57 3a 8f 1d ce 3b
       0.03014438 0.02725857 0.0008218579 0.0062901448
000170 ed a3 c0 bc 61 37 cc bc 1d d7 bb 3c 91 8e bc bc
       -0.023515666 -0.02492875 0.022929722 -0.0230172
000180 61 ba 74 3c 56 01 3a bd 45 22 0c 3d 6f 19 59 3d
       0.014937014 -0.04541143 0.03421237 0.05300277
000190 99 72 9c bc dd bc 2c 3d 0d 49 77 bc af 98 8f bc
       -0.019097613 0.0421723 -0.0150931 -0.01752886
0001a0 63 5d fe 3c 7a 4d 86 3c 95 a9 c2 3b 95 41 2c 3d
       0.03105039 0.016394366 0.005940626 0.04205473
0001b0 f5 b6 01 3d 5c 63 7c 3c a0 79 12 bd f8 a8 f6 bb
       0.031668622 0.0154045485 -0.035760522 -0.007527467
0001c0 c5 d6 4a bc 32 50 19 bd 27 dd 58 bc 55 51 f9 bc
       -0.012380307 -0.037429996 -0.013236321 -0.03043429
0001d0 a5 3e 1d bd ec 09 40 3d 0f 1c c4 ba 5b fa 3c bb
       -0.03838982 0.046884462 -0.0014961975 -0.0028835747
0001e0 1c f4 6d bc 5b 98 d1 bc 0f be 55 bd 1d e8 3c bc
       -0.014523532 -0.025585344 -0.052183207 -0.0115299495
0001f0 d6 5b 2b bc 59 e7 9f ba 25 15 db bc 97 3d d1 3c
       -0.010458907 -0.0012199684 -0.026743481 0.025542064
000200 ad e1 41 3d 67 8e ec 3a 26 3a 5d bb 5e 76 50 3d
       0.04733436 0.001804781 -0.0033756583 0.050894134
000210 e0 f8 90 ba 19 77 d7 bc df be 3c 3d c1 b5 1c bd
       -0.0011060499 -0.026301907 0.046080466 -0.03825927
000220 4a df 59 3d bd ea 29 bd 14 ad 01 3d fa 52 6c 3d
       0.05319146 -0.04148363 0.0316592 0.05769632
000230 bb eb 27 bc ac 9c 1b bd 5d 67 00 bd cb 23 db 3b
       -0.010249074 -0.03799121 -0.031348575 0.0066876165
000240 7e b9 5d 3d dd e9 44 3d 4e 13 39 3d 83 07 b2 ba
       0.054131977 0.048074592 0.045184426 -0.0013582561
000250 2c 72 ca 3c 00 ae 9e bc 5f 09 3c 3c a1 9d a5 3c
       0.024712645 -0.019370079 0.011476844 0.020216765
000260 08 72 bb bc e9 52 8e 3c b2 37 51 bd 0e 00 4b bc
       -0.022881523 0.017373519 -0.051078506 -0.01239015
000270 ea 0a a2 bc 25 08 7d 3d 75 c2 0e 3c 66 87 60 bd
       -0.019780595 0.061775345 0.008713354 -0.054816626
000280 fc 0d 1a 3d 2a 18 5b ba 1a cc 0d bd fc 9d 32 bd
       0.037610993 -0.0008357788 -0.034618475 -0.043607697
000290 e2 6d 35 3d 3f cb 8d 3c 30 6a 51 bb a2 e6 b4 bb
       0.044294246 0.01730883 -0.0031954162 -0.0055206576
0002a0 db de 0a bd 32 fe 2a bb 69 c4 9d bc a0 86 82 3d
       -0.033903938 -0.0026091454 -0.019258695 0.06373334
0002b0 13 c5 3d bd 09 52 04 3d 34 b8 e4 3c 28 dc 43 3d
       -0.046330523 0.032304797 0.027919866 0.04781738
0002c0 f4 f4 e8 3c 52 f8 82 3d 40 a2 05 bd 8b 7f 16 bd
       0.028437115 0.063950196 -0.032625437 -0.03674273
0002d0 26 20 a2 bc ce da 70 3d 4c 78 d7 3c 39 42 32 bd
       -0.01979072 0.05880242 0.02630248 -0.043520186
0002e0 ca bd 58 bd e7 8f e1 bc 96 9e 67 bc c7 fc 60 bd
       -0.052915372 -0.027534438 -0.014136931 -0.054928567
0002f0 c1 9a f9 3c a2 60 09 bb 1d 96 4d 3d fe b8 66 3d
       0.0304693 -0.0020962139 0.050191987 0.056328766
000300 dd 61 cd bc 28 7a 64 3d f7 c5 0c 3d 32 84 36 bc
       -0.025071079 0.05578056 0.03436848 -0.011139916
000310 67 9b 09 3d 94 d6 38 3d 11 58 6c 3d 3a 17 d3 bc
       0.03359547 0.045126513 0.057701174 -0.025767911
000320 0e 24 07 3d 08 f3 cb 3c 3c b7 37 3d 2b 85 8c 3a
       0.03299337 0.02489616 0.04485248 0.001072084
000330 28 93 1b 3d c5 3e ec 3b 8e f8 0c bd 5a e2 cb bc
       0.037982136 0.007209631 -0.034416728 -0.024888206
000340 17 2e ef 3c 39 23 52 bd f4 95 57 3d ea 50 3b 3d
       0.029196782 -0.051303122 0.05263324 0.045731463
000350 1e fb 0b 3c fe 40 17 bd 15 32 3b bd e3 c7 2e bd
       0.008543758 -0.036927216 -0.04570206 -0.042671096
000360 b7 d1 07 3d c4 6d 00 bc b1 88 ac 3b 9c 26 55 bc
       0.033158984 -0.00783867 0.0052653183 -0.0130096935
000370 47 52 50 bc 39 c3 56 3d 90 7f 92 bb 09 ee ce bc
       -0.012714929 0.052432273 -0.004470773 -0.025259988
000380 4a a1 89 3d 8e a7 ab 3c 87 1a 1f 3c 4d 48 10 bd
       0.067202166 0.02095392 0.009710914 -0.0352252
000390 51 36 c7 3c c7 eb 4a bc 20 32 27 bd f9 56 f4 bb
       0.024317892 -0.012385315 -0.040819287 -0.007456657
0003a0 8c 3e 36 bd 47 43 18 3d 79 63 87 3c 0c a5 57 bb
       -0.044493243 0.037173536 0.016526924 -0.0032904772
0003b0 fa 9f f1 bb e7 d3 f3 bb 19 9c 18 bc ce b8 aa 3c
       -0.007373807 -0.007441032 -0.00931456 0.020840075
0003c0 7b b3 8d bc bb 28 6f 3d ce c3 2e bd 37 ad 0c bd
       -0.017297497 0.058388453 -0.042667203 -0.034344878
0003d0 d6 3d 2c ba 00 1a d6 3c a7 74 af 3c 61 15 20 3d
       -0.00065704936 0.026135445 0.021417929 0.03908289
0003e0 ce a8 0b 3d c7 b3 0b bd 22 ca b6 bc 21 27 ed bc
       0.03409653 -0.034106996 -0.022313181 -0.028949322
0003f0 2c bb 00 bc ef f2 f8 3c fc 6b 59 3d 35 cd 1b bd
       -0.007857125 0.030389277 0.053081498 -0.038037498

fc2.bias f4 [128]
000000 7c 33 9f bc d2 5c 8a bd 5c 78 43 3c 8c 88 72 3d
       -0.01943373 -0.06755985 0.011930551 0.059212252
000010 25 00 8b bc f8 e6 14 3d 95 41 d8 3c 17 59 57 bc
       -0.016967842 0.03635308 0.02639846 -0.013143799
000020 c2 3a 48 3d 08 29 50 bd ac 74 9e 3c d8 43 80 3d
       0.04888416 -0.05082038 0.019342743 0.0626294
000030 ca 14 be 3c 6b 3c 06 3d b6 ce 44 bd 89 b8 7d bc
       0.023203272 0.032772463 -0.048048697 -0.015485891
000040 13 0f 52 bd 74 05 62 bd f6 fc 53 bd d7 0a f2 3b
       -0.051283907 -0.05518098 -0.051754914 0.007386546
000050 6f f5 0d bd c2 77 b5 bc 10 5a 1e bd bf 37 22 bd
       -0.03465789 -0.022151832 -0.03866011 -0.039603945
000060 84 22 de bc 30 2e 29 3d 29 10 85 bd 4b 6c 0d bd
       -0.027116068 0.041303813 -0.06497223 -0.034527104
000070 22 d0 59 3c 1b 37 47 bd ea 5d 9e bc d4 54 29 bd
       0.013294252 -0.048636537 -0.019331891 -0.041340664
000080 4a e4 1e 3d 35 74 54 bc 20 0d fd bc 75 b3 f8 3b
       0.038791932 -0.012967159 -0.030890048 0.0075897523
000090 88 bf 1d bd 64 9e 1b ba d8 f9 06 bd 19 15 db bc
       -0.038512737 -0.0005936383 -0.032953113 -0.026743459
0000a0 64 00 71 bd 7b 9b 56 bd da 8a 5c 3d 18 fa 18 3d
       -0.058838263 -0.05239437 0.053843357 0.037347883
0000b0 28 20 7c bd de e0 57 3c f2 9a 5e 3d 29 9f 20 bd
       -0.061554104 0.013176171 0.054346986 -0.039214287
0000c0 a9 69 73 bd b6 24 89 3c 62 83 23 3d 33 f8 09 bc
       -0.059426937 0.016741138 0.03992022 -0.008420992
0000d0 ea 5e 99 3c ae d3 5b 3d 68 cd 8a bd e9 66 13 3d
       0.018722016 0.05366867 -0.067774594 0.035986815
0000e0 a3 07 16 bd 3a 03 51 3d d4 a3 ac bc 62 aa a1 3c
       -0.036628377 0.051028468 -0.021074213 0.019734565
0000f0 f3 0d 3a bd bb d0 7f bd 2e 2f 58 bd 33 80 2d 3d
       -0.04542346 -0.06245492 -0.05277937 0.04235859
000100 30 a9 39 bd 68 74 28 bb dc 47 36 bc 41 0d 60 3b
       -0.045327365 -0.002570415 -0.011125531 0.0034187587
000110 f4 75 35 3d 93 9e ad bc d9 e8 66 bd 0d 61 a0 bb
       0.044301942 -0.021193778 -0.056374405 -0.004894382
000120 6e 37 84 3c ad d9 7f bd 78 c3 17 bb fc 10 f6 bc
       0.016139712 -0.06246345 -0.002315728 -0.030037396
000130 47 a4 b4 3d c3 bb 7f 3c 28 11 bc bb 13 b0 59 3d
       0.08820396 0.015608731 -0.00573935 0.053146433
000140 29 57 f6 3c fa 20 5b 3d 5b 72 f5 ba 6d 30 38 bd
       0.030070858 0.053498246 -0.0018726097 -0.044968057
000150 c1 ca 00 3c e8 67 1e 3d 09 6f d0 3c 18 3a 06 bd
       0.00786084 0.03867331 0.02544357 -0.032770246
000160 3e 3b 94 bb a2 04 ed 3c 83 e3 8e bc 4d f5 7f 3d
       -0.004523664 0.028932873 -0.01744247 0.062489796
000170 53 8d 53 3d d8 42 6c 3c 21 d4 3d 3d d9 0e 83 bd
       0.05164845 0.014420234 0.04634488 -0.06399316
000180 dd bc b9 bc 37 b4 8c 3d 1c 41 b2 bb 46 3b 87 3a
       -0.022673065 0.06870311 -0.0054398905 0.0010317347
000190 2d 2b 8a bc 7f 75 37 3d 6f e6 79 3c d7 4f 56 3d
       -0.016866291 0.044789787 0.015252694 0.052322235
0001a0 be 5a 34 3d 5c a5 85 3c d9 c4 fd bb 10 a4 b7 3b
       0.04403185 0.016314201 -0.0077444133 0.0056042746
0001b0 99 df 34 bd eb db 27 bc b0 f3 69 3d be 0a e6 bc
       -0.04415855 -0.010245304 0.057117164 -0.028081294
0001c0 a7 0f eb 3b f7 ac 59 bc 40 af 80 bc bc a5 36 bd
       0.0071734968 -0.013285867 -0.015708566 -0.04459165
0001d0 77 a8 a0 bc 23 c2 3f 3c 12 a8 50 bd 25 62 49 3c
       -0.01961158 0.011704001 -0.050941534 0.012291466
0001e0 15 00 43 3d 21 c9 14 bd 00 1b d3 3c 28 6e 88 3c
       0.0476075 -0.036324624 0.02576971 0.01665409
0001f0 a7 4f 4c 3d c1 3b 20 3d 7d dd 9b bc c1 33 c5 3c
       0.04988065 0.039119486 -0.019026512 0.02407253

fc3.weight f4 [64, 128]
000000 a4 6b ba bc 2f fd 23 bd 8f a1 00 bd 61 93 1d bd
       -0.022756405 -0.040036377 -0.031404074 -0.03847063
000010 79 08 43 3d dd 58 95 3d 1e ce fd 3c c2 57 a2 bd
       0.047615502 0.0729234 0.030982073 -0.07926895
000020 45 96 0b 3b ac 13 d6 3c 45 34 0b bd 7d 6d 4d 3c
       0.0021299284 0.026132427 -0.033985395 0.012538311
000030 8f c7 9d bd f8 ae 07 bc 5c 37 1a 3d a5 08 be bc
       -0.077040784 -0.008281462 0.03765045 -0.023197481
000040 7c 2c 60 3d 5b b1 f4 3b 20 95 ef bc c7 b7 6b bc
       0.054729924 0.0074674315 -0.029245913 -0.014387078
000050 cb 32 28 3d c2 85 22 3d d4 8a 63 3d 58 59 9b 3d
       0.041064065 0.039678343 0.05555232 0.075854
000060 13 a0 3d bd d4 a8 9e bd 49 74 57 3d 66 b9 fe bb
       -0.046295237 -0.07747045 0.052601133 -0.007773566
000070 32 72 e7 3a ca a0 bc bd d5 b6 96 bd 8d 78 90 bd
       0.0017657934 -0.092103556 -0.07359091 -0.07054243
000080 df c2 a7 bd 1b 5d 3d bc 52 95 34 bd a9 c0 92 3d
       -0.081914656 -0.011557843 -0.044087715 0.07165653
000090 a4 00 80 bb be 19 54 bd 90 22 86 3d c0 96 98 bc
       -0.0039063264 -0.051782362 0.06549561 -0.01862657
0000a0 2a b6 69 3c d3 01 4c 3d 86 4d a4 bc d7 c6 94 3b
       0.014264623 0.049806427 -0.020056497 0.004540305
0000b0 83 8d 3b ba 86 0f 72 3d 12 31 49 bd c8 3f 16 3d
       -0.0007154571 0.059096836 -0.049119063 0.03668192
0000c0 eb d8 98 3b 6d af 98 bd 06 1d 9c 3d 3b 7f a2 bd
       0.0046645305 -0.07455335 0.07622723 -0.079344235
0000d0 2b 2c 73 bd cb 7c b1 bd 68 d9 d3 bc e9 06 9a bd
       -0.059368294 -0.086663805 -0.025860503 -0.07520849
0000e0 8f ce 70 3d 73 6d 55 bd 19 6f 80 3d 09 03 47 bc
       0.05879074 -0.052106332 0.0627119 -0.01214672
0000f0 f1 8d d3 bc 40 bd dc 3b 81 bd 0f 3c 18 88 21 3d
       -0.025824519 0.0067364275 0.008773209 0.03943643
000100 f4 7a ec bb 99 2e 35 bc 99 8a 7e 3d 40 e6 aa bd
       -0.0072168056 -0.011058473 0.062143896 -0.08344698
000110 56 72 83 3d 34 cc e9 3c fe d4 30 3d 0b b9 3e bd
       0.06418292 0.028539754 0.043171875 -0.04656319
000120 5e 3e 24 bd 7f 26 9e bd ab 3a 59 3d d0 49 31 3c
       -0.04009854 -0.07722186 0.053034466 0.010820821
000130 5b 2c be 3a c0 91 0b 3d 6e 65 99 3d a4 a2 a6 3c
       0.0014509069 0.034074545 0.07490049 0.020341225
000140 da cf a5 bd 31 ca 6c bd 01 62 49 bc 18 39 3e bd
       -0.08096285 -0.057810012 -0.012291432 -0.046441168
000150 f6 57 54 3d 6b 52 11 3d c3 bc a9 bd 22 33 28 3d
       0.0518417 0.03547899 -0.082879566 0.04106439
000160 e7 a2 eb bc 2e 7f 3e 3d c9 47 20 bd b6 b3 87 bd
       -0.028764201 0.046508007 -0.03913096 -0.06626074
000170 a6 9b 98 bd 5c 74 09 bd 33 ce 47 3d 7f 85 b0 bb
       -0.074515626 -0.033558235 0.04878063 -0.0053870077
000180 20 65 b0 bc a6 5e e3 bc c7 f7 b2 bd 02 a0 72 3d
       -0.021532595 -0.027755093 -0.08738666 0.059234627
000190 6b 4d 29 3d 26 ef 72 bd d6 5a 93 bd 7b d2 dd bc
       0.041333597 -0.0593101 -0.0719506 -0.027077904
0001a0 a9 4e a5 3d 4a e4 48 bd d6 1e 80 3d ec 33 62 3d
       0.08071644 -0.04904584 0.062558815 0.055225298
0001b0 42 40 17 bd c7 d4 fd bb d3 ce 8a bd 82 6d 24 3d
       -0.036926515 -0.0077463123 -0.0677773 0.040143497
0001c0 3b 52 2a bc d3 bd 40 3c 57 5b fe bc 2c af eb 3c
       -0.010395582 0.011764008 -0.031049414 0.028770052
0001d0 3d 82 be bc 96 8d a9 3c 91 27 2c bd 15 9e 90 3d
       -0.023255462 0.020697396 -0.04202992 0.07061402
0001e0 e0 3f a0 bd 7b 74 66 3c 21 80 7c 3b a6 9e 65 3c
       -0.07824683 0.014065857 0.003852852 0.0140148755
0001f0 d6 f4 bc bd d1 bb 94 3d 03 e8 01 bd 37 e1 83 bd
       -0.09226386 0.07262386 -0.031715404 -0.06439441
000200 be d1 f5 bc d3 b4 ab bd cf ae 05 3c 5d 24 fc 3c
       -0.03000724 -0.08384099 0.008159353 0.030779058
000210 14 c3 9e 3d 93 68 33 3d 33 cf 37 3c 1d 0d dc 3c
       0.07752052 0.0438009 0.011218834 0.026861722
000220 90 90 0c bd 4c fc 92 3b 26 9d 0c bd 05 a2 29 bd
       -0.034317553 0.0044856425 -0.034329556 -0.04141428
000230 95 cb d5 3b 74 92 9d 3d 22 76 a0 bc 7e a1 87 3d
       0.006524513 0.07693949 -0.01958758 0.06622599
000240 56 e1 88 bc ac 37 b0 3d 75 ef 6a 3d 72 4a af bb
       -0.016709011 0.086043686 0.05735727 -0.0053494507
000250 66 8e 13 3d 1b 1e ab bd bd cb ad 3c f5 d8 ac bd
       0.036024474 -0.083553515 0.021215314 -0.08439819
000260 06 62 b1 3c 5b c2 9b 3d 8e 88 88 3d 7a fc a9 bd
       0.021653187 0.0760543 0.06666671 -0.08300109
000270 14 99 ae bd b0 43 98 bd 05 e5 96 3d ae 7a a9 3d
       -0.08525291 -0.07434785 0.07367901 0.082753524
000280 d4 da 89 3c 80 60 96 3d df 5d 7f 3d 61 f0 1a 3d
       0.016827978 0.07342625 0.06234538 0.0378269
000290 89 31 e9 bc 12 f8 bf bd 9a 23 93 3c 54 43 b5 bd
       -0.028466003 -0.093734875 0.017961312 -0.088507324
0002a0 fd ae 82 3d 4c 38 ed 3a ff 57 de 3c e2 7d 81 3d
       0.063810326 0.0018098443 0.02714157 0.06322838
0002b0 07 1f 99 3d 7d 22 95 bd 48 de 94 bc 85 ff 04 3b
       0.07476621 -0.07281969 -0.018172398 0.0020293903
0002c0 55 c4 d9 bc 18 ef 13 bc f7 a8 11 bd 2b 31 4a 3d
       -0.026582876 -0.009029172 -0.035561528 0.049363296
0002d0 78 63 0b 3d 2c cb 67 bd 19 01 5e bd b1 2f 9f bc
       0.034030408 -0.056590244 -0.054200266 -0.01943192
0002e0 32 4e a2 bc ff 97 29 bd 06 d2 03 bd b1 18 e2 bc
       -0.019812677 -0.04140472 -0.032182716 -0.027599664
0002f0 01 d9 13 3c 01 fa 8a bd 83 d1 1a bd 16 4f 05 3d
       0.009023906 -0.06785966 -0.037797462 0.032546125
000300 fe 0f 3a 3d eb e0 f3 3c fa a7 eb bc 0e e6 a1 bd
       0.045425408 0.029770335 -0.02876662 -0.079052076
000310 26 c0 a5 3d 8e 88 48 bd 52 2c ba bd cc 60 72 bd
       0.0809329 -0.048958354 -0.09090485 -0.059174344
000320 ab 04 74 3d 8c d3 1c 3d a5 f9 a1 3d 40 50 32 3d
       0.059574764 0.038287684 0.07908944 0.043533564
000330 fe 62 3f bd cf 4d 4b 3d 7a 1f 17 bd 51 bc 3b 3c
       -0.046725266 0.04963475 -0.036895253 0.011458472
000340 22 7a 53 3d c3 90 51 bd 52 ea b1 bd 24 21 9d 3d
       0.051630147 -0.051163446 -0.08687271 0.07672337
000350 a4 0a a0 3d a8 d5 d3 bc 4e 50 de 39 ec d2 a6 3d
       0.078145295 -0.025858715 0.0004240297 0.08145699
000360 6d f1 37 bc d6 59 27 bd 2c db 90 3d 3d 75 78 bd
       -0.011226994 -0.04085716 0.07073054 -0.060658682
000370 84 a4 48 bd 89 32 f9 bc a9 6c 88 bb 77 d4 5a 3d
       -0.04898502 -0.030419605 -0.004163344 0.05342528
000380 5c c0 87 3d d9 0f e8 bc eb 99 1d bd 38 d6 a3 3d
       0.066284865 -0.02832787 -0.038476866 0.07999843
000390 38 52 49 3c 7c 92 93 bd da 24 9b bd 59 3f 12 bd
       0.012287669 -0.07205674 -0.07575388 -0.035704944
0003a0 13 e9 08 3d 8d 6a 2e 3d 41 ea 95 3d 71 5f f8 3c
       0.033425402 0.042582083 0.07320071 0.030318948
0003b0 5c b1 b6 bd 12 95 4c bd ad db 31 3d 81 f9 95 3c
       -0.08920547 -0.049946852 0.04342239 0.01830745
0003c0 ae 7f 02 3c b0 bd 1b 3d 41 9e 56 3d 2a 7f 9b bd
       0.0079650115 0.038022697 0.052397016 -0.07592614
0003d0 e8 04 23 bc 05 1e 9a bc 81 ac ca 3c 34 dc 64 3d
       -0.0099499 -0.018813143 0.02474046 0.055874065
0003e0 23 43 0d 3d 5e 9d 8c bd 7b d5 8a bd 9a e6 6e bd
       0.034487855 -0.06865953 -0.067789994 -0.058325388
0003f0 4c 40 84 bc 13 be fd 3c 56 df f9 3c 0c f9 0e bd
       -0.01614394 0.030974424 0.030502003 -0.03490548

fc3.bias f4 [64]
000000 1b 47 3c 3d a4 9f 80 3d 0f 08 4d bd ba 7e db bc
       0.04596625 0.06280449 -0.050056513 -0.026793826
000010 dd d9 41 bc 20 57 a9 3d c5 58 c3 3c 53 13 d1 bd
       -0.011831728 0.08268571 0.02384604 -0.10208764
000020 c6 3c 43 bd fd 62 44 bd 13 94 43 bd 4a 31 03 bd
       -0.04766538 -0.047945965 -0.047748636 -0.032029428
000030 8e a2 bf 3c 94 6d 12 bd 46 06 de 3b 62 4e 0b 3d
       0.023392942 -0.035749033 0.00677565 0.0340103
000040 28 de 2f 3d 01 02 36 bd 3c 6a 6f bc 41 d6 8d 3c
       0.042936474 -0.044435505 -0.014612731 0.017314078
000050 99 3a 84 bd 7c 4f 07 3d e8 8d 73 bd b3 ca 53 3c
       -0.06456489 0.033034787 -0.059461504 0.012926745
000060 41 65 5f 3d dd f6 ae bd 9b 74 07 bd b6 d0 58 bc
       0.054539923 -0.08543179 -0.033070188 -0.013233354
000070 07 ed 7b bd 3c e6 50 3d 1b bb 3d bd ee a1 6e bd
       -0.061505344 0.05100082 -0.046321016 -0.058259897
000080 3c e0 0e bd 76 c1 5d bd ad 8a 38 3b 57 cb 2e 3d
       -0.034881815 -0.054139577 0.002815883 0.04267439
000090 0e 60 91 bd 10 3e 26 3d 38 34 a0 bd 4c 71 83 bd
       -0.07098399 0.04058653 -0.0782246 -0.06418094
0000a0 e0 bb 98 bc d1 6e b3 bd c2 87 94 bd 36 b9 ee bc
       -0.018644273 -0.08761371 -0.07252456 -0.02914105
0000b0 3b 04 22 bd f0 28 a2 3d 1e b6 81 3c d3 56 87 bd
       -0.039554816 0.079179645 0.01583391 -0.06608357
0000c0 d6 7a 52 3d f5 b5 97 3d cb fc 72 3b ce 65 81 3d
       0.051386677 0.074077524 0.0037076946 0.06318246
0000d0 3c e4 7b bd ea c3 93 bd 10 eb a3 bd d3 27 9f 3d
       -0.061496958 -0.07215102 -0.08003819 0.07771268
0000e0 2c 46 bf 3c f6 50 6c bd 35 ad 57 3d 73 0b 82 3b
       0.02334889 -0.057694398 0.052655417 0.00396865
0000f0 ce 9f 6d bd f6 28 56 bd dc 9d f4 bc 13 f8 5b bd
       -0.05801373 -0.052285157 -0.02986043 -0.05370338

fc4.weight f4 [32, 64]
000000 4a df 6a 3c c0 b3 f0 3d 50 46 12 3d e3 b2 46 3d
       0.014335463 0.117530346 0.035711586 0.048510443
000010 fe 87 0a bd 2f 38 7c bd 75 7c de bc 34 3b fa bd
       -0.0338211 -0.06157702 -0.027158955 -0.12218323
000020 18 5a eb 3c af 48 48 3d 8f 1b c2 bd 96 e7 1b bd
       0.028729483 0.04889744 -0.09477913 -0.038062654
000030 2a be 2e bd 85 d1 7c bc 03 22 d3 bb 57 0a 95 3c
       -0.042661823 -0.015430813 -0.0064432635 0.018193407
000040 da 05 99 bd 66 ac ec 3c 6e 11 24 bd a1 95 80 3d
       -0.07471819 0.0288908 -0.040055685 0.062785394
000050 c6 db 67 3c 44 0e a0 bc c1 63 a3 bc 9c e2 a6 3b
       0.014151519 -0.019538052 -0.019945027 0.005092932
000060 02 e1 e8 bd 1a c6 bd 3c cf a6 e8 bd 28 35 da 3d
       -0.11371042 0.023165751 -0.11359941 0.1065467
000070 3f 1b c4 bd ed 78 07 3d 44 22 31 bd ea 83 70 3d
       -0.09575509 0.03307431 -0.04324557 0.058719553
000080 e6 73 5b bc d8 8e e9 3c 1c 83 e7 bd 1f 55 25 bd
       -0.013394332 0.028510496 -0.11304304 -0.04036438
000090 70 63 e8 bd bf 82 9f bd 97 e0 cf 3d 0b b6 97 bd
       -0.11347091 -0.0778861 0.10150259 -0.07407769
0000a0 bc f1 56 bd ca e3 03 be f7 26 98 bd 2f 7a ef 3d
       -0.05247663 -0.12879863 -0.07429307 0.116932265
0000b0 a4 5f 3d 3c 4b d7 ef 3d be dd 94 bd fb a2 2e bd
       0.011558447 0.11710986 -0.072688565 -0.0426359
0000c0 37 d5 85 bd 94 ec dc bd 99 5c 85 bd f4 77 bc bd
       -0.06534808 -0.10787311 -0.06511802 -0.09202567
0000d0 b0 07 e9 3d ff e1 9e bd 05 9c 35 bc 23 3d b3 3d
       0.113784194 -0.07757949 -0.011084561 0.08751895
0000e0 76 32 65 bd 5f 52 cb bc fc d9 ba bd 68 43 df bc
       -0.055956326 -0.024819551 -0.091236085 -0.027253821
0000f0 3e 8b 80 bd d2 79 a6 bd 87 ac 63 3d 24 2f 98 3d
       -0.06276558 -0.08128704 0.055584457 0.07430866
000100 35 1f 86 3d 66 36 93 3b 60 5c ec bd 40 04 dc bd
       0.06548921 0.004492569 -0.11541057 -0.10742998
000110 4d 22 d1 bd a7 f9 3f bd 22 b9 8a 3d 6f a2 16 3c
       -0.102116205 -0.046868946 0.067735925 0.009194001
000120 da 3d 78 3d 83 d9 c0 3d 24 00 98 3d e0 91 a9 bd
       0.06060586 0.09416487 0.07421902 -0.082797766
000130 30 3f 08 3c 44 f6 a0 bd 09 de f4 3d 3d 6d 86 3b
       0.008315846 -0.078594714 0.11956412 0.0041023777
000140 37 61 0c bd 10 12 25 3d 6a fc 50 3c 1a eb b1 3c
       -0.0342724 0.04030043 0.012755493 0.02171855
000150 26 32 8a bd 76 31 e0 3d 46 f5 e0 bd e3 c3 ee 3c
       -0.06747846 0.10946934 -0.10984282 0.02914614
000160 a9 f6 5e 3d 0b bd fe bc 0c 81 cd 3d 4c 21 b1 3d
       0.054434452 -0.031096002 0.10034379 0.08648929
000170 b6 b4 68 3b c8 d0 c0 3d 65 2e f2 bb 69 cf aa bc
       0.0035508103 0.09414822 -0.0073907846 -0.020850854
000180 f5 99 97 3d 5b df c4 bd 3e 41 33 3c b6 8b 87 3d
       0.07402412 -0.09612914 0.010940848 0.066184446
000190 e2 30 0f 3d a1 6e ac bd 19 8d 84 3c ed dd 3c 3a
       0.034958728 -0.08419538 0.016180562 0.00072047004
0001a0 f6 b9 f7 3c 03 ae df 3d 57 3d 88 bd 1b 18 4b bd
       0.03024004 0.10921862 -0.06652325 -0.049583536
0001b0 6b 8e 76 bd 49 f8 ba 3c 00 10 93 bb e0 b7 ab bd
       -0.060194414 0.02282347 -0.0044879913 -0.08384681
0001c0 ac f9 69 3d 3d 07 4a bd c1 db 0d 3d b8 f7 aa 3d
       0.05712287 -0.04932331 0.0346334 0.0834803
0001d0 fb fd ee 3d 7a 0e d7 3c bf 1f c7 bd 3f a8 56 3d
       0.11669537 0.02625202 -0.09722852 0.052406546
0001e0 5d 8c 1f bd 5c 43 fb 3a d2 0a 8c 3d bf 8f c1 3d
       -0.03895222 0.0019169855 0.06838001 0.094512455
0001f0 0c ec 04 3d 3d 9e 92 bb a5 3c b8 bd 82 7b af 3d
       0.032451674 -0.00447443 -0.08995942 0.08568479
000200 d8 a6 8e bc ee 74 19 bc 4c 0c db bd 42 c4 3d bc
       -0.017413542 -0.009366257 -0.10695705 -0.011582436
000210 94 29 a6 bd ac 05 da bd f5 62 45 bd 70 47 5b 3d
       -0.08113399 -0.10645613 -0.048190076 0.053534925
000220 e3 aa d0 3c 2a f5 c1 3d a3 74 66 bd 37 c2 87 3d
       0.02547211 0.094705895 -0.056263577 0.066288404
000230 5e f8 b0 bd 4a f5 bc 3d a8 65 c9 3d f2 88 59 bc
       -0.08641122 0.09226473 0.098338425 -0.013277279
000240 ad 72 2f bc 8f a7 5a bd e5 09 9d 3d 6d bf e8 3d
       -0.010708493 -0.053382453 0.07667903 0.113646366
000250 4a 1a 84 3c 1f c0 13 3d 9b 47 b9 bd 6e 38 e7 bd
       0.016125817 0.036071893 -0.09046861 -0.1129006
000260 e6 da 6b bc b5 c0 14 3d d3 58 9a 3c a8 38 bd 3d
       -0.014395451 0.036316592 0.018841183 0.09239322
000270 b1 a1 f9 bb 4a 8c 48 bd bb 1e 19 3c d1 7f 42 bd
       -0.007618152 -0.048961915 0.009345706 -0.047485176
000280 a2 ba f9 37 c5 04 34 3d a7 ba c2 bd 7c 3d 82 bd
       2.977002e-05 0.04394986 -0.09508257 -0.063593835
000290 75 e2 4c 3d a4 67 75 3d 25 b0 3e 3d 2d 5f 4b 3d
       0.050020654 0.059913293 0.046554703 0.049651314
0002a0 78 b8 d7 bc 97 46 53 3c 06 c3 04 bd ea 02 b8 bd
       -0.026333079 0.012895248 -0.03241255 -0.08984931
0002b0 10 75 33 3d 05 1c fe bd 95 46 82 bd 97 71 76 3d
       0.04381281 -0.12407688 -0.06361119 0.06016692
0002c0 c8 e1 8e bc ac 60 a8 bd 41 cd e6 bd 6a a5 d3 bd
       -0.017441645 -0.08221564 -0.11269618 -0.103342846
0002d0 cc 8a 6d 3d e8 97 d1 3d 8c d7 d2 3d 46 45 84 3d
       0.057993695 0.10234052 0.102950186 0.06458525
0002e0 a6 46 a9 3c 59 68 35 3d d1 7a 8a 3d 3e 5a b7 bd
       0.02066357 0.044288967 0.067617066 -0.08952759
0002f0 f6 e8 fa bc ac fc 8a bd 49 c7 8a 3d dd 84 2b 3d
       -0.030628663 -0.067864746 0.06776292 0.041874755
000300 12 71 d4 bd 65 4e f5 3d be 72 e6 3c ea 6c 99 bc
       -0.10373129 0.11977843 0.028130885 -0.018728692
000310 ae eb 9a bd 8d 66 ca 3d 8e 54 bf bc c2 b6 db 3d
       -0.075644836 0.09882841 -0.023355749 0.10728218
000320 31 f1 cd bd a2 e9 dc 3d 91 71 26 bd ac 55 6c bb
       -0.10055769 0.107867494 -0.04063565 -0.0036061807
000330 dd 17 6b bd d1 80 9b bd 78 cf 1b 3d 2d ed aa bd
       -0.057395805 -0.07592929 0.038039654 -0.08346019
000340 a3 be ad 3d 6c 4a 77 3d 10 4e f7 bd 44 e2 1d 3d
       0.08483627 0.06037371 -0.12075436 0.03854586
000350 89 60 2a 3d ca 7d 18 3d 90 82 24 bd c0 d9 2d 3d
       0.04159597 0.037229337 -0.040163577 0.04244399
000360 1b 68 02 3e a5 3e cb 3d 2c 93 17 bd ac b0 de bd
       0.12735026 0.09924058 -0.03700559 -0.10873541
000370 d8 3d f2 bd db 83 62 bb b9 85 8d 3d a2 d7 b7 3d
       -0.11828202 -0.0034563455 0.06910271 0.089766756
000380 53 05 d8 bc 84 91 d4 bd 6f 20 a2 3d 14 5e d6 bd
       -0.026369726 -0.103793174 0.079163425 -0.10467163
000390 83 1e ee 3d 4f 9c e6 bd 40 e2 e0 3c cf c7 ee 3d
       0.116269134 -0.11260282 0.027451634 0.11659204
0003a0 23 ec 64 bb 67 1f 1f 3d 39 b0 2d 3c d8 9b a8 bd
       -0.0034930788 0.038848307 0.010601097 -0.0823285
0003b0 b0 22 66 3c a9 c9 60 bd 95 4e 70 3d 09 2d b9 bd
       0.014046356 -0.054879818 0.05866869 -0.09041793
0003c0 21 86 27 bd 73 97 b4 3d f3 a1 d7 bd 28 27 39 bd
       -0.0408994 0.08817949 -0.10528936 -0.045203358
0003d0 4d f0 8c bc 45 5b c0 3d 01 d4 8b 3c 3f 20 5e bd
       -0.017204428 0.09392408 0.017068865 -0.05422997
0003e0 e8 04 d4 3d 35 f0 b7 3d b8 f5 cb 3d 52 31 52 bd
       0.10352498 0.08981363 0.099589765 -0.051316567
0003f0 5c 5b ff 3d c6 a0 62 3d af b0 76 bd 9d be 46 3d
       0.12468597 0.055329107 -0.060227092 0.048521627

fc4.bias f4 [32]
000000 97 11 35 3d 4e 94 e0 ba de 6c e6 bd df 4f ca 3d
       0.044206228 -0.0017134042 -0.112512335 0.098785155
000010 a0 9a 94 bb 82 59 a6 3d 58 32 93 bd ac b7 7b 3d
       -0.0045350343 0.08122541 -0.07187337 0.06145446
000020 67 48 5b 3d 49 2e d7 bc 99 5f 20 bd bc 21 dc 3d
       0.053535845 -0.026267188 -0.03915367 0.10748622
000030 f3 00 b4 3c c3 00 42 bd bf d4 88 3d e1 cc a4 bd
       0.021973109 -0.047364008 0.06681203 -0.0804689
000040 d9 2e e4 bd bb 00 11 bd bc 8d f6 3c df e1 98 3c
       -0.11141748 -0.035401087 0.030096881 0.018662391
000050 f6 8c 4c bd ac be 81 3d e0 35 b3 bd 9f f8 81 bd
       -0.04993912 0.06335196 -0.0875051 -0.06346249
000060 82 27 78 bd ac 08 68 3d 25 27 dc 3b 27 cb 87 bb
       -0.060584553 0.056648895 0.0067185336 -0.0041440907
000070 ed 58 25 bd 6a 63 a7 3b 00 21 6a 39 98 d3 db bd
       -0.04036801 0.0051082866 0.00022328272 -0.10733718

fc5.weight f4 [1, 32]
000000 a5 21 ba 3a a0 8b 1e 3e 04 14 a4 bd 20 e4 05 be
       0.0014200701 0.1548295 -0.0801163 -0.13075304
000010 71 1b 82 3d dd 30 43 3b b9 b3 94 bc d7 bb 05 3d
       0.0635289 0.0029783763 -0.018152105 0.03264984
000020 6c 54 f7 3d 95 0f 9a bd 54 c3 c8 bd a8 72 04 be
       0.12076649 -0.07522503 -0.09802881 -0.12934363
000030 b7 04 79 3d 3d 5b 0d bd 5a 3a 83 bd 54 59 6c bc
       0.060795512 -0.03451084 -0.06407614 -0.014425594
000040 78 ae 29 bc 2c 1b c5 bd 55 8b b0 3d 3f d2 95 bd
       -0.010356538 -0.09624323 0.086203255 -0.07315492
000050 f2 51 49 3d 77 d0 9e bd f7 94 20 bd 28 b4 0d 3e
       0.049150415 -0.07754605 -0.039204564 0.13838255
000060 1e d7 93 3d b1 a7 9d 3d eb e6 ec bd e1 2e f4 bc
       0.07218765 0.07698 -0.115674816 -0.02980751
000070 0c 78 d0 3d b7 06 d9 3d 0c 69 a7 bd 80 c5 78 3d
       0.10179147 0.10596984 -0.08174333 0.060735226
