DeepLearning/model_0325_dropout/model_best_9_r2_-0.006105446729954786.pth (torch, 666311 bytes, 9 tensors)

fc1.weight f4 [256, 478]
00000000: f7ee 1e3d 0252 053c ab53 28bb c363 f53c
00000010: 54b2 e13c c9aa 3bbd 8939 c4bc 3bcf 66bc
00000020: 5a19 d63c 8776 5bbb 0d08 36bd 8702 b2bc
00000030: 3a51 0a3d b139 eabc 2aa2 abbc 06a6 d53a
00000040: b4be 0d3d d631 153d 2106 b7bc ea47 3e3d
00000050: ec9f 663c 7b63 79bc e1c0 b43c 2ae7 09bc
00000060: f22f 683d 250d cb3b 1e60 ad3c 2a17 74bc
00000070: 67a6 123d 54c8 b23c bc4b 25bd b294 4cbd
00000080: 3a16 093d ce9d 47bd 5a37 c03b a2b0 ff3b
00000090: afdb 2a3d c8b4 7fbc e22b 4e3d 5c3b c6bc
000000a0: a3f4 bdbc 9aa5 3fbc df9a 873c 3992 5d3d
000000b0: a526 173c 4658 2ebb 3785 343c 0a01 fc3a
000000c0: b343 273d 7180 8d3b c394 fc3c 6048 963c
000000d0: 2361 1bbd 5798 a73c 0d46 e23c aac9 ad3c
000000e0: 4fac a8ba c4b0 54bd 8437 05bd 8e87 22bc
000000f0: 948e b0bc d646 223d ac24 f83a 9efa 183c
00000100: 1b50 8abc c612 44bd f1d8 323b 5260 1bbd
00000110: 22e2 0f3d 3c66 8c3c 0d29 b6bc da62 53bd
00000120: cfb5 aabc e497 0bba 59f2 91bc 2c8c 90ba
00000130: c953 3dbd d713 adbc 65ec 313c bc56 09bb
00000140: 6670 b73c a076 2239 e2db d53c f844 12bc
00000150: 1d54 5d3d 9dd9 2cbd 6efd 1e3d c73e b0bc
00000160: bbfc febb 7a2d 143d 0c87 ebbb 820b 153d
00000170: 242b 46ba a7ee fbbc 6f61 173d 6dd6 353b
00000180: 2480 d33c e49e c1bc ca75 863c 1742 37bd
00000190: fcfa 0e3c 83b0 433c 0937 313d e1ab 08bd
000001a0: d9fc 883c fccb 31bd d461 013d 3d55 43bd
000001b0: 85bd 89bc 5abe 19bd 1ac3 ce3c 82f0 953c
000001c0: f123 2abd 1944 1bbd caff d8bc cc27 a73c
000001d0: 4b6d b7bc 9ea3 053d 9fe8 42bd dd93 c4bb
000001e0: b4e0 063c 877c d6ba 58c2 453c da0b 8dbb
000001f0: db96 51bc 28f2 20bd fc60 0e3b 2f21 0c3d
00000200: 51d0 0ebd 4ed0 b53c a0de f73c 6ee2 07bd
00000210: bbc8 b73c f98e 943c d5dc 44bc 601d 58bb
00000220: 67b7 b83c 352e 15bd e5a6 70bc 9639 e8bc
00000230: 441c 693d 73ef 4ebc 01e4 d13c 132c c83c
00000240: 107a ba3c 9e81 4d3c 8c98 3fbd 880d 803b
00000250: fa48 e6bc d734 abbc 9bfd 05bc b021 24bd
00000260: a12b 103d c29f 10bd 9dfd babc b53a 97bc
00000270: 6456 933c 6a88 f93c af89 9c3c 88ad 843c
00000280: f213 05bd acb1 d4bc 9ffc 10bc fb05 2e3c
00000290: d472 1d3c 3290 2d3c deb1 cc3c b8ef 2cbd
000002a0: dcb7 44ba 6a47 283c fa64 16bd 77dd 223d
000002b0: 8a53 ac3c 5e3a 7fbc 5f9f 23bd 1ae2 3dbd
000002c0: 11fa 2b3d 2a03 2f3d 8de6 153d 7a4c 08bd
000002d0: 2a68 41ba 88f2 4c3c 3a03 22bd c585 57bd
000002e0: c59f 21bb da48 bd3c 99a9 433d 5bf7 08bd
000002f0: 3227 abbc 49a8 c2bc dfe7 c13c dd14 3bbd
00000300: 53d6 3c3c dd08 f03c 6124 3c3d 12ed 8a3c
00000310: 0b23 fcbc c139 80bc 9427 f8bc 304f 113d
00000320: f8d5 eebc 04a2 a43c a178 56bd 17e2 b2bc
00000330: 8afa e13c 8d0c d13c 5da2 64bc 02a7 083d
00000340: 919e 5a3c 38e7 123d 66d1 ccbc 01b7 5b3c
00000350: 9d25 023d e89a 24bb cd5e 4ebc 3552 a13c
00000360: f941 403d bcc9 7c3c 80d5 433c 7811 003d
00000370: 3c88 1abd fdeb fabc 86be 81bc 7b30 533c
00000380: e97c 053d 2422 f8bc 7269 743c 2815 25bc
00000390: 8aa6 95bc 213f 86bc f7d9 b1bc a1d0 9d3b
000003a0: 729f 423d f320 2a3c e5cc 053d c79e 08bc
000003b0: 1858 373c 6a3e a8bc e12b 5b3b 695f e4bc
000003c0: dfaa 353c a8d7 2abc 71c5 1b39 d774 653b
000003d0: b26c afbc dbec a4bb 97b1 8cbb c081 4d3d
000003e0: 8126 77bc d95c b2bc a695 2abb 949d b4bc
000003f0: 396c fc3c bb9f 8cbb 5151 163b 8eb3 01bd
0.038802113 0.008137228 -0.0025684636 0.029954797 0.027550854 -0.04581717 -0.023953216 -0.0140874935
0.026135135 -0.0033487396 -0.04444127 -0.02172972 0.03376887 -0.028591963 -0.02095135 0.0016300089
0.034605697 0.03642448 -0.02234179 0.0464553 0.014076214 -0.015221472 0.022064628 -0.00841693
0.05668635 0.0061966353 0.021163996 -0.014898101 0.035803225 0.02182404 -0.04035543 -0.049946494
0.033468463 -0.04873448 0.0058659734 0.0078030387 0.041713413 -0.015607066 0.05033482 -0.024198227
-0.023187941 -0.011697197 0.01655334 0.054094527 0.009225522 -0.0026602908 0.011018089 0.0019226384
0.040836047 0.00431829 0.030832654 0.018345058 -0.037934434 0.020458383 0.027621293 0.021214325
-0.0012868735 -0.05192639 -0.032523647 -0.009920014 -0.021552362 0.039618336 0.0018931828 0.009337096
-0.0168839 -0.047869466 0.0027289952 -0.037933655 0.035127766 0.017138593 -0.022236371 -0.051607944
-0.020838646 -0.00053250627 -0.017815756 -0.0011028103 -0.046222482 -0.021127624 0.0108595835 -0.0020956239
0.022392463 0.00015493715 0.026105825 -0.008927576 0.054035295 -0.04219972 0.038815908 -0.02151431
-0.0077815927 0.036176182 -0.0071877297 0.036387928 -0.0007559529 -0.030753447 0.036958154 0.0027746216
0.025817938 -0.023635335 0.016413588 -0.044740763 0.0087268315 0.011943939 0.043265376 -0.03336704
0.01672213 -0.043407425 0.031587437 -0.04768871 -0.016814003 -0.03753505 0.025239516 0.01830316
-0.041538183 -0.03790674 -0.026489157 0.020404719 -0.022390982 0.03262674 -0.047585126 -0.005999072
0.008232284 -0.0016364016 0.012070261 -0.0043043913 -0.012792314 -0.03929344 0.0021725288 0.034211334
-0.034866635 0.022194054 0.030257523 -0.033174925 0.022434583 0.01813458 -0.012015541 -0.0032976493
0.02254839 -0.03642102 -0.014688228 -0.028347772 0.05691172 -0.012630331 0.025621416 0.024435079
0.022763282 0.01254311 -0.04677634 0.003907863 -0.02811097 -0.02089922 -0.00817814 -0.04007119
0.035197858 -0.035308607 -0.02282601 -0.01846061 0.01798553 0.030460555 0.019108621 0.016196027
-0.032489724 -0.025963627 -0.008849292 0.010621543 0.009609897 0.010593461 0.024987157 -0.0422208
-0.0007504204 0.010270933 -0.036717393 0.039761987 0.021035928 -0.015577881 -0.03994691 -0.046358205
0.04198653 0.042727627 0.036596823 -0.03327606 -0.00073778874 0.012508996 -0.03955386 -0.052617807
-0.002466188 0.023106027 0.047769163 -0.03343902 -0.020892713 -0.023761885 0.023670135 -0.045674194
0.011525708 0.029301101 0.04593313 0.016958747 -0.030778429 -0.01565254 -0.03029231 0.03547591
-0.029154763 0.020096786 -0.052361134 -0.021836324 0.027585287 0.02551868 -0.013954726 0.033362396
0.013343469 0.03586504 -0.025002193 0.013410331 0.031774152 -0.0025116745 -0.012595844 0.01969252
0.046937916 0.015428957 0.011952758 0.03126666 -0.03772758 -0.030630106 -0.015837919 0.012889977
0.032589827 -0.030289717 0.014917718 -0.010075845 -0.018267889 -0.016387524 -0.021710379 0.0048161303
0.04751534 0.010383832 0.032666106 -0.008338637 0.011190437 -0.020537574 0.0033442902 -0.027877526
0.011088102 -0.010427393 0.00014855505 0.003501227 -0.021414135 -0.005033118 -0.0042936313 0.050172567
-0.015084864 -0.021772789 -0.0026029139 -0.022047795 0.030813323 -0.0042915023 0.0022936652 -0.031665377

fc1.bias f4 [256]
00000000: df80 abbc 5db8 653c 5be0 a53c 5f21 8bbb
00000010: ffc1 30bd 2162 283d 0441 eebc ce1b bc3c
00000020: 6936 e5bc 6b23 123d 3ecc 033d d646 e2bc
00000030: 3bd9 073d 0dca d43c fe23 143d 2aac 28bd
00000040: 1861 7cbc a1bd 08bd 88ea c9bc be3b 013c
00000050: 0350 6d3c d9b7 7bbd e7f1 0fbd 1d91 573c
00000060: e2d1 9c3c f5ed ac3b 37e3 82bc ef9a b93c
00000070: d9f6 dbbc 2f3b 3cbd 143f 07bd 2855 27bd
00000080: a250 583c 283b df3c dd6d 3ebd 0d3e 86bc
00000090: 40ad 43bd bd9f 3a3c f774 2fbd 3c79 7abc
000000a0: 8409 76bc f2a9 423d 0c32 b23c ebf1 debc
000000b0: bb23 d7bc 17b0 443d fe50 00bd b25a 123d
000000c0: a619 ffbc 5f98 9d3c ba6b 07bd 9324 adbc
000000d0: 349d 663c 7d3f 113c 6c5d 2fbd 52cb 2fbc
000000e0: 6b3a b13c ce9b cc3c 268f b1bb eb9f 36bd
000000f0: 4d95 2fbd 9424 82bb 507c 29bd 9b6b 0b3d
00000100: 229f b33c ae53 da3c 263a db3c 1533 a9bc
00000110: c3b4 25bc 7310 4fbd 2bea 0bbd 2fea 2bbd
00000120: 4a58 003d 0d5a abbc b0f3 5dbc 22e5 a53c
00000130: ed79 a5bc e498 99bb 2982 893c 7164 0dbd
00000140: 8fb3 a53c eefe 083d fcf1 c13c 49ed 10bd
00000150: 0c9d ecbc 8d35 a33c 569b 033b 8f56 2dba
00000160: 70ef 34bd 7721 5e3c 9d93 22bd 66ce 99bc
00000170: 282f 0c3d 26f6 f3bc 5462 4dbc 177a 26bc
00000180: 791a 7b3c f93d 023d a612 32bd 7bd5 39bd
00000190: ee84 04bd 5f4c 00bd c839 07bd f776 de3c
000001a0: 192d ff3c 20fd 8737 1ae4 fcbc cb72 003d
000001b0: 74be 0fbd 0c31 26bc 50f0 eebc 8443 903c
000001c0: da03 173c 9446 53bb 2319 5ebd 1b50 2abc
000001d0: 046c 903c 007b a33c 46d2 37bd ca95 9fbc
000001e0: 4d4b 333a d8c4 38bc d63b cbbb 24ba 12bd
000001f0: 305a 65ba b589 10bd ea49 3dbd 8fd8 8abc
00000200: 3677 f23c 686c bc3c 97bd 19bd e8b7 20bd
00000210: ecdc 2dbd c217 40bd 9be3 673c ae00 afba
00000220: 1738 0ebd 63d8 fdbc ef02 8dbc 33dd 36bd
00000230: 48ed febb c186 ed3c 6c26 1abc 9551 743b
00000240: 0f4c 633d cf0f 0f3d 73e0 3bbd ec7b aebb
00000250: 885d efbc 8e03 5fbb 41e9 033d 1a3a 0d3d
00000260: de16 47bc 4820 c53c d327 b33a 65dd b5bc
00000270: 4f05 97bb 6d86 fdbc 2968 143d c7c7 30bc
00000280: 5c87 483c 0d68 15bd 6472 b73c 5575 f43c
00000290: f528 b9bc e9c1 bf3c 89b0 6fbc b8c7 afbc
000002a0: 4938 403c 7ab7 babb 29a7 8cbc dd8b 3f3c
000002b0: 3754 373c 0007 2abd 4b86 05bd b02c 86bc
000002c0: 9882 19bd 390f 84bc ad4f 88bb 0ca5 123d
000002d0: c6f3 a93c 3c9d 10bc 0653 e6bb e2bc d1bc
000002e0: 5f28 253c 9393 40bc 2c66 9b3c e1d1 00bd
000002f0: 4571 19bd e060 79bc 273b 87bb 21bf ee3c
00000300: f0d3 b2bb 92a5 07bd 3248 c13c 35a4 8f3c
00000310: 9979 7fbb 771f f3ba f4b4 23bd 33d6 f63c
00000320: dbc3 d63b 06e6 8a3b 2b86 b6bb dae4 39bc
00000330: fb35 433c 5fe6 3c3c de79 a63c 9aeb 0f3d
00000340: 2fa2 76bc 1018 09bc d1e9 ff3c b792 1b3d
00000350: 441a 92bc 5f16 0d3c 3ebe f3bc a8e3 1f3d
00000360: ae7f 843c 1c86 1cbd fa40 ad3b 1361 0bbd
00000370: 5379 f4bb 1f90 e9bc 84d3 c03c 2d51 bb3c
00000380: 4c55 e7bc b729 6bbb 903a 283b ba41 a63b
00000390: 527c 1e3c abc6 233d c87d b7bc 8781 a4bc
000003a0: d63d 073c c8e8 233d 64b2 1ebc 68f7 103d
000003b0: 466f c53c bd75 3fbd d3c3 39bc 8470 f7bc
000003c0: e187 c437 7f19 c6bb 623c 303c 482a 87bc
000003d0: 40d1 4b3d 3f18 603a d0d4 40bc a6df f03c
000003e0: c421 39bc 5fa8 0abd f5e2 753b 8c40 69bc
000003f0: a51e 17bd 4773 f7bc 3aff 2d3d d3bd 1dbd
-0.020935474 0.014021006 0.020248583 -0.0042459215 -0.04315376 0.041109208 -0.029083736 0.022962477
-0.027980046 0.03567831 0.032177202 -0.027621668 0.03316615 0.025975252 0.036167137 -0.041179813
-0.015404008 -0.03338397 -0.024647966 0.007887779 0.014484408 -0.061454628 -0.035142805 0.013157156
0.019143049 0.00527739 -0.015977485 0.022656886 -0.026851105 -0.04595488 -0.03301914 -0.040852696
0.013202818 0.027249888 -0.046491493 -0.01638701 -0.047772646 0.011390624 -0.042836156 -0.015287694
-0.015016917 0.047525354 0.02175238 -0.027214965 -0.026262155 0.048019495 -0.03132724 0.035731025
-0.03114016 0.019237695 -0.03306172 -0.021135604 0.014075566 0.008865234 -0.042813703 -0.010729628
0.021634301 0.024976637 -0.005418676 -0.044586103 -0.042866994 -0.0039716456 -0.04137832 0.034038167
0.021926466 0.02665123 0.026761126 -0.02065424 -0.010113898 -0.050552797 -0.034158867 -0.04197138
0.0313342 -0.020916963 -0.013546869 0.02025086 -0.02019974 -0.0046874154 0.016785698 -0.034519617
0.020227222 0.033446245 0.023674957 -0.035382543 -0.02888348 0.019922996 0.00200816 -0.00066123245
-0.044173658 0.013557783 -0.039691556 -0.018775176 0.03422466 -0.029780459 -0.01253565 -0.010160944
0.015326136 0.031797383 -0.043474816 -0.045369606 -0.032353334 -0.031322833 -0.03301409 0.027156336
0.031149434 1.6211125e-05 -0.030870486 0.031359475 -0.03509374 -0.01014353 -0.029167324 0.017610319
0.009217227 -0.0032238113 -0.05422319 -0.010395075 0.01762963 0.019956112 -0.044878267 -0.019480605
0.0006839529 -0.0112774 -0.0062022014 -0.03582205 -0.0008749096 -0.035287578 -0.046213068 -0.016948966
0.02959786 0.02300091 -0.037534323 -0.039237887 -0.042447016 -0.046897657 0.0141533865 -0.0013351643
-0.03472146 -0.03098697 -0.017213313 -0.044644546 -0.007779751 0.02899492 -0.009408575 0.0037280072
0.055492457 0.034927186 -0.04586835 -0.005324831 -0.029219404 -0.0034029218 0.03220487 0.034479238
-0.012151448 0.024063244 0.0013668485 -0.022200296 -0.004608787 -0.030947888 0.036232147 -0.010789818
0.012239303 -0.036476184 0.022393413 0.029841105 -0.022602538 0.023407893 -0.014629492 -0.021457538
0.011732169 -0.0056981416 -0.017169552 0.011691061 0.011189512 -0.041510582 -0.032598775 -0.01637873
-0.03747806 -0.01612054 -0.0041598887 0.035801932 0.020746123 -0.00882655 -0.00702894 -0.025602762
0.010080426 -0.011753934 0.018969618 -0.031450156 -0.037461538 -0.015220851 -0.0041269246 0.029143872
-0.005457394 -0.033116885 0.023593996 0.017534355 -0.003898239 -0.0018548806 -0.039967492 0.030131435
0.0065541095 0.0042388467 -0.0055701933 -0.011346066 0.011914725 0.011529534 0.020321783 0.035136797
-0.015053316 -0.008367553 0.031239422 0.037981715 -0.01783479 0.008611291 -0.0297538 0.03903547
0.016174164 -0.038213834 0.005287287 -0.034028124 -0.007460752 -0.028511105 0.023538359 0.022865856
-0.028238915 -0.0035883018 0.0025669672 0.005073753 0.009673195 0.039984386 -0.022398844 -0.020081295
0.008254489 0.04001692 -0.009686086 0.035392195 0.02410091 -0.046743143 -0.011338192 -0.030205019
2.3428294e-05 -0.00604552 0.010756584 -0.016499653 0.049760103 0.0008548535 -0.011769488 0.029403519
-0.011299554 -0.033851977 0.003751931 -0.014236581 -0.03689446 -0.030206336 0.04247973 -0.03851111

fc2.weight f4 [128, 256]
00000000: 149d 43bc 6455 76bd d0d7 2f3c a7f9 d3bc
00000010: 78b7 413d ac46 293d ece7 973c f2f7 40bd
00000020: 4d43 e0bb f750 58bc bf55 6c3d 92ec 6c3d
00000030: 9634 9e3c 7822 b3bb 52da 283c 216a 5f3d
00000040: 0b40 a23c 30e3 eabc 90bc cd3c fd21 e03c
00000050: a7f9 38bb 88b3 a0bb 61d7 6f3d 33c5 183d
00000060: 4746 a9ba e5a1 fe3b 6415 883c 7a80 223d
00000070: f24e 0f3d 4505 053d 115a 263d cbb8 753d
00000080: b578 8d3b c30b be3c f9a1 1b3c 882f 87bc
00000090: 0957 f03c 8528 bf3c bd62 853c 7e78 20bd
000000a0: ee30 e13c f3e9 383c d68a 893d c310 10bc
000000b0: 994d 37bd 315d 18bd a0cc cc3c 1493 0fbd
000000c0: 0641 193d 0fba 303d 7b78 483b f3a4 a73c
000000d0: 7d02 3d3c 972a 07bd 20cd ca3c 5704 b3bc
000000e0: 3f56 2ebc b217 f3bc 6b56 14bd 964a b63c
000000f0: 8b09 9d3c c566 e73c b389 353d aca5 813d
00000100: 3b0d 0a3d 3697 f03c 934b f13c 9907 aa3c
00000110: d65b 353d f602 303d f0cf a93c 4583 67bd
00000120: 4d88 383d bbd1 273d 3445 e53c 9aed 3a3d
00000130: b4d7 b43c d11d 84bc 9b95 a4bc b4b8 6c3c
00000140: 859a 203d 0dd4 4e3d ce47 dabc 88ba 96bc
00000150: c1c7 503d d60b bb3c c55c babc b589 de3b
00000160: 82d9 b83c cd48 e43c fad1 5439 9985 513b
00000170: 6f37 a9bc 803a cfbc 0c1c bb3c 99d0 01bd
00000180: 16f2 8b3c 608d 3bbd 50e7 093d c371 593d
00000190: facc 86bc aef7 4a3d dc88 87bc 1903 aebc
000001a0: f6f6 fe3c 0fd6 a63c 5372 6bbb 1b82 0e3d
000001b0: cdc7 003d 2f00 3e3c a75c 12bd 50a2 b93b
000001c0: fc41 43bc 14b1 10bd 2e11 4dbc 45af f3bc
000001d0: 8e45 63bc bf4a 3d3d dbe2 44bb cb28 23bb
000001e0: 65f2 0dbc 71ce c8bc 5ab7 50bd 0406 bfbb
000001f0: 0990 88bc c2d0 023c 9615 c4bc fff5 893c
00000200: 712c 423d 131e f8bb c1c4 aebb 0ff3 3c3d
00000210: 1d15 17ba 016d e1bc ffee 3c3d 4100 15bd
00000220: 6c0e 583d 5b72 23bd 6524 003d ab11 4b3d
00000230: 31dd 4ebc 22da 0ebd 4541 efbc c610 c83b
00000240: 6537 553d 3d57 363d 1886 3b3d 8d1e e0ba
00000250: 7396 ca3c 79dc 94bc 6c7e f93b 54e8 9b3c
00000260: 7a89 87bc f196 133c 4dfb 4cbd 0998 53bc
00000270: e61a 96bc 8a27 4a3d 3f5c b83b 7b39 43bd
00000280: 6cf2 143d 6178 14ba e7da 09bd 8316 39bd
00000290: d1e2 333d 3595 953c a2df 26bb ba10 9cbb
000002a0: 45fe f8bc 86ee 20bb acf6 87bc 71fd 813d
000002b0: c2e1 29bd f127 af3c f43a f73c c0b2 413d
000002c0: 258d e33c 3ec1 843d 75a4 fcbc b887 17bd
000002d0: 99df 67bc 124b 5d3d 3a74 893c e75a 33bd
000002e0: d99c 56bd ff14 8bbc bd35 a23b 87d1 61bd
000002f0: afe2 fa3c 5668 b4ba 1229 783d 6428 453d
00000300: d6c2 c9bc afac 523d 1a5f 0c3d d338 74bc
00000310: 23c4 073d 5bf4 363d e2f4 643d be81 76bc
00000320: 9937 103d febf 793c c85d 2a3d 6de7 243a
00000330: 324d e63c 9973 083c 9bf0 10bd b7fb c3bc
00000340: 2a6e 113d 8212 61bd 7254 513d 616e 363d
00000350: cf58 203c fcea f2bc 064e 3dbd d049 e8bc
00000360: 7d11 083d 41b8 fcbb be7e 0ebb 7186 4dbc
00000370: ae42 64bc 9a8e 543d b5bf 94bb 94ed cabc
00000380: 902c 6a3d 5d97 8d3c c2dc 363c 53c7 11bd
00000390: 4889 c13c 14d6 afbc 1c3e ddbc 8126 8fbb
000003a0: fe50 3bbd 0b09 203d e0af 893c 8fe7 b1bb
000003b0: d28b 41bb 6d4f 4ebc 2225 0ebc 09d0 a63c
000003c0: c8e5 06bc 2fee 693d 1d52 0bbd c8bb f9bc
000003d0: b69e 7d3b 63e4 de3c 7991 a63c 45e4 233d
000003e0: 0bde 083d 6247 0dbd 7648 9cbc 87a1 f6bc
000003f0: f93a bdbb c2ae cb3c 1bec 483d 09bf 12bd
-0.011939306 -0.06014003 0.010732606 -0.02587588 0.04729411 0.041327164 0.018543206 -0.04711146
-0.0068439604 -0.013202897 0.05769896 0.0578428 0.019312184 -0.0054667555 0.010305958 0.05454457
0.019805929 -0.028672785 0.025114328 0.027359957 -0.0028224976 -0.0049042143 0.05855501 0.03729744
-0.0012914621 0.007770764 0.016611762 0.039673306 0.034987397 0.03247573 0.040613238 0.059990685
0.004317368 0.023198968 0.0094990665 -0.016502157 0.029338377 0.02333475 0.016282434 -0.03917741
0.027489152 0.011286247 0.06715934 -0.008793059 -0.044751737 -0.03719825 0.024999917 -0.035052374
0.037415527 0.04314619 0.003058939 0.020464396 0.011536238 -0.0329996 0.024756014 -0.021852655
-0.01064068 -0.029674385 -0.036215227 0.022252362 0.01916959 0.028247247 0.044320773 0.063304275
0.033704024 0.029368978 0.029454982 0.020755576 0.044277035 0.042971574 0.020729035 -0.056521673
0.04505186 0.0409715 0.0279871 0.04563675 0.022075512 -0.016127499 -0.020090869 0.0144483335
0.03920986 0.050495196 -0.026645567 -0.018399492 0.05097175 0.022832792 -0.022749314 0.0067913183
0.022564653 0.027866745 0.00020296118 0.00319705 -0.020656316 -0.02529645 0.022840522 -0.031693075
0.017083209 -0.045789123 0.033667862 0.053087007 -0.016455162 0.049552612 -0.016544752 -0.021241711
0.03112362 0.020365743 -0.0035926297 0.034792047 0.031440545 0.011596723 -0.03573289 0.005665101
-0.011917587 -0.035325125 -0.012516303 -0.029746661 -0.013871564 0.04621386 -0.0030042443 -0.002489614
-0.008663748 -0.024512501 -0.050956108 -0.0058295745 -0.016670244 0.007984342 -0.023936074 0.016840933
0.047405664 -0.0075719445 -0.0053335135 0.046130236 -0.0005763339 -0.027517797 0.046126362 -0.036377195
0.05274813 -0.03990398 0.03128471 0.049577396 -0.012625978 -0.034875996 -0.029205928 0.006105515
0.05205478 0.04451679 0.04578218 -0.0017098949 0.024729943 -0.018171536 0.0076139476 0.019031681
-0.016545046 0.009008155 -0.050044347 -0.012914666 -0.018323373 0.049354114 0.005626231 -0.04766224
0.036364004 -0.000566369 -0.033656027 -0.045187484 0.04391748 0.018259624 -0.0025462885 -0.004762736
-0.030394683 -0.0024556234 -0.016597115 0.06347168 -0.041475065 0.02138135 0.030179478 0.04728961
0.027777264 0.064821705 -0.030840138 -0.036994666 -0.014152431 0.05402667 0.016779054 -0.043787863
-0.052395675 -0.016977785 0.0049502538 -0.05513146 0.03062567 -0.0013764005 0.060586043 0.048134223
-0.024629038 0.051434215 0.034270383 -0.014906126 0.033146035 0.04466663 0.0558976 -0.015045581
0.035209272 0.015243528 0.041593343 0.00062905886 0.028112981 0.008328342 -0.03538571 -0.023923738
0.03550545 -0.05494929 0.051105924 0.04453886 0.009786799 -0.029653065 -0.046216987 -0.028355509
0.033219803 -0.0077123945 -0.0021743025 -0.01254426 -0.013931913 0.051893808 -0.004539455 -0.02477149
0.057171404 0.01728409 0.011161031 -0.03559048 0.023625031 -0.021464385 -0.027007155 -0.0043686037
-0.045731537 0.039071124 0.016807497 -0.0054292153 -0.0029532802 -0.012592179 -0.008675845 0.02036287
-0.008233495 0.057111915 -0.034013856 -0.030485049 0.0038699335 0.027208513 0.020333039 0.040012617
0.03341488 -0.034491904 -0.01907752 -0.03010632 -0.0057748524 0.024863604 0.049053293 -0.035826717

fc2.bias f4 [128]
00000000: 199d 96bc 2958 8abd 965e a53c f58e 6d3d
00000010: b6a6 8abc 3aff 123d e8f4 d73c db56 61bc
00000020: d876 4e3d 4b3d 51bd 0573 9e3c 4505 7f3d
00000030: 22cf eb3c 2f85 063d 34cb 45bd 65f5 7dbc
00000040: 31f6 e5bc e9ff 65bd c34b 55bd 24a9 c73b
00000050: 556a 0ebd 96ae b5bc 57c5 21bd 113e 22bd
00000060: ac82 ddbc 86c4 2a3d 6726 85bd 91d8 0dbd
00000070: 94ca 593c c79d 3ebd 0002 8ebc f353 29bd
00000080: 4eef 1e3d 0e7a 80bc 0e17 fdbc 729d ee3b
00000090: b6aa 1ebd 00c8 faba cc60 dfbc b724 eebc
000000a0: ba4b 73bd fdb3 57bd f4a9 423d 0754 183d
000000b0: 6f96 7cbd a728 563c 7f9a 543d 83a1 20bd
000000c0: d270 73bd 40f3 bf3c cb79 233d 7844 08bc
000000d0: 283a ae3c 80b6 5a3d 92cc 8abd 45d5 123d
000000e0: 444e 19bd 6599 4f3d 03a3 b2bc 5f5b ae3c
000000f0: 3d2b 3abd 1f42 7abd 5e07 5abd 647b 2d3d
00000100: f2ac 39bd 3fb5 32bb 42cc 44bc c1e9 4c3b
00000110: 926f 353d 41b0 adbc d611 79bd 3cc2 a2bb
00000120: 59ea 813c 680c 80bd a463 22bb 72ba 06bd
00000130: 6d38 c63d 7296 7f3c 79e4 bcbb 2771 593d
00000140: 08b6 f53c 19c8 663d 4605 813c 1d46 38bd
00000150: ca8e e33b 17ed 1e3d c658 bf3c 52b0 06bd
00000160: 3442 94bb b703 ed3c a28f 9cbc 7cbb 8c3d
00000170: 65ff 4e3d 75a4 673c 61d8 3d3d 5c7b 83bd
00000180: 4332 bcbc 1627 a43d 678d b5bb 02c0 5639
00000190: de42 8dbc 5670 373d 0f88 843c 5cb1 5d3d
000001a0: 162b 343d 670f 863c 343f 01bc 8e69 c43b
000001b0: bfe6 34bd fe02 28bc ec53 6c3d 980d e8bc
000001c0: 30a3 823b d99b 59bc eee3 3cbc dcef 30bd
000001d0: 1ead a1bc 8866 463c 316b 55bd 4ae6 453c
000001e0: 78a1 413d b453 23bd 78e5 1e3d 0e26 873c
000001f0: 7dea 4b3d 1e01 183d ed73 a0bc 5d00 c43c
-0.018385457 -0.067550965 0.020186704 0.057997663 -0.016925197 0.035887934 0.026361898 -0.013753618
0.050406307 -0.051083844 0.019341955 0.062260885 0.028785292 0.032841858 -0.048289493 -0.015500401
-0.028071495 -0.056152258 -0.052074205 0.006093161 -0.034769375 -0.022177976 -0.03949484 -0.039609972
-0.027039848 0.041691326 -0.06501465 -0.034630362 0.013292927 -0.046537187 -0.017334938 -0.041339826
0.038802437 -0.0156832 -0.030894782 0.0072819525 -0.03873702 -0.0019133091 -0.027267836 -0.029070241
-0.05939839 -0.052661885 0.04752536 0.03718951 -0.061666902 0.013071216 0.05190515 -0.03921653
-0.059433766 0.02343142 0.039911073 -0.0083171055 0.021267965 0.0533967 -0.067773 0.03584792
-0.037428156 0.050683398 -0.021806246 0.021283804 -0.04545139 -0.061098214 -0.053229682 0.042354003
-0.04533095 -0.0027268676 -0.0120115895 0.0031267258 0.044295855 -0.021202208 -0.060808025 -0.004967002
0.015858816 -0.06252366 -0.0024778629 -0.03289265 0.09678731 0.015599834 -0.0057645408 0.053086426
0.029994026 0.05634317 0.015749585 -0.04498874 0.006944512 0.038800325 0.02335776 -0.032882996
-0.0045244936 0.028932435 -0.019111458 0.06871697 0.050536532 0.014138331 0.046348933 -0.06420013
-0.022973185 0.080152676 -0.005540538 0.00020480159 -0.017243799 0.044784866 0.016178159 0.05412422
0.043986402 0.016364766 -0.007888604 0.0059940284 -0.04416537 -0.01025462 0.05769722 -0.028326795
0.0039867386 -0.013281786 -0.011528952 -0.043197498 -0.019735869 0.012109406 -0.05210418 0.012078831
0.04727313 -0.039874747 0.038793057 0.016497638 0.049784172 0.03711044 -0.019586528 0.023925954

fc3.weight f4 [64, 128]
00000000: fbfa dbbc 2ffd 23bd d3a5 09bd eda1 1dbd
00000010: 1c08 433d 6c55 953d 06ce fd3c db58 a2bd
00000020: 731f bb3a 6410 d63c 4534 0bbd c030 4d3c
00000030: 8282 a2bd ae47 08bc 4fd9 193d cd2e bebc
00000040: 0aba 613c 495d f43b 7b6a efbc 5ceb 6bbc
00000050: 5b31 283d 5986 223d 3481 633d 1d59 9b3d
00000060: 24a0 3dbd b5ad 9ebd e35d 573d 10be febb
00000070: 766e e73a 30c0 bcbd 9a33 97bd 8d78 90bd
00000080: f3c2 a7bd 2099 3dbc 5295 34bd bfbf 923d
00000090: 2b15 80bb a264 54bd e1f0 6a3d 10b2 9cbc
000000a0: 6af3 693c 2dde 4b3d 4bc0 a4bc 7bc2 943b
000000b0: 98ad 3bba 860f 723d 8136 49bd c83f 163d
000000c0: e4d8 983b e62c 9abd b7f3 9b3d 3b7f a2bd
000000d0: 3c44 73bd b590 b1bd 68d9 d3bc 1ae6 9abd
000000e0: fec7 703d cf70 55bd a329 803d 7962 72bc
000000f0: f18d d3bc b584 d13b 4cae 0f3c 1888 213d
00000100: 1a7b ecbb ca32 35bc e689 7e3d 8afd aabd
00000110: 5672 833d 0a97 e93c 72e0 2e3d ccbb 3ebd
00000120: 5e3e 24bd 8626 9ebd 1338 593d 4647 313c
00000130: 4263 56bd c091 0b3d 6265 993d 96b5 a53c
00000140: dacf a5bd ba57 71bd e2d2 bebc b434 3ebd
00000150: 1a1a 543d bc4b 113d d1b8 a9bd 1b33 283d
00000160: e7a2 ebbc 257f 3e3d 894b 20bd f44d 89bd
00000170: 3f9e 98bd 7674 09bd 33ce 473d 449a b0bb
00000180: 36aa b3bc 9f51 e8bc cdf7 b2bd 6d9d 723d
00000190: 6b4d 293d 26ef 72bd 1c6b 99bd 3881 e1bc
000001a0: a94e a53d da24 49bd dd19 803d 5a2e 623d
000001b0: 4240 17bd c7d4 fdbb a5d1 8abd 726d 243d
000001c0: 1686 6abc 9ac4 403c e6c6 09bd 1eae eb3c
000001d0: d283 bebc 758d a93c 4247 2cbd 69ad 8f3d
000001e0: fc3f a0bd 1d56 663c 5b8d ddbc 49a3 653c
000001f0: d6f4 bcbd 79b9 943d 562d 03bd 37e1 83bd
00000200: ff87 0dbd 5db5 abbd 180e 01bd 89c5 f63c
00000210: acbf 9e3d 47ac 323d 8f62 373c b75c db3c
00000220: 6239 16bd 79d2 913b 269d 0cbd 0824 2cbd
00000230: 2db4 7dbb 1427 9c3d ae35 a1bc 4a52 863d
00000240: 710f 08bd 4029 ad3d cdd4 6a3d cdb1 ffbb
00000250: 078c 133d 6520 abbd 3376 ad3c f5d8 acbd
00000260: 055a b13c bdb1 9a3d f42b 873d 00fd a9bd
00000270: 1499 aebd fbb0 99bd a77c 703d ae7a a93d
00000280: 95da 893c 4950 933d be5d 7f3d e8c1 1a3d
00000290: 3908 eabc 4a09 c0bd 144c b23a 7a16 b7bd
000002a0: b612 823d 7a5b e63a 6650 d33c d574 813d
000002b0: 421c 993d b622 95bd 8ed9 96bc 4af5 043b
000002c0: 59de d9bc 4e3f 12bd 603c 12bd 8b30 4a3d
000002d0: e793 f03c dab2 6fbd 7d04 5ebd 6fef a4bc
000002e0: 436c a2bc ddb9 29bd 63df 03bd 08f1 09bd
000002f0: 31cf 133c 1332 8bbd 3704 1bbd 164f 053d
00000300: 990f 3a3d d5a6 f33c acb2 ebbc 9197 a2bd
00000310: 989e a53d fba5 48bd c824 bcbd bf7c 72bd
00000320: 6104 743d 91d3 1c3d 06f1 a13d e778 313d
00000330: 2c4b 42bd 4d4d 4b3d 8d1f 17bd 49a5 3b3c
00000340: 227a 533d 1862 5fbd 3285 b3bd 1f20 9d3d
00000350: 28d8 9f3d fcd6 d3bc 4dc9 9b39 85d2 a63d
00000360: 6df1 37bc d659 27bd da98 903d 8295 8ebd
00000370: e4ee 48bd d536 f9bc a96c 88bb 6898 5a3d
00000380: 7ef8 823d 1ab5 01bd 2118 1ebd b1e4 a23d
00000390: bc34 493c 7c92 93bd 41bf a1bd 4a33 1fbd
000003a0: 72e8 083d a7fc 283d 6fe2 953d c866 f23c
000003b0: 5cb1 b6bd 1695 4cbd 6fd0 313d f0a3 953c
000003c0: 7356 833a 38bd 1b3d 5688 1b3d d07e 9bbd
000003d0: 340b 23bc bd67 9bbc 00be c43c b409 5d3d
000003e0: e53d 0d3d c5c1 8cbd 5035 8bbd 713d 6fbd
000003f0: ff0e 84bc a755 fd3c 86fe f63c bbf9 0ebd
-0.026853075 -0.040036377 -0.033605408 -0.038484503 0.047615156 0.072916836 0.030982029 -0.07927104
0.001427634 0.026130863 -0.033985395 0.01252383 -0.07935049 -0.008317871 0.037560757 -0.023215676
0.013777265 0.0074574095 -0.029225579 -0.014399376 0.041062694 0.039678905 0.05554314 0.075853564
-0.0462953 -0.07747976 0.05257977 -0.007774122 0.0017656821 -0.09216344 -0.07382889 -0.07054243
-0.081914805 -0.011572152 -0.044087715 0.07165479 -0.0039087734 -0.051853783 0.057358626 -0.019127876
0.014279226 0.04977243 -0.020111224 0.0045397854 -0.00071593514 0.059096836 -0.049124245 0.03668192
0.0046645273 -0.07528095 0.07614844 -0.079344235 -0.059391245 -0.08670179 -0.025860503 -0.0756342
0.058784477 -0.052109536 0.062579416 -0.0147939855 -0.025824519 0.0063939937 0.008769583 0.03943643
-0.0072168233 -0.011059472 0.06214323 -0.0834914 0.06418292 0.028514404 0.042694516 -0.046565816
-0.04009854 -0.077221915 0.053031992 0.010820216 -0.052340753 0.034074545 0.0749004 0.020228188
-0.08096285 -0.058921553 -0.023293916 -0.04643698 0.051782705 0.035472617 -0.08287204 0.041064363
-0.028764201 0.046507973 -0.039134536 -0.067043215 -0.07452058 -0.03355833 0.04878063 -0.0053894836
-0.021931749 -0.028359232 -0.087386705 0.059232164 0.041333597 -0.0593101 -0.074911326 -0.027527437
0.08071644 -0.04910741 0.06254933 0.055219986 -0.036926515 -0.0077463123 -0.06778268 0.040143438
-0.014314195 0.011765623 -0.03363695 0.028769549 -0.023256216 0.020697335 -0.042060144 0.07015497
-0.07824704 0.014058617 -0.027044943 0.014015981 -0.09226386 0.072619386 -0.032025658 -0.06439441
-0.034553524 -0.08384202 -0.03150758 0.030123489 0.07751402 0.043621328 0.011192932 0.026777608
-0.03667582 0.004450139 -0.034329556 -0.04202655 -0.003871213 0.07624641 -0.019678917 0.06558664
-0.03321785 0.084551334 0.05733185 -0.007803178 0.036022212 -0.08355788 0.021174526 -0.08439819
0.02164937 0.07553432 0.0660018 -0.08300209 -0.08525291 -0.075044595 0.058712628 0.082753524
0.01682786 0.071930476 0.06234526 0.03778258 -0.028568374 -0.09376772 0.0013602995 -0.08939834
0.06351225 0.001757487 0.025795173 0.06321112 0.07476093 -0.07282011 -0.018414285 0.0020287805
-0.026595281 -0.035704903 -0.03570211 0.0493627 0.0293674 -0.058520176 -0.0542035 -0.020133702
-0.019827014 -0.04143702 -0.03219546 -0.03367713 0.009021566 -0.0679666 -0.037845816 0.032546125
0.04542503 0.029742638 -0.02877172 -0.07939065 0.0808689 -0.048986416 -0.09186703 -0.059201
0.05957449 0.038287703 0.079073 0.043328192 -0.04743497 0.049634267 -0.036895324 0.011452981
0.051630147 -0.05453691 -0.08765639 0.07672142 0.078049004 -0.025859348 0.00029713885 0.08145622
-0.011226994 -0.04085716 0.07060404 -0.0696211 -0.04905595 -0.030421654 -0.004163344 0.053368002
0.063950524 -0.031666853 -0.03859723 0.07953776 0.012280639 -0.07205674 -0.07897807 -0.038867272
0.033424802 0.041256573 0.073185794 0.029590026 -0.08920547 -0.049946867 0.04341167 0.018266648
0.0010020271 0.03802225 0.037971817 -0.07592547 -0.0099514015 -0.018970365 0.02401638 0.05396433
0.034482855 -0.06872896 -0.06797278 -0.058408204 -0.016120432 0.030924631 0.030150663 -0.03490613

fc3.bias f4 [64]
00000000: 405b 3a3d 6150 703d f724 50bd 9e12 fcbc
00000010: 7a8a cdbc e3ae 9d3d 0a1f 863c 7b42 d6bd
00000020: c1e3 49bd ea1e 65bd fd14 49bd 445c 13bd
00000030: d8b3 ac3c 4f01 2bbd df18 f53a f0df 073d
00000040: 8dee 193d 52b0 44bd 3e5d 8abc 8c91 813c
00000050: 7a49 8fbd 8224 d63c 10ad 85bd 4205 1f3c
00000060: e92b 3d3d b286 b6bd 80c0 24bd dd3a 5ebc
00000070: 8dcb 86bd 8485 393d c51b 4ebd 6be8 78bd
00000080: d1b8 1bbd a6a7 70bd 7914 2439 3ff3 2b3d
00000090: bba5 9ebd 8234 1c3d f5bb a9bd 7eda 92bd
000000a0: 05c3 babc 3580 b6bd c070 97bd 16e8 08bd
000000b0: 9859 36bd 6d72 9c3d 798a 053c e0e1 8ebd
000000c0: 8936 363d 8053 8d3d 56bb 21bb 7066 723d
000000d0: 0d5a 82bd 1be1 9bbd 28ce a5bd 9f5a 8e3d
000000e0: 56e4 aa3c bb94 78bd 8d82 4e3d ef11 53bb
000000f0: 1997 81bd 4533 5dbd 5911 0fbd 70f0 5dbd
0.04549718 0.058670405 -0.050816502 -0.030770596 -0.025090445 0.076993726 0.016372222 -0.10461899
-0.04928947 -0.055937685 -0.04909228 -0.035976663 0.02108185 -0.041749295 0.0018699429 0.033172548
0.037581015 -0.048019715 -0.016890164 0.015816472 -0.069964364 0.026140455 -0.0652715 0.009705843
0.046184454 -0.0891241 -0.040222645 -0.013563839 -0.06581793 0.045293346 -0.05031945 -0.060768526
-0.03801805 -0.058753632 0.00015647885 0.041980024 -0.07746454 0.038136013 -0.08287803 -0.0717058
-0.02279807 -0.08911172 -0.07394552 -0.03342446 -0.044519037 0.076390125 0.00815069 -0.06976676
0.044485603 0.06900692 -0.0024678311 0.059179723 -0.06364832 -0.07611295 -0.08095962 0.06950878
0.020860832 -0.060688715 0.05041747 -0.0032206734 -0.06327648 -0.054003973 -0.034928653 -0.054184377

fc4.weight f4 [32, 64]
00000000: 10d3 6a3c cbb4 f03d 3b43 123d d9ae 463d
00000010: 7953 0abd 6ebc 7cbd 20ce debc f138 fabd
00000020: f756 eb3c 782b 483d 421f c2bd a0c4 1bbd
00000030: dda7 2ebd 0918 7dbc 1a8a d0bb 37fc 943c
00000040: 56b8 98bd c2b0 eb3c bb11 24bd abc5 803d
00000050: f452 693c fd86 9fbc 5e59 a3bc 2932 a73b
00000060: e7d9 e8bd 7872 be3c 79f3 e8bd e533 da3d
00000070: a611 c4bd 6392 073d ad21 31bd 9b87 703d
00000080: 9b2a 5cbc 4522 ea3c 4460 e7bd 7658 25bd
00000090: 5e06 e8bd 7889 9fbd 78ef cf3d a484 97bd
000000a0: 57f3 56bd f9e4 03be e727 98bd f853 ef3d
000000b0: 5a23 3f3c 2bf5 ef3d 826e 94bd da67 2ebd
000000c0: f8ad 85bd 49ba dcbd 195d 85bd 5d91 bcbd
000000d0: 4aff e83d a2a6 9ebd 09da 35bc eb06 b33d
000000e0: 8633 65bd 1c52 cbbc fbef babd d9c5 debc
000000f0: c089 80bd 9550 a6bd 182c 633d 3d2e 983d
00000100: b21a 863d 2d8d 953b 6a70 ecbd 1ed9 dbbd
00000110: 0325 cfbd 78ea 4abd 1b21 893d 16bb 173c
00000120: ed69 763d 98d3 bf3d aac1 973d ddd9 a7bd
00000130: 1a7d 0d3c 5269 9fbd 3e71 f53d d9ec 813b
00000140: ce7f 03bd 7657 193d 83f1 4d3c d35e c33c
00000150: c364 83bd 9d7d de3d 0ac7 dfbd f91a f03c
00000160: 410b 5b3d 8bdd eebc 1999 c23d 0dfe b03d
00000170: 031f 853b 6997 c03d d2e6 efbb 90d5 aabc
00000180: 0cd3 953d 409e c2bd 0284 523c 384b 873d
00000190: 7eea 163d 8deb acbd 68cf 883c 2988 463b
000001a0: cf43 f73c 4b41 df3d 6548 88bd af91 4fbd
000001b0: 89cd 6ebd 13bb c53c 3d7c aaba 0a59 aabd
000001c0: ceb9 703d 5ed6 46bd f448 0d3d 48b6 a83d
000001d0: 143c ee3d b6ab e23c b988 c7bd 3373 423d
000001e0: 8b7b 1fbd 6dae da3a 14c9 8a3d 84b7 c13d
000001f0: 226a 053d 5c35 5bbb 7301 bcbd 9c5c af3d
00000200: fabd 8ebc ec01 1bbc 48ea dabd 05cd 3bbc
00000210: 156b a6bd 16b2 d3bd a430 42bd 5c77 5b3d
00000220: 3a55 d33c 2c89 c23d 7621 66bd 513b 863d
00000230: 8e50 b1bd 169c bb3d d6e0 c53d c02a 57bc
00000240: e4e1 63bc bad0 56bd 5d60 9d3d 506b e43d
00000250: b56e 723c 90cc 103d c3ba b9bd 7e71 e7bd
00000260: 02ff 4ebc 80a5 0b3d 416e bc3c ab50 bd3d
00000270: c8d2 03bc 1e13 49bd 5bdc 1a3c 400f 42bd
00000280: b052 333a e25f 2f3d f707 c4bd 0002 82bd
00000290: 0e23 3f3d 8b78 763d 6f91 3c3d f00f 443d
000002a0: ba0a d8bc ec2b 563c 2f8d 04bd 6dfc b4bd
000002b0: b677 2b3d a079 fdbd 08b8 88bd 01f3 733d
000002c0: 850a 9dbc c619 aabd 51ba e6bd 8516 d2bd
000002d0: 2efa 6e3d fb9a cd3d b827 d33d 0f14 883d
000002e0: b460 a93c 0c97 353d 09cd 8b3d 830b babd
000002f0: fc99 fabc a3ad 8dbd 3bb1 8e3d 96b4 2b3d
00000300: c66a d4bd 0602 f53d 25e5 e63c 8178 98bc
00000310: 87d0 9abd 0863 ce3d b84c bcbc 6d88 db3d
00000320: d80f cebd 2f2b dd3d e92e 25bd 15fc 71bb
00000330: ff7f 6cbd 7231 9cbd 8b0f 173d 3ca3 aabd
00000340: a17e aa3d 3a7e 793d 3bce f6bd 9ed0 153d
00000350: e593 1c3d 9a24 133d 2ac0 24bd 1101 2d3d
00000360: d075 013e 9c53 c73d dcab 13bd fc83 debd
00000370: 0c17 f3bd 4c4d 70bb 0e7b 8d3d 47bd b73d
00000380: 1961 d1bc 9d86 d7bd e4e7 9e3d 9824 d6bd
00000390: 7ec7 e63d 2996 e5bd 6e80 dd3c 0a3b eb3d
000003a0: d417 6ebb 8691 1f3d 4c7d 2e3c 0bc5 a5bd
000003b0: 1e7e 4b3c 7feb 5fbd 9825 603d d038 babd
000003c0: 3b0b 2ebd 68cf af3d a3da d6bd eb1f 35bd
000003d0: 7732 8abc 6430 bc3d d07d 8d3c 26bb 58bd
000003e0: 4901 d43d c781 b73d ec04 cd3d eb6f 53bd
000003f0: 0652 ff3d aa5f 5d3d c3a5 6bbd 28f2 463d
0.014332548 0.117532335 0.035708647 0.04850659 -0.033771012 -0.061703138 -0.027197897 -0.12217892
0.028727992 0.04886958 -0.09478618 -0.038029313 -0.042640556 -0.015447625 -0.0063641192 0.018186672
-0.07457034 0.028770808 -0.04005597 0.06287702 0.014240969 -0.019473547 -0.019940075 0.005102415
-0.113696866 0.023247942 -0.11374564 0.10654429 -0.09573679 0.03309859 -0.043245006 0.058723073
-0.013437892 0.028580794 -0.11297658 -0.040367566 -0.113293394 -0.07789892 0.10153097 -0.07398346
-0.05247816 -0.12880315 -0.07429486 0.11685938 0.011666143 0.11716684 -0.0724764 -0.04257951
-0.065273225 -0.107777186 -0.065118976 -0.09207413 0.113768175 -0.077466264 -0.011099347 0.08741554
-0.05595734 -0.024819426 -0.09127804 -0.02719395 -0.06276274 -0.081208386 0.055461973 0.07430694
0.065480605 0.0045639486 -0.11544879 -0.10734771 -0.10114481 -0.049540013 0.066957675 0.009260913
0.060159612 0.0936653 0.07409985 -0.08195851 0.008635784 -0.0778376 0.1198449 0.003965002
-0.032104306 0.037436925 0.012569788 0.023848927 -0.06415703 0.108638026 -0.109266356 0.029309737
0.05347753 -0.029158374 0.09501857 0.08642206 0.004062535 0.09403879 -0.007321217 -0.020853788
0.073156446 -0.0950284 0.012848856 0.06606144 0.036844723 -0.08443365 0.016700462 0.003029356
0.0301837 0.109011255 -0.06654433 -0.050676044 -0.058301482 0.024137056 -0.0013006997 -0.08317764
0.058770947 -0.04854428 0.0344934 0.082378924 0.11632553 0.027669769 -0.09742875 0.047473144
-0.03893618 0.0016684063 0.06776634 0.09458831 0.03257192 -0.0033448553 -0.09179964 0.08562586
-0.017424572 -0.009460907 -0.10689217 -0.011462455 -0.08125893 -0.103367016 -0.04740967 0.053580627
0.025797475 0.0949882 -0.056184255 0.065542825 -0.08657943 0.091606304 0.09662025 -0.013132751
-0.013908837 -0.05244515 0.076843955 0.11153281 0.014796902 0.035351336 -0.09068825 -0.11300944
-0.012634041 0.03409338 0.023001792 0.09243902 -0.00804586 -0.049090497 0.009451951 -0.047377825
0.00068406295 0.04281605 -0.09571832 -0.06348038 0.04666429 0.060173552 0.046037134 0.04786676
-0.026372302 0.013071995 -0.032361206 -0.08837209 0.041862212 -0.12376714 -0.06675726 0.05955792
-0.019170055 -0.08305697 -0.11266006 -0.102582015 0.05834406 0.10039326 0.1031031 0.06644451
0.020675994 0.044333503 0.06826217 -0.09084227 -0.030591004 -0.06917884 0.06967398 0.041920267
-0.10371928 0.119632766 0.028185437 -0.018612148 -0.07559305 0.100774825 -0.022985801 0.107193805
-0.10061616 0.10799252 -0.04032794 -0.0036923934 -0.057739254 -0.076266184 0.036880057 -0.08331916
0.08324934 0.060911395 -0.12051054 0.036575906 0.03822698 0.035923578 -0.040222324 0.042237345
0.12642598 0.09732744 -0.03605257 -0.10865018 -0.1186963 -0.0036667166 0.069082364 0.08971649
-0.025558995 -0.10523722 0.077590734 -0.104561985 0.11268519 -0.112102814 0.02703878 0.1148587
-0.003633012 0.03895714 0.01064999 -0.080942236 0.012420205 -0.054667946 0.054723352 -0.090928674
-0.04249118 0.085844815 -0.104909204 -0.044219892 -0.016869767 0.09188917 0.017271906 -0.052912854
0.103518076 0.089603 0.100107044 -0.051620405 0.124668166 0.05404631 -0.05753113 0.048570782

fc4.bias f4 [32]
00000000: b33d 363d e695 3a3b 2bcc eebd e89a bd3d
00000010: 16ba 5e3b ab94 a83d c48a b1bd 94e8 8f3d
00000020: d9e4 6b3d 26e4 f6bc 4a51 36bd 59a1 d03d
00000030: 3da7 d43c 0b8b 65bd 1445 733d b32a acbd
00000040: 1072 eabd 08e5 2bbd c7e5 113d e24b 563c
00000050: 83af 31bd 1391 6d3d 77ba bcbd 5fbe 6abd
00000060: ed7e 5abd 4b8d 823d 587b 1eba 7751 32bc
00000070: 6051 0ebd 5e4f 343c c9cb d7bb d158 d4bd
0.044492435 0.0028470694 -0.11660036 0.09258062 0.0033985428 0.08231481 -0.086690456 0.07026783
0.057591293 -0.030138087 -0.044511117 0.101870246 0.025958652 -0.056040805 0.05939205 -0.08406582
-0.11447537 -0.041966468 0.035619523 0.013079615 -0.04338027 0.05799968 -0.09215253 -0.05731046
-0.053343702 0.06374606 -0.00060456013 -0.010883681 -0.034745574 0.011005251 -0.0065855724 -0.10368503

fc5.weight f4 [1, 32]
00000000: cd43 0539 cade 1c3e 2852 a2bd adf4 03be
00000010: 488b 7e3d f8b1 043b b481 a1bc 1165 083d
00000020: 6431 f53d e5ce 95bd 2a7b c5bd 2ad1 02be
00000030: 5c94 703d 1b87 0ebd a607 83bd b0e2 5abc
00000040: 7ff8 28bc be42 c5bd 78d7 ad3d 9d4e 99bd
00000050: 320a 533d e8e4 9fbd f0cf 20bd d30c 0c3e
00000060: 73f0 8d3d 5cfc 9c3d e573 e3bd 768f efbc
00000070: 1377 ce3d ff84 d73d 6b32 a2bd d656 733d
0.00012709126 0.15319362 -0.07925826 -0.12886305 0.062144548 0.002024768 -0.019715168 0.03329951
0.11972311 -0.073148526 -0.09642632 -0.12775102 0.058735237 -0.034796815 -0.06397943 -0.013359711
-0.010313152 -0.09631871 0.08488363 -0.074856974 0.051523395 -0.07807332 -0.039260805 0.13676767
0.06930628 0.07665321 -0.111060895 -0.029243212 0.10081305 0.10523414 -0.07919773 0.059408985
