DeepLearning/model_0325_dropout/model_best_4_r2_-0.010992821296065733.pth (torch, 666311 bytes, 9 tensors)

fc1.weight f4 [256, 478]
000000 28 c4 05 3d 65 a2 30 3c fb cd bd 38 95 75 01 3d
       0.032657772 0.010780905 9.050589e-05 0.031606276
000010 c4 10 f6 3c b6 38 2d bd 65 b9 a5 bc 76 92 38 bc
       0.030037291 -0.042290412 -0.020230005 -0.011265388
000020 de 75 eb 3c 12 5c 9b ba c0 c7 2b bd 87 9d 9d bc
       0.028742727 -0.0011853001 -0.041938543 -0.019240154
000030 7c 6c f2 3c 68 57 12 bd 97 2e cc bc 75 5d 16 3b
       0.029592745 -0.03572789 -0.02492456 0.0022943888
000040 04 6b 1e 3d 9a aa 0d 3d fa 9a 9e bc 37 da 39 3d
       0.038676277 0.034586526 -0.019361008 0.04537412
000050 ab 21 4d 3c ac 14 91 bc 8a b4 85 3c 9b 78 98 bc
       0.012520234 -0.017710052 0.01632144 -0.018612197
000060 25 ff 46 3d 41 c3 a4 3a 3b d3 b4 3c 2b 9c 6e bc
       0.04858317 0.0012570397 0.022073379 -0.0145636005
000070 57 f6 f9 3c 99 20 32 3c 5c ac 1d bd 96 5a 41 bd
       0.030512972 0.01087203 -0.038494453 -0.04720553
000080 4a df 13 3d 15 c8 3d bd aa 9b 06 3c 98 29 84 bb
       0.036101617 -0.04633339 0.008215824 -0.0040332787
000090 8f 79 d5 3c 3f b5 2b bd 1d 07 98 3c 29 ba c4 bc
       0.02605894 -0.041920897 0.01855808 -0.02401455
0000a0 5c 22 c4 bc ac 17 54 bc 5b 75 65 3c 8a 4e 4a 3d
       -0.023942165 -0.012945097 0.0140050305 0.049391307
0000b0 73 0d 6c 3b e4 e0 06 3c 36 de ce 3b 2c 34 94 ba
       0.0036018759 0.008232329 0.0063131107 -0.0011307052
0000c0 95 8f 0f 3d 33 77 01 3c a3 22 11 3d ca 27 b1 3c
       0.03504904 0.007901954 0.035433423 0.021625418
0000d0 ae 29 07 bd 60 83 c9 3c 95 45 a7 3c 2f 1f 2e 3c
       -0.032998733 0.024598777 0.020418921 0.010627552
0000e0 65 99 41 bc f0 98 45 bd 10 b1 e8 bc f7 68 12 bc
       -0.011816357 -0.048241556 -0.028404742 -0.008936158
0000f0 45 fe ad bc 55 cc 23 3d 39 ec 0f 3b 7f 23 58 3c
       -0.02123941 0.039989788 0.0021960868 0.013192057
000100 ce 0e 56 bc 6f 90 36 bd 31 15 9c 3b 99 8e 14 bd
       -0.013065053 -0.044571336 0.0047632684 -0.036268804
000110 b6 65 16 3d 87 77 9c 3c f9 ba a3 bc b7 43 48 bd
       0.036718093 0.019099964 -0.019986616 -0.048892703
000120 a4 5d b1 bc ea bd 1d 3b 17 78 6e bc 78 26 5e 3b
       -0.021651097 0.0024069496 -0.014554999 0.003389744
000130 ea a2 33 bd 6d a9 98 bc 94 bb 5e 3c d9 19 7a bb
       -0.04385654 -0.018635476 0.013594527 -0.003816238
000140 9a 70 8b 3c 16 48 3c 3c 6d bd d8 3c b8 ea f6 bb
       0.017021466 0.011491796 0.026457513 -0.007535305
000150 11 1b f0 3c 64 ca 56 bd 09 b1 10 3d a1 7a c9 bc
       0.029309781 -0.05243911 0.035325084 -0.024594607
000160 8c af 2d bc 98 9f 0d 3d 73 68 0e bc 5c 55 0e 3d
       -0.010600936 0.03457603 -0.008691895 0.034749374
000170 0f d8 1f bb e9 cc 06 bd e3 ba 85 3a 7d 20 10 bd
       -0.0024390256 -0.03291026 0.0010202791 -0.035187233
000180 ff ef bc bb 65 bc 2e bd b1 34 1a 3c aa 89 41 bd
       -0.0057659145 -0.042660136 0.009411977 -0.047250427
000190 1b e5 16 bc ae 13 67 bb 0b 8b 14 3d 68 8f 0a bd
       -0.009209896 -0.0035259533 0.036265414 -0.03382817
0001a0 cf c0 99 3c f2 a7 1e bd 0d aa 02 3d 43 24 39 bd
       0.018768696 -0.038734384 0.031900454 -0.045200597
0001b0 26 ae 81 bc 86 ce 0c bd c7 f2 da 3c b5 4e a5 3c
       -0.01583011 -0.034376644 0.026727093 0.020179132
0001c0 2b 00 30 bd 29 43 1a bd 25 14 d4 bc de fb ad 3c
       -0.04296891 -0.037661705 -0.025888512 0.021238264
0001d0 ab b6 ad bc ea 30 fd 3c c6 fe 43 bd f9 8a b1 bc
       -0.021205267 0.030907113 -0.047850393 -0.021672713
0001e0 fe 1a 05 3c 4d 1f cd ba a8 ac 48 3c 2f b4 ca bb
       0.008124111 -0.0015649587 0.012248196 -0.0061860303
0001f0 5f da 0c bc c4 8b 17 bd 79 e6 82 3b 69 42 0e 3d
       -0.008596986 -0.036998525 0.0039947596 0.034731302
000200 53 e3 10 bd 12 3f b7 3c b9 b2 e2 3c 2e 10 fc bc
       -0.035373043 0.022368941 0.027673112 -0.030769434
000210 f7 8d ce 3c 6e 1f af 3c f3 b1 a7 bb 6a f0 6d ba
       0.025214178 0.021377292 -0.0051176487 -0.0009076657
000220 b5 f2 81 3c 50 ca 2b bd 57 5b c9 bc 0b 4c c7 bc
       0.015862802 -0.041940987 -0.024579687 -0.024328252
000230 a2 9d 3c 3d 50 66 27 bc 75 3b f4 3c 22 b4 c0 3c
       0.046048768 -0.010217264 0.029813508 0.023523394
000240 25 54 b8 3c 71 29 46 3a 20 e5 41 bd ae 1a a5 3b
       0.02250106 0.0007559276 -0.04733765 0.005038581
000250 1b 27 de bc 54 45 9f bc 59 16 fe bb 5a e2 22 bd
       -0.027118256 -0.019442238 -0.007754129 -0.039766647
000260 c4 3c 12 3d 11 5d 0d bd 96 0b c7 bc 12 60 98 bc
       0.035702482 -0.034512583 -0.024297517 -0.018600497
000270 f7 eb 6b 3a b4 78 00 3d ce a1 a7 3c af 5e 90 3c
       0.00089997 0.03136511 0.020462897 0.017623274
000280 45 5b ee bc eb 5d bf bc 20 d6 d7 bb ac bf 4a 3c
       -0.029096255 -0.023360213 -0.006586805 0.0123748
000290 1b 83 2d 3c 73 4a 6e 3c 12 1e e5 3c a2 cd 1e bd
       0.01059034 0.014544117 0.02796844 -0.038770325
0002a0 d4 b9 cf ba 96 ad 1d 3c 31 a9 1e bd 6b 3b 10 3d
       -0.0015848228 0.009623906 -0.038735572 0.035212915
0002b0 3a 48 95 3c 55 ac 54 bc da a3 16 bd c2 f3 37 bd
       0.018222917 -0.01298054 -0.036777355 -0.0449102
0002c0 97 05 31 3d 2d ce 2f 3d 11 3a 13 3d 0e 87 08 bd
       0.04321822 0.042921234 0.03594405 -0.033331923
0002d0 1f 78 e9 3a 98 9e 7e 3c 3a 0d 06 bd 7b 0f 3b bd
       0.0017812288 0.015540741 -0.032727458 -0.04566906
0002e0 9e e3 df 3a c9 0f ca 3c ba 10 3e 3d 5b 2d d5 bc
       0.0017081385 0.02466573 0.04640267 -0.026022604
0002f0 13 33 bb bc 6c 7e 0a bd f0 e4 95 3c 30 25 37 bd
       -0.022851503 -0.03381197 0.018297642 -0.0447132
000300 81 18 44 3c 43 ce ed 3c 1e e3 32 3d c4 13 96 3c
       0.011968733 0.029029017 0.043673627 0.018319972
000310 05 83 e2 bc a5 03 5a bc 80 75 ea bc a3 fd 17 3d
       -0.027650366 -0.013306533 -0.028620481 0.03710712
000320 b3 fa dc bc fe cb b5 3c 40 dc 3c bd e1 9c 85 bc
       -0.026975011 0.022191998 -0.046108484 -0.016310157
000330 f3 d9 f1 3c 7a cd c6 3c 73 03 7e bc 71 d7 06 3d
       0.029522872 0.0242679 -0.015503752 0.032920305
000340 5b 25 6e 3c 0d a4 24 3d 6e 3d 9a bc 68 ec ba 3c
       0.014535273 0.040195514 -0.01882812 0.022817805
000350 f8 85 29 3d 7a dd 85 3b db 5f fe bb 7b 1b bb 3c
       0.04138753 0.00408524 -0.0077628917 0.022840252
000360 4b 8e 37 3d 54 4f 87 3c fc c3 90 3c a2 59 22 3d
       0.044813436 0.016517319 0.017671578 0.03963626
000370 93 a9 f7 bc b1 cc ca bc 46 14 45 bc e8 c3 6b 3c
       -0.030232226 -0.024755808 -0.012028759 0.014389969
000380 54 de fc 3c ef 72 f6 bc 6a f8 6c 3c 80 2d 1f bc
       0.030867733 -0.030084101 0.014463523 -0.009715438
000390 65 d2 be bc b5 c2 b0 bc 7f 6d c9 bc ac 76 e6 3b
       -0.023293683 -0.021577219 -0.024588345 0.0070331898
0003a0 af a5 47 3d cc 0c 22 3c 04 61 fc 3c 01 f8 24 bc
       0.048741993 0.009890746 0.03080798 -0.010068894
0003b0 54 0b 29 3c ec 1c a3 bc c3 45 c0 3b 92 62 eb bc
       0.010317642 -0.019911252 0.0058676912 -0.028733525
0003c0 f5 3a f6 3b 84 5d a0 bc 72 d6 4d bc 11 e0 c4 3a
       0.0075143524 -0.019575842 -0.012563335 0.001502039
0003d0 aa 63 f2 bc 6e 12 1d bb 52 5b 3a bc 2b d6 07 3d
       -0.02958854 -0.0023967284 -0.0113743115 0.03316323
0003e0 5c 23 99 bc 97 c1 75 bc b3 1a 93 bb f9 68 1f bd
       -0.018693618 -0.014999769 -0.004489267 -0.03891847
0003f0 e4 8b 1a 3d 94 3b 96 bc 25 4e 25 ba 33 5e 16 bd
       0.037731066 -0.018338956 -0.0006305895 -0.03671093

fc1.bias f4 [256]
000000 dc 62 95 bc 7e 0d 74 3c 02 22 aa 3c fe 2f ca ba
       -0.018235616 0.014895795 0.02076817 -0.001542568
000010 4b 00 34 bd 9a a5 29 3d 22 c4 e7 bc 2a df c6 3c
       -0.043945592 0.041417696 -0.028291766 0.024276335
000020 59 80 e6 bc 66 48 11 3d d8 37 dd 3c 16 07 db bc
       -0.028137373 0.035469435 0.027004167 -0.026736777
000030 a7 0f 0d 3d 66 6d d7 3c ab 3d 16 3d e9 8c 25 bd
       0.034438755 0.026297282 0.036679905 -0.040417586
000040 b8 df 80 bc 15 af 02 bd b5 11 bc bc 67 77 b6 3b
       -0.015731677 -0.031905252 -0.022957662 0.005568433
000050 5f de 6d 3c 86 87 5e bd 5b 71 15 bd f6 9f 6a 3c
       0.014518349 -0.054328464 -0.036485057 0.014320364
000060 fd 87 af 3c 5d 49 e6 3b d1 79 76 bc 6a d2 c2 3c
       0.021427149 0.0070277886 -0.015043692 0.023781974
000070 37 ea df bc c7 67 31 bd 52 40 06 bd d8 46 20 bd
       -0.027333362 -0.04331186 -0.032776184 -0.039130062
000080 17 53 36 3c ac d3 de 3c ba 74 3e bd 5b 7b 85 bc
       0.011128209 0.027200542 -0.046498038 -0.016294172
000090 60 4e 42 bd e2 d2 21 3c 7d e9 2e bd 93 1d 72 bc
       -0.047438025 0.009876939 -0.04270314 -0.014777559
0000a0 50 b0 6d bc 74 8e 45 3d ac 4d b2 3c 7b 38 d0 bc
       -0.014507368 0.048231557 0.021765552 -0.025417557
0000b0 67 33 c7 bc 3f a0 43 3d 47 a2 05 bd 9e 69 11 3d
       -0.024316503 0.047760244 -0.032625463 0.035501115
0000c0 90 f5 fb bc 05 c6 9a 3c d5 2a f3 bc a3 55 8e bc
       -0.030756742 0.018893251 -0.02968351 -0.01737482
0000d0 9d 8f 51 3c 3b b1 2f 3c 20 89 2c bd bb 83 2a bc
       0.012790588 0.010723407 -0.04212296 -0.010407384
0000e0 06 bc ac 3c 3d 2c d3 3c a9 f1 dc bb 64 60 3a bd
       0.02108575 0.02577793 -0.0067426753 -0.04550208
0000f0 3a 35 22 bd 4f 99 83 bb 85 d5 29 bd 05 ab 04 3d
       -0.039601542 -0.0040160785 -0.041463394 0.03238966
000100 94 63 ab 3c 35 5c d0 3c 7c 54 d2 3c c9 b3 a7 bc
       0.020921506 0.025434593 0.02567505 -0.02047147
000110 e5 49 2e bc 96 ff 4a bd cb b5 15 bd 6b 2e 2e bd
       -0.010637735 -0.049560152 -0.036550324 -0.042524736
000120 d1 f6 05 3d da 33 b2 bc 27 f2 5e bc 68 31 ad 3c
       0.032706086 -0.02175324 -0.013607538 0.021141723
000130 35 44 ac bc 4d 19 93 bb 7d db 83 3c 4f 20 0d bd
       -0.021028617 -0.0044891 0.016095871 -0.03445464
000140 0e 51 ba 3c c2 20 07 3d e2 cd c6 3c 8a c3 0e bd
       0.022743728 0.032990225 0.024268094 -0.03485445
000150 e1 ff e8 bc da 85 a6 3c 7b 13 0a 3b be 48 d4 ba
       -0.028442325 0.020327497 0.002106874 -0.0016195995
000160 02 10 35 bd ae 76 68 3c 8e 0c 21 bd 98 3c a3 bc
       -0.04420472 0.014188452 -0.039318614 -0.019926354
000170 65 c2 09 3d 43 a7 f5 bc 4b 98 47 bc 8d b9 6d bc
       0.033632655 -0.029986983 -0.012182306 -0.014509571
000180 87 8f 79 3c 12 ef 07 3d 32 71 3a bd 19 6a 35 bd
       0.0152319735 0.03318698 -0.045518108 -0.044290636
000190 bb 65 f2 bc 7e 5e f7 bc f0 01 03 bd dd e5 d4 3c
       -0.029589524 -0.030196425 -0.03198427 0.025988514
0001a0 54 59 f4 3c c6 21 1c 3b d3 7e e7 bc ec 00 04 3d
       0.029827751 0.0023823841 -0.028258717 0.03222744
0001b0 54 11 0f bd 49 ff 21 bc ce 39 d8 bc d2 13 90 3c
       -0.034928635 -0.009887525 -0.02639475 0.017587576
0001c0 82 6a e1 3b 4c 62 88 ba 9d 53 5b bd c2 58 16 bc
       0.006879152 -0.0010405271 -0.053546537 -0.009176435
0001d0 62 ab 85 3c 40 84 c6 3c 35 79 30 bd 04 ef 91 bc
       0.016317073 0.024232984 -0.043084342 -0.017814167
0001e0 58 3f 77 35 be 66 3a bc 53 13 07 bc 5c 4f 13 bd
       9.210685e-07 -0.011377035 -0.008244353 -0.035964355
0001f0 6b 92 90 ba 1f d9 12 bd 5c 7d 3d bd 7a 0d 7f bc
       -0.0011029964 -0.035851594 -0.04626213 -0.015567178
000200 09 b6 ef 3c 5a f0 ab 3c b6 85 17 bd 55 be 19 bd
       0.029261606 0.020988632 -0.03699275 -0.03753503
000210 0b 71 2c bd bd 2d 3b bd 95 05 63 3c 7a 5e 99 38
       -0.042099994 -0.045697916 0.013856311 7.313206e-05
000220 1e 1d 0e bd 68 3d f9 bc a6 d1 94 bc be 1d 37 bd
       -0.034695737 -0.030424789 -0.018166374 -0.0447061
000230 5b 3b 07 bc 7d d5 f9 3c 91 10 38 bc 62 a7 77 3b
       -0.008253898 0.030497307 -0.0112344185 0.0037788977
000240 fd 22 61 3d 4f cb 0c 3d 2a 94 3c bd ff 80 81 bb
       0.054965008 0.034373578 -0.046039738 -0.003952145
000250 6c 79 f0 bc 81 ee 83 bb d1 f9 01 3d 55 ad 1e 3d
       -0.029354773 -0.0040262346 0.031732384 0.03873952
000260 0e 2f 3f bc 08 5e c8 3c b8 a1 86 3b a5 64 b4 bc
       -0.011668934 0.0244589 0.004108634 -0.022020647
000270 e4 2a dd bb 20 ac fc bc 95 92 20 3d c3 5f 46 bc
       -0.0067494977 -0.030843794 0.03920229 -0.012107792
000280 0f 25 47 3c 83 a7 0c bd 5c 57 c4 3c 79 6c f6 3c
       0.012154832 -0.03433944 0.023967437 0.03008102
000290 59 2a b8 bc f6 e8 bf 3c 33 a0 75 bc 05 3a ae bc
       -0.02248113 0.023426514 -0.014991808 -0.0212679
0002a0 2f be 44 3c 86 b9 68 b9 c8 c5 7b bc 92 be 29 3c
       0.012008234 -0.00022194357 -0.015366979 0.010360377
0002b0 dc a4 34 3c c0 86 2e bd c3 53 07 bd a8 75 34 bc
       0.011025634 -0.042608976 -0.033038866 -0.01101438
0002c0 eb 52 1f bd b1 9e 88 bc d2 33 a2 bb 45 53 0d 3d
       -0.038897436 -0.016677232 -0.004950025 0.03450324
0002d0 48 b6 a7 3c 06 98 1e bc b3 ba d8 bb 8c d4 cc bc
       0.02047266 -0.0096798 -0.006614053 -0.025003694
0002e0 4d 08 31 3c 82 79 53 bc a5 db 92 3c 15 06 fc bc
       0.010805202 -0.012907388 0.017927 -0.030764619
0002f0 96 f6 20 bd 3e 27 70 bc de 36 78 bb df 1b f7 3c
       -0.039297663 -0.014657794 -0.00378745 0.030164657
000300 0e a6 dc bb 19 2e 0c bd a8 71 c1 3c 5f 86 9a 3c
       -0.0067336624 -0.03422365 0.023613766 0.018862901
000310 45 02 2b bb f7 f2 4c ba 8b 14 2c bd 07 ce f9 3c
       -0.0026093882 -0.0007818187 -0.04201178 0.03049375
000320 cd ea 0e 3c ad d5 09 bb 22 ba a3 38 33 32 80 bc
       0.008722973 -0.0021031902 7.8071156e-05 -0.015648937
000330 12 a8 74 3c 2e 69 24 3c b1 54 ab 3c 64 3b 15 3d
       0.014932649 0.010034842 0.020914407 0.036433592
000340 cd ed 47 bc 20 3c 0a bc b2 83 03 3d 63 0c 1d 3d
       -0.012202692 -0.0084371865 0.032108016 0.03834189
000350 13 3f 9a bc 28 36 14 3c 26 aa ef bc e9 09 25 3d
       -0.018828904 0.009046115 -0.029255938 0.040292654
000360 01 c9 85 3c 41 57 12 bd c8 02 3b 3b c6 ff 06 bd
       0.016331198 -0.035727743 0.0028535593 -0.03295877
000370 7e 4a d2 bb c1 75 f4 bc c4 78 c0 3c 81 a2 b8 3c
       -0.0064175716 -0.029841306 0.023495086 0.022538425
000380 b7 6f db bc a7 af 58 bb 2e bf 1c 3b 16 b5 81 3b
       -0.026786668 -0.0033063681 0.0023917663 0.0039583547
000390 c8 40 1d 3c c4 6b 24 3d d1 b6 ba bc 33 6d 9c bc
       0.009597965 0.040141836 -0.022792252 -0.019095039
0003a0 3c 0b 23 3c 85 74 24 3d 97 80 14 bc 7b c1 0f 3d
       0.009951409 0.040150184 -0.009063861 0.035096627
0003b0 68 b6 cf 3c 82 4f 3d bd 5f de fb bb 3a 87 c6 bc
       0.025355533 -0.046218403 -0.007686421 -0.024234403
0003c0 02 66 c4 ba 82 9e 9b bb 22 1e 24 3c 3a 5d 83 bc
       -0.0014984014 -0.00474912 0.01001695 -0.016035665
0003d0 8d 82 4f 3d b0 29 ce 3a ea ae 56 bc 62 60 f4 3c
       0.050661612 0.0015728977 -0.013103226 0.029831115
0003e0 e7 21 3d bc e9 3a 05 bd 4a 15 99 3b a6 22 69 bc
       -0.0115437275 -0.032526884 0.0046717273 -0.014229452
0003f0 69 d1 16 bd 31 cb cc bc e0 bc 2b 3d d6 15 21 bd
       -0.036820803 -0.024999233 0.041928172 -0.039327465

fc2.weight f4 [128, 256]
000000 a5 3d 2a bc 20 06 75 bd a3 0c 18 3c 27 96 c2 bc
       -0.010390674 -0.059820294 0.009280357 -0.023753239
000010 ca e3 3d 3d 42 cf 33 3d d6 5a ad 3c 86 5a 4e bd
       0.046359815 0.04389883 0.021161478 -0.0503793
000020 01 02 18 bb 07 9d 65 bc 41 7b 6c 3d a1 e1 70 3d
       -0.0023194554 -0.014014489 0.05773473 0.058808926
000030 6e 20 7d 3c f0 5e 86 bc c7 f4 1f 3c 07 dd 5b 3d
       0.015449626 -0.016402692 0.009762949 0.053677585
000040 0f c1 a6 3c f6 ad e8 bc 49 dd cb 3c ec 38 ea 3c
       0.02035573 -0.028403264 0.02488579 0.028591596
000050 f1 24 0f 3c fd 85 ab bb 4f fd 67 3d 75 bc 18 3d
       0.008736835 -0.0052344785 0.05663806 0.0372891
000060 f2 e4 d8 bb 96 cc 00 3c 0c de 22 3c b6 26 14 3d
       -0.0066190893 0.007861277 0.009940635 0.03616973
000070 83 7c e3 3c 81 73 07 3d 5f b3 41 3d fc 7b 77 3d
       0.027769333 0.033069137 0.047290202 0.060420975
000080 cd 14 5a bb cc af bb 3c c1 25 26 3c a8 14 ab bc
       -0.0033276558 0.022910975 0.010140837 -0.020883873
000090 7f c8 0e 3d 3d 8a b2 3c b6 e4 8a 3c 73 39 11 bd
       0.034859177 0.021794433 0.016954761 -0.03545518
0000a0 32 b1 08 3d 34 e2 ce 3b 83 0a 82 3d 26 9e 15 bc
       0.03337211 0.0063135866 0.06349661 -0.009131944
0000b0 e0 48 05 bd 8f 1d 11 bd ef 2c cd 3c 27 71 eb bc
       -0.032540202 -0.03542858 0.02504584 -0.028740479
0000c0 35 5c 13 3d c6 f0 23 3d 3a 03 99 3b fe 6f a1 3c
       0.035976607 0.04002454 0.004669574 0.019706722
0000d0 5c 80 38 3c ea 7b 08 bd c8 88 c0 3c 12 18 c2 bc
       0.011261072 -0.0333213 0.023502722 -0.023693118
0000e0 02 d2 38 bc 79 53 fc bc 72 92 0d bd 6a 9e e1 3c
       -0.0112805385 -0.030801522 -0.03456349 0.027541358
0000f0 de 12 9c 3c 3e 24 ec 3c e8 1b 50 3d e3 e9 7d 3d
       0.019051965 0.028825875 0.050807863 0.06199063
000100 ac c7 c8 3c bf fb ee 3c e2 ae f5 3c ff 78 d1 3b
       0.024509273 0.029172776 0.029990617 0.0063925977
000110 d2 47 41 3d 6c 44 40 3d 8e 9f be 3c a1 c3 6b bd
       0.047187634 0.046940252 0.023269441 -0.057559613
000120 a4 ff 3d 3d 01 de 19 3d df e1 f4 3c 1f eb 38 3d
       0.046386376 0.037565235 0.02989286 0.045146104
000130 63 f7 b0 3c 2c ff 14 bc 5a 29 a0 bc 5d 8e 6d 3c
       0.021602338 -0.009094041 -0.019550968 0.014499274
000140 9d 39 21 3d bc b9 55 3d 40 24 0a bd d4 05 b8 bc
       0.039361585 0.052179083 -0.033725977 -0.022463717
000150 fe ad 53 3d e9 68 c2 3c 9c 31 ba bc d4 2d bd 3b
       0.051679604 0.023731666 -0.022728734 0.0057732854
000160 74 ba f2 3c 63 88 dc 3c 0e 78 8c 3a a2 7c b0 3b
       0.029629923 0.026920503 0.0010716931 0.005385951
000170 23 c7 a8 bc f0 94 c7 bc 9e 07 b4 3c ce cd 80 bc
       -0.020602768 -0.024363011 0.021976288 -0.015723135
000180 9b 55 90 3c 82 31 3a bd 2d 9f 0c 3d a2 c1 57 3d
       0.017618945 -0.04545737 0.03433149 0.052674897
000190 4c a6 a2 bc 60 d9 26 3d 5c b2 70 bc 91 a1 91 bc
       -0.019854687 0.04073465 -0.014690962 -0.017777236
0001a0 d8 e3 fd 3c b9 78 81 3c cb 64 e6 3b a7 dd 1d 3d
       0.030992433 0.015804635 0.0070310584 0.038541462
0001b0 8c b5 00 3d 7e 8e 80 3c 04 41 11 bd 93 2a 93 bb
       0.031423137 0.015692946 -0.035462394 -0.004491159
0001c0 75 18 47 bc d1 c9 17 bd aa a2 52 bc 3a 3a f3 bc
       -0.012151827 -0.0370577 -0.012856165 -0.02969085
0001d0 c3 a5 10 bd 82 bb 3f 3d fe 9d d6 ba dc 8f 49 bb
       -0.035314333 0.04680968 -0.001637399 -0.0030755913
0001e0 0b 1d 43 bc ba 12 d1 bc fa 3f 52 bd f5 83 2b bc
       -0.01190878 -0.025521625 -0.051330544 -0.010468473
0001f0 2d f5 2f bc 04 90 32 3a c6 ed dd bc 2b c3 c1 3c
       -0.010739607 0.0006811621 -0.027090918 0.023652634
000200 99 62 40 3d 39 df 55 3a 58 30 89 bb 36 58 4e 3d
       0.04696903 0.0008158568 -0.004186671 0.050377093
000210 3f a9 3e ba 08 e3 ca bc fa ac 28 3d 56 54 1c bd
       -0.00072731444 -0.02476646 0.04118059 -0.038166367
000220 0b da 52 3d d2 d9 28 bd 84 97 01 3d fb d5 65 3d
       0.051477473 -0.041223355 0.031638637 0.05611227
000230 ae ad 43 bc 8e eb 1a bd b4 9a d4 bc 8d d0 cc 3b
       -0.011943264 -0.0378223 -0.025952674 0.006250447
000240 e8 e9 58 3d 93 26 40 3d 38 cd 36 3d 6e 1b b4 ba
       0.052957445 0.046911787 0.044629306 -0.0013741085
000250 c4 48 cc 3c a3 97 ad bc 42 28 33 3c a9 b5 a7 3c
       0.024937041 -0.02119047 0.010934891 0.020472365
000260 3f 9d ac bc 63 b5 82 3c 6a 3f 4e bd 20 0e 2d bc
       -0.021071075 0.015955633 -0.050353445 -0.01056245
000270 5a 3d 91 bc ab 7f 79 3d a5 03 1e 3c a6 c4 58 bd
       -0.01772945 0.06091277 0.009644424 -0.052921914
000280 59 14 19 3d 56 7d 1d ba c0 01 0d bd b3 94 34 bd
       0.03737292 -0.0006007751 -0.034425497 -0.044087123
000290 a2 f1 34 3d bd c6 8d 3c c8 c6 47 bb 2e e1 b2 bb
       0.04417575 0.01730668 -0.0030483473 -0.0054589724
0002a0 91 de 07 bd 93 95 e8 ba d2 3c 94 bc b5 f8 84 3d
       -0.03317124 -0.0017744772 -0.018095408 0.064927496
0002b0 09 e8 39 bd 89 c4 08 3d 6f 8b e2 3c ef 96 41 3d
       -0.0453873 0.033390556 0.027654378 0.047263082
0002c0 1e c0 e8 3c 48 8a 80 3d f6 29 00 bd 2b 74 15 bd
       0.028411921 0.06276375 -0.031290017 -0.03648774
0002d0 7a 18 9a bc 0c 7d 6b 3d 8b 6f bb 3c 63 46 32 bd
       -0.0188105 0.0574923 0.022880336 -0.043524157
0002e0 42 82 58 bd d6 23 c9 bc 3b 3c 2f bc 32 ff 5f bd
       -0.0528586 -0.02455322 -0.010695512 -0.054686733
0002f0 f7 3e f7 3c ef 27 e5 ba 99 3e 51 3d 10 93 60 3d
       0.030181391 -0.0017483215 0.05108509 0.05482775
000300 ed b4 c0 bc 90 11 60 3d ad 3a 0a 3d 16 e9 38 bc
       -0.023523772 0.05470425 0.033747364 -0.011286041
000310 e9 e2 07 3d 57 29 38 3d d6 d1 68 3d ee d9 b8 bc
       0.033175383 0.0449613 0.05684074 -0.022564854
000320 84 45 07 3d 69 03 c0 3c ad f6 35 3d d9 69 88 3a
       0.03302528 0.023439126 0.0444247 0.0010407522
000330 3a 3a 1a 3d f7 a9 f5 3b e3 42 0c bd 8a ea cc bc
       0.037653185 0.007497068 -0.034243476 -0.02501418
000340 1c 33 f0 3c d6 08 54 bd 16 17 53 3d 12 44 39 3d
       0.029321246 -0.05176624 0.05153569 0.045230933
000350 91 1f 0c 3c df ff 09 bd 98 0e 36 bd f6 23 25 bd
       0.008552448 -0.033691283 -0.04444751 -0.0403175
000360 15 67 09 3d ca 6e fa bb c4 21 73 3b 23 fc 47 bc
       0.033545572 -0.0076426016 0.0037098983 -0.01220611
000370 9b b7 4d bc f9 25 53 3d 36 f2 88 bb 22 32 cd bc
       -0.012555982 0.051549885 -0.0041792644 -0.02504832
000380 c3 98 86 3d 29 d6 a0 3c 19 6b 17 3c f1 e4 0f bd
       0.06572106 0.01963337 0.009241843 -0.035130445
000390 a2 b9 bf 3c 66 c3 36 bc 1c e1 1b bd e9 2f f2 bb
       0.023403946 -0.011154985 -0.038056478 -0.0073909652
0003a0 9d fa 36 bd be 03 12 3d 29 b3 87 3c 5c 72 65 bb
       -0.044672597 0.0356481 0.016564922 -0.003501079
0003b0 d4 15 e8 bb d5 16 b3 bb 00 f2 0b bc c5 0d aa 3c
       -0.0070826802 -0.0054653683 -0.008541584 0.020758519
0003c0 0e b5 8f bc f5 30 6e 3d 12 f6 17 bd b9 a1 0e bd
       -0.017542388 0.058152158 -0.037099905 -0.0348222
0003d0 ae b0 b4 b9 ea 9a d3 3c 1c c2 af 3c 90 7f 21 3d
       -0.00034463912 0.025830705 0.021454863 0.039428294
0003e0 07 d4 0c 3d 63 3d 0b bd bd 47 a9 bc 5f 06 f0 bc
       0.034381893 -0.03399409 -0.02066409 -0.029299913
0003f0 1c 0b f5 bb 92 43 ed 3c b9 30 59 3d bc 4e 1a bd
       -0.007478131 0.028962884 0.05302498 -0.037672743

fc2.bias f4 [128]
000000 08 7d 9d bc 0b 61 8a bd b3 bc 90 3c ab b6 71 3d
       -0.019224659 -0.06756791 0.017668104 0.059012096
000010 67 39 8b bc d9 ee 12 3d 01 22 d8 3c b4 01 5b bc
       -0.016995145 0.035872314 0.026383402 -0.013367105
000020 84 ba 49 3d f8 8e 50 bd 55 73 9e 3c 17 8b 7e 3d
       0.04925014 -0.050917596 0.019342104 0.062144365
000030 29 e0 c8 3c b6 c5 05 3d f6 18 46 bd 19 f2 7c bc
       0.02452095 0.032659255 -0.04836365 -0.01543858
000040 03 2c 1b bd e5 73 63 bd 14 5f 54 bd 4a 32 ea 3b
       -0.03788377 -0.055530448 -0.051848486 0.007147108
000050 aa 00 0e bd da 65 b5 bc a9 35 1f bd c0 36 22 bd
       -0.034668602 -0.022143293 -0.038869534 -0.039602995
000060 26 84 de bc 1b 97 28 3d 6b 0f 85 bd 33 d7 0d bd
       -0.027162623 0.04115973 -0.06497081 -0.034629058
000070 c7 d6 59 3c 26 9a 46 bd 29 36 9a bc f3 53 29 bd
       0.013295836 -0.04848685 -0.018824654 -0.041339826
000080 76 5a 1e 3d 26 f2 69 bc 87 19 fd bc 8f 33 f7 3b
       0.03866049 -0.014278924 -0.030895961 0.007543988
000090 c9 04 1e bd 0b b6 7b ba b0 c9 02 bd 0f 4a e0 bc
       -0.038578782 -0.00096020167 -0.031930625 -0.027379064
0000a0 92 3f 72 bd 63 fc 57 bd de 9f 58 3d 49 e0 18 3d
       -0.059142657 -0.05273093 0.052886836 0.03732327
0000b0 dd 39 7c bd 52 6b 57 3c 6c 90 5a 3d 3f a2 20 bd
       -0.06157862 0.013148146 0.053360388 -0.03921723
0000c0 e4 70 73 bd 65 68 99 3c e8 5b 23 3d d6 12 0a bc
       -0.059433833 0.018726537 0.03988257 -0.008427342
0000d0 3e 70 a3 3c 48 a1 56 3d 4c cd 8a bd d1 6c 13 3d
       0.019950982 0.052399904 -0.067774385 0.035992447
0000e0 a2 1d 17 bd 2f a1 50 3d 86 8d ae bc 21 36 99 3c
       -0.036893494 0.050934967 -0.021307718 0.018702568
0000f0 65 37 3a bd 9e 58 7f bd 86 ac 58 bd 64 7b 2d 3d
       -0.045462985 -0.06234037 -0.052898906 0.042354003
000100 85 b2 39 bd 32 f0 2a bb 81 05 3b bc 18 d4 60 3b
       -0.045336265 -0.002608311 -0.011414886 0.0034306105
000110 0e 82 35 3d fa c9 ad bc b1 19 66 bd 33 2d a2 bb
       0.044313483 -0.021214474 -0.056176845 -0.004949236
000120 17 a8 83 3c 1f fa 7f bd c4 ad 1c bb ff d8 01 bd
       0.016071362 -0.062494393 -0.0023907283 -0.031701084
000130 5e 8e bd 3d d6 a0 7f 3c ed 78 bc bb 8a a9 59 3d
       0.0925567 0.015602311 -0.00575172 0.0531402
000140 3a 59 f6 3c 23 c6 58 3d 4d 84 ed 3b b5 35 38 bd
       0.030071843 0.052923333 0.0072484375 -0.044973094
000150 0d 96 f9 3b f4 54 1e 3d 4e a6 ce 3c 10 39 06 bd
       0.0076167644 0.038655236 0.025225785 -0.032769263
000160 34 42 94 bb b7 03 ed 3c 51 c1 92 bc 7e 1a 81 3d
       -0.0045244936 0.028932435 -0.017914446 0.06303881
000170 66 3a 50 3d 8a 72 6b 3c 8c cf 3d 3d fe 58 83 bd
       0.050836943 0.01437057 0.04634051 -0.06413458
000180 bc df ba bc ad b2 99 3d f5 df b3 bb 34 e5 38 3a
       -0.022811763 0.07504783 -0.0054893442 0.0007053197
000190 f1 80 8a bc 65 72 37 3d 87 d3 83 3c c0 9f 58 3d
       -0.016907187 0.04478683 0.016092075 0.052886724
0001a0 05 5e 34 3d be e7 85 3c 44 c2 fe bb 72 76 aa 3b
       0.044034977 0.016345855 -0.007774623 0.005202108
0001b0 bf e6 34 bd f9 c8 27 bc 4b d3 69 3d 76 1a e7 bc
       -0.04416537 -0.010240787 0.05708627 -0.02821086
0001c0 c3 f2 0b 3c 45 e5 59 bc 4c 7e 79 bc 8b f3 36 bd
       0.008541766 -0.013299291 -0.015227865 -0.044665854
0001d0 b8 77 a1 bc 41 57 3f 3c f6 ec 51 bd 95 31 49 3c
       -0.019710407 0.011678518 -0.051251374 0.012279888
0001e0 18 a7 42 3d 38 b8 16 bd 14 f3 06 3d bc 2c 88 3c
       0.047522634 -0.03679678 0.03294666 0.016622894
0001f0 7d 49 4c 3d b5 10 1e 3d 94 e7 9c bc 96 e0 c4 3c
       0.04987477 0.03859015 -0.019153394 0.024032872

fc3.weight f4 [64, 128]
000000 f8 e5 c4 bc 2f fd 23 bd 85 fb 07 bd ab 9d 1d bd
       -0.024035439 -0.040036377 -0.033198852 -0.038480442
000010 2b 08 43 3d 27 53 95 3d 1e ce fd 3c c3 57 a2 bd
       0.04761521 0.07291251 0.030982073 -0.079268955
000020 66 94 f9 3a af 11 d6 3c 45 34 0b bd 19 54 4d 3c
       0.0019041419 0.02613148 -0.033985395 0.0125322575
000030 e9 38 9e bd 46 10 08 bc 8d e6 19 3d a0 08 be bc
       -0.077256985 -0.008304661 0.037573386 -0.023197472
000040 d0 c3 3a 3d af 88 f4 3b 39 9c ef bc 5c eb 6b bc
       0.045596898 0.007462583 -0.029249297 -0.014399376
000050 5b 31 28 3d a3 85 22 3d a3 85 63 3d 1d 59 9b 3d
       0.041062694 0.039678227 0.055547368 0.075853564
000060 24 a0 3d bd 51 ab 9e bd 9e 5e 57 3d 10 be fe bb
       -0.0462953 -0.0774752 0.05258047 -0.007774122
000070 76 6e e7 3a 59 af bc bd 3a d3 96 bd 8d 78 90 bd
       0.0017656821 -0.092131324 -0.07364507 -0.07054243
000080 f9 c2 a7 bd 0f 94 3d bc 52 95 34 bd 4f c0 92 3d
       -0.08191485 -0.011570944 -0.044087715 0.07165586
000090 85 0f 80 bb dc 2e 54 bd 8e a1 81 3d 78 23 9a bc
       -0.0039081 -0.0518025 0.06329642 -0.018815741
0000a0 05 a2 69 3c 37 de 4b 3d c6 90 a4 bc 7b c2 94 3b
       0.01425982 0.049772467 -0.020088565 0.0045397854
0000b0 12 8f 3b ba 86 0f 72 3d 54 35 49 bd c8 3f 16 3d
       -0.0007154803 0.059096836 -0.049123123 0.03668192
0000c0 e4 d8 98 3b 24 61 99 bd 8b 17 9c 3d 3b 7f a2 bd
       0.0046645273 -0.07489231 0.07621678 -0.079344235
0000d0 71 60 73 bd c5 84 b1 bd 68 d9 d3 bc 65 64 9a bd
       -0.059418146 -0.08667902 -0.025860503 -0.0753868
0000e0 fe c7 70 3d b0 6f 55 bd 6a 58 80 3d ac 7d 53 bc
       0.058784477 -0.052108467 0.06266864 -0.0129083805
0000f0 f1 8d d3 bc d5 50 d9 3b fe b4 0f 3c 18 88 21 3d
       -0.025824519 0.0066319504 0.008771179 0.03943643
000100 f4 7a ec bb 93 32 35 bc f0 89 7e 3d 4c ef aa bd
       -0.0072168056 -0.011059421 0.062143266 -0.083464235
000110 56 72 83 3d 6d a3 e9 3c 4c 57 30 3d 3c b9 3e bd
       0.06418292 0.02852031 0.043052003 -0.046563372
000120 5e 3e 24 bd 7f 26 9e bd a3 39 59 3d 46 47 31 3c
       -0.04009854 -0.07722186 0.053033482 0.010820216
000130 37 b5 b0 bc c0 91 0b 3d 62 65 99 3d 61 9c a6 3c
       -0.021570785 0.034074545 0.0749004 0.02033824
000140 da cf a5 bd 5d 05 6e bd d8 87 9f bc 18 39 3e bd
       -0.08096285 -0.058110584 -0.019473955 -0.046441168
000150 f9 22 54 3d 6b 52 11 3d 62 bd a9 bd 1b 33 28 3d
       0.051791165 0.03547899 -0.08288075 0.041064363
000160 e7 a2 eb bc 25 7f 3e 3d 56 48 20 bd a9 47 88 bd
       -0.028764201 0.046507973 -0.039131485 -0.06654293
000170 b7 9d 98 bd 76 74 09 bd 33 ce 47 3d 76 a8 b0 bb
       -0.07451957 -0.03355833 0.04878063 -0.005391176
000180 e2 b4 b1 bc fa ee e6 bc c7 f7 b2 bd 69 9d 72 3d
       -0.021692697 -0.028190125 -0.08738666 0.05923215
000190 6b 4d 29 3d 26 ef 72 bd 9b 9b 95 bd 24 12 df bc
       0.041333597 -0.0593101 -0.0730507 -0.02723033
0001a0 a9 4e a5 3d 2e ea 48 bd 85 1b 80 3d 93 2e 62 3d
       0.08071644 -0.049051456 0.06255249 0.055220198
0001b0 42 40 17 bd c7 d4 fd bb c6 cf 8a bd 72 6d 24 3d
       -0.036926515 -0.0077463123 -0.06777911 0.040143438
0001c0 93 81 32 bc 9b bd 40 3c 3e 80 02 bd 1e ae eb 3c
       -0.010895151 0.0117639555 -0.031860583 0.028769549
0001d0 06 83 be bc 75 8d a9 3c 1a 45 2c bd 1b 50 90 3d
       -0.023255836 0.020697335 -0.042058088 0.07046529
0001e0 fc 3f a0 bd 62 5b 66 3c 0a 75 62 bc 99 9c 65 3c
       -0.07824704 0.014059873 -0.01382185 0.014014387
0001f0 d6 f4 bc bd 48 ba 94 3d af 1b 02 bd 37 e1 83 bd
       -0.09226386 0.07262093 -0.031764682 -0.06439441
000200 4c 91 f9 bc d5 b4 ab bd 17 c2 9b bc 00 2f fb 3c
       -0.03046479 -0.083841 -0.019013448 0.03066206
000210 de c2 9e 3d a6 f2 32 3d 4d bf 37 3c b8 e1 db 3c
       0.07752012 0.04368844 0.011215043 0.02684103
000220 d5 bf 0d bd 2d 6b 92 3b 26 9d 0c bd 48 ce 29 bd
       -0.034606773 0.0044683428 -0.034329556 -0.04145649
000230 c7 a0 b9 3b 78 7c 9d 3d 89 c2 a0 bc ba 8f 87 3d
       0.005664918 0.07689756 -0.019624012 0.066192105
000240 15 19 b8 bc 32 da af 3d 33 dc 6a 3d 35 2f b0 bb
       -0.022472898 0.08586539 0.057338905 -0.0053767213
000250 5a 8e 13 3d 2d 1f ab bd e9 b3 ad 3c f5 d8 ac bd
       0.03602443 -0.08355556 0.021203952 -0.08439819
000260 e9 61 b1 3c ce a6 9b 3d b4 83 88 3d 00 fd a9 bd
       0.021653133 0.07600175 0.066657454 -0.08300209
000270 14 99 ae bd aa 78 98 bd 13 56 94 3d ae 7a a9 3d
       -0.08525291 -0.0744489 0.0724298 0.082753524
000280 82 da 89 3c db 2e 96 3d be 5d 7f 3d 64 e8 1a 3d
       0.016827825 0.07333156 0.06234526 0.03781928
000290 cd 3e e9 bc 8b fd bf bd 32 b9 8a 3c 48 72 b5 bd
       -0.028472329 -0.09374531 0.016934011 -0.08859688
0002a0 59 9b 82 3d 8e 60 e8 3a b5 27 dc 3c 30 79 81 3d
       0.063772865 0.0017728971 0.026874403 0.06321943
0002b0 42 1c 99 3d b6 22 95 bd 7b 54 95 bc 4a f5 04 3b
       0.07476093 -0.07282011 -0.01822876 0.0020287805
0002c0 0f c5 d9 bc e9 b4 2f bc bd ae 11 bd f0 30 4a 3d
       -0.026583223 -0.010724285 -0.035567034 0.049363077
0002d0 73 e7 09 3d 18 b9 68 bd 7d 04 5e bd fe 42 a0 bc
       0.033667993 -0.056817144 -0.0542035 -0.019563194
0002e0 21 4f a2 bc aa a0 29 bd 2a e2 03 bd 3a 96 e6 bc
       -0.019813122 -0.041412987 -0.03219811 -0.028147805
0002f0 b3 d7 13 3c 63 1a 8b bd a0 d8 1a bd 16 4f 05 3d
       0.009023595 -0.06792142 -0.037804246 0.032546125
000300 99 0f 3a 3d 12 cc f3 3c 20 ab eb bc 29 0a a2 bd
       0.04542503 0.029760394 -0.028768122 -0.07912094
000310 1c c0 a5 3d 75 93 48 bd 90 8d ba bd 41 63 72 bd
       0.080932826 -0.04896875 -0.09109032 -0.059176687
000320 61 04 74 3d 91 d3 1c 3d 18 f3 a1 3d c8 d5 31 3d
       0.05957449 0.038287703 0.079076946 0.04341677
000330 67 d4 41 bd cf 4d 4b 3d 8d 1f 17 bd 3f ba 3b 3c
       -0.047321703 0.04963475 -0.036895324 0.011457979
000340 22 7a 53 3d 51 6a 54 bd a5 8f b3 bd 4d 20 9d 3d
       0.051630147 -0.051859204 -0.087676324 0.076721765
000350 4c ed 9f 3d bd d6 d3 bc 19 c9 ce 39 94 d2 a6 3d
       0.07808933 -0.025859231 0.0003944121 0.08145633
000360 6d f1 37 bc d6 59 27 bd d8 cf 90 3d 57 35 7a bd
       -0.011226994 -0.04085716 0.07070893 -0.061086025
000370 0c ce 48 bd b0 36 f9 bc a9 6c 88 bb 7b b9 5a 3d
       -0.049024627 -0.030421585 -0.004163344 0.053399544
000380 d1 d7 86 3d 6d e7 f9 bc 40 b7 1d bd 09 c5 a3 3d
       0.065841325 -0.03050586 -0.03850484 0.07996566
000390 b9 34 49 3c 7c 92 93 bd 2e dd 9b bd 79 6c 13 bd
       0.0122806365 -0.07205674 -0.07610546 -0.03599212
0003a0 72 e8 08 3d 35 80 2d 3d 05 e7 95 3d 11 a4 f7 3c
       0.033424802 0.042358596 0.07319454 0.0302296
0003b0 5c b1 b6 bd 16 95 4c bd 3a d1 31 3d cd f3 95 3c
       -0.08920547 -0.049946867 0.043412425 0.01830473
0003c0 5c 1b d4 3b 6c bd 1b 3d 79 1f 51 3d d0 7e 9b bd
       0.006472988 0.038022444 0.051055405 -0.07592547
0003d0 34 0b 23 bc b8 1e 9a bc 63 8e ca 3c 16 5d 64 3d
       -0.0099514015 -0.018813476 0.024726098 0.055752836
0003e0 5e 3f 0d 3d 6f 9d 8c bd 33 37 8b bd 18 ee 6e bd
       0.03448426 -0.068659656 -0.06797638 -0.058332533
0003f0 4c 40 84 bc a1 5e fd 3c db d2 f9 3c 8b f9 0e bd
       -0.01614394 0.030928912 0.030496052 -0.03490595

fc3.bias f4 [64]
000000 48 a2 3b 3d 98 7c 7f 3d 5a a1 4e bd f4 d8 eb bc
       0.04580906 0.06237468 -0.050446846 -0.028789975
000010 bd 2e 83 bc 00 44 a7 3d be ff ab 3c be bf d1 bd
       -0.016013497 0.08167267 0.02099597 -0.1024165
000020 60 72 45 bd 1b 03 55 bd 3f 9c 45 bd 95 d1 0a bd
       -0.04820478 -0.052004915 -0.04824471 -0.03389128
000030 f2 37 b8 3c 5e e6 17 bd 1f 72 a2 3b 64 84 0a 3d
       0.022487614 -0.03708493 0.004957452 0.033817664
000040 5c 81 2b 3d 10 cb 39 bd 8f 73 76 bc 24 6a 8a 3c
       0.041871414 -0.04535967 -0.0150422 0.016896315
000050 97 07 89 bd a8 c3 fe 3c 0a 4c 7b bd 6a ce 3c 3c
       -0.06690901 0.031099156 -0.061351813 0.011523822
000060 06 cd 54 3d 36 d0 b0 bd 18 9d 0d bd 4f a8 5a bc
       0.051953338 -0.08633463 -0.034573644 -0.013345792
000070 9f 67 82 bd 10 0b 45 3d a4 94 46 bd 59 e3 73 bd
       -0.063674204 0.048106253 -0.0484816 -0.059542987
000080 7b 0d 14 bd 93 fd 61 bd 38 3c 0a 3b 12 34 2e 3d
       -0.03614567 -0.055173468 0.0021093022 0.042530127
000090 3f c7 94 bd 54 7b 24 3d 25 e8 a2 bd ee a4 88 bd
       -0.07264566 0.040156677 -0.07954434 -0.06672083
0000a0 b0 2b a5 bc fc 2b b5 bd 91 60 95 bd 6f a0 f8 bc
       -0.020162433 -0.0884628 -0.07293809 -0.030349938
0000b0 da f4 29 bd 2e 50 a0 3d 75 9c 60 3c e9 44 8c bd
       -0.041493274 0.07827793 0.013709177 -0.06849081
0000c0 5d 00 4d 3d 21 f5 92 3d 38 47 dd 3a 70 b8 7d 3d
       0.050049175 0.07175661 0.0016882187 0.06194347
0000d0 4a 3f 7f bd 55 03 98 bd f1 c2 a4 bd ce 38 9c 3d
       -0.062316217 -0.074225105 -0.080449946 0.07628022
0000e0 33 8c b3 3c 89 50 72 bd 8a c9 52 3d b9 84 f3 3a
       0.021917438 -0.059158836 0.051461734 0.0018578983
0000f0 4c 15 75 bd f3 4a 59 bd 28 59 00 bd f5 d3 5c bd
       -0.059834763 -0.053049993 -0.031335026 -0.053913075

fc4.weight f4 [32, 64]
000000 77 d4 6a 3c 1e b4 f0 3d ab 43 12 3d f4 b2 46 3d
       0.014332882 0.117531046 0.035709064 0.048510507
000010 64 6d 0a bd c0 6e 7c bd a7 b1 de bc 29 3c fa bd
       -0.03379573 -0.061629057 -0.02718432 -0.12218506
000020 4f 40 eb 3c 7c 32 48 3d 18 1b c2 bd cd ba 1b bd
       0.028717188 0.04887627 -0.09477824 -0.038019944
000030 a0 b0 2e bd 8d fe 7c bc 23 21 d2 bb f3 02 95 3c
       -0.04264891 -0.015441549 -0.0064126416 0.018189883
000040 f7 e4 98 bd d0 59 ec 3c 52 10 24 bd 60 9f 80 3d
       -0.074655466 0.02885142 -0.040054627 0.06280398
000050 44 05 68 3c d9 c3 9f bc 49 62 a3 bc 8f 25 a7 3b
       0.014161412 -0.019502567 -0.019944327 0.005100913
000060 d7 21 e9 bd 97 fa bd 3c d1 b9 e8 bd cb 34 da 3d
       -0.113834076 0.02319078 -0.11363567 0.10654601
000070 ec 12 c4 bd 0a 95 07 3d 08 1f 31 bd 53 87 70 3d
       -0.095739216 0.03310112 -0.043242484 0.058722805
000080 90 10 5c bc d3 d0 e9 3c 41 6c e7 bd 17 57 25 bd
       -0.013431683 0.028541958 -0.11299945 -0.04036626
000090 35 30 e8 bd f6 84 9f bd 2f e9 cf 3d 30 97 97 bd
       -0.1133732 -0.07789032 0.10151898 -0.074018836
0000a0 56 f7 56 bd 74 e4 03 be b7 27 98 bd c5 67 ef 3d
       -0.05248197 -0.12880117 -0.0742945 0.11689714
0000b0 f9 72 3e 3c 9e e5 ef 3d e3 8b 94 bd a7 72 2e bd
       0.011624091 0.11713718 -0.07253244 -0.04258981
0000c0 b4 c0 85 bd 1d c7 dc bd 8f 60 85 bd a8 85 bc bd
       -0.06530896 -0.10780165 -0.06512558 -0.092051804
0000d0 07 01 e9 3d e3 c7 9e bd e8 bd 35 bc 5c 14 b3 3d
       0.11377149 -0.07752969 -0.01109264 0.087441176
0000e0 bb 31 65 bd 28 6a cb bc c8 ec ba bd b9 42 df bc
       -0.05595563 -0.024830893 -0.09127194 -0.027253496
0000f0 a6 88 80 bd 76 58 a6 bd bc 61 63 3d 68 2e 98 3d
       -0.062760636 -0.08122341 0.05551313 0.07430726
000100 be 0e 86 3d 9f d8 93 3b 46 6c ec bd 6e df db bd
       0.065457806 0.004511907 -0.11544089 -0.10735975
000110 5f 65 d0 bd 7d e5 41 bd e3 0f 8a 3d 99 86 16 3c
       -0.10175585 -0.047337998 0.067413114 0.009187364
000120 64 7d 77 3d f8 42 c0 3d 10 dd 97 3d d9 61 a8 bd
       0.060422316 0.09387773 0.07415211 -0.08221788
000130 e5 57 0a 3c c4 05 a1 bd f0 2b f5 3d 1c 8d 84 3b
       0.008443807 -0.07862428 0.11971271 0.004045142
000140 2b 73 09 bd e4 71 23 3d ac 28 51 3c a5 6f b4 3c
       -0.0335571 0.039903536 0.012766045 0.022025893
000150 5b 7b 89 bd 24 2e e0 3d 87 c4 e0 bd 03 74 ef 3c
       -0.06712981 0.109463006 -0.109749846 0.029230123
000160 1c 4b 58 3d ee 1b fb bc 36 53 cc 3d 44 1a b1 3d
       0.052806005 -0.030652966 0.09976809 0.08647588
000170 e3 4b 78 3b 99 12 c1 3d bc 7b f0 bb e9 62 aa bc
       0.003788703 0.09427375 -0.007338969 -0.020799117
000180 61 b7 96 3d 38 37 c4 bd 0f 98 3c 3c 5f 77 87 3d
       0.073591955 -0.09580845 0.011510863 0.06614565
000190 bc 4c 13 3d e7 71 ac bd 93 30 86 3c 75 c3 d9 3a
       0.03596185 -0.08420163 0.016380584 0.0016614037
0001a0 49 fc f6 3c b7 6d df 3d af 44 88 bd 35 63 4c bd
       0.030149596 0.10909598 -0.06653725 -0.0498993
0001b0 a7 a5 73 bd b3 ef bc 3c f3 73 4e bb 77 a3 aa bd
       -0.05948415 0.023063516 -0.0031502217 -0.0833196
0001c0 5c 05 6c 3d f6 f8 45 bd e8 73 0d 3d be 49 aa 3d
       0.0576223 -0.04833313 0.034534365 0.083148465
0001d0 0f 8a ee 3d f6 bc da 3c a5 4f c7 bd d0 cd 51 3d
       0.11647426 0.026701432 -0.09731988 0.05122167
0001e0 33 77 1f bd b2 0d ec 3a be 3e 8b 3d cb c0 c1 3d
       -0.038932037 0.0018009453 0.067990765 0.094606005
0001f0 55 30 05 3d a1 0b 65 bb f7 47 b9 bd 48 65 af 3d
       0.032516796 -0.0034949558 -0.09046929 0.0856424
000200 0c 67 8e bc 8d c1 19 bc 55 f4 da bd bf 4c 3d bc
       -0.017383121 -0.009384525 -0.10691134 -0.011553942
000210 2d 50 a6 bd 0c f0 d8 bd 30 2a 44 bd 83 5e 5b 3d
       -0.08120761 -0.1059266 -0.047891796 0.05355693
000220 f8 bb d1 3c da 37 c2 3d ef 42 66 bd 2e e8 86 3d
       0.025602326 0.09483309 -0.056216177 0.065872535
000230 aa 34 b1 bd e0 18 bd 3d 9e 84 c8 3d 90 70 58 bc
       -0.08652623 0.0923326 0.0979092 -0.013210431
000240 65 50 3a bc 27 f9 58 bd 71 fe 9c 3d f6 0c e8 3d
       -0.011371707 -0.052971985 0.07665718 0.11330597
000250 3d bb 84 3c c4 bd 11 3d c7 39 b9 bd a7 5d e7 bd
       0.016202563 0.035581365 -0.09044223 -0.1129716
000260 25 89 55 bc e4 e5 12 3d 52 cd 9d 3c 1f 41 bd 3d
       -0.013033186 0.035863772 0.019262943 0.092409365
000270 3f b9 00 bc 48 93 49 bd 62 c5 18 3c 95 87 42 bd
       -0.007856666 -0.049212724 0.0093244035 -0.047492582
000280 cd 90 a0 39 99 97 32 3d 09 ad c3 bd e6 2c 82 bd
       0.00030625463 0.043601606 -0.09554488 -0.0635622
000290 1d f6 48 3d e8 86 75 3d ab de 3d 3d 77 3d 48 3d
       0.049062837 0.05994311 0.04635493 0.048886742
0002a0 05 03 d7 bc 76 d1 54 3c d4 a2 04 bd 30 1e b7 bd
       -0.026246557 0.0129893925 -0.032381848 -0.08941305
0002b0 80 6b 30 3d 89 91 fe bd fe 52 85 bd 05 67 74 3d
       0.04307127 -0.124301024 -0.0650997 0.05966856
0002c0 40 e7 92 bc 87 1e aa bd ef 7f e6 bd a4 fc d2 bd
       -0.017932534 -0.08306604 -0.1125487 -0.103020936
0002d0 c8 5c 6e 3d da 1d d0 3d 21 06 d3 3d 37 d5 86 3d
       0.05819395 0.10161944 0.10303903 0.06583636
0002e0 aa 24 a9 3c 3c cc 35 3d 3e 4b 8b 3d 57 8e b7 bd
       0.020647366 0.044384226 0.06801461 -0.08962696
0002f0 03 18 fb bc 12 f7 8c bd 80 1c 8c 3d 36 aa 2b 3d
       -0.030651098 -0.068830624 0.068413734 0.041910373
000300 aa 64 d4 bd 5f 43 f5 3d 82 c9 e6 3c 64 34 99 bc
       -0.10370763 0.11975741 0.028172258 -0.01870174
000310 62 23 9b bd c2 64 cb 3d 73 33 bd bc ee ba db 3d
       -0.07575108 0.099313274 -0.023095822 0.107290134
000320 41 99 cd bd 41 19 dd 3d 26 58 26 bd a2 7a 79 bb
       -0.100389965 0.107958324 -0.04061141 -0.003806748
000330 14 87 6b bd 28 37 9b bd b5 8f 1a 3d 17 d2 aa bd
       -0.057501867 -0.075788796 0.037734706 -0.08340853
000340 65 4f ac 3d cc cf 78 3d cd 49 f7 bd 80 a7 1c 3d
       0.08413581 0.060745046 -0.12074623 0.038245678
000350 44 3e 2a 3d 0e 7a 16 3d 5d 88 24 bd 41 70 2d 3d
       0.041563287 0.036737494 -0.04016911 0.04234338
000360 ec 43 03 3e 64 6a ca 3d f5 bb 15 bd 81 a6 de bd
       0.12818879 0.09883574 -0.036556203 -0.10871602
000370 9e 94 f2 bd 0c 94 77 bb 14 6a 8d 3d 27 b4 b7 3d
       -0.11844753 -0.0037777452 0.069049984 0.08969908
000380 5a 68 d4 bc 1d 2f d5 bd 62 fc a0 3d 24 4e d6 bd
       -0.025928665 -0.10409377 0.07860638 -0.10464123
000390 cc e0 eb 3d e6 77 e6 bd 61 cf df 3c ae 49 ed 3d
       0.11517486 -0.112533376 0.027320566 0.11586319
0003a0 d8 69 61 bb f7 78 1f 3d bb 1d 2e 3c ab b5 a7 bd
       -0.0034395363 0.03893372 0.0106272055 -0.08188947
0003b0 a6 d4 5c 3c a4 a6 61 bd 83 12 6a 3d de d1 b9 bd
       0.013478434 -0.05509056 0.05714656 -0.09073232
0003c0 ed 67 29 bd 21 b9 b2 3d ef 34 d7 bd d1 f7 37 bd
       -0.041358877 0.08726717 -0.10508143 -0.04491407
0003d0 e8 63 8b bc 8a cb be 3d 18 79 8c 3c 73 33 5a bd
       -0.017015412 0.09316166 0.017147586 -0.053271722
0003e0 7b f3 d3 3d a4 0b b8 3d 2b 98 cc 3d 14 8e 52 bd
       0.103491746 0.08986595 0.09989961 -0.051405028
0003f0 b5 2e ff 3d b1 10 5f 3d ad 8d 73 bd 00 e7 46 3d
       0.124600805 0.054459278 -0.059461284 0.048560143

fc4.bias f4 [32]
000000 d7 bb 35 3d 49 cd e2 b9 99 a9 e8 bd 93 86 c7 3d
       0.04436859 -0.00043259028 -0.11360473 0.09742465
000010 ab a3 2b bb 00 0b a7 3d 26 e0 9a bd 19 7c 82 3d
       -0.0026190083 0.08156395 -0.07562284 0.06371326
000020 60 40 5f 3d 03 4b e1 bc 3c c2 26 bd 22 2d d9 3d
       0.054504752 -0.027501589 -0.04071258 0.106043115
000030 dd f0 bc 3c 22 a1 4a bd 7f c5 84 3d 4c e4 a6 bd
       0.023064071 -0.049470074 0.06482982 -0.08149013
000040 1f ea e5 bd 6a 16 18 bd ca ad ff 3c cd bf 8a 3c
       -0.11226296 -0.03713075 0.031210799 0.01693716
000050 40 bf 45 bd 0e 20 7e 3d 21 1c b6 bd 4d 1a 7c bd
       -0.048278093 0.06204229 -0.08892084 -0.06154852
000060 71 a0 71 bd f4 16 70 3d bb a2 a2 3b 98 da b6 bb
       -0.0589909 0.05861564 0.0049632466 -0.0055802576
000070 dd 5e 1f bd 17 9e e2 3b e7 98 d7 ba 0d 29 d9 bd
       -0.038908828 0.0069158184 -0.0016448767 -0.10603533

fc5.weight f4 [1, 32]
000000 ba 67 6b 3a 4b e0 1d 3e fe 9a a3 bd 1b 38 05 be
       0.0008979995 0.15417592 -0.07988547 -0.13009684
000010 52 31 81 3d 05 ac 26 3b 0f b6 97 bc 7f cc 06 3d
       0.06308235 0.0025432121 -0.01851943 0.032909866
000020 49 a8 f6 3d fa 5c 98 bd f6 88 c7 bd ce de 03 be
       0.120438166 -0.07439609 -0.0974292 -0.12877962
000030 c7 58 76 3d c9 b6 0d bd 78 06 83 bd 12 a2 66 bc
       0.06014326 -0.034598146 -0.06397718 -0.0140767265
000040 d8 63 27 bc 9c 49 c5 bd 69 6b af 3d 70 7e 95 bd
       -0.010216676 -0.096331805 0.08565409 -0.07299507
000050 41 89 4d 3d 3a e1 9e bd 87 41 20 bd 48 03 0d 3e
       0.050179724 -0.07757802 -0.03912499 0.13770783
000060 5a 4a 91 3d 41 a9 9d 3d 80 f7 e9 bd 9f b0 f4 bc
       0.070942596 0.07698298 -0.1142416 -0.029869376
000070 53 cc cf 3d 84 62 d8 3d 16 8a a5 bd a1 e1 76 3d
       0.101463936 0.10565665 -0.080829784 0.06027377
