DeepLearning/model_0325_dropout/model_best_6_r2_-0.010101530840452719.pth (torch, 666311 bytes, 9 tensors)

fc1.weight f4 [256, 478]
0	0x3ceb0dd4	0.028693117
1	0x3c3843c5	0.011246626
2	0x3a2de604	0.0006633701
3	0x3d02a0eb	0.031891745
4	0x3cf7fee1	0.030272903
5	0xbd2c7845	-0.042106885
6	0xbca5a5f8	-0.020220742
7	0xbc35a1dd	-0.0110859545
8	0x3ced443c	0.0289632
9	0xba7b000c	-0.0009574897
10	0xbd2ac5f1	-0.041692678
11	0xbc9a8ab1	-0.018864961
12	0x3d053d91	0.032529417
13	0xbd082989	-0.033242736
14	0xbcba30c3	-0.02272833
15	0x3b301c5f	0.002687238
16	0x3d1c4b6f	0.038157877
17	0x3d104c2d	0.035228897
18	0xbca9e19e	-0.020737465
19	0x3d36b9da	0.044610836
20	0x3c3f8d7f	0.01169145
21	0xbc973c5f	-0.018461404
22	0x3c823865	0.015896032
23	0xbc894042	-0.016754273
24	0x3d4f4f01	0.050612453
25	0x3b7bb8dc	0.0038409745
26	0x3cb84e16	0.022498172
27	0xbc6d0b40	-0.014468014
28	0x3d14dfe7	0.036346342
29	0x3c57c25b	0.013168897
30	0xbd1fccb9	-0.039013598
31	0xbd3d614e	-0.046235375
32	0x3d1813ad	0.03712814
33	0xbd395ebe	-0.04525637
34	0x3c17caf1	0.009264694
35	0xb9d59222	-0.00040735403
36	0x3cff5cdf	0.031172214
37	0xbd09e82c	-0.033668682
38	0x3cd68e52	0.02619091
39	0xbcbdfafe	-0.023190971
40	0xbcb58202	-0.02215672
41	0xbc395cf6	-0.0113136675
42	0x3c7e356f	0.015515669
43	0x3d5183cc	0.051151082
44	0x3bba98f0	0.005694501
45	0x3c0ccf2f	0.008594318
46	0x3c000606	0.007813936
47	0xbaa05c25	-0.0012234492
48	0x3d17b57b	0.037038308
49	0x3c0380ca	0.008026311
50	0x3d12da89	0.035852943
51	0x3cb3e868	0.021961406
52	0xbd05fe3e	-0.032713167
53	0x3ccbec8b	0.024893066
54	0x3cb08060	0.021545589
55	0x3c300084	0.01074231
56	0xbc179a6a	-0.009253124
57	0xbd441cc0	-0.04787898
58	0xbce62c78	-0.028097376
59	0xbc21ded3	-0.009879786
60	0xbcb13112	-0.021629844
61	0x3d25f8b1	0.040520374
62	0x3aedf215	0.0018153811
63	0x3c5a751a	0.013333583
64	0xbc54f92d	-0.012998861
65	0xbd36700c	-0.04454045
66	0x3ba06fde	0.004896148
67	0xbd1424e7	-0.036168005
68	0x3d16b909	0.036797557
69	0x3c9f1cdb	0.019422939
70	0xbca003e1	-0.0195331
71	0xbd45ddb0	-0.04830712
72	0xbca896ba	-0.020579685
73	0x3abf5b61	0.0014599377
74	0xbc7e0833	-0.0155048845
75	0x3b199099	0.0023432134
76	0xbd33f5ec	-0.0439357
77	0xbc99ba23	-0.018765515
78	0x3c5c6ac0	0.013453186
79	0xbb5ce5af	-0.0033706238
80	0x3ca3b63f	0.019984363
81	0x3c09070c	0.0083634965
82	0x3cdc34e9	0.026880698
83	0xbc1ac986	-0.009447461
84	0x3cea9017	0.02863316
85	0xbd5e297b	-0.054238778
86	0x3d14ab42	0.036296137
87	0xbcbc01f3	-0.022950148
88	0xbc164ba1	-0.009173305
89	0x3d134c4d	0.035961438
90	0xbc00ea09	-0.007868298
91	0x3d11d2aa	0.035601296
92	0xbaebec5c	-0.0017999518
93	0xbd055e89	-0.03256086
94	0x3bd2c6ff	0.0064324136
95	0xbcee587a	-0.029094923
96	0xb84e7517	-4.9223276e-05
97	0xbd1e4dbd	-0.038648356
98	0x3c3b52fe	0.011433361
99	0xbd395350	-0.04524547
100	0xbaf2bc8c	-0.0018519326
101	0x3b697fe9	0.003562922
102	0x3d2a6bea	0.04160682
103	0xbd0146a6	-0.031561516
104	0x3ca3bbaa	0.019986946
105	0xbd1c9b77	-0.0382342
106	0x3d0110b8	0.031510085
107	0xbd3b9b5e	-0.045802467
108	0xbc89691a	-0.01677375
109	0xbd0fd5ec	-0.03511612
110	0x3cd828a1	0.02638656
111	0x3ca0b3ea	0.01961704
112	0xbd2f0f26	-0.042739056
113	0xbd1b974e	-0.037986092
114	0xbcd86b01	-0.026418211
115	0x3cacf3a6	0.021112274
116	0xbcb05ddf	-0.021529136
117	0x3cfe13f7	0.03101538
118	0xbd45cd8e	-0.048291735
119	0xbc99552b	-0.018717369
120	0x3c0b286b	0.008493523
121	0xbac5957b	-0.0015074456
122	0x3c45e4a1	0.012078435
123	0xbbc90606	-0.0061347513
124	0xbc33c451	-0.010972098
125	0xbd207a94	-0.0391794
126	0x3b0eb69f	0.002177633
127	0x3d0c1f28	0.0342094
128	0xbd15a53d	-0.036534537
129	0x3cb175d1	0.021662625
130	0x3cf87cbc	0.030332915
131	0xbcfc10c2	-0.03076971
132	0x3cca813b	0.024719825
133	0x3ca91eaf	0.020644514
134	0xbbf6f34f	-0.007536329
135	0xbaad7b53	-0.0013235606
136	0x3c8dedfe	0.017325398
137	0xbd3159c2	-0.04329849
138	0xbcbaa892	-0.022785459
139	0xbcc74f54	-0.024329819
140	0x3d473ad8	0.048640102
141	0xbc3f0b3e	-0.011660395
142	0x3cecc1c6	0.028900992
143	0x3cc1ef75	0.023673752
144	0x3cb95d8c	0.022627614
145	0x3b8de332	0.0043300623
146	0xbd4286c9	-0.047491822
147	0x3b93f132	0.0045148367
148	0xbce18084	-0.027527101
149	0xbca4c220	-0.020112097
150	0xbc05bc06	-0.008162504
151	0xbd258d91	-0.04041821
152	0x3d1133aa	0.03544966
153	0xbd0f6894	-0.035011843
154	0xbcc76de2	-0.024344388
155	0xbc9d7ea8	-0.019225433
156	0x3b6078b8	0.0034251641
157	0x3d02806a	0.031860746
158	0x3ca94f06	0.020667564
159	0x3c9038e0	0.017605245
160	0xbd0002c4	-0.031252638
161	0xbccf3561	-0.025294008
162	0xbc089043	-0.008335176
163	0x3c47a840	0.01218611
164	0x3c1e6e94	0.009669919
165	0x3c5d2691	0.0134979645
166	0x3ce23610	0.02761367
167	0xbd20d63d	-0.039266814
168	0xbacabf36	-0.0015468362
169	0x3c1a5768	0.009420253
170	0xbd1e3c17	-0.038631525
171	0x3d1bb918	0.038018316
172	0x3cab0a6b	0.020878991
173	0xbc54670f	-0.012964024
174	0xbd1fc798	-0.039008707
175	0xbd414b50	-0.047190964
176	0x3d29701c	0.04136668
177	0x3d2c2c2d	0.042034317
178	0x3d0dc413	0.03461082
179	0xbd0b6d7e	-0.034039967
180	0x3a9ac607	0.0011808284
181	0x3c70327f	0.014660477
182	0xbd0fbd02	-0.03509236
183	0xbd3e388b	-0.046440642
184	0x3a925381	0.0011163802
185	0x3cc6a273	0.024247384
186	0x3d3edc50	0.046596825
187	0xbccfa0eb	-0.025345286
188	0xbcbe9429	-0.023264008
189	0xbd061a17	-0.032739725
190	0x3ca66965	0.020313928
191	0xbd310751	-0.043219868
192	0x3c3db245	0.011578147
193	0x3cfdbd67	0.030974103
194	0x3d2f7f0f	0.042845782
195	0x3c9c6791	0.019092353
196	0xbcdd8b7d	-0.027044052
197	0xbc49ab18	-0.012308858
198	0xbce0ce9f	-0.027442275
199	0x3d1d1b64	0.0383562
200	0xbca970f6	-0.020683747
201	0x3ccf1f8e	0.025283601
202	0xbd2c8c95	-0.042126257
203	0xbc5eeff6	-0.013607016
204	0x3cfc8b4e	0.030828144
205	0x3cd40759	0.02588241
206	0xbc51c193	-0.012802499
207	0x3d1483e7	0.036258604
208	0x3c973c3d	0.018461341
209	0x3d2e952d	0.042622734
210	0xbc8f89bf	-0.017521737
211	0x3cbdede0	0.023184717
212	0x3d2fca64	0.042917624
213	0x3c0216fe	0.007940052
214	0xbb6455c8	-0.0034841169
215	0x3cde478c	0.027133726
216	0x3d228ef1	0.0396871
217	0x3c54d5b0	0.0129904
218	0x3c839f28	0.016067103
219	0x3d1d3748	0.0383828
220	0xbd0240a5	-0.03179993
221	0xbcd916bd	-0.0265001
222	0xbc63d461	-0.013905616
223	0x3c4e4332	0.012589263
224	0x3cedc0e2	0.029022638
225	0xbce7970c	-0.028270267
226	0x3c7dc1ea	0.015488127
227	0xbc41020e	-0.011780275
228	0xbcd049a2	-0.025425736
229	0xbc97835a	-0.01849525
230	0xbcbd7988	-0.02312924
231	0x3bcc0d6f	0.0062271873
232	0x3d444577	0.04791781
233	0x3c1dda56	0.009634575
234	0x3d00a71a	0.03140936
235	0xbc10911a	-0.008823657
236	0x3c403ab9	0.011732751
237	0xbc979b3b	-0.018506637
238	0xbb2c3228	-0.0026275013
239	0xbcf142d3	-0.02945081
240	0x3c529e18	0.012855075
241	0xbc800eb8	-0.015632018
242	0xbc16893e	-0.0091879945
243	0x3b1a8b02	0.002358139
244	0xbd16498d	-0.036691237
245	0xbb8b329d	-0.004247977
246	0xbb79cd86	-0.0038116886
247	0x3d19231b	0.037386995
248	0xbca68e8b	-0.020331642
249	0xbc598837	-0.013277105
250	0x39b82307	0.00035121312
251	0xbd25b727	-0.04045787
252	0x3d1c71df	0.038194533
253	0xbc76c0ba	-0.015060598
254	0xba97bdf4	-0.0011576996
255	0xbd265328	-0.040606648

fc1.bias f4 [256]
0	0xbc920706	-0.017825615
1	0x3c708208	0.014679439
2	0x3caacc43	0.020849353
3	0xbaca0caa	-0.0015415151
4	0xbd338725	-0.043830056
5	0x3d2a20c8	0.04153517
6	0xbceae9eb	-0.028675994
7	0x3cc41b74	0.023938872
8	0xbce50405	-0.027956018
9	0x3d1135e1	0.035451774
10	0x3cddb13f	0.027062057
11	0xbcd7ad24	-0.026327677
12	0x3d0c62f0	0.03427404
13	0x3cd8dc7b	0.02647232
14	0x3d16b4d0	0.03679353
15	0xbd26a983	-0.040689003
16	0xbc7cd6b0	-0.015432045
17	0xbd04240b	-0.032260936
18	0xbcba5e60	-0.02275008
19	0x3bc199d5	0.005908231
20	0x3c6d10ac	0.014469307
21	0xbd5d1be8	-0.05398169
22	0xbd14fde5	-0.036374945
23	0x3c68c8ca	0.014208028
24	0x3caa79bb	0.020809999
25	0x3bdc45cb	0.006722187
26	0xbc7c03fb	-0.015381808
27	0x3cc06a84	0.02348829
28	0xbcdfde87	-0.027327789
29	0xbd337395	-0.0438114
30	0xbd06d644	-0.032919183
31	0xbd1f1ebc	-0.03884767
32	0x3c3f66ce	0.011682225
33	0x3cdbbebd	0.02682435
34	0xbd3e71df	-0.046495315
35	0xbc85fe78	-0.016356692
36	0xbd43c2a7	-0.047793057
37	0x3c202c02	0.009776117
38	0xbd2eabad	-0.04264419
39	0xbc7079a6	-0.014677441
40	0xbc6f527e	-0.01460707
41	0x3d4527ac	0.048133537
42	0x3cb2c0ae	0.021820392
43	0xbcd480f5	-0.025940398
44	0xbcc27d69	-0.02374144
45	0x3d43cc96	0.04780253
46	0xbd03a69f	-0.032141324
47	0x3d11969a	0.035544015
48	0xbcfd2636	-0.03090201
49	0x3c9b355d	0.018946344
50	0xbcf91bce	-0.030408766
51	0xbc94593e	-0.01810896
52	0x3c52174f	0.01282294
53	0x3c2afa86	0.010435706
54	0xbd2d37af	-0.042289432
55	0xbc27ec1d	-0.010249165
56	0x3cad1ce6	0.021131944
57	0x3cd09058	0.025459453
58	0xbbcff0a8	-0.006345827
59	0xbd3bd7aa	-0.04585997
60	0xbd201b55	-0.039088566
61	0xbb833480	-0.004004061
62	0xbd29f636	-0.04149457
63	0x3d04afea	0.032394327
64	0x3cb0a602	0.021563534
65	0x3cd299d5	0.025708118
66	0x3cd3b4c6	0.025843035
67	0xbca82a96	-0.020528119
68	0xbc2a2c07	-0.0103864735
69	0xbd4c1352	-0.049823113
70	0xbd14ccd7	-0.036328163
71	0xbd2e4d6e	-0.04255431
72	0x3d053c6e	0.032528333
73	0xbcafcc08	-0.021459594
74	0xbc5b9a9f	-0.013403564
75	0x3cadc348	0.021211281
76	0xbca665c1	-0.020312192
77	0xbb94ef4a	-0.004545127
78	0x3c826638	0.015917882
79	0xbd0de5d4	-0.03464301
80	0x3cb90f09	0.022590177
81	0x3d05d461	0.032673243
82	0x3cc5a997	0.024128718
83	0xbd0f4099	-0.034973715
84	0xbceaef76	-0.028678637
85	0x3ca475c3	0.020075684
86	0x3afd9696	0.0019347246
87	0xbb155bb9	-0.0022790267
88	0xbd351c50	-0.044216454
89	0x3c65346e	0.013989551
90	0xbd206e59	-0.039167736
91	0xbc9ea3d8	-0.019365236
92	0x3d0a9c55	0.033840496
93	0xbcf5858c	-0.029970907
94	0xbc468a7f	-0.012117981
95	0xbc6511e4	-0.013981316
96	0x3c77827e	0.015106795
97	0x3d053093	0.032517027
98	0xbd3a0aa9	-0.045420323
99	0xbd369e6f	-0.044584688
100	0xbcf5c64a	-0.030001778
101	0xbcf5c929	-0.030003147
102	0xbd02c93e	-0.0319302
103	0x3cd55b62	0.026044551
104	0x3d005796	0.03133353
105	0x3af2da42	0.0018528181
106	0xbce6ee80	-0.028189898
107	0x3d055aa2	0.032557137
108	0xbd1067aa	-0.03525511
109	0xbc213d98	-0.009841345
110	0xbcd997f7	-0.02656172
111	0x3c90d545	0.01767982
112	0x3bdb6688	0.0066955723
113	0xbaba07ea	-0.0014193032
114	0xbd58e311	-0.052950922
115	0xbc18172f	-0.009282871
116	0x3c88b0a9	0.0166858
117	0x3cc07e61	0.023497762
118	0xbd336d22	-0.04380525
119	0xbc949ba5	-0.018140623
120	0x397f1bcb	0.00024329049
121	0xbc41bb6a	-0.011824468
122	0xbc090f86	-0.0083655175
123	0xbd131c8f	-0.035915907
124	0xba8b10cf	-0.0010609868
125	0xbd129d38	-0.035794467
126	0xbd3da1f1	-0.046297017
127	0xbc81453c	-0.015780084
128	0x3cec0d77	0.028815014
129	0x3cab3638	0.020899877
130	0xbd17fe38	-0.037107676
131	0xbd19dbfc	-0.03756331
132	0xbd2d92c8	-0.04237631
133	0xbd3c8aa9	-0.046030674
134	0x3c64f05a	0.01397332
135	0xb8e4a27c	-0.00010902152
136	0xbd0ea9c8	-0.034829885
137	0xbcfc1a7a	-0.030774344
138	0xbc92e5f6	-0.01793192
139	0xbd37a997	-0.044839468
140	0xbc064243	-0.008194509
141	0x3cf78fe8	0.030219987
142	0xbc3424dd	-0.010995117
143	0x3b747693	0.003730212
144	0x3d5fd260	0.05464399
145	0x3d0d3429	0.034473572
146	0xbd3b26fa	-0.045691468
147	0xbb7b5e92	-0.003835593
148	0xbcf231b7	-0.029564722
149	0xbb81a53a	-0.003956464
150	0x3d0047f2	0.031318612
151	0x3d1b707e	0.037949078
152	0xbc48e080	-0.012260556
153	0x3cc327e9	0.023822742
154	0x3b6dcca2	0.00362853
155	0xbcb4c6ec	-0.02206751
156	0xbbd5b001	-0.0065212254
157	0xbcfa633d	-0.030564899
158	0x3d209111	0.039200846
159	0xbc4b9b07	-0.012427098
160	0x3c461593	0.012090105
161	0xbd0da275	-0.03457876
162	0x3cc69424	0.02424056
163	0x3cf3d945	0.029766688
164	0xbcbb29a8	-0.022847012
165	0x3cbfba38	0.023404226
166	0xbc760ee8	-0.015018202
167	0xbcaffdf9	-0.021483408
168	0x3c4431f3	0.011974799
169	0xbaa8d968	-0.0012882175
170	0xbc7c9421	-0.015416176
171	0x3c335451	0.010945396
172	0x3c346482	0.011010291
173	0xbd2dbfd9	-0.04241929
174	0xbd07c31b	-0.03314505
175	0xbc39445d	-0.011307803
176	0xbd1eea5f	-0.038797732
177	0xbc85dad4	-0.016339697
178	0xbb9bc53c	-0.004753737
179	0x3d0da6e1	0.034582976
180	0x3ca78857	0.020450754
181	0xbc177abf	-0.009245574
182	0xbbdbd761	-0.006709025
183	0xbccb6f6e	-0.024833407
184	0x3c2e2cf1	0.010630832
185	0xbc510d48	-0.012759514
186	0x3c937303	0.017999178
187	0xbcfcde97	-0.030867858
188	0xbd2381a9	-0.039918575
189	0xbc70e238	-0.014702372
190	0xbb51ccac	-0.0032012863
191	0x3cf6ab8e	0.0301111
192	0xbbef2e8c	-0.00729925
193	0xbd0e7e63	-0.0347885
194	0x3cbea538	0.023272142
195	0x3c972e25	0.01845462
196	0xbb36cccd	-0.0027893067
197	0xba82939c	-0.0009962204
198	0xbd2aa53d	-0.04166149
199	0x3cf3e105	0.029770384
200	0x3c09019d	0.008362201
201	0xbb020b5f	-0.0019843203
202	0xba10173c	-0.0005496626
203	0xbc7baa73	-0.0153604625
204	0x3c7521fe	0.014961718
205	0x3c22c00a	0.009933481
206	0x3ca92432	0.020647142
207	0x3d16a218	0.03677568
208	0xbc4eb4d6	-0.012616357
209	0xbc108247	-0.008820123
210	0x3d018aa3	0.031626355
211	0x3d1d26f6	0.038367234
212	0xbc9aa0e9	-0.018875556
213	0x3c0e8a35	0.008699943
214	0xbcf496c4	-0.029857047
215	0x3d22cb96	0.039744936
216	0x3c87eb8b	0.016591808
217	0xbd13e540	-0.0361073
218	0x3b5224fe	0.0032065506
219	0xbd091df3	-0.033475827
220	0xbbd6b233	-0.0065520047
221	0xbcf782b8	-0.030213699
222	0x3cbd8a48	0.023137227
223	0x3cb7595d	0.022381479
224	0xbcdfe2e4	-0.02732987
225	0xbb54f615	-0.003249531
226	0x3b0ff4e5	0.0021966037
227	0x3b8af15d	0.0042401985
228	0x3c1ea2d8	0.00968238
229	0x3d23facd	0.040034104
230	0xbcbafe2a	-0.022826273
231	0xbca0a129	-0.019608097
232	0x3c16479a	0.009172345
233	0x3d2486c5	0.04016759
234	0xbc197903	-0.00936723
235	0x3d1041f0	0.035219133
236	0x3cd0cf01	0.025489332
237	0xbd3ad977	-0.045617547
238	0xbc04e450	-0.008111075
239	0xbcd46769	-0.025928216
240	0xbaaa0157	-0.001297037
241	0xbb9a062a	-0.004700442
242	0x3c2c2c32	0.010508584
243	0xbc852869	-0.01625462
244	0x3d4fa5f9	0.050695393
245	0x3ab9c526	0.0014173135
246	0xbc501059	-0.01269921
247	0x3cf566d2	0.029956255
248	0xbc3c5df7	-0.011497012
249	0xbd07beaa	-0.033140816
250	0x3b8fefad	0.0043925853
251	0xbc6c0dbc	-0.014407571
252	0xbd16f736	-0.036856852
253	0xbcd776a3	-0.026301688
254	0x3d2a01bb	0.041505557
255	0xbd2184a2	-0.03943313

fc2.weight f4 [128, 256]
0	0xbc259d22	-0.010108264
1	0xbd768eaa	-0.06019465
2	0x3c1e0a52	0.009646015
3	0xbcc6e80a	-0.024280567
4	0x3d472f61	0.04862917
5	0x3d1b5a7e	0.037928097
6	0x3cb48db0	0.022040218
7	0xbd493c88	-0.049129993
8	0xbb565eb7	-0.0032710263
9	0xbc67b078	-0.0141411945
10	0x3d67a412	0.056552954
11	0x3d6518c8	0.055931836
12	0x3c82c518	0.015963122
13	0xbc184846	-0.009294575
14	0x3c28794f	0.0102828285
15	0x3d5b2381	0.053500656
16	0x3c9005ed	0.01758095
17	0xbce39713	-0.027781999
18	0x3cd7a242	0.026322488
19	0x3ce3f38b	0.027826091
20	0x3bdec168	0.006797958
21	0xbba58539	-0.005051282
22	0x3d6d947a	0.058002926
23	0x3d16591e	0.036706083
24	0xbbbb5baf	-0.0057177166
25	0x3c065ba0	0.008200556
26	0x3c7746c6	0.015092557
27	0x3d24aac6	0.040201925
28	0x3d03d1b1	0.0321824
29	0x3d073793	0.033011984
30	0x3d3dd6ca	0.046347417
31	0x3d772d8f	0.060346182
32	0x3b9acbce	0.0047240024
33	0x3cbc4290	0.022980958
34	0x3c1f10f1	0.009708629
35	0xbca03f38	-0.019561395
36	0x3d0e2719	0.034705255
37	0x3cb5b087	0.022178901
38	0x3c8a6258	0.016892597
39	0xbd0bc0ec	-0.03411953
40	0x3cfe25e3	0.031023925
41	0x3be77290	0.0070632175
42	0x3d84b197	0.06479185
43	0xbc0bccdd	-0.00853273
44	0xbcddf63c	-0.027094953
45	0xbd0bf4bd	-0.034168947
46	0x3cf879e0	0.030331552
47	0xbcde77c8	-0.027156726
48	0x3d11f6b5	0.03563567
49	0x3d1ee1b7	0.038789477
50	0x3b99ae7b	0.004689989
51	0x3c9e472d	0.019321049
52	0x3c77978b	0.015111814
53	0xbd05cdce	-0.032666974
54	0x3cbf0565	0.023318002
55	0xbcbdf989	-0.023190277
56	0xbbe5fb96	-0.007018517
57	0xbcf26977	-0.029591305
58	0xbd0b89f5	-0.034067113
59	0x3cd5c1ea	0.026093442
60	0x3c52d993	0.012869257
61	0x3ceca06b	0.028885087
62	0x3d42912a	0.04750172
63	0x3d7f097e	0.06226491
64	0x3cc0fbf4	0.02355764
65	0x3d04fb38	0.032466143
66	0x3cf9efbb	0.03050982
67	0x3c469327	0.012120045
68	0x3d412b86	0.047160648
69	0x3d3913c3	0.045184862
70	0x3cc553ec	0.024087869
71	0xbd515a70	-0.05111164
72	0x3d3fd9a0	0.046838403
73	0x3d1b96b6	0.037985526
74	0x3cf5617a	0.029953707
75	0x3d3a2909	0.04544929
76	0x3cb5856e	0.02215835
77	0xbc2971aa	-0.010342041
78	0xbc9dbcb1	-0.019255014
79	0x3c3ced69	0.011531212
80	0x3d2017ca	0.039085187
81	0x3d533876	0.051567517
82	0xbcf78415	-0.030214349
83	0xbcb3cd75	-0.021948555
84	0x3d51ac83	0.05118991
85	0x3cbf192e	0.023327436
86	0xbcc1d2c5	-0.023660073
87	0x3ba632b4	0.0050719623
88	0x3cdf0f8e	0.027229097
89	0x3cd7dbaa	0.026349861
90	0x3b434b5b	0.0029799554
91	0x3bbf72d7	0.0058425474
92	0xbcc144a6	-0.023592304
93	0xbcbf6015	-0.023361245
94	0x3c9e92df	0.019357143
95	0xbc94fcb8	-0.018186912
96	0x3c54752d	0.01296739
97	0xbd39860d	-0.045293856
98	0x3d0da886	0.034584545
99	0x3d57bcc7	0.052670266
100	0xbca6a1d6	-0.020340841
101	0x3d30ea5a	0.043192245
102	0xbc6862c8	-0.014183708
103	0xbc96e3d8	-0.018419191
104	0x3cfdff11	0.031005414
105	0x3c88e404	0.016710289
106	0x3b3083c6	0.0026934012
107	0x3d21a857	0.039467182
108	0x3d017d2d	0.031613518
109	0x3c8351a4	0.01603014
110	0xbd11fa49	-0.03563908
111	0xbb981434	-0.0046410803
112	0xbc4850a0	-0.012226254
113	0xbd1561f7	-0.03647038
114	0xbc60a6cb	-0.013711642
115	0xbcf561d3	-0.029953873
116	0xbd130487	-0.03589299
117	0x3d3f3dd3	0.04668982
118	0xbae367de	-0.001734968
119	0xbb598351	-0.0033189843
120	0xbbab44fa	-0.0052267285
121	0xbccf8ee7	-0.025336696
122	0xbd522b25	-0.051310677
123	0xbbc7ec33	-0.006101155
124	0xbbdd81f8	-0.0067598782
125	0x3bbbaa47	0.0057270858
126	0xbcc913fe	-0.024545666
127	0x3cb3068d	0.02185371
128	0x3d415ff7	0.04721066
129	0xbb79a679	-0.003809361
130	0xbb481d0d	-0.0030534894
131	0x3d4b24c4	0.04959561
132	0x37c82159	2.3857387e-05
133	0xbca866d4	-0.020556845
134	0x3d3ed95b	0.046594005
135	0xbd1c118b	-0.038102668
136	0x3d3fa1d8	0.046785206
137	0xbd225200	-0.039628983
138	0x3d02b85f	0.03191411
139	0x3d58446f	0.05279964
140	0xbc77d79a	-0.015127087
141	0xbd193dd5	-0.037412483
142	0xbca12540	-0.019671082
143	0x3c301335	0.010746767
144	0x3d5ab9f5	0.0534
145	0x3d41ef44	0.047347322
146	0x3d35f81f	0.04442608
147	0xba73f42e	-0.00093061
148	0x3ccd1494	0.025034226
149	0xbcba76da	-0.022761751
150	0x3c41e4a1	0.011834295
151	0x3c9d05e1	0.019167842
152	0xbc941f4b	-0.018081328
153	0x3c78a875	0.015176882
154	0xbd4ebc6e	-0.05047267
155	0xbc4b66b8	-0.012414627
156	0xbcb27056	-0.021782082
157	0x3d6834e7	0.056691077
158	0x3c31d894	0.010854859
159	0xbd3f8ea1	-0.04676688
160	0x3d145600	0.03621483
161	0xba179d97	-0.00057836756
162	0xbd09e145	-0.0336621
163	0xbd3568eb	-0.04428951
164	0x3d33b7fb	0.04387663
165	0x3c8e5033	0.017372226
166	0xbb3aa1f7	-0.0028477886
167	0xbba98f65	-0.0051745647
168	0xbcf77ce6	-0.030210923
169	0xbb38be44	-0.002818958
170	0xbc905806	-0.017620098
171	0x3d6cc637	0.05780622
172	0xbd34d5a2	-0.04414905
173	0x3cf9c837	0.030490978
174	0x3cdcb1bf	0.026940225
175	0x3d428abe	0.047495596
176	0x3ce90427	0.028444363
177	0x3d7346c9	0.059393678
178	0xbce6b774	-0.02816365
179	0xbd157196	-0.036485277
180	0xbc8efc0c	-0.01745417
181	0x3d6e245b	0.05814014
182	0x3cb275b3	0.021784639
183	0xbd336be8	-0.04380408
184	0xbd58827d	-0.05285882
185	0xbcc25bca	-0.023725409
186	0xbb91449a	-0.004433227
187	0xbd61d4ca	-0.055134572
188	0x3cf21e1a	0.02955537
189	0xba8d4775	-0.0010778742
190	0x3d4c7491	0.049915854
191	0x3d598f0e	0.053114943
192	0xbccaf4a0	-0.02477485
193	0x3d59f3e7	0.05321112
194	0x3d08aee6	0.03336992
195	0xbc262e52	-0.01014288
196	0x3d0ee544	0.034886613
197	0x3d36f443	0.04466654
198	0x3d66f3e0	0.05638492
199	0xbc95df66	-0.018295001
200	0x3d1bc448	0.038028985
201	0x3cbe9bad	0.023267591
202	0x3d353b50	0.044246018
203	0x3a871ed1	0.0010308867
204	0x3d1a52e1	0.037676696
205	0x3c0129c6	0.007883495
206	0xbd0c3459	-0.03422961
207	0xbcc4065d	-0.023928815
208	0x3cf68c32	0.030096147
209	0xbd583498	-0.052784532
210	0x3d5b7193	0.05357511
211	0x3d399b44	0.04531409
212	0x3c0d3417	0.008618376
213	0xbd082c3b	-0.033245306
214	0xbd344053	-0.044006657
215	0xbd27365e	-0.040823333
216	0x3d0a7237	0.03380033
217	0xbc06cfa2	-0.008228214
218	0x3bb881c8	0.0056307055
219	0xbc6546ba	-0.013993913
220	0xbc24c9a5	-0.010057841
221	0x3d4ffdd2	0.05077917
222	0xbb78e31a	-0.003797716
223	0xbccc0dcc	-0.024908923
224	0x3d8264cf	0.06366884
225	0x3c9a60a9	0.01884492
226	0x3c18608f	0.009300365
227	0xbd0e7a74	-0.03478475
228	0x3cc89b77	0.024488194
229	0xbc6e1d6f	-0.014533385
230	0xbd0e6045	-0.03475978
231	0xbbd9dba2	-0.0066484967
232	0xbd3750ad	-0.044754673
233	0x3d11d932	0.035607524
234	0x3c8bc668	0.01706238
235	0xbb3d291c	-0.0028863614
236	0xbbde5f89	-0.006786291
237	0xbbd6023c	-0.006531028
238	0xbc0921e4	-0.008369897
239	0x3cab886c	0.020939074
240	0xbc6db4bc	-0.014508422
241	0x3d6efd5c	0.05834709
242	0xbcf8b247	-0.030358447
243	0xbd10672e	-0.03525465
244	0xbacde00a	-0.0015707028
245	0x3cecf826	0.02892692
246	0x3cb0c4bd	0.021578187
247	0x3d203527	0.03911319
248	0x3d0987c9	0.03357676
249	0xbd0a8f23	-0.033827912
250	0xbc9a5a8d	-0.018842006
251	0xbce6ff77	-0.028197987
252	0xbbe57e2f	-0.0070035676
253	0x3cdc6b9f	0.026906786
254	0x3d512f5f	0.051070567
255	0xbd191659	-0.037374828

fc2.bias f4 [128]
0	0xbc9603b5	-0.018312315
1	0xbd8a5829	-0.067550965
2	0x3c9bf0e2	0.01903576
3	0x3d7148f2	0.058907457
4	0xbc8b4035	-0.01699839
5	0x3d11f6d6	0.03563579
6	0x3cd7fe55	0.026366392
7	0xbc5bc496	-0.013413569
8	0x3d49c74c	0.04926233
9	0xbd50ee34	-0.05100842
10	0x3c9e7367	0.019342138
11	0x3d7e013f	0.062012907
12	0x3cd2267b	0.025653115
13	0x3d0584cb	0.032597344
14	0xbd463673	-0.04839177
15	0xbc7f9683	-0.01559985
16	0xbd06cc0f	-0.03290945
17	0xbd650785	-0.055915374
18	0xbd5483b3	-0.05188341
19	0x3be01963	0.006838964
20	0xbd0e0850	-0.034675896
21	0xbcb57b7c	-0.022153609
22	0xbd1fe0e4	-0.03903283
23	0xbd2236c0	-0.039602995
24	0xbcdeb29e	-0.02718478
25	0x3d289858	0.04116091
26	0xbd853350	-0.06503928
27	0xbd0dda4f	-0.034632023
28	0x3c59d2ea	0.013294915
29	0xbd45c7f2	-0.048286386
30	0xbc95b186	-0.018273126
31	0xbd2953f3	-0.041339826
32	0x3d1e317f	0.038621422
33	0xbc761cba	-0.015021497
34	0xbcfd170e	-0.030894782
35	0x3bf609b5	0.0075084814
36	0xbd1e6705	-0.038672466
37	0xba95e359	-0.0011435553
38	0xbcfc7c22	-0.03082091
39	0xbce111a4	-0.027474232
40	0xbd72c484	-0.059269443
41	0xbd59b8ee	-0.05315488
42	0x3d5557a1	0.052085523
43	0x3d18ae63	0.037275683
44	0xbd7c3f1c	-0.061583623
45	0x3c570b45	0.013125245
46	0x3d57522a	0.052568592
47	0xbd20a183	-0.03921653
48	0xbd73854f	-0.059453305
49	0x3ca22bca	0.01979627
50	0x3d237457	0.039905872
51	0xbc09ec85	-0.008418207
52	0x3ca851b4	0.020546772
53	0x3d57d20d	0.052690554
54	0xbd8acc92	-0.067773
55	0x3d12be09	0.035825763
56	0xbd1721dd	-0.03689753
57	0x3d50965d	0.050924648
58	0xbcb00c1c	-0.02149015
59	0x3c96eb4d	0.018422747
60	0xbd3a3d13	-0.0454684
61	0xbd7e34f0	-0.062062204
62	0xbd58ce39	-0.052931044
63	0x3d2d7b64	0.042354003
64	0xbd39ac06	-0.04533007
65	0xbb31d3ec	-0.0027134372
66	0xbc3dad4e	-0.011576964
67	0x3b578ff1	0.0032892192
68	0x3d3572f6	0.04429909
69	0xbcadb134	-0.021202661
70	0xbd687ed1	-0.056761567
71	0xbba05246	-0.0048926203
72	0x3c837ce8	0.01605077
73	0xbd80077a	-0.06251426
74	0xbb21542a	-0.0024616816
75	0xbd0465ca	-0.032323636
76	0x3dc090c2	0.0940261
77	0x3c7f9931	0.0156004885
78	0xbbbc8ba3	-0.0057539507
79	0x3d59fe41	0.05322099
80	0x3cf65a29	0.030072289
81	0x3d57d039	0.05268881
82	0x3c2e9b09	0.01065708
83	0xbd38378f	-0.04497486
84	0x3bf2a6a2	0.007405118
85	0x3d1ea03e	0.038727038
86	0x3cd072c6	0.025445353
87	0xbd05d6dd	-0.032675613
88	0xbb944234	-0.0045244936
89	0x3ced03b7	0.028932435
90	0xbc93f8f5	-0.018063048
91	0x3d82b683	0.063824676
92	0x3d5016f5	0.050803144
93	0x3c6a3ff8	0.014297478
94	0x3d3dceb5	0.04633971
95	0xbd83ad24	-0.06429508
96	0xbcbaefe1	-0.022819461
97	0x3d9e2249	0.07721383
98	0xbbb634e0	-0.0055605024
99	0x3a034d1a	0.00050087424
100	0xbc8a85dc	-0.016909532
101	0x3d37713f	0.044785734
102	0x3c8424cc	0.016130827
103	0x3d5a8fff	0.05335998
104	0x3d341e5f	0.043974277
105	0x3c85aa4c	0.016316555
106	0xbbffbafe	-0.0078042736
107	0x3bb9b103	0.0056668534
108	0xbd34e6bf	-0.04416537
109	0xbc27d0a9	-0.01024262
110	0x3d6922ea	0.056918062
111	0xbce7b9dc	-0.028286867
112	0x3c1d06e6	0.009584164
113	0xbc5a25d0	-0.013314679
114	0xbc775f72	-0.0150984395
115	0xbd372251	-0.04471046
116	0xbca14e62	-0.019690696
117	0x3c3f0b6d	0.011660439
118	0xbd5298f1	-0.051415388
119	0x3c491a40	0.012274325
120	0x3d41eba7	0.047343876
121	0xbd1b3571	-0.037892763
122	0x3d0f7258	0.035021156
123	0x3c883f51	0.016631754
124	0x3d4c4973	0.049874734
125	0x3d1bf851	0.03807861
126	0xbc9d81e2	-0.019226972
127	0x3cc43a07	0.02395345

fc3.weight f4 [64, 128]
0	0xbcd32d7b	-0.025778523
1	0xbd23fd2f	-0.040036377
2	0xbd09a5d3	-0.033605408
3	0xbd1da135	-0.038483817
4	0x3d43081c	0.047615156
5	0x3d955164	0.07290915
6	0x3cfdce06	0.030982029
7	0xbda258db	-0.07927104
8	0x3ad229be	0.0016034169
9	0x3cd61076	0.026130896
10	0xbd0b3445	-0.033985395
11	0x3c4d4f94	0.01253118
12	0xbda1cd96	-0.079005405
13	0xbc0847ae	-0.008317871
14	0x3d19d94f	0.037560757
15	0xbcbe08a0	-0.023197472
16	0x3cc46cb6	0.023977619
17	0x3bf481f5	0.007461781
18	0xbcef9c42	-0.029249314
19	0xbc6beb5c	-0.014399376
20	0x3d28315b	0.041062694
21	0x3d228659	0.039678905
22	0x3d638294	0.05554445
23	0x3d9b591d	0.075853564
24	0xbd3da024	-0.0462953
25	0xbd9eadb0	-0.07747972
26	0x3d575de3	0.05257977
27	0xbbfebe10	-0.007774122
28	0x3ae76e76	0.0017656821
29	0xbdbcbed0	-0.09216082
30	0xbd96f6ac	-0.07371268
31	0xbd90788d	-0.07054243
32	0xbda7c2f3	-0.081914805
33	0xbc3d977d	-0.011571762
34	0xbd349552	-0.044087715
35	0x3d92bfef	0.07165515
36	0xbb800f85	-0.0039081
37	0xbd545021	-0.05183423
38	0x3d718941	0.058968786
39	0xbc9c0b62	-0.019048396
40	0x3c699c64	0.014258478
41	0x3d4bde2d	0.04977243
42	0xbca4ce24	-0.020117827
43	0x3b94c27b	0.0045397854
44	0xba3bad98	-0.00071593514
45	0x3d720f86	0.059096836
46	0xbd493623	-0.049123894
47	0x3d163fc8	0.03668192
48	0x3b98d8e4	0.0046645273
49	0xbd9a2ce6	-0.07528095
50	0x3d9bf5df	0.076152556
51	0xbda27f3b	-0.079344235
52	0xbd7370e6	-0.05943384
53	0xbdb18566	-0.08668022
54	0xbcd3d968	-0.025860503
55	0xbd9acdcc	-0.07558784
56	0x3d70c7fe	0.058784477
57	0xbd5570cf	-0.052109536
58	0x3d802a19	0.062580295
59	0xbc6749e0	-0.014116734
60	0xbcd38df1	-0.025824519
61	0x3bd46cb8	0.006482687
62	0x3c0fae68	0.008769609
63	0x3d218818	0.03943643
64	0xbbec7b1a	-0.0072168233
65	0xbc3532ca	-0.011059472
66	0x3d7e89ed	0.062143255
67	0xbdab072b	-0.083509766
68	0x3d837256	0.06418292
69	0x3ce9a36d	0.02852031
70	0x3d2f7bf9	0.04284284
71	0xbd3ebbb2	-0.04656572
72	0xbd243e5e	-0.04009854
73	0xbd9e2686	-0.077221915
74	0x3d593813	0.053031992
75	0x3c314746	0.010820216
76	0xbcc6b717	-0.024257226
77	0x3d0b91c0	0.034074545
78	0x3d996562	0.0749004
79	0x3ca5b596	0.020228188
80	0xbda5cfda	-0.08096285
81	0xbd7157ba	-0.058921553
82	0xbcba2735	-0.022723773
83	0xbd3e3918	-0.046441168
84	0x3d541b7c	0.051784024
85	0x3d114bbc	0.035472617
86	0xbda9be43	-0.08288243
87	0x3d28331b	0.041064363
88	0xbceba2e7	-0.028764201
89	0x3d3e7f25	0.046507973
90	0xbd20488b	-0.039131682
91	0xbd89b387	-0.06723695
92	0xbd989e30	-0.07452047
93	0xbd097476	-0.03355833
94	0x3d47ce33	0.04878063
95	0xbbb0bdc7	-0.005393717
96	0xbcb39cb3	-0.021925306
97	0xbce8519f	-0.028359232
98	0xbdb2f7c9	-0.087386675
99	0x3d729d50	0.059232056
100	0x3d294d6b	0.041333597
101	0xbd72ef26	-0.0593101
102	0xbd989dd2	-0.07451977
103	0xbce0fdc9	-0.027464764
104	0x3da54ea9	0.08071644
105	0xbd490f0d	-0.04908662
106	0x3d8019dd	0.06254933
107	0x3d622cfd	0.055218685
108	0xbd174042	-0.036926515
109	0xbbfdd4c7	-0.0077463123
110	0xbd8ad1a5	-0.06778268
111	0x3d246d72	0.040143438
112	0xbc552a8a	-0.01301063
113	0x3c40bd84	0.011763934
114	0xbd099ec4	-0.033598676
115	0x3cebae1e	0.028769549
116	0xbcbe83c3	-0.023256188
117	0x3ca98d75	0.020697335
118	0xbd2c4724	-0.042060032
119	0x3d8fa74a	0.0701433
120	0xbda03ffc	-0.07824704
121	0x3c66561d	0.014058617
122	0xbcd5ce14	-0.026099242
123	0x3c659c67	0.01401434
124	0xbdbcf4d6	-0.09226386
125	0x3d94b979	0.072619386
126	0xbd032d56	-0.032025658
127	0xbd83e137	-0.06439441
128	0xbd031e27	-0.032011177
129	0xbdabb55d	-0.08384202
130	0xbce2ad03	-0.027670389
131	0x3cf9a9bc	0.030476443
132	0x3d9ec2d4	0.07752004
133	0x3d32b744	0.043631807
134	0x3c37628f	0.011192932
135	0x3cdbaab6	0.0268148
136	0xbd14b662	-0.036306746
137	0x3b91fc48	0.004455123
138	0xbd0c9d26	-0.034329556
139	0xbd2a8db5	-0.04163905
140	0x3b297adc	0.0025860583
141	0x3d9d53df	0.07682013
142	0xbca16a50	-0.019704014
143	0x3d8664e3	0.06562211
144	0xbcf961e4	-0.030442186
145	0x3daf4bd6	0.085593864
146	0x3d6ada8c	0.05733733
147	0xbbfe42c2	-0.007759423
148	0x3d138c07	0.036022212
149	0xbdab201a	-0.08355732
150	0x3cad6c49	0.021169798
151	0xbdacd8f5	-0.08439819
152	0x3cb15e4e	0.021651413
153	0x3d9b86ca	0.07594068
154	0x3d887842	0.06663562
155	0xbda9fd00	-0.08300209
156	0xbdae9914	-0.08525291
157	0xbd992609	-0.07477958
158	0x3d8d26ae	0.06892143
159	0x3da97aae	0.082753524
160	0x3c89da95	0.01682786
161	0x3d95b291	0.073094495
162	0x3d7f5dbe	0.06234526
163	0x3d1ae35c	0.037814483
164	0xbce9f685	-0.028559932
165	0xbdc0006c	-0.093750805
166	0x3c61a1a8	0.013771452
167	0xbdb59a47	-0.08867317
168	0x3d828a43	0.063740276
169	0x3ae665df	0.0017577967
170	0x3cd9509b	0.026527693
171	0x3d817930	0.06321943
172	0x3d991c42	0.07476093
173	0xbd9522b6	-0.07282011
174	0xbc95857e	-0.01825213
175	0x3b04f54a	0.0020287805
176	0xbcd9de59	-0.026595281
177	0xbc80ecc2	-0.015737895
178	0xbd123b34	-0.03570099
179	0x3d4a30f0	0.049363077
180	0x3d03d16b	0.03218214
181	0xbd6b5da0	-0.057462335
182	0xbd5e047d	-0.0542035
183	0xbca0e291	-0.019639285
184	0xbca26c36	-0.01982699
185	0xbd29aeed	-0.041426588
186	0xbd03ddb6	-0.032193862
187	0xbcf53a34	-0.02993498
188	0x3c13d7a5	0.009023582
189	0xbd8b227b	-0.06793686
190	0xbd1b0aff	-0.037852284
191	0x3d054f16	0.032546125
192	0x3d3a0f99	0.04542503
193	0x3cf3a74f	0.029742865
194	0xbcebb2ac	-0.02877172
195	0xbda24f47	-0.07925277
196	0x3da59e98	0.0808689
197	0xbd48a5f2	-0.048986383
198	0xbdbbb601	-0.09165574
199	0xbd727cbf	-0.059201
200	0x3d740461	0.05957449
201	0x3d1cd391	0.038287703
202	0x3da1f322	0.07907702
203	0x3d3181ed	0.043336798
204	0xbd424b2c	-0.04743497
205	0x3d4b4dcf	0.04963475
206	0xbd171f8d	-0.036895324
207	0x3c3ba9dc	0.011454072
208	0x3d537a22	0.051630147
209	0xbd5649eb	-0.052316587
210	0xbdb382db	-0.08765193
211	0x3d9d2028	0.07672149
212	0x3d9fae7b	0.077969514
213	0xbcd3d6fc	-0.025859348
214	0x39b66fa6	0.0003479693
215	0x3da6d29d	0.0814564
216	0xbc37f16d	-0.011226994
217	0xbd2759d6	-0.04085716
218	0x3d90a2a3	0.070622705
219	0xbd7e9317	-0.062151995
220	0xbd48e215	-0.049043734
221	0xbcf936d5	-0.030421654
222	0xbb886ca9	-0.004163344
223	0x3d5aa9e6	0.053384684
224	0x3d857872	0.06517114
225	0xbcff53ec	-0.031167947
226	0xbd1ded17	-0.038556185
227	0x3da3a781	0.07990933
228	0x3c4934bc	0.012280639
229	0xbd93927c	-0.07205674
230	0xbd9cc12c	-0.07654032
231	0xbd15e0d7	-0.036591377
232	0x3d08e872	0.033424802
233	0x3d2bb7bf	0.04192328
234	0x3d95e26f	0.073185794
235	0x3cf770a5	0.03020508
236	0xbdb6b15c	-0.08920547
237	0xbd4c9516	-0.049946867
238	0x3d31d06f	0.04341167
239	0x3c95f3cd	0.01830473
240	0x3b13405b	0.0022468779
241	0x3d1bbd52	0.038022347
242	0x3d3caf09	0.046065364
243	0xbd9b7ed0	-0.07592547
244	0xbc230b34	-0.0099514015
245	0xbc9a1f82	-0.018813852
246	0x3cc99dec	0.024611436
247	0x3d627108	0.055283576
248	0x3d0d3f5e	0.03448426
249	0xbd8cc1c5	-0.06872896
250	0xbd8b3550	-0.06797278
251	0xbd6f142a	-0.05836884
252	0xbc84404c	-0.01614394
253	0x3cfd55a7	0.030924631
254	0x3cf8ecdb	0.030386379
255	0xbd0ef9bb	-0.03490613

fc3.bias f4 [64]
0	0x3d3ac1a3	0.045594823
1	0x3d7b66fd	0.061377514
2	0xbd4f063d	-0.05054306
3	0xbcf48350	-0.02984777
4	0xbcaa4f36	-0.020789724
5	0x3da5aed3	0.08089986
6	0x3c9ade71	0.018904896
7	0xbdd28314	-0.102789074
8	0xbd479fc0	-0.048736334
9	0xbd5a4254	-0.05328591
10	0xbd470508	-0.048588783
11	0xbd0dd183	-0.034623634
12	0x3cb4bf77	0.022063954
13	0xbd1d7d31	-0.03844947
14	0x3b766611	0.0037597457
15	0x3d09e11d	0.03366195
16	0x3d289c83	0.041164886
17	0xbd3d8bad	-0.046275783
18	0xbc7a782c	-0.01528744
19	0x3c846f85	0.016166458
20	0xbd8e85f8	-0.06959146
21	0x3cf2a67d	0.029620403
22	0xbd80a35f	-0.062811606
23	0x3c35316b	0.011059145
24	0x3d4e2b8a	0.05033449
25	0xbdb3a972	-0.087725535
26	0xbd11c8c0	-0.03559184
27	0xbc5c05cb	-0.0134291155
28	0xbd83dde8	-0.0643881
29	0x3d4034c0	0.046925306
30	0xbd4c767d	-0.049917687
31	0xbd76fdc2	-0.060300596
32	0xbd14abb6	-0.03629657
33	0xbd64325f	-0.0557121
34	0x3af935a6	0.0019013181
35	0x3d2cc301	0.042178158
36	0xbd96c16f	-0.07361113
37	0x3d226248	0.03964451
38	0xbda41b47	-0.08013015
39	0xbd8afcf1	-0.06786526
40	0xbcaa5320	-0.02079159
41	0xbdb5dadc	-0.08879635
42	0xbd95c14d	-0.0731226
43	0xbd0029bf	-0.031289812
44	0xbd2dad83	-0.0424018
45	0x3d9f7226	0.07785444
46	0x3c4a015b	0.012329425
47	0xbd8d3d40	-0.06896448
48	0x3d48d55f	0.04903161
49	0x3d910be4	0.07082346
50	0x3930c828	0.00016859232
51	0x3d789b3c	0.060694918
52	0xbd804109	-0.062624045
53	0xbd98e366	-0.07465248
54	0xbda54fdb	-0.08071872
55	0x3d98fa4c	0.07469615
56	0x3cacfe4d	0.021117354
57	0xbd7478fd	-0.059685696
58	0x3d50f773	0.051017236
59	0xba665620	-0.00087866373
60	0xbd76ae82	-0.060225017
61	0xbd5a17a6	-0.05324521
62	0xbd03ebae	-0.032207184
63	0xbd5d6243	-0.054048788

fc4.weight f4 [32, 64]
0	0x3c6ad40a	0.014332781
1	0x3df0b494	0.117531925
2	0x3d12438b	0.035708945
3	0x3d46b02d	0.048507858
4	0xbd0a53b0	-0.033771217
5	0xbd7c7a28	-0.061639935
6	0xbcdec0b5	-0.0271915
7	0xbdfa393b	-0.12217947
8	0x3ceb306b	0.02870961
9	0x3d482fc7	0.04887369
10	0xbdc21c10	-0.09478009
11	0xbd1bc39c	-0.038028345
12	0xbd2eb056	-0.042648636
13	0xbc7cfd5b	-0.015441264
14	0xbbd15e41	-0.00638941
15	0x3c950090	0.018188745
16	0xbd98a6f3	-0.07453718
17	0x3cec377e	0.028835054
18	0xbd241149	-0.040055547
19	0x3d80c2af	0.06287133
20	0x3c68fa80	0.01421988
21	0xbc9f76ce	-0.01946583
22	0xbca35a89	-0.019940631
23	0x3ba72ee7	0.0051020267
24	0xbde8f6cd	-0.113751985
25	0x3cbe3f11	0.023223432
26	0xbde8c000	-0.11364746
27	0x3dda345e	0.106545195
28	0xbdc4123a	-0.09573789
29	0x3d079da7	0.033109333
30	0xbd31207f	-0.04324388
31	0x3d7089d3	0.05872519
32	0xbc5c1094	-0.013431687
33	0x3ce9da5f	0.02854651
34	0xbde76573	-0.11298647
35	0xbd255802	-0.040367134
36	0xbde81f34	-0.113340765
37	0xbd9f8daf	-0.07790696
38	0x3dcfebc6	0.10152392
39	0xbd978ea3	-0.07400253
40	0xbd56f990	-0.052484095
41	0xbe03e4a1	-0.12880184
42	0xbd982798	-0.07429427
43	0x3def5de8	0.11687833
44	0x3c3ebee7	0.011642194
45	0x3defeb3b	0.117147885
46	0xbd947c64	-0.07250288
47	0xbd2e70a9	-0.04258791
48	0xbd85b8e4	-0.06529406
49	0xbddcc86d	-0.10780416
50	0xbd855f54	-0.06512323
51	0xbdbc8a67	-0.09206086
52	0x3de900bc	0.11377093
53	0xbd9eac10	-0.07747662
54	0xbc35cf53	-0.011096793
55	0x3db306fe	0.08741568
56	0xbd653355	-0.055957157
57	0xbccb693d	-0.024830455
58	0xbdbaedcb	-0.09127387
59	0xbcdecebd	-0.02719819
60	0xbd808893	-0.062760495
61	0xbda6530e	-0.0812131
62	0x3d634ad0	0.05549127
63	0x3d982e4a	0.07430704
64	0x3d861f89	0.065489836
65	0x3b94a31a	0.004536045
66	0xbdec6e32	-0.115444556
67	0xbddbd9db	-0.10734912
68	0xbdcf6891	-0.10127366
69	0xbd42dc8f	-0.047573622
70	0x3d89a1fd	0.0672035
71	0x3c189667	0.009313202
72	0x3d76ed5c	0.060284957
73	0x3dc010d8	0.09378213
74	0x3d97c5b2	0.07410754
75	0xbda86f9e	-0.08224414
76	0x3c0a4011	0.008438126
77	0xbda0f7c8	-0.078597605
78	0x3df54f58	0.11978024
79	0x3b8412ab	0.0040305457
80	0xbd056f5c	-0.032576904
81	0x3d224c59	0.039623592
82	0x3c50f976	0.012754789
83	0x3cc15ba2	0.023603264
84	0xbd869bad	-0.065726615
85	0x3de0c362	0.10974766
86	0xbde050e2	-0.10952927
87	0x3cefe2bf	0.029282926
88	0x3d5a78c7	0.05333784
89	0xbcf5d12b	-0.030006966
90	0x3dcba261	0.09943081
91	0x3db11258	0.08646077
92	0x3b7c81d8	0.0038529541
93	0x3dc12728	0.094312966
94	0xbbeea3ab	-0.0072826943
95	0xbcaa3c31	-0.020780655
96	0x3d96beb8	0.073605955
97	0xbdc40fae	-0.09573303
98	0x3c403106	0.011730438
99	0x3d87660b	0.0661126
100	0x3d156c52	0.036480255
101	0xbdad3ea0	-0.084592104
102	0x3c86d189	0.016457336
103	0x3b068ffd	0.00205326
104	0x3cf6815f	0.030090986
105	0x3ddf5ed3	0.10906758
106	0xbd883fa1	-0.06652761
107	0xbd4d5d62	-0.050137885
108	0xbd72ea7f	-0.059305664
109	0x3cc09682	0.023509268
110	0xbb2190fb	-0.0024653065
111	0xbdaa9ae9	-0.08330328
112	0x3d6d3706	0.057913803
113	0xbd45138e	-0.048114352
114	0x3d0d1a1e	0.034448735
115	0x3da9843d	0.082771756
116	0x3dee79b3	0.11644306
117	0x3ce18922	0.02753121
118	0xbdc77143	-0.097384
119	0x3d5038e0	0.05083549
120	0xbd1f7623	-0.038931023
121	0x3aea4c77	0.0017875572
122	0x3d8b0ed0	0.06789935
123	0x3dc1c976	0.09462254
124	0x3d052d1c	0.032513723
125	0xbb5bc020	-0.0033531263
126	0xbdba1e80	-0.09087849
127	0x3daf5d9b	0.08562776
128	0xbc8ecd6c	-0.017431937
129	0xbc1a1270	-0.00940381
130	0xbddaf1e9	-0.10690672
131	0xbc3ca5d6	-0.011514148
132	0xbda6fc57	-0.08153599
133	0xbdd8a654	-0.105785996
134	0xbd433fc1	-0.047668222
135	0x3d5b5887	0.053551223
136	0x3cd2889a	0.025699902
137	0x3dc243d3	0.09485593
138	0xbd662973	-0.056191873
139	0x3d86edbb	0.06588312
140	0xbdb13aea	-0.08653815
141	0x3dbcdd30	0.09221876
142	0x3dc7a2d0	0.09747851
143	0xbc585a2e	-0.013205094
144	0xbc5c3323	-0.013439926
145	0xbd578600	-0.052618027
146	0x3d9cf980	0.07664776
147	0x3de4f579	0.11179633
148	0x3c8105f0	0.015749902
149	0x3d0f8d94	0.03504713
150	0xbdb98881	-0.09059239
151	0xbde76964	-0.112993985
152	0xbc61597a	-0.013754243
153	0x3d0f8542	0.035039194
154	0x3ca05c68	0.019575313
155	0x3dbd50a2	0.09243895
156	0xbc01258c	-0.007882487
157	0xbd4a1dab	-0.0493447
158	0x3c1a4464	0.00941572
159	0xbd42824d	-0.047487546
160	0x399a536f	0.00029435332
161	0x3d323f93	0.04351766
162	0xbdc3826d	-0.09546361
163	0xbd821ade	-0.06352781
164	0x3d474990	0.04865414
165	0x3d768f6b	0.060195368
166	0x3d3d8ec3	0.046278726
167	0x3d46dd1a	0.048550703
168	0xbcd66f0c	-0.026175998
169	0x3c552e85	0.013011579
170	0xbd04a585	-0.032384414
171	0xbdb64aa3	-0.089009546
172	0x3d2f095b	0.04273353
173	0xbdfec044	-0.124390155
174	0xbd86908e	-0.0657054
175	0x3d746972	0.059670873
176	0xbc957dd4	-0.018248476
177	0xbda9da08	-0.08293539
178	0xbde693ae	-0.112586364
179	0xbdd28330	-0.10278928
180	0x3d6e8394	0.05823095
181	0x3dce6112	0.100771084
182	0x3dd31788	0.103072226
183	0x3d881029	0.06643707
184	0x3ca95489	0.020670192
185	0x3d360521	0.044438485
186	0x3d8b8436	0.068123266
187	0xbdb94114	-0.09045616
188	0xbcfb1f5f	-0.030654607
189	0xbd8d0b0c	-0.06886873
190	0x3d8d213d	0.06891105
191	0x3d2bb727	0.041922715
192	0xbdd46f7d	-0.10372827
193	0x3df527d8	0.1197049
194	0x3ce6cffb	0.028175345
195	0xbc98dce9	-0.018660026
196	0xbd9b5563	-0.075846456
197	0x3dcbda2c	0.09953722
198	0xbcbc49ad	-0.02298435
199	0x3ddb7ae8	0.10716802
200	0xbdcd47f8	-0.100234926
201	0x3ddd362f	0.1080135
202	0xbd262d7d	-0.040570725
203	0xbb752bf6	-0.0037410236
204	0xbd6bbc97	-0.0575529
205	0xbd9b354b	-0.07578524
206	0x3d1a375c	0.03765045
207	0xbdaac4c0	-0.08338308
208	0x3da9c31d	0.08289168
209	0x3d79339e	0.06084024
210	0xbdf74077	-0.120728426
211	0x3d16799f	0.03673708
212	0x3d2801a9	0.04101721
213	0x3d14686e	0.036232404
214	0xbd2546d8	-0.040350765
215	0x3d2d36c2	0.04228855
216	0x3e0289fe	0.12747952
217	0x3dc90421	0.09815241
218	0xbd146105	-0.036225338
219	0xbdde97b0	-0.10868776
220	0xbdf2b12c	-0.11850199
221	0xbb8032cc	-0.0039123055
222	0x3d8d6b35	0.06905214
223	0x3db795a3	0.08964088
224	0xbcd48132	-0.025940511
225	0xbdd55144	-0.10415891
226	0x3da08e3f	0.07839631
227	0xbdd63e8f	-0.10461151
228	0x3deae315	0.11469094
229	0xbde59e4c	-0.11211833
230	0x3cdf7b10	0.02728036
231	0x3decad15	0.1155645
232	0xbb613a43	-0.0034367002
233	0x3d1f91bc	0.038957343
234	0x3c2e2821	0.010629685
235	0xbda6fdb2	-0.08153857
236	0x3c591c1a	0.013251329
237	0xbd622142	-0.0552075
238	0x3d664884	0.0562215
239	0xbdb9d49c	-0.09073755
240	0xbd2a6f71	-0.041610185
241	0x3db254fd	0.087076165
242	0xbdd6e8a2	-0.1049359
243	0xbd370eec	-0.044691965
244	0xbc8b1ef1	-0.016982527
245	0x3dbd3462	0.09238507
246	0x3c8cfd2b	0.017210564
247	0xbd58c020	-0.0529176
248	0x3dd3fe82	0.10351278
249	0x3db821bf	0.089908116
250	0x3dccc305	0.099981345
251	0xbd529efb	-0.051421147
252	0x3dff2c44	0.12459615
253	0x3d5e7408	0.054309875
254	0xbd717cfd	-0.05895709
255	0x3d46ea8d	0.04856353

fc4.bias f4 [32]
0	0x3d35e6ff	0.04440975
1	0x3907ff70	0.00012969761
2	0xbde952e0	-0.1139276
3	0x3dc66200	0.09686661
4	0xbad783c3	-0.0016442466
5	0x3da75b15	0.081716694
6	0xbd9e1061	-0.07717968
7	0x3d83c253	0.06433549
8	0x3d60d4e5	0.054890532
9	0xbce598cd	-0.028026963
10	0xbd29938c	-0.041400477
11	0x3dd832f2	0.10556592
12	0x3cc01e70	0.023452014
13	0xbd4fc131	-0.05072135
14	0x3d830dc6	0.063991114
15	0xbda8197f	-0.08207988
16	0xbde672c3	-0.11252358
17	0xbd1bfb83	-0.038081657
18	0x3d0271dc	0.031846866
19	0x3c8536aa	0.016261417
20	0xbd415ebb	-0.047209483
21	0x3d7c1af5	0.061549146
22	0xbdb76e8e	-0.089566335
23	0xbd78cf00	-0.060744286
24	0xbd6f86b8	-0.058478087
25	0x3d7239dc	0.05913721
26	0x3b8e8a38	0.004349973
27	0xbbdaadb7	-0.0066735405
28	0xbd1c6634	-0.038183406
29	0x3bf79b94	0.007556388
30	0xbb31c17b	-0.002712338
31	0xbdd88a54	-0.10573259

fc5.weight f4 [1, 32]
0	0x3a0278ad	0.00049770885
1	0x3e1db756	0.15401968
2	0xbda34598	-0.07972258
3	0xbe048f61	-0.1294532
4	0x3d808e18	0.06277102
5	0x3b23c680	0.0024990141
6	0xbc9c38ba	-0.019070018
7	0x3d07145a	0.032978393
8	0x3df62dd1	0.120204575
9	0xbd979cf1	-0.07402981
10	0xbdc82a40	-0.097736835
11	0xbe038e4c	-0.1284725
12	0x3d750531	0.059819404
13	0xbd0dcb49	-0.034617696
14	0xbd83264e	-0.064037904
15	0xbc62e3ee	-0.013848288
16	0xbc250ee8	-0.010074355
17	0xbdc53ff1	-0.096313365
18	0x3daebacd	0.08531723
19	0xbd96c10d	-0.0736104
20	0x3d51cc37	0.051220145
21	0xbd9efc7f	-0.077630036
22	0xbd203622	-0.039114125
23	0x3e0c95b2	0.13728979
24	0x3d90a2b6	0.07062285
25	0x3d9d6f18	0.07687205
26	0xbde7c127	-0.11316138
27	0xbcf482a4	-0.02984745
28	0x3dcf3722	0.101179376
29	0x3dd832dd	0.105565764
30	0xbda46e80	-0.08028889
31	0x3d75a7d1	0.059974495
