DeepLearning/model_0325_dropout/model_best_3_r2_-0.0114407427931003.pth (torch, 666311 bytes, 9 tensors)

fc1.weight f4 [256, 478]
0	0x3cf974bd	0.030451173
1	0x3c31ccf6	0.010852089
2	0x39190664	0.00014593598
3	0x3d0169d7	0.031595077
4	0x3cf639fa	0.030056942
5	0xbd2d4eb2	-0.042311378
6	0xbca58f2a	-0.020209868
7	0xbc39039d	-0.011292365
8	0x3cebcb62	0.028783504
9	0xba9d7b2e	-0.001201486
10	0xbd2b94f5	-0.041890103
11	0xbc9d8c74	-0.019232012
12	0x3cf50286	0.02990843
13	0xbd12a0e6	-0.035797976
14	0xbcd1a2e4	-0.025590368
15	0x3b172e0c	0.0023068218
16	0x3d203cae	0.03912037
17	0x3d0f6524	0.035008565
18	0xbc9d5a25	-0.019208023
19	0x3d3ac96a	0.04560224
20	0x3c4d80ff	0.012542962
21	0xbc91c449	-0.017793791
22	0x3c85a5f9	0.016314493
23	0xbc8f0c7b	-0.017462006
24	0x3d47ec6d	0.048809458
25	0x3aba7132	0.0014224409
26	0x3cb89e50	0.022536427
27	0xbc67828d	-0.014130247
28	0x3cfa3778	0.030544028
29	0x3c47ef36	0.012203028
30	0xbd1ad443	-0.037800085
31	0xbd40327a	-0.04692314
32	0x3d1512d7	0.03639492
33	0xbd3c80ae	-0.046021156
34	0x3c0b5a05	0.008505349
35	0xbb1cde53	-0.0023936226
36	0x3cda3474	0.02663634
37	0xbd23fc24	-0.040035382
38	0x3caff803	0.021480566
39	0xbcc354a5	-0.023844073
40	0xbcba3fc6	-0.022735488
41	0xbc4135ab	-0.011792581
42	0x3c735eb3	0.014854121
43	0x3d4b8186	0.04968407
44	0x3b6a9e7c	0.003580003
45	0x3bb3627c	0.0054743867
46	0x3bd0259b	0.006352139
47	0xbb83fbe1	-0.004027829
48	0x3d0fa094	0.03506525
49	0x3ba17b1e	0.004928007
50	0x3d1127eb	0.03543846
51	0x3cb1fa2f	0.021725742
52	0xbd06950e	-0.032856993
53	0x3cc9791e	0.024593886
54	0x3c9b0079	0.018921124
55	0x3c3dc61a	0.011582876
56	0xbc3efc2e	-0.011656804
57	0xbd44f96f	-0.04808944
58	0xbce711c0	-0.028206706
59	0xbc18514e	-0.009296728
60	0xbcabfc68	-0.02099438
61	0x3d22ecc8	0.039776593
62	0x3b21fb9a	0.0024716617
63	0x3c578f8e	0.013156785
64	0xbc56c0da	-0.013107503
65	0xbd36ac13	-0.044597697
66	0x3b9d1d5a	0.0047947587
67	0xbd142b4b	-0.0361741
68	0x3d16f44e	0.03685408
69	0x3c9d9602	0.019236568
70	0xbca2f216	-0.019890826
71	0xbd4802dd	-0.048830856
72	0xbcb12c21	-0.021627488
73	0x3b073cda	0.0020635636
74	0xbc73d784	-0.014882926
75	0x3b480e0e	0.0030525955
76	0xbd347f35	-0.044066627
77	0xbc9a6d32	-0.018850897
78	0x3c5bdb5a	0.013418997
79	0xbb7d7496	-0.0038674227
80	0x3c8cdb93	0.017194545
81	0x3c469e41	0.012122692
82	0x3cda7164	0.026665397
83	0xbbe56684	-0.007000746
84	0x3d05cfc4	0.032668844
85	0xbd4601b1	-0.048341457
86	0x3d113f1c	0.035460576
87	0xbcc51450	-0.024057537
88	0xbc221cb2	-0.009894537
89	0x3d1102a9	0.035402928
90	0xbc08a121	-0.008339197
91	0x3d0fcfa1	0.03511012
92	0xbb0e0ef0	-0.0021676384
93	0xbd063ca3	-0.03277267
94	0x3b3fc8fa	0.0029264078
95	0xbd0929ec	-0.033487245
96	0xbba4705c	-0.005018277
97	0xbd30e1ce	-0.043184094
98	0x3c127d1b	0.00894096
99	0xbd4205d6	-0.047368847
100	0xbbf95f82	-0.0076102624
101	0xbb024bdd	-0.0019881644
102	0x3d16db0a	0.036829986
103	0xbd0aa838	-0.033851832
104	0x3c99331a	0.018701125
105	0xbd1f0e39	-0.038831923
106	0x3d03a7e7	0.032142546
107	0xbd3ae988	-0.04563287
108	0xbc84a3c2	-0.016191367
109	0xbd0f5ce7	-0.035000708
110	0x3cd5fbb4	0.026120998
111	0x3ca10821	0.019657196
112	0xbd3300a0	-0.043701768
113	0xbd1c8b2b	-0.03821866
114	0xbcd6a708	-0.026202694
115	0x3ca9525e	0.020669159
116	0xbcb1b616	-0.02169327
117	0x3cf82345	0.030290255
118	0xbd46063a	-0.048345782
119	0xbcb1ef2d	-0.021720493
120	0x3bf209e3	0.0073864325
121	0xbb11cb15	-0.002224629
122	0x3c3e22db	0.01160499
123	0xbbd57ee6	-0.0065153716
124	0xbc1389bb	-0.0090050055
125	0xbd19b8f1	-0.03752989
126	0x3b5d1ed7	0.0033740306
127	0x3d0c4237	0.034242835
128	0xbd130ca6	-0.035900734
129	0x3cb3aa64	0.021931835
130	0x3cdf77b2	0.027278755
131	0xbcff90ff	-0.03119707
132	0x3cc99b74	0.024610259
133	0x3cab8c49	0.020940917
134	0xbbb8a1d1	-0.0056345244
135	0xba9156bc	-0.0011088471
136	0x3c86c6cf	0.016452221
137	0xbd260059	-0.040527675
138	0xbccbe000	-0.024887085
139	0xbcc34549	-0.023836749
140	0x3d3b1379	0.045672867
141	0xbc1f0225	-0.009705101
142	0x3cf17fff	0.029479979
143	0x3cbbffec	0.022949181
144	0x3cb61e05	0.022231111
145	0x3a8a69ba	0.0010560073
146	0xbd411de6	-0.047147654
147	0x3b998ff9	0.0046863523
148	0xbce3b00d	-0.027793908
149	0xbca3be89	-0.019988315
150	0xbc088fe3	-0.0083350865
151	0xbd243ece	-0.040098958
152	0x3d0fa16a	0.035066046
153	0xbd0f8119	-0.035035226
154	0xbccc6c61	-0.024954023
155	0xbc9cd94d	-0.019146586
156	0x3a88c07e	0.0010433344
157	0x3cfd94dc	0.03095477
158	0x3ca34c12	0.019933734
159	0x3c8bbdb6	0.017058235
160	0xbcf08d1c	-0.029364161
161	0xbcc31230	-0.023812383
162	0xbbeb6956	-0.007184188
163	0x3c45ac0f	0.012064948
164	0x3c25f6d8	0.010129653
165	0x3c69f6a9	0.01428
166	0x3ce21d5f	0.027601896
167	0xbd202565	-0.039098162
168	0xbb1579a4	-0.00228081
169	0x3c1307f5	0.008974065
170	0xbd1ff5b9	-0.0390527
171	0x3d0e34b3	0.034718227
172	0x3c920bb4	0.017827846
173	0xbc5b612c	-0.013389867
174	0xbd1826c0	-0.03714633
175	0xbd3a099b	-0.045419317
176	0x3d2ea22a	0.04263512
177	0x3d2daca4	0.04240097
178	0x3d113a4a	0.03545598
179	0xbd0a0f90	-0.033706248
180	0x3a8e73f3	0.0010868296
181	0x3c76fdd9	0.01507517
182	0xbd082b55	-0.03324445
183	0xbd360a52	-0.044443436
184	0x3b2a34a8	0.0025971327
185	0x3ccfdb2f	0.02537307
186	0x3d40eda5	0.047101635
187	0xbcd6676d	-0.026172364
188	0xbcbee326	-0.023301672
189	0xbd0aa27d	-0.033846367
190	0x3c946d81	0.018118622
191	0xbd35e98c	-0.04441218
192	0x3c371733	0.011174965
193	0x3cf0ff7e	0.029418703
194	0x3d30f428	0.043201596
195	0x3c959c7f	0.0182631
196	0xbce1293b	-0.02748548
197	0xbc56877b	-0.0130938245
198	0xbce910ea	-0.028450448
199	0x3d18699d	0.037210096
200	0xbcc6eff6	-0.024284344
201	0x3cb2b33f	0.021813987
202	0xbd380cb9	-0.04493401
203	0xbc76a34a	-0.01505358
204	0x3cfa6f14	0.030570544
205	0x3ccdc28f	0.025117187
206	0xbc72c4fe	-0.014817474
207	0x3d096481	0.033543114
208	0x3c77e594	0.015130419
209	0x3d2552e1	0.040362243
210	0xbc96bec9	-0.01840152
211	0x3cc3fb0e	0.023923423
212	0x3d31e175	0.043427903
213	0x3bd18086	0.006393495
214	0xbbbd9c58	-0.00578646
215	0x3cc91500	0.024546146
216	0x3d31567e	0.043295376
217	0x3c78d3d9	0.015187227
218	0x3c89ccaa	0.016821224
219	0x3d2051db	0.039140563
220	0xbcf9780e	-0.030452754
221	0xbccbb65e	-0.024867233
222	0xbc45bb98	-0.012068652
223	0x3c6bbf3c	0.014388856
224	0x3d00a835	0.031410415
225	0xbcec9c16	-0.028883021
226	0x3c760d08	0.015017755
227	0xbc223b27	-0.009901798
228	0xbcbc1d1b	-0.022963097
229	0xbca8af22	-0.020591322
230	0xbcc4cd7a	-0.02402376
231	0x3c09b0e0	0.008403987
232	0x3d4c3b64	0.049861327
233	0x3c308908	0.010774858
234	0x3d00dc7c	0.03146027
235	0xbc1dbe9c	-0.009627964
236	0x3c2ebad1	0.010664658
237	0xbca0cd24	-0.019629069
238	0x3bda2179	0.0066568223
239	0xbce42a49	-0.027852194
240	0x3b711968	0.0036788825
241	0xbcba1ad3	-0.022717869
242	0xbc728cc5	-0.01480407
243	0x3a8e0244	0.0010834415
244	0xbce81f41	-0.028335216
245	0xbb3b9ab6	-0.002862615
246	0xbc08cd09	-0.008349665
247	0x3d0c10b6	0.034195624
248	0xbc9c982f	-0.019115536
249	0xbc5f0a7e	-0.013613341
250	0xbb7f6a06	-0.0038973107
251	0xbd1900d5	-0.03735431
252	0x3d1c6a89	0.038187537
253	0xbc9fe230	-0.019517034
254	0xba33775a	-0.0006846093
255	0xbd0fd5d9	-0.03511605

fc1.bias f4 [256]
0	0xbc952ea2	-0.018210713
1	0x3c7503a8	0.014954485
2	0x3caaa5bc	0.020830981
3	0xbaa9dbdb	-0.0012959199
4	0xbd33c70b	-0.043890994
5	0x3d297224	0.04136862
6	0xbce6ddeb	-0.02818199
7	0x3cc75b80	0.024335623
8	0xbce69c07	-0.028150572
9	0x3d0f82df	0.035036918
10	0x3cdb8ae3	0.026799625
11	0xbcdae1b6	-0.026718955
12	0x3d0d04ee	0.03442853
13	0x3cd5bd6b	0.026091298
14	0x3d160f39	0.03663561
15	0xbd254251	-0.040346447
16	0xbc82ca45	-0.01596559
17	0xbd0253d9	-0.031818245
18	0xbcbcd9ca	-0.023053069
19	0x3bb10ce7	0.0054031494
20	0x3c6e21ae	0.014534397
21	0xbd5db35b	-0.054126125
22	0xbd1540e4	-0.036438838
23	0x3c6aeccb	0.014338682
24	0x3cb2003b	0.021728626
25	0x3beb5dc2	0.0071828077
26	0xbc741c9e	-0.014899401
27	0x3cc40dd1	0.02393237
28	0xbce05bf7	-0.027387602
29	0xbd3094a9	-0.043110523
30	0xbd067824	-0.03282942
31	0xbd20646d	-0.039158273
32	0x3c340e1b	0.010989691
33	0x3cdfb731	0.027309032
34	0xbd3ef37f	-0.046618935
35	0xbc844e8e	-0.016150739
36	0xbd42141b	-0.047382455
37	0x3c23132d	0.009953302
38	0xbd2f345b	-0.04277454
39	0xbc73a0c4	-0.0148698725
40	0xbc6d23d6	-0.014473876
41	0x3d460180	0.048341274
42	0x3cb2aff2	0.021812413
43	0xbcd09a92	-0.02546433
44	0xbcc950bf	-0.024574636
45	0x3d43a7a1	0.047767285
46	0xbd0674a0	-0.032826066
47	0x3d1163e6	0.03549566
48	0xbcfbea94	-0.030751504
49	0x3c9a8978	0.018864378
50	0xbcf05024	-0.029335089
51	0xbc8c8988	-0.017155424
52	0x3c512973	0.01276623
53	0x3c2fd224	0.010731254
54	0xbd2c84ac	-0.042118713
55	0xbc2a23bf	-0.010384499
56	0x3cacb936	0.02108441
57	0x3cd43310	0.025903255
58	0xbbdfff56	-0.0068358583
59	0xbd3981da	-0.04528985
60	0xbd2211a2	-0.039567597
61	0xbb834aa3	-0.0040067
62	0xbd29e501	-0.04147816
63	0x3d052013	0.03250129
64	0x3ca99b6e	0.020703997
65	0x3ccf6b49	0.025319712
66	0x3cd17b07	0.02557136
67	0xbca80e5f	-0.020514665
68	0xbc2c2af5	-0.010508289
69	0xbd4aa3f9	-0.049472783
70	0xbd165610	-0.03670317
71	0xbd2e5a7f	-0.042566773
72	0x3d0660f3	0.0328073
73	0xbcb16d88	-0.021658674
74	0xbc603f80	-0.013687015
75	0x3caca241	0.021073462
76	0xbcae9424	-0.021310873
77	0xbb91c03f	-0.0044479663
78	0x3c83cf8b	0.016090175
79	0xbd0d0b43	-0.034434568
80	0x3cbab840	0.022792935
81	0x3d076c2a	0.033062138
82	0x3cc74a7c	0.02432751
83	0xbd0f7105	-0.035019893
84	0xbce7b2a7	-0.02828343
85	0x3ca78d06	0.020452987
86	0x3b0ea77a	0.0021767304
87	0xbadf5201	-0.0017037989
88	0xbd351ef8	-0.044218987
89	0x3c68f583	0.014218691
90	0xbd21713c	-0.03941463
91	0xbca4005d	-0.020019704
92	0x3d0964cd	0.033543397
93	0xbcf5b945	-0.02999557
94	0xbc4696e9	-0.012120941
95	0xbc71b412	-0.014752405
96	0x3c7ae56d	0.015313488
97	0x3d07db07	0.033167865
98	0xbd3b1e85	-0.045683403
99	0xbd346707	-0.044043567
100	0xbcf31632	-0.02967367
101	0xbcf721c7	-0.030167473
102	0xbd02e4f9	-0.031956647
103	0x3cd50277	0.026002152
104	0x3cf14123	0.029450005
105	0x3b23fa9b	0.0025021199
106	0xbce83420	-0.028345168
107	0x3d03cc9f	0.032177564
108	0xbd0dcb03	-0.034617435
109	0xbc21ee67	-0.0098835
110	0xbcd6e28b	-0.026231071
111	0x3c8fee01	0.017569544
112	0x3bdc763a	0.006727961
113	0xba4ce7b6	-0.000781651
114	0xbd5b79c7	-0.053582933
115	0xbc1697bf	-0.0091914525
116	0x3c84b83c	0.016201131
117	0x3cc63c22	0.024198595
118	0xbd3087f7	-0.043098416
119	0xbc91abe2	-0.017782155
120	0xb5a703b3	-1.2443546e-06
121	0xbc385a73	-0.0112520335
122	0xbc0709a1	-0.008242042
123	0xbd13102c	-0.035904095
124	0xba8c8350	-0.0010720287
125	0xbd12edb4	-0.035871223
126	0xbd3d4cc0	-0.046215773
127	0xbc7e2aa0	-0.015513092
128	0x3cf14bc4	0.029455073
129	0x3cab302b	0.020896992
130	0xbd1737e9	-0.036918554
131	0xbd18ff70	-0.03735298
132	0xbd2be0da	-0.041962482
133	0xbd3ae481	-0.045628075
134	0x3c63a64b	0.013894628
135	0x38d35e67	0.00010078848
136	0xbd0df030	-0.03465289
137	0xbcf8dc4d	-0.030378485
138	0xbc974197	-0.018463893
139	0xbd36f1d3	-0.044664215
140	0xbc0a4097	-0.008438251
141	0x3cfa295c	0.0305373
142	0xbc3ac0da	-0.011398518
143	0x3b78fe41	0.0037993344
144	0x3d5e29af	0.05423897
145	0x3d0d1583	0.034444343
146	0xbd3d0301	-0.046145443
147	0xbb8234a6	-0.0039735613
148	0xbcefa97e	-0.029255625
149	0xbb824b02	-0.003976227
150	0x3d00a3c8	0.031406194
151	0x3d1eb743	0.03874899
152	0xbc3e8fdf	-0.011630981
153	0x3cca6732	0.02470741
154	0x3b8c3951	0.0042792936
155	0xbcb42bd1	-0.02199355
156	0xbbe0410f	-0.006843693
157	0xbcfd0be6	-0.030889463
158	0x3d208483	0.039188873
159	0xbc4dd23f	-0.012562334
160	0x3c49511e	0.012287406
161	0xbd0c52af	-0.03425854
162	0x3cc323b4	0.023820736
163	0x3cf6dbf0	0.030134171
164	0xbcb7f86a	-0.02245732
165	0x3cc060ef	0.023483722
166	0xbc7711b7	-0.015079907
167	0xbcadd4f6	-0.021219712
168	0x3c450c93	0.012026924
169	0x38fe195b	0.00012116387
170	0xbc79f019	-0.015254998
171	0x3c228ae9	0.009920814
172	0x3c33e43c	0.010979708
173	0xbd2e48a4	-0.042549744
174	0xbd06cbe3	-0.032909285
175	0xbc33157d	-0.010930416
176	0xbd1fcf41	-0.039016012
177	0xbc890748	-0.016727105
178	0xbba23acd	-0.0049508573
179	0x3d0cafa1	0.03434718
180	0x3ca80f67	0.020515157
181	0xbc22a228	-0.009926356
182	0xbbd5aacb	-0.0065206042
183	0xbccc7fa7	-0.024963213
184	0x3c33f463	0.010983559
185	0xbc53d245	-0.01292855
186	0x3c92dccd	0.017927552
187	0xbcfb859c	-0.030703358
188	0xbd20e882	-0.039284237
189	0xbc6fd820	-0.014638931
190	0xbb801fad	-0.003910026
191	0x3cf7c27b	0.030244103
192	0xbbd078cc	-0.0063620564
193	0xbd0be18a	-0.034150638
194	0x3cc1c9ec	0.023655854
195	0x3c9b1613	0.018931424
196	0xbb270d6c	-0.0025490178
197	0xba4392e5	-0.00074605487
198	0xbd2c7f79	-0.042113755
199	0x3cfbb6fd	0.030726904
200	0x3c0ebfd7	0.00871273
201	0xba56a743	-0.0008188376
202	0x39a0e8a1	0.000306909
203	0xbc80b343	-0.015710479
204	0x3c730dd5	0.014834841
205	0x3c256e75	0.010097136
206	0x3cacabb1	0.021077963
207	0x3d149de4	0.03628339
208	0xbc46e065	-0.012138461
209	0xbc07fca0	-0.008299977
210	0x3d0466d6	0.032324634
211	0x3d1d4f0b	0.03840546
212	0xbc9a8317	-0.018861337
213	0x3c160173	0.009155619
214	0xbcedf5d1	-0.029047878
215	0x3d25be0c	0.040464446
216	0x3c86655c	0.016405754
217	0xbd11fea8	-0.03564325
218	0x3b2ceac6	0.0026385053
219	0xbd05c80f	-0.032661494
220	0xbbcf70f2	-0.006330603
221	0xbcf40fea	-0.029792745
222	0x3cc0ea5c	0.023549251
223	0x3cb88cf6	0.022528153
224	0xbcdaaa9f	-0.026692687
225	0xbb5c4a0e	-0.0033613476
226	0x3b272595	0.0025504578
227	0x3b7a9c16	0.0038240007
228	0x3c1d34ad	0.009595078
229	0x3d2471b4	0.0401475
230	0xbcba05fe	-0.022707935
231	0xbc9a6ebd	-0.018851632
232	0x3c244b3d	0.010027704
233	0x3d245bfa	0.04012678
234	0xbc1242c9	-0.008927056
235	0x3d0f8170	0.03503555
236	0x3cd0cdca	0.025488753
237	0xbd3ea183	-0.04654075
238	0xbbf81166	-0.0075704334
239	0xbcbbe402	-0.022935871
240	0xbad6e7ec	-0.0016396022
241	0xbb9bcf11	-0.004754909
242	0x3c21d566	0.009877538
243	0xbc831b24	-0.016004153
244	0x3d50126d	0.050798822
245	0x3adf2fd4	0.0017027804
246	0xbc57da49	-0.013174602
247	0x3cf381ad	0.02972492
248	0xbc3c312a	-0.011486331
249	0xbd03d195	-0.032182295
250	0x3b9e7ada	0.0048364224
251	0xbc681488	-0.014165051
252	0xbd16d898	-0.036827654
253	0xbcca8e8c	-0.024726175
254	0x3d2b3279	0.04179618
255	0xbd217d11	-0.039425913

fc2.weight f4 [128, 256]
0	0xbc310b32	-0.010805892
1	0xbd74da82	-0.059778698
2	0x3c157a87	0.009123451
3	0xbcc0edcb	-0.023550889
4	0x3d391e90	0.045195162
5	0x3d2c22fb	0.042025547
6	0x3caa0142	0.020752553
7	0xbd4e551b	-0.05037413
8	0xbaf7ae60	-0.0018896572
9	0xbc64cb57	-0.013964496
10	0x3d6d00f1	0.057862226
11	0x3d6f42e3	0.058413398
12	0x3c749f52	0.014930563
13	0xbc7f2f77	-0.015575281
14	0x3c1eb9aa	0.00968782
15	0x3d5bd993	0.05367429
16	0x3cac6310	0.02104333
17	0xbce88758	-0.02838485
18	0x3ccb5998	0.024822995
19	0x3ce87b95	0.028379241
20	0x3c1b4090	0.009475842
21	0xbbb3037b	-0.0054630614
22	0x3d6a72e0	0.05723846
23	0x3d1924fd	0.03738879
24	0xbbe86f8a	-0.0070933746
25	0x3bff060b	0.007782703
26	0x3c1fd091	0.009754316
27	0x3d14c750	0.03632289
28	0x3ce3443a	0.027742494
29	0x3d077b5c	0.03307663
30	0x3d40420d	0.04693799
31	0x3d783e11	0.060606066
32	0xbb7c5f94	-0.0038509117
33	0x3cbbd262	0.022927467
34	0x3c256158	0.010094009
35	0xbcb1d611	-0.02170852
36	0x3d0c3916	0.03423413
37	0x3cb545b3	0.022127962
38	0x3c8a6dcf	0.016898064
39	0xbd11d411	-0.035602633
40	0x3d08a8d3	0.03336413
41	0x3bc4854a	0.0059973346
42	0x3d805f41	0.06268168
43	0xbc169759	-0.0091913575
44	0xbd03b910	-0.03215891
45	0xbd10ac58	-0.03532061
46	0x3ccd6d32	0.025076482
47	0xbcff427a	-0.031159628
48	0x3d167191	0.0367294
49	0x3d244c02	0.04011155
50	0x3b9d2c98	0.0047965758
51	0x3ca2072d	0.019778812
52	0x3c258102	0.010101559
53	0xbd091e52	-0.03347618
54	0x3cbc3f15	0.022979299
55	0xbcc556ff	-0.024089335
56	0xbc36c11b	-0.011154438
57	0xbcf6ff97	-0.030151172
58	0xbd0d44b2	-0.03448934
59	0x3ce3205a	0.027725387
60	0x3c9a3e0a	0.01882841
61	0x3ceb9c12	0.028760944
62	0x3d5253bc	0.051349387
63	0x3d7eba5e	0.062189452
64	0x3cc11731	0.023570629
65	0x3ceff5c4	0.029291995
66	0x3cf8d5c1	0.030375363
67	0x3bc00bc8	0.0058607794
68	0x3d40a715	0.04703434
69	0x3d42d3a8	0.047565132
70	0x3cbd13dc	0.023080759
71	0xbd6f1817	-0.058372583
72	0x3d3eab25	0.046549935
73	0x3d19ef1d	0.03758155
74	0x3cf41da5	0.029799292
75	0x3d3904b0	0.045170486
76	0x3caa85e1	0.020815792
77	0xbc178797	-0.009248636
78	0xbca45105	-0.020058164
79	0x3c5e8c24	0.013583217
80	0x3d214f03	0.039381992
81	0x3d574842	0.052559145
82	0xbd0a46c8	-0.03375891
83	0xbcb75087	-0.022377266
84	0x3d5509ac	0.052011177
85	0x3cc1b8f8	0.02364777
86	0xbcbbbf09	-0.022918241
87	0x3bc56dde	0.00602506
88	0x3cf1f6e2	0.029536668
89	0x3cdc2529	0.026873188
90	0x3a917cba	0.0011099793
91	0x3bb50225	0.0055239373
92	0xbcb14939	-0.02164136
93	0xbcc787d4	-0.02435676
94	0x3ca53885	0.020168552
95	0xbc9b46f7	-0.018954737
96	0x3c83d25d	0.01609152
97	0xbd3a3cb5	-0.04546805
98	0x3d0c7062	0.034286864
99	0x3d588a30	0.05286616
100	0xbca11110	-0.019661456
101	0x3d26b6a6	0.04070153
102	0xbc73deac	-0.014884632
103	0xbc9167f7	-0.01774977
104	0x3cfd1ca6	0.03089745
105	0x3c7ae261	0.015312762
106	0x3bd922c3	0.0066264584
107	0x3d220e75	0.03956457
108	0x3d00d577	0.031453576
109	0x3c803ac0	0.015653014
110	0xbd119d69	-0.03555051
111	0xbbaa3bbf	-0.0051951106
112	0xbc473570	-0.012158737
113	0xbd17e6cc	-0.03708534
114	0xbc53d34c	-0.012928795
115	0xbcf5cefb	-0.030005923
116	0xbd128096	-0.03576716
117	0x3d3f91f9	0.04677007
118	0xbad4e247	-0.0016241752
119	0xbb438cb6	-0.002983851
120	0xbc64ffff	-0.01397705
121	0xbcd105df	-0.025515495
122	0xbd5361c5	-0.051606912
123	0xbc2f75ce	-0.010709239
124	0xbc030513	-0.007996815
125	0xba34b930	-0.000689405
126	0xbcd508f1	-0.02600524
127	0x3cc7e658	0.024401829
128	0x3d4079db	0.04699121
129	0xb9b9318d	-0.00035322868
130	0xbb94921b	-0.0045340187
131	0x3d4d7873	0.050163697
132	0xba432cf7	-0.000744536
133	0xbcd34117	-0.025787873
134	0x3d2ad3e1	0.04170597
135	0xbd1c16a5	-0.038107533
136	0x3d55d728	0.052207142
137	0xbd299802	-0.04140473
138	0x3d017429	0.03160492
139	0x3d66fc15	0.056392748
140	0xbc46d13f	-0.012134849
141	0xbd1b2f21	-0.037886743
142	0xbcdda107	-0.027054323
143	0x3bb9ed45	0.0056740367
144	0x3d596749	0.053077016
145	0x3d414362	0.047183402
146	0x3d37680b	0.044776957
147	0xbaaa654f	-0.0013000163
148	0x3ccbb9e2	0.02486891
149	0xbca5920b	-0.02021124
150	0x3c315d23	0.010825428
151	0x3ca74a5e	0.020421203
152	0xbcb24c8d	-0.021765018
153	0x3c862be2	0.016378347
154	0xbd4e8688	-0.050421268
155	0xbc420cec	-0.011843901
156	0xbc951291	-0.01819733
157	0x3d77c812	0.060493536
158	0x3c189067	0.009311772
159	0xbd59a6f4	-0.053137735
160	0x3d193347	0.037402418
161	0xba566e95	-0.000817993
162	0xbd0da1ff	-0.03457832
163	0xbd328e8e	-0.043592982
164	0x3d351ba3	0.04421581
165	0x3c908bea	0.017644841
166	0xbb5405f8	-0.003235219
167	0xbbad0922	-0.0052806297
168	0xbd0b24d3	-0.033970665
169	0xbb118761	-0.0022205936
170	0xbc96bfcb	-0.018402
171	0x3d842ed3	0.064542435
172	0xbd3b3028	-0.045700222
173	0x3d038668	0.0321106
174	0x3ce3e434	0.027818777
175	0x3d4039f1	0.046930257
176	0x3ce82df8	0.028342232
177	0x3d81422c	0.063114494
178	0xbd02d466	-0.03194084
179	0xbd15eea0	-0.036604524
180	0xbc9b6185	-0.0189674
181	0x3d6b6cfd	0.057476986
182	0x3cc2d032	0.023780916
183	0xbd3205c0	-0.043462515
184	0xbd57d570	-0.052693784
185	0xbcd534a1	-0.026026072
186	0xbc487d0e	-0.012236847
187	0xbd60e1ab	-0.054902714
188	0x3cf767e2	0.030200902
189	0xbae9b147	-0.0017829322
190	0x3d512e28	0.05106941
191	0x3d62bb98	0.055354685
192	0xbcc37dd3	-0.023863709
193	0x3d60f5c5	0.054921884
194	0x3d0b2436	0.03397008
195	0xbc39f142	-0.011349024
196	0x3d07aa72	0.033121534
197	0x3d387663	0.045034777
198	0x3d699f98	0.057036966
199	0xbcbe0739	-0.023196803
200	0x3d07344b	0.033008855
201	0x3cbd4d68	0.0231082
202	0x3d3617d2	0.04445631
203	0x3a85d93a	0.0010211833
204	0x3d187ed3	0.037230324
205	0x3bf24199	0.0073930738
206	0xbd0c4a77	-0.034250703
207	0xbcce63f6	-0.02519415
208	0x3ceff4a2	0.029291455
209	0xbd52e82d	-0.05149095
210	0x3d523782	0.051322468
211	0x3d39a0ad	0.045319248
212	0x3c0a755f	0.008450835
213	0xbd11fa29	-0.035638962
214	0xbd396f51	-0.045272175
215	0xbd2ade50	-0.04171592
216	0x3d095b50	0.033534348
217	0xbbff04cb	-0.007782554
218	0x3b834849	0.00400642
219	0xbc4c8570	-0.012482986
220	0xbc4c2258	-0.01245936
221	0x3d53dca6	0.0517241
222	0xbb85ec18	-0.0040869825
223	0xbccda89f	-0.025104819
224	0x3d876468	0.06610948
225	0x3ca41cb5	0.02003322
226	0x3c18dade	0.009329526
227	0xbd101028	-0.035171658
228	0x3cc4ba60	0.024014652
229	0xbc4010a4	-0.011722717
230	0xbd175bc3	-0.036952745
231	0xbbf04271	-0.007332139
232	0xbd368793	-0.044562887
233	0x3d156ffb	0.036483746
234	0x3c87c06e	0.01657125
235	0xbb71eb6d	-0.0036914006
236	0xbbe77587	-0.007063571
237	0xbbca087c	-0.006165562
238	0xbc0d83b6	-0.008637359
239	0x3ca9c7e6	0.020725202
240	0xbc936bdb	-0.017995765
241	0x3d6ef914	0.05834301
242	0xbd1a43f7	-0.037662473
243	0xbd0de1d3	-0.03463919
244	0xb9d8063e	-0.0004120338
245	0x3cc6f690	0.024287492
246	0x3cafc935	0.021458248
247	0x3d20dad2	0.039271183
248	0x3d0b6743	0.034034025
249	0xbd0b8c04	-0.034069076
250	0xbcb2512a	-0.021767218
251	0xbcf1bd3e	-0.029509183
252	0xbbf4ddae	-0.0074727153
253	0x3ceb3f00	0.028716564
254	0x3d5942f4	0.053042367
255	0xbd1a9449	-0.037739072

fc2.bias f4 [128]
0	0xbc9e75de	-0.019343313
1	0xbd8a5fff	-0.06756591
2	0x3c8ac34e	0.016938832
3	0x3d721db7	0.05911037
4	0xbc8b292f	-0.016987411
5	0x3d1379dd	0.03600489
6	0x3cd81daf	0.026381342
7	0xbc5ab203	-0.013348105
8	0x3d497b70	0.049189985
9	0xbd507f8e	-0.050902896
10	0x3c9e7352	0.019342098
11	0x3d7ef8f8	0.062249154
12	0x3cc5cea7	0.024146391
13	0x3d05d812	0.032676764
14	0xbd4605ee	-0.0483455
15	0xbc7d0b84	-0.01544464
16	0xbd28b080	-0.04118395
17	0xbd62fc86	-0.055416606
18	0xbd544ef5	-0.05183311
19	0x3be666ca	0.0070312964
20	0xbd0dfef4	-0.03466697
21	0xbcb56bad	-0.02214607
22	0xbd1f20e9	-0.038849745
23	0xbd2237a1	-0.039603833
24	0xbcde6694	-0.027148522
25	0x3d28a5c7	0.041173723
26	0xbd850b20	-0.064962626
27	0xbd0da1f6	-0.034578286
28	0x3c59d3fe	0.013295172
29	0xbd47114e	-0.048600487
30	0xbc9b792e	-0.018978681
31	0xbd2953f3	-0.041339826
32	0x3d1e6e49	0.038679395
33	0xbc622f09	-0.013805159
34	0xbcfd18d4	-0.030895628
35	0x3bf6be57	0.0075300145
36	0xbd1de4d1	-0.038548294
37	0xba692f51	-0.00088952953
38	0xbd04452c	-0.03229253
39	0xbcde310a	-0.027122993
40	0xbd71e7d4	-0.05905898
41	0xbd57a217	-0.052644815
42	0x3d5a7e09	0.053342853
43	0x3d18e4f6	0.03732773
44	0xbd7c3672	-0.06157536
45	0x3c579f58	0.013160549
46	0x3d5b8778	0.05359599
47	0xbd20a2db	-0.03921781
48	0xbd737170	-0.059434354
49	0x3c95afaf	0.018272249
50	0x3d23960f	0.03993803
51	0xbc0a132a	-0.008427421
52	0x3ca1d0a6	0.019752812
53	0x3d585863	0.052818667
54	0xbd8ac27e	-0.06775378
55	0x3d134d2b	0.035962265
56	0xbd16ddb7	-0.036832538
57	0x3d50b60f	0.050954875
58	0xbcadc5e9	-0.021212535
59	0x3c9b52cd	0.01896038
60	0xbd3a3037	-0.045456138
61	0xbd7f3cef	-0.06231397
62	0xbd587d88	-0.05285409
63	0x3d2d9481	0.042377952
64	0xbd39b060	-0.04533422
65	0xbb2aacfd	-0.002604305
66	0xbc39b0e9	-0.011333683
67	0x3b62d3c5	0.0034611088
68	0x3d358218	0.04431352
69	0xbcadbd77	-0.021208508
70	0xbd66ce88	-0.056349307
71	0xbba17085	-0.0049267435
72	0x3c83b35c	0.016076736
73	0xbd7ff63d	-0.06249069
74	0xbb1b8cd2	-0.0023735058
75	0xbd01cc54	-0.031689003
76	0x3dbc729d	0.09201548
77	0x3c7faaa5	0.01560465
78	0xbbbc4af9	-0.005746242
79	0x3d59a73f	0.053138014
80	0x3cf654be	0.030069705
81	0x3d5b0376	0.053470097
82	0x3bb4148d	0.005495614
83	0xbd382eda	-0.044966556
84	0x3bfb79c0	0.007674426
85	0x3d1e608a	0.038666286
86	0x3ccef952	0.02526537
87	0xbd062fe6	-0.032760523
88	0xbb944234	-0.0045244936
89	0x3ced0378	0.028932318
90	0xbc91c9e9	-0.017796474
91	0x3d80e3f2	0.06293477
92	0x3d50cde4	0.050977603
93	0x3c6bfbaa	0.014403263
94	0x3d3dd12c	0.04634206
95	0xbd83451f	-0.06409668
96	0xbcba73bd	-0.022760266
97	0x3d97af84	0.07406524
98	0xbbb373fe	-0.005476474
99	0x3a46eaaf	0.0007588071
100	0xbc8a655b	-0.016894033
101	0x3d3775ee	0.0447902
102	0x3c844fbc	0.016151302
103	0x3d580867	0.052742388
104	0x3d3460ff	0.044037815
105	0x3c85e228	0.016343191
106	0xbbfe5733	-0.00776186
107	0x3bafb229	0.0053618145
108	0xbd34e4c7	-0.04416349
109	0xbc27c01e	-0.010238675
110	0x3d69efa4	0.057113305
111	0xbce6d36f	-0.028176991
112	0x3c076360	0.008263439
113	0xbc59cbfc	-0.013293263
114	0xbc7b69d5	-0.015345057
115	0xbd36e3cb	-0.044650834
116	0xbca16a23	-0.01970393
117	0x3c3f5c55	0.0116797285
118	0xbd51797b	-0.051141243
119	0x3c486ff4	0.012233723
120	0x3d42a76e	0.047522955
121	0xbd1625e0	-0.036657214
122	0x3d02577a	0.031821705
123	0x3c8845c5	0.016634831
124	0x3d4c494f	0.0498746
125	0x3d1da4e0	0.038487315
126	0xbc9c891f	-0.019108353
127	0x3cc4e640	0.024035573

fc3.weight f4 [64, 128]
0	0xbcbf3799	-0.02334194
1	0xbd23fd2f	-0.040036377
2	0xbd06cf9a	-0.032912828
3	0xbd1d9984	-0.038476482
4	0x3d430867	0.047615435
5	0x3d9554c6	0.0729156
6	0x3cfdce1e	0.030982073
7	0xbda257c3	-0.079268955
8	0x3b0401e0	0.002014272
9	0x3cd611cf	0.026131539
10	0xbd0b3445	-0.033985395
11	0x3c4d6062	0.0125351865
12	0xbd9dfec6	-0.0771461
13	0xbc07ff21	-0.008300574
14	0x3d19f51a	0.037587263
15	0xbcbe087b	-0.023197403
16	0x3d52ea74	0.051493123
17	0x3bf491bc	0.007463662
18	0xbcef9ba2	-0.029249016
19	0xbc6be906	-0.014398819
20	0x3d283256	0.04106363
21	0x3d2285c1	0.03967834
22	0x3d63874a	0.055548944
23	0x3d9b5958	0.075854
24	0xbd3da013	-0.046295237
25	0xbd9ea9e7	-0.0774725
26	0x3d577013	0.052597117
27	0xbbfebe10	-0.007774122
28	0x3ae771f9	0.0017657868
29	0xbdbcae1f	-0.092128985
30	0xbd96c114	-0.073610455
31	0xbd90788d	-0.07054243
32	0xbda7c2f9	-0.08191485
33	0xbc3d8f11	-0.011569754
34	0xbd349552	-0.044087715
35	0x3d92c078	0.07165617
36	0xbb80060c	-0.003906971
37	0xbd542cc1	-0.051800493
38	0x3d842516	0.06452386
39	0xbc99555a	-0.018717457
40	0x3c69a597	0.014260671
41	0x3d4bf24c	0.04979162
42	0xbca466fa	-0.020068634
43	0x3b94c3b8	0.004539933
44	0xba3b8f12	-0.0007154803
45	0x3d720f86	0.059096836
46	0xbd49336d	-0.04912131
47	0x3d163fc8	0.03668192
48	0x3b98d8f1	0.0046645333
49	0xbd98ee62	-0.07467343
50	0x3d9c19e0	0.07622123
51	0xbda27f3b	-0.079344235
52	0xbd734cab	-0.05939929
53	0xbdb180fb	-0.08667179
54	0xbcd3d968	-0.025860503
55	0xbd9a2ed9	-0.07528467
56	0x3d70ccb1	0.05878896
57	0xbd556f34	-0.052108005
58	0x3d805f7e	0.06268214
59	0xbc4cc152	-0.012497263
60	0xbcd38df1	-0.025824519
61	0x3bdada79	0.006678876
62	0x3c0fbb90	0.008772746
63	0x3d218818	0.03943643
64	0xbbec7af4	-0.0072168056
65	0xbc353135	-0.011059095
66	0x3d7e89fc	0.06214331
67	0xbdaaea22	-0.083454385
68	0x3d837256	0.06418292
69	0x3ce9cc34	0.028539754
70	0x3d30934f	0.043109234
71	0xbd3eb926	-0.04656329
72	0xbd243e5e	-0.04009854
73	0xbd9e267f	-0.07722186
74	0x3d593a39	0.05303404
75	0x3c31474d	0.010820222
76	0xbca309de	-0.019902166
77	0x3d0b91c0	0.034074545
78	0x3d99656e	0.07490049
79	0x3ca69c7b	0.020338288
80	0xbda5cfda	-0.08096285
81	0xbd6d9331	-0.0580017
82	0xbc6e5dc0	-0.014548719
83	0xbd3e3918	-0.046441168
84	0x3d5443c9	0.051822457
85	0x3d11526b	0.03547899
86	0xbda9bcf7	-0.08287995
87	0x3d283322	0.04106439
88	0xbceba2e7	-0.028764201
89	0x3d3e7f25	0.046507973
90	0xbd2047ff	-0.03913116
91	0xbd87dd11	-0.06633962
92	0xbd989d80	-0.07451916
93	0xbd09745c	-0.033558235
94	0x3d47ce33	0.04878063
95	0xbbb0934c	-0.005388653
96	0xbcb0efa4	-0.021598645
97	0xbce6699a	-0.028126527
98	0xbdb2f7c7	-0.08738666
99	0x3d729dc6	0.059232496
100	0x3d294d6b	0.041333597
101	0xbd72ef26	-0.0593101
102	0xbd9465ae	-0.07245956
103	0xbcde3e91	-0.027129443
104	0x3da54ea9	0.08071644
105	0xbd48e7bd	-0.049049128
106	0x3d801ddb	0.062556945
107	0x3d623058	0.055221885
108	0xbd174042	-0.036926515
109	0xbbfdd4c7	-0.0077463123
110	0xbd8acfbe	-0.06777905
111	0x3d246d72	0.040143438
112	0xbc2e61b8	-0.010643415
113	0x3c40bd9b	0.0117639555
114	0xbd013d94	-0.031552866
115	0x3cebae1e	0.028769549
116	0xbcbe82c4	-0.023255713
117	0x3ca98d96	0.020697396
118	0xbd2c42a3	-0.042055737
119	0x3d905f5f	0.070494406
120	0xbda03ffc	-0.07824704
121	0x3c666a8f	0.0140634915
122	0xbbba4e4b	-0.005685603
123	0x3c659d8e	0.014014615
124	0xbdbcf4d6	-0.09226386
125	0x3d94bac4	0.07262185
126	0xbd021aaf	-0.03176373
127	0xbd83e137	-0.06439441
128	0xbcf8c350	-0.03036657
129	0xbdabb4d5	-0.083841
130	0xbc7ac8fe	-0.015306709
131	0x3cfb8dd2	0.030707274
132	0x3d9ec2e7	0.077520184
133	0x3d32f59f	0.043691274
134	0x3c37bf55	0.011215051
135	0x3cdbe9b4	0.026844837
136	0xbd0d7c05	-0.034542102
137	0x3b926e4a	0.004468714
138	0xbd0c9d26	-0.034329556
139	0xbd29c355	-0.04144605
140	0x3bc1246e	0.0058942353
141	0x3d9d7b42	0.07689525
142	0xbca0bfc8	-0.019622698
143	0x3d879537	0.06620257
144	0xbca2ffe2	-0.019897405
145	0x3db00ae0	0.08595824
146	0x3d6add64	0.05734004
147	0xbbb02401	-0.0053753858
148	0x3d138e5a	0.03602443
149	0xbdab1f2d	-0.08355556
150	0x3cadc3b3	0.02121148
151	0xbdacd8f5	-0.08439819
152	0x3cb161fd	0.02165317
153	0x3d9bb388	0.07602602
154	0x3d8883fe	0.066658005
155	0xbda9fd00	-0.08300209
156	0xbdae9914	-0.08525291
157	0xbd987044	-0.07443288
158	0x3d94f465	0.07273177
159	0x3da97aae	0.082753524
160	0x3c89da95	0.01682786
161	0x3d963f79	0.07336325
162	0x3d7f5dcd	0.062345315
163	0x3d1ae9df	0.037820693
164	0xbce93c27	-0.028471066
165	0xbdbff9ac	-0.09373793
166	0x3c8c247b	0.017107239
167	0xbdb56a1f	-0.088581316
168	0x3d829edd	0.06377957
169	0x3ae87c01	0.0017737151
170	0x3cdc7d3b	0.026915183
171	0x3d817bff	0.063224785
172	0x3d991c92	0.074761525
173	0xbd9522b6	-0.07282011
174	0xbc95353e	-0.018213864
175	0x3b04f54a	0.0020287805
176	0xbcd9c4f4	-0.026583172
177	0xbc28d1db	-0.01030394
178	0xbd11ae68	-0.035566717
179	0x3d4a3141	0.04936338
180	0x3d0a531c	0.033770666
181	0xbd6867f6	-0.05673977
182	0xbd5e047d	-0.0542035
183	0xbca031d7	-0.019555015
184	0xbca25161	-0.019814195
185	0xbd299feb	-0.041412275
186	0xbd03dd7f	-0.032193657
187	0xbce4e31b	-0.027940324
188	0x3c13d751	0.009023503
189	0xbd8b1265	-0.06790618
190	0xbd1ad82e	-0.03780382
191	0x3d054f16	0.032546125
192	0x3d3a0ffc	0.0454254
193	0x3cf3cd4f	0.029760985
194	0xbcebaa98	-0.028767869
195	0xbda20269	-0.07910616
196	0x3da5c01c	0.080932826
197	0xbd489375	-0.04896875
198	0xbdba6146	-0.09100585
199	0xbd72627d	-0.059175957
200	0x3d740461	0.05957449
201	0x3d1cd391	0.038287703
202	0x3da1f415	0.07907883
203	0x3d31db64	0.043422118
204	0xbd41bc80	-0.04729891
205	0x3d4b4dcf	0.04963475
206	0xbd171f8d	-0.036895324
207	0x3c3bba3f	0.011457979
208	0x3d537a22	0.051630147
209	0xbd543586	-0.051808856
210	0xbdb34fca	-0.08755453
211	0x3d9d205f	0.0767219
212	0x3d9ff1f3	0.0780982
213	0xbcd3d741	-0.025859477
214	0x39d7973c	0.00041120674
215	0x3da6d294	0.08145633
216	0xbc37f16d	-0.011226994
217	0xbd2759d6	-0.04085716
218	0x3d90d358	0.070715606
219	0xbd798537	-0.06091806
220	0xbd48c1b6	-0.049012862
221	0xbcf9366e	-0.030421462
222	0xbb886ca9	-0.004163344
223	0x3d5ac555	0.053410847
224	0x3d8706e5	0.06593112
225	0xbcfa3761	-0.030543985
226	0xbd1dafaa	-0.038497604
227	0x3da3c897	0.07997244
228	0x3c494a97	0.01228585
229	0xbd93927c	-0.07205674
230	0xbd9bb322	-0.07602526
231	0xbd12fb69	-0.035884295
232	0x3d08e872	0.033424802
233	0x3d2dc356	0.042422615
234	0x3d95e7a4	0.073195726
235	0x3cf7d534	0.03025303
236	0xbdb6b15c	-0.08920547
237	0xbd4c9516	-0.049946867
238	0x3d31d245	0.04341342
239	0x3c95f3cd	0.01830473
240	0x3bdf56fb	0.006815789
241	0x3d1bbd7a	0.038022496
242	0x3d52b359	0.05144057
243	0xbd9b7ed0	-0.07592547
244	0xbc230966	-0.009950971
245	0xbc9a1eb7	-0.018813474
246	0x3cca9d27	0.02473314
247	0x3d646f1c	0.055770025
248	0x3d0d3fa6	0.034484528
249	0xbd8c9d4e	-0.06865941
250	0xbd8b21ce	-0.06793557
251	0xbd6eed69	-0.05833188
252	0xbc84404c	-0.01614394
253	0x3cfd6860	0.030933559
254	0x3cf9d058	0.030494854
255	0xbd0ef92c	-0.034905598

fc3.bias f4 [64]
0	0x3d3bf6b8	0.045889586
1	0x3d7ff503	0.06248952
2	0xbd4e5c38	-0.050380915
3	0xbce86d27	-0.02837236
4	0xbc79a628	-0.015237369
5	0x3da7d6f9	0.081953
6	0x3cb1a69d	0.021685893
7	0xbdd1add0	-0.1023823
8	0xbd44d68f	-0.04805618
9	0xbd5302a0	-0.051516175
10	0xbd45473c	-0.048163638
11	0xbd094b7d	-0.033519257
12	0x3cb9576d	0.022624696
13	0xbd16dc02	-0.03683091
14	0x3bb00cad	0.005372605
15	0x3d0abf53	0.033873867
16	0x3d2d3646	0.042288087
17	0xbd38ef0f	-0.04514986
18	0xbc73bee7	-0.014877058
19	0x3c8b1c2f	0.016981212
20	0xbd871e51	-0.06597579
21	0x3d008854	0.031380013
22	0xbd798e2b	-0.060926598
23	0x3c42e689	0.011895784
24	0x3d5796ca	0.052634038
25	0xbdafe719	-0.08589
26	0xbd0c95c2	-0.034322508
27	0xbc5a420d	-0.013321412
28	0xbd8147ec	-0.06312546
29	0x3d47466d	0.048651148
30	0xbd44efc9	-0.04808024
31	0xbd72bffa	-0.059265114
32	0xbd11adc0	-0.03556609
33	0xbd60cac1	-0.05488086
34	0x3b140977	0.002258865
35	0x3d2e5798	0.042564005
36	0xbd94325b	-0.07236167
37	0x3d24ff61	0.04028261
38	0xbda20d6b	-0.079127155
39	0xbd8750e7	-0.06607228
40	0xbca29c3e	-0.019849893
41	0xbdb4d0b9	-0.08828873
42	0xbd952988	-0.07283312
43	0xbcf5fd99	-0.030028151
44	0xbd2848d9	-0.041085098
45	0x3da0b39c	0.07846758
46	0x3c675e47	0.014121599
47	0xbd8b50dd	-0.06802533
48	0x3d4e64b8	0.05038902
49	0x3d93db20	0.07219529
50	0x3b115a44	0.0022179047
51	0x3d7e9170	0.06215042
52	0xbd7e7280	-0.062120914
53	0xbd96ca79	-0.07362837
54	0xbda4981e	-0.080368266
55	0x3d9c3dce	0.07628976
56	0x3cb5de6e	0.02220079
57	0xbd717185	-0.05894615
58	0x3d53a558	0.051671356
59	0x3b1caff9	0.0023908599
60	0xbd73e60a	-0.059545554
61	0xbd58ae7b	-0.052900773
62	0xbcfe92a4	-0.031075783
63	0xbd5c97b6	-0.05385562

fc4.weight f4 [32, 64]
0	0x3c6adc38	0.014334731
1	0x3df0b410	0.11753094
2	0x3d1243e6	0.035709284
3	0x3d46b00c	0.048507735
4	0xbd0a6e35	-0.033796508
5	0xbd7c6394	-0.061618403
6	0xbcdea6a9	-0.02717908
7	0xbdfa3c50	-0.12218535
8	0x3ceb438e	0.028718736
9	0x3d482dfc	0.04887198
10	0xbdc219c9	-0.094775744
11	0xbd1bc66a	-0.03803102
12	0xbd2eb0b5	-0.04264899
13	0xbc7cfb1d	-0.015440729
14	0xbbd22f89	-0.006414358
15	0x3c95041e	0.01819044
16	0xbd98f0eb	-0.074678265
17	0x3cec66dd	0.028857643
18	0xbd2411a1	-0.040055875
19	0x3d809def	0.062801234
20	0x3c67e4a5	0.014153634
21	0xbc9fd5f4	-0.0195112
22	0xbca36165	-0.019943902
23	0x3ba7154f	0.0050989757
24	0xbde90c7b	-0.113793336
25	0x3cbde83d	0.023182029
26	0xbde8b760	-0.11363101
27	0x3dda34b6	0.10654585
28	0xbdc415a7	-0.09574442
29	0x3d0794d7	0.03310093
30	0xbd311f85	-0.04324295
31	0x3d708781	0.058722977
32	0xbc5be0d4	-0.013420302
33	0x3ce9c337	0.028535469
34	0xbde772e9	-0.11301214
35	0xbd25570d	-0.04036622
36	0xbde8383a	-0.11338849
37	0xbd9f843c	-0.077888936
38	0x3dcfe4e8	0.10151082
39	0xbd979b31	-0.07402647
40	0xbd56f241	-0.052477125
41	0xbe03e448	-0.12880051
42	0xbd98271c	-0.074293345
43	0x3def6ae6	0.11690311
44	0x3c3e441c	0.011612918
45	0x3defe3e7	0.11713391
46	0xbd949ca3	-0.072564386
47	0xbd2e7935	-0.04259606
48	0xbd85c40d	-0.06531534
49	0xbddcc992	-0.10780634
50	0xbd855f37	-0.065123014
51	0xbdbc8420	-0.09204888
52	0x3de9042f	0.11377751
53	0xbd9ecbce	-0.077537164
54	0xbc35bb95	-0.011092086
55	0x3db3119c	0.08743593
56	0xbd65319d	-0.055955518
57	0xbccb6753	-0.024829542
58	0xbdbaeb1c	-0.09126875
59	0xbcdf41d0	-0.027253062
60	0xbd808a39	-0.06276364
61	0xbda65a76	-0.08122723
62	0x3d636a5c	0.055521354
63	0x3d982eb5	0.07430784
64	0x3d861afc	0.065481156
65	0x3b93be07	0.004508737
66	0xbdec6a65	-0.11543731
67	0xbddbf452	-0.1073996
68	0xbdd084b9	-0.10181565
69	0xbd41626c	-0.047213003
70	0x3d8a344c	0.06748256
71	0x3c167c8d	0.009184969
72	0x3d77aa53	0.06046517
73	0x3dc030aa	0.09384282
74	0x3d97ee4c	0.074184984
75	0xbda8a4d8	-0.082345665
76	0x3c0a46b6	0.00843971
77	0xbda10550	-0.078623414
78	0x3df52915	0.119707264
79	0x3b84c653	0.0040519624
80	0xbd0a8a72	-0.033823438
81	0x3d23c1ff	0.03997993
82	0x3c5104d8	0.0127575025
83	0x3cb410bc	0.021980636
84	0xbd89d25c	-0.06729576
85	0x3de00691	0.109387524
86	0xbde0cb78	-0.109763086
87	0x3cef5f89	0.02922036
88	0x3d5a7229	0.053331528
89	0xbcfd4072	-0.030914519
90	0x3dcc8824	0.09986904
91	0x3db11a02	0.08647539
92	0x3b72d3c9	0.0037052503
93	0x3dc12739	0.09431309
94	0xbbf0d448	-0.0073495246
95	0xbcaa5b41	-0.020795466
96	0x3d97022c	0.07373461
97	0xbdc46881	-0.09590245
98	0x3c3a0f5a	0.011356199
99	0x3d877ae8	0.066152394
100	0x3d126766	0.03574314
101	0xbdac7309	-0.08420379
102	0x3c85470b	0.016269227
103	0x3ac34ce6	0.0014900237
104	0x3cf786cd	0.030215645
105	0x3ddf777b	0.10911461
106	0xbd883be7	-0.066520505
107	0xbd4c22a9	-0.049837742
108	0xbd744ed2	-0.05964548
109	0x3cbc993d	0.023022288
110	0xbb55fd0a	-0.0032652044
111	0xbdaad356	-0.083410904
112	0x3d6b9496	0.05751475
113	0xbd469311	-0.048480097
114	0x3d0d9181	0.03456259
115	0x3daa608c	0.08319196
116	0x3deeb8c4	0.11656335
117	0x3cd9dbc0	0.026594043
118	0xbdc74729	-0.097303696
119	0x3d5180a0	0.051148057
120	0xbd1f7bfe	-0.038936608
121	0x3aee3933	0.0018175006
122	0x3d8b5887	0.068039946
123	0x3dc1cc6f	0.09462821
124	0x3d05070d	0.032477427
125	0xbb692db1	-0.0035580213
126	0xbdb92889	-0.090409346
127	0x3daf6b11	0.08565343
128	0xbc8e98a0	-0.017406762
129	0xbc19afab	-0.009380261
130	0xbddaf757	-0.106917076
131	0xbc3d2923	-0.011545452
132	0xbda6596d	-0.08122525
133	0xbdd93354	-0.10605493
134	0xbd44788f	-0.047966536
135	0x3d5b6112	0.05355937
136	0x3cd18f7b	0.025581112
137	0x3dc251bd	0.094882466
138	0xbd66612b	-0.05624501
139	0x3d87156b	0.06595882
140	0xbdb13236	-0.08652155
141	0x3dbd1125	0.09231786
142	0x3dc8a567	0.09797173
143	0xbc588520	-0.013215333
144	0xbc3626fa	-0.011117691
145	0xbd5967f7	-0.053077664
146	0x3d9d069b	0.076672755
147	0x3de82149	0.11334474
148	0x3c85b4f0	0.01632163
149	0x3d126df2	0.035749383
150	0xbdb93dcf	-0.09044992
151	0xbde75675	-0.11295787
152	0xbc5d3a96	-0.0135027375
153	0x3d13f608	0.036123306
154	0x3c9cf95f	0.019161878
155	0x3dbd4157	0.09240978
156	0xbbff0ac0	-0.007783264
157	0xbd49986a	-0.04921762
158	0x3c18fa82	0.0093370695
159	0xbd429441	-0.047504667
160	0x397bb5cf	0.00024004954
161	0x3d32fc5a	0.043697692
162	0xbdc37280	-0.095433235
163	0xbd82307a	-0.063569024
164	0x3d496f89	0.049178634
165	0x3d757ecf	0.059935387
166	0x3d3e4a4c	0.046457574
167	0x3d48be3c	0.049009547
168	0xbcd78c91	-0.026312144
169	0x3c5486f3	0.0129716275
170	0xbd04b6b2	-0.032400794
171	0xbdb74f18	-0.08950633
172	0x3d3123e9	0.043247137
173	0xbdfe7e1e	-0.12426399
174	0xbd848f5f	-0.06472658
175	0x3d74c07a	0.059753872
176	0xbc922131	-0.017838093
177	0xbda9c90c	-0.082903
178	0xbde696b0	-0.1125921
179	0xbdd3167e	-0.103070244
180	0x3d6dfd7e	0.058103077
181	0x3dd076bf	0.10178899
182	0x3dd2fe60	0.103024244
183	0x3d86fdd4	0.065913826
184	0x3ca92da1	0.02065164
185	0x3d35bbd0	0.044368565
186	0x3d8b2bd3	0.06795468
187	0xbdb79eb2	-0.089658156
188	0xbcfb1933	-0.030651664
189	0xbd8cd58e	-0.0687667
190	0x3d8bf7f3	0.06834402
191	0x3d2b9ed9	0.041899536
192	0xbdd46b56	-0.10372035
193	0x3df5456e	0.11976133
194	0x3ce6befb	0.028167238
195	0xbc992487	-0.018694175
196	0xbd9b2b91	-0.07576669
197	0x3dcb2843	0.09919789
198	0xbcbdbd31	-0.023161503
199	0x3ddbbc5d	0.10729287
200	0xbdcdab16	-0.10042398
201	0x3ddd0da4	0.10793617
202	0xbd267586	-0.040639423
203	0xbb73dd6c	-0.0037210835
204	0xbd6b8209	-0.057497058
205	0xbd9b42a8	-0.07581073
206	0x3d1aa5ee	0.0377559
207	0xbdaad575	-0.08341495
208	0x3dacf7c2	0.084456936
209	0x3d7870b2	0.06065435
210	0xbdf74a8f	-0.12074768
211	0x3d1cd574	0.038289502
212	0x3d29f44c	0.041492745
213	0x3d16eda7	0.036847737
214	0xbd248cb9	-0.040173266
215	0x3d2d82e6	0.042361163
216	0x3e02dce4	0.12779576
217	0x3dcaf1c6	0.09909396
218	0xbd15f8a6	-0.036614083
219	0xbddea748	-0.1087175
220	0xbdf28133	-0.11841049
221	0xbb787f49	-0.0037917665
222	0x3d8d7155	0.06906382
223	0x3db7b3a3	0.0896981
224	0xbcd62251	-0.02613941
225	0xbdd501bb	-0.10400721
226	0x3da145b8	0.07874626
227	0xbdd651b9	-0.10464806
228	0x3dec55de	0.11539815
229	0xbde67deb	-0.11254486
230	0x3ce01efa	0.02735852
231	0x3ded9650	0.116009355
232	0xbb655456	-0.0034992895
233	0x3d1f6cba	0.03892205
234	0x3c2ddb76	0.010611406
235	0xbda7eb03	-0.08199122
236	0x3c5e74fc	0.013577696
237	0xbd61835c	-0.055056915
238	0x3d6ada8a	0.05733732
239	0xbdb9b083	-0.0906687
240	0xbd29085a	-0.04126773
241	0x3db304e5	0.08741168
242	0xbdd75a54	-0.105152756
243	0xbd381df3	-0.044950437
244	0xbc8c10ce	-0.017097857
245	0x3dbf3085	0.09335426
246	0x3c8c5bf2	0.017133687
247	0xbd59edc6	-0.053205274
248	0x3dd3f69b	0.10349771
249	0x3db808e0	0.08986068
250	0x3dcc81cf	0.099856965
251	0xbd52a37d	-0.051425446
252	0x3dff43a1	0.12464071
253	0x3d5f552b	0.054524582
254	0xbd7421cf	-0.059602555
255	0x3d46dc08	0.048549682

fc4.bias f4 [32]
0	0x3d359bbf	0.044337984
1	0xba4516a2	-0.0007518326
2	0xbde836d6	-0.11338584
3	0x3dc7eb95	0.097617306
4	0xbb495f53	-0.0030726984
5	0x3da6e3a8	0.08148891
6	0xbd98dd88	-0.07464129
7	0x3d8165cc	0.06318244
8	0x3d5e3942	0.054253824
9	0xbcdf222a	-0.02723797
10	0xbd2571dd	-0.04039179
11	0x3dd9d14d	0.10635624
12	0x3cbbfdbd	0.02294814
13	0xbd48af01	-0.04899502
14	0x3d85b039	0.065277524
15	0xbda66b00	-0.081258774
16	0xbde57a33	-0.11204948
17	0xbd167741	-0.036734823
18	0x3cfd4d89	0.03092076
19	0x3c8dae20	0.017294943
20	0xbd473545	-0.048634786
21	0x3d7f1f81	0.062285904
22	0xbdb570c3	-0.08859398
23	0xbd7dc44d	-0.061954785
24	0xbd72d5b2	-0.059285827
25	0x3d6e2059	0.058136318
26	0x3bb12e43	0.005407126
27	0xbbadb8cd	-0.005301571
28	0xbd20a361	-0.03921831
29	0x3bd62113	0.0065347045
30	0xbaa388da	-0.0012476698
31	0xbdd9d9f9	-0.10637278

fc5.weight f4 [1, 32]
0	0x3a8213cc	0.0009924113
1	0x3e1e0d20	0.15434694
2	0xbda3be5d	-0.07995293
3	0xbe056090	-0.13025117
4	0x3d815537	0.063150816
5	0x3b314a7b	0.002705245
6	0xbc976113	-0.018478906
7	0x3d069b3d	0.03286289
8	0x3df6c34e	0.1204897
9	0xbd98bf29	-0.07458336
10	0xbdc7eaf9	-0.09761614
11	0xbe040541	-0.12892629
12	0x3d76a917	0.06021985
13	0xbd0d98d9	-0.034569595
14	0xbd830f69	-0.06399424
15	0xbc67b263	-0.014141652
16	0xbc28dcf0	-0.010306582
17	0xbdc534c3	-0.09629204
18	0x3dafa8cf	0.085771196
19	0xbd95b6f7	-0.073102884
20	0x3d4c4994	0.049874857
21	0xbd9ed3a5	-0.07755212
22	0xbd20446b	-0.03912775
23	0x3e0d25a6	0.13783893
24	0x3d91c86c	0.071183056
25	0x3d9daf2b	0.07699426
26	0xbdeab7d8	-0.11460847
27	0xbcf431a1	-0.029808821
28	0x3dcfddbb	0.101497136
29	0x3dd87e6f	0.1057099
30	0xbda5f70d	-0.08103762
31	0x3d77452a	0.060368694
