DeepLearning/model_0325_dropout/model_best_5_r2_-0.010570087626605452.pth (torch, 666311 bytes, 9 tensors)

fc1.weight f4 [256, 478]
0	0x3cf8ccf6	0.03037117
1	0x3c31a014	0.010841388
2	0x393a8484	0.00017787708
3	0x3d020489	0.031742606
4	0x3cf6fd90	0.030150205
5	0xbd2cd57e	-0.04219579
6	0xbca69425	-0.020334313
7	0xbc39046d	-0.011292559
8	0x3ceb7444	0.028741963
9	0xba9f887d	-0.0012171414
10	0xbd2c4138	-0.042054385
11	0xbc9e9ebd	-0.019362802
12	0x3cf4d25e	0.029885467
13	0xbd0dceba	-0.034620978
14	0xbcc0d487	-0.023538841
15	0x3b25a826	0.0025277226
16	0x3d1f27ca	0.038856305
17	0x3d10c51b	0.035344224
18	0xbca05051	-0.019569548
19	0x3d3926fe	0.0452032
20	0x3c4b2728	0.012399472
21	0xbc91c746	-0.017795216
22	0x3c7e91e9	0.015537717
23	0xbc88d8c0	-0.016704917
24	0x3d4c4d59	0.049878452
25	0x3b1dfa45	0.002410547
26	0x3cb96d69	0.022635179
27	0xbc699907	-0.014257676
28	0x3cfa7827	0.030574871
29	0x3c374bc7	0.0111875
30	0xbd1e6e7f	-0.038679596
31	0xbd40a2d5	-0.04703029
32	0x3d14b092	0.036301203
33	0xbd3ce5cd	-0.046117593
34	0x3c0a0a9b	0.00842538
35	0xbb68b761	-0.0035509693
36	0x3cdd8c07	0.02704431
37	0xbd24b192	-0.040208407
38	0x3ca5a80c	0.020221733
39	0xbcc0e8a5	-0.023548434
40	0xbcbf9937	-0.023388488
41	0xbc4b2adb	-0.012400354
42	0x3c6ddbd4	0.014517743
43	0x3d4ce28c	0.05002074
44	0x3b7a4f2a	0.0038194158
45	0x3c0073d9	0.00784012
46	0x3bd347ea	0.006447782
47	0xbaa30678	-0.0012437841
48	0x3d105936	0.03524133
49	0x3bfa92f4	0.0076469127
50	0x3d110bd0	0.035411656
51	0x3cb11d44	0.0216204
52	0xbd07420d	-0.033021975
53	0x3cca0ae5	0.024663398
54	0x3ca78954	0.020451225
55	0x3c22e0fa	0.009941334
56	0xbc39ba55	-0.011335929
57	0xbd457b0b	-0.048213046
58	0xbce8338d	-0.028344894
59	0xbc12bdf1	-0.008956418
60	0xbca79108	-0.020454898
61	0x3d254728	0.040351063
62	0x3b44124d	0.0029918135
63	0x3c57a064	0.013160799
64	0xbc560646	-0.013063019
65	0xbd3673c7	-0.044544008
66	0x3b9e8959	0.0048381505
67	0xbd144ee5	-0.036208052
68	0x3d165995	0.036706526
69	0x3c9c2130	0.019058794
70	0xbca46781	-0.020068886
71	0xbd484e80	-0.04890299
72	0xbcb028eb	-0.021503886
73	0x3b200a48	0.002442019
74	0xbc6ee9ba	-0.014582092
75	0x3b574ecc	0.0032853363
76	0xbd33ccb6	-0.0438964
77	0xbc992dd3	-0.018698609
78	0x3c5d24d5	0.013497551
79	0xbb61cfb6	-0.003445608
80	0x3c8768e6	0.016529512
81	0x3c1e7d66	0.009673452
82	0x3cd4cf44	0.025977738
83	0xbc157f28	-0.009124555
84	0x3ced1ff0	0.028945893
85	0xbd5eaf9b	-0.05436669
86	0x3d110741	0.03540731
87	0xbcc8a215	-0.02449135
88	0xbc267472	-0.010159599
89	0x3d0f6d6c	0.035016462
90	0xbc0e53c9	-0.008686968
91	0x3d0e7dcc	0.034787938
92	0xbb1e3e7d	-0.0024146133
93	0xbd06e1af	-0.032930072
94	0x3af25e46	0.001849123
95	0xbd0e187c	-0.03469132
96	0xbbbef529	-0.005827565
97	0xbd2cb703	-0.04216672
98	0x3c27a294	0.010231633
99	0xbd3d4f24	-0.046218053
100	0xbbfde436	-0.007748152
101	0xbafc0cd1	-0.0019229894
102	0x3d1cdeff	0.038298603
103	0xbd04579a	-0.032310106
104	0x3ca30d70	0.019903868
105	0xbd1a3009	-0.037643466
106	0x3d05e0c3	0.032685053
107	0xbd36f478	-0.044666737
108	0xbc81d89b	-0.015850356
109	0xbd0c8fb3	-0.03431673
110	0x3cdbaaa6	0.02681477
111	0x3ca654e3	0.020304149
112	0xbd2eeef6	-0.04270836
113	0xbd192fd1	-0.037399117
114	0xbcd3dee4	-0.025863118
115	0x3cadda31	0.021222206
116	0xbcad2a20	-0.02113825
117	0x3cfcfdba	0.030882705
118	0xbd43f4d0	-0.047840893
119	0xbcadc6c9	-0.021212952
120	0x3c09789c	0.008390572
121	0xbaa28a5f	-0.0012400857
122	0x3c4c6627	0.012475527
123	0xbbc2bf25	-0.0059431964
124	0xbc1258a3	-0.008932265
125	0xbd17bb2f	-0.037043747
126	0x3b68455a	0.0035441727
127	0x3d0ea5af	0.034825977
128	0xbd11735d	-0.03551041
129	0x3cb380f0	0.021912068
130	0x3ce7402d	0.028228844
131	0xbcfa725c	-0.030572109
132	0x3ccec7dc	0.025241785
133	0x3cafd2ee	0.021462884
134	0xbbaf54cb	-0.0053506843
135	0xba420a4d	-0.00074020476
136	0x3c7eef0a	0.015559921
137	0xbd311dd8	-0.04324135
138	0xbccada03	-0.02476216
139	0xbcc00b04	-0.023442753
140	0x3d3e043c	0.046390757
141	0xbc1a2587	-0.009408361
142	0x3cf8736e	0.030328479
143	0x3cc277b5	0.023738721
144	0x3cb968c7	0.02263297
145	0x3abbc378	0.0014325222
146	0xbd3eabb8	-0.046550483
147	0x3bb75b94	0.0055956338
148	0xbcdd612e	-0.027023878
149	0xbc9e140e	-0.019296672
150	0xbbf51f48	-0.0074805357
151	0xbd22bdf6	-0.039731942
152	0x3d12176b	0.035666864
153	0xbd0d1f64	-0.034453765
154	0xbcc79eae	-0.024367657
155	0xbc98a98e	-0.018635537
156	0x3a85979e	0.001019228
157	0x3d020bfc	0.03174971
158	0x3caad15a	0.02085178
159	0x3c920d3b	0.017828574
160	0xbcf077f0	-0.029354066
161	0xbcbdefbe	-0.023185607
162	0xbbe92834	-0.0071153883
163	0x3c4c7a2f	0.012480303
164	0x3c2c0384	0.010498885
165	0x3c6f4725	0.0146043645
166	0x3ce5b6ee	0.02804133
167	0xbd1e7953	-0.038689923
168	0xbaa34ce6	-0.0012458831
169	0x3c221a58	0.009893976
170	0xbd1d683f	-0.038429495
171	0x3d12f27c	0.035875782
172	0x3c9aa2c2	0.018876437
173	0xbc505d6e	-0.012717588
174	0xbd1845ad	-0.037175823
175	0xbd38979c	-0.04506646
176	0x3d2f5f12	0.042815275
177	0x3d2fd0db	0.04292379
178	0x3d128f45	0.035781164
179	0xbd09fb0c	-0.033686683
180	0x3aebf5a5	0.0018002285
181	0x3c800f89	0.015632408
182	0xbd06ace8	-0.03287974
183	0xbd3db8ca	-0.046318807
184	0x3ac7e561	0.0015250855
185	0x3cc90b46	0.024541508
186	0x3d3ecb00	0.046580315
187	0xbcd2778e	-0.025691774
188	0xbcb96fb0	-0.022636265
189	0xbd06919c	-0.032853708
190	0x3ca13a23	0.019681042
191	0xbd3629dc	-0.044473514
192	0x3c3c6497	0.011498592
193	0x3ceed2e7	0.0291533
194	0x3d300702	0.042975433
195	0x3c96e293	0.018418586
196	0xbce21ed5	-0.027602592
197	0xbc589d2a	-0.013221065
198	0xbce968cd	-0.028492356
199	0x3d191d62	0.037381537
200	0xbcb328dc	-0.02187007
201	0x3cd03af8	0.025418743
202	0xbd3e7e68	-0.04650727
203	0xbc88ce08	-0.016699806
204	0x3cf07199	0.029351043
205	0x3cc80fc1	0.024421575
206	0xbc77b7e5	-0.0151195275
207	0x3d08a8c4	0.033364072
208	0x3c75d0f3	0.015003431
209	0x3d1c0f75	0.03810068
210	0xbca9aba8	-0.020711735
211	0x3cb79a04	0.022412308
212	0x3d2fafa5	0.042892117
213	0x3bdeeb16	0.006802927
214	0xbba912c7	-0.005159709
215	0x3ccdb35a	0.025109936
216	0x3d3271fe	0.043565743
217	0x3c7f90d6	0.015598496
218	0x3c8fa510	0.017534763
219	0x3d22f0e2	0.039780505
220	0xbcf5936c	-0.029977523
221	0xbcc82d24	-0.024435587
222	0xbc3e9acf	-0.011633589
223	0x3c6cee50	0.014461115
224	0x3cf9c36c	0.030488692
225	0xbcec4dfe	-0.028845783
226	0x3c71ab86	0.014750367
227	0xbc1a22a9	-0.009407678
228	0xbcbe6408	-0.023241058
229	0xbc9b11c3	-0.018929368
230	0xbcc42cc3	-0.023947125
231	0x3bd5ed1f	0.006528511
232	0x3d4689e8	0.04847136
233	0x3c226eeb	0.00991414
234	0x3cfe9274	0.031075694
235	0xbc1eb420	-0.0096865
236	0x3c2ee642	0.010675015
237	0xbca0f1c9	-0.019646542
238	0x3b4bd636	0.0031103021
239	0xbce687fa	-0.02814101
240	0x3c273436	0.010205319
241	0xbc907e36	-0.017638307
242	0xbc2e2913	-0.01062991
243	0x3acbd8ac	0.0015552244
244	0xbcf7211e	-0.030167159
245	0xbab96c85	-0.0014146721
246	0xbc29cf72	-0.0103644
247	0x3d0fd1a8	0.035112053
248	0xbc91188a	-0.017711896
249	0xbc5f1fb1	-0.013618396
250	0xbba9dc0c	-0.0051837023
251	0xbd1ad1af	-0.037797626
252	0x3d1dd4f3	0.038533162
253	0xbc94948c	-0.018137239
254	0xba2487b9	-0.0006276328
255	0xbd1ba125	-0.037995476

fc1.bias f4 [256]
0	0xbc94e32e	-0.018174734
1	0x3c73a456	0.014870724
2	0x3ca91b3d	0.020642871
3	0xbae0420f	-0.0017109531
4	0xbd33ea6f	-0.043924745
5	0x3d28b67c	0.041189656
6	0xbce88131	-0.028381916
7	0x3cc6e056	0.024276894
8	0xbce55fcb	-0.02799978
9	0x3d105ec5	0.03524663
10	0x3cdd45cd	0.027010823
11	0xbcd97afb	-0.0265479
12	0x3d0c5559	0.03426108
13	0x3cd96933	0.02653942
14	0x3d168bdc	0.036754474
15	0xbd25c330	-0.04046935
16	0xbc7f9452	-0.015599327
17	0xbd032730	-0.032019794
18	0xbcbd776a	-0.02312823
19	0x3bbf30f4	0.005834693
20	0x3c6e22af	0.014534636
21	0xbd5fd70f	-0.054648455
22	0xbd158739	-0.03650591
23	0x3c6c8faf	0.014438554
24	0x3cacb670	0.021083087
25	0x3be1f475	0.0068955966
26	0xbc75c508	-0.015000589
27	0x3cc24b0e	0.02371743
28	0xbcdfb509	-0.027308004
29	0xbd31a211	-0.04336745
30	0xbd06e718	-0.032935232
31	0xbd20e4a9	-0.039280567
32	0x3c35b5d9	0.011090719
33	0x3cddede2	0.02709097
34	0xbd3d6e05	-0.0462475
35	0xbc874ac9	-0.016515153
36	0xbd4373f0	-0.04771799
37	0x3c231a23	0.009954962
38	0xbd2ee4ca	-0.04269866
39	0xbc709531	-0.0146840075
40	0xbc6deeec	-0.014522295
41	0x3d44d066	0.048050307
42	0x3cb34b2b	0.021886429
43	0xbcd0aef0	-0.025474042
44	0xbcc56eec	-0.024100743
45	0x3d43a5e3	0.047765624
46	0xbd049320	-0.03236687
47	0x3d1128d6	0.035439335
48	0xbcfbe432	-0.03074846
49	0x3c99ab70	0.018758506
50	0xbcf6a051	-0.030105742
51	0xbc8d24f0	-0.017229527
52	0x3c4f86a0	0.012666374
53	0x3c2e8f20	0.010654241
54	0xbd2cffd1	-0.042236153
55	0xbc2975e5	-0.01034305
56	0x3cac428f	0.021027831
57	0x3cd27317	0.025689645
58	0xbbd746bd	-0.006569712
59	0xbd3bb8ef	-0.045830663
60	0xbd223bf4	-0.039607957
61	0xbb82cfd6	-0.003992061
62	0xbd2a1b12	-0.041529723
63	0x3d03bfc8	0.03216532
64	0x3caee232	0.021348093
65	0x3cd0a7b2	0.025470588
66	0x3cd22b15	0.025655309
67	0xbca755c3	-0.020426637
68	0xbc2dc3fd	-0.010605809
69	0xbd4b87ef	-0.049690183
70	0xbd15d200	-0.036577225
71	0xbd2e27c6	-0.0425184
72	0x3d059ee4	0.032622233
73	0xbcb339bb	-0.021878114
74	0xbc5d71a5	-0.0135158645
75	0x3caca91b	0.02107673
76	0xbcaa4a96	-0.020787518
77	0xbb9cfdcd	-0.0047909976
78	0x3c8461e4	0.01615996
79	0xbd0db362	-0.0345949
80	0x3cb9a4cf	0.022661595
81	0x3d063a72	0.03277058
82	0x3cc6634c	0.02421727
83	0xbd0d010a	-0.03442482
84	0xbce9db3c	-0.028546922
85	0x3ca5ef39	0.020255672
86	0x3b04fe86	0.002029331
87	0xbaf613b9	-0.0018774188
88	0xbd35123a	-0.044206835
89	0x3c67f491	0.01415743
90	0xbd20a450	-0.0392192
91	0xbca227ae	-0.019794311
92	0x3d0a79be	0.03380751
93	0xbcf5c4f0	-0.030001134
94	0xbc44a883	-0.012003067
95	0xbc6cf4ca	-0.014462659
96	0x3c7a5ee8	0.0152814165
97	0x3d06e077	0.03292891
98	0xbd3aa226	-0.045564793
99	0xbd372cfb	-0.04472063
100	0xbcf30897	-0.029667182
101	0xbcf5e223	-0.030015057
102	0xbd031f4f	-0.03201228
103	0x3cd69929	0.02619608
104	0x3cf7e833	0.030262088
105	0x3b0d2f93	0.002154325
106	0xbce5fcd6	-0.028074663
107	0x3d04da24	0.032434598
108	0xbd10bc58	-0.03533587
109	0xbc21e994	-0.0098823495
110	0xbcd7e848	-0.026355878
111	0x3c90e553	0.017687475
112	0x3be663ca	0.0070309388
113	0xba9f5155	-0.0012154976
114	0xbd5c446b	-0.053776186
115	0xbc15d381	-0.009144665
116	0x3c875161	0.016518297
117	0x3cc3cb6e	0.023900714
118	0xbd31274f	-0.04325038
119	0xbc92ca74	-0.017918803
120	0x3720e44d	9.589899e-06
121	0xbc3af786	-0.011411553
122	0xbc077c1e	-0.008269338
123	0xbd1358c0	-0.03597331
124	0xba8716b1	-0.0010306445
125	0xbd12d39b	-0.035846334
126	0xbd3d5498	-0.046223253
127	0xbc7f7f56	-0.015594324
128	0x3cedb382	0.02901626
129	0x3cac10fb	0.02100419
130	0xbd176ca6	-0.03696885
131	0xbd1b1fb4	-0.03787203
132	0xbd2cb5b8	-0.042165488
133	0xbd3bd638	-0.04585859
134	0x3c6222d1	0.013802246
135	0x37b70636	2.1818192e-05
136	0xbd0e3c08	-0.03472522
137	0xbcfa1342	-0.030526761
138	0xbc93e41d	-0.018053109
139	0xbd37a9d8	-0.04483971
140	0xbc04cdff	-0.008105754
141	0x3cf9ae6d	0.03047868
142	0xbc3a42f9	-0.011368507
143	0x3b737c05	0.0037152779
144	0x3d5ff4fe	0.054677002
145	0x3d0cf9ff	0.034418102
146	0xbd3bd6af	-0.045859035
147	0xbb7fa6ca	-0.0039009326
148	0xbcf0975c	-0.029369049
149	0xbb84dfbe	-0.0040549925
150	0x3cff18c9	0.031139748
151	0x3d1d1222	0.03834737
152	0xbc40e230	-0.011772677
153	0x3cc5df0f	0.024154214
154	0x3b81e69d	0.003964259
155	0xbcb4badd	-0.02206176
156	0xbbde7d52	-0.0067898417
157	0xbcfb63c8	-0.030687228
158	0x3d203adf	0.039118644
159	0xbc43cb23	-0.011950287
160	0x3c4530a2	0.012035521
161	0xbd0ccf34	-0.03437729
162	0x3cc66db6	0.024222236
163	0x3cf5b1a2	0.029991928
164	0xbcba7930	-0.022762865
165	0x3cbfdabf	0.023419736
166	0xbc7576a6	-0.014981901
167	0xbcae7de2	-0.02130026
168	0x3c44ccf9	0.01201176
169	0xba70f872	-0.00091922947
170	0xbc7dc216	-0.015488168
171	0x3c2aeee1	0.01043293
172	0x3c345670	0.011006936
173	0xbd2e6a8e	-0.042582087
174	0xbd073559	-0.03300986
175	0xbc3a5ec9	-0.011375138
176	0xbd1f20d7	-0.038849678
177	0xbc880143	-0.016602164
178	0xbba4936f	-0.0050224583
179	0x3d0da287	0.034578826
180	0x3ca888a6	0.020572972
181	0xbc1f3c02	-0.009718897
182	0xbbda935d	-0.006670399
183	0xbccc7e8e	-0.02496269
184	0x3c2ee188	0.010673888
185	0xbc512e6f	-0.012767418
186	0x3c931cc9	0.017958062
187	0xbcfc9606	-0.030833255
188	0xbd22a091	-0.03970391
189	0xbc71d805	-0.014760976
190	0xbb75fab3	-0.0037533462
191	0x3cf6f0c9	0.030144112
192	0xbbe94fc1	-0.007120103
193	0xbd0da457	-0.034580555
194	0x3cc01265	0.023446271
195	0x3c9a1ed5	0.01881353
196	0xbb358a88	-0.002770098
197	0xba4b75e2	-0.00077614014
198	0xbd2b41f6	-0.041810952
199	0x3cf73fec	0.030181848
200	0x3c0ba465	0.008523081
201	0xbb160452	-0.0022890759
202	0x397fb36f	0.0002438554
203	0xbc82bc11	-0.015958818
204	0x3c7114dc	0.014714446
205	0x3c226c79	0.009913557
206	0x3caa2a23	0.020772045
207	0x3d1584b7	0.03650352
208	0xbc4e0062	-0.012573333
209	0xbc0be255	-0.0085378485
210	0x3d02a6fa	0.031897523
211	0x3d1de1f7	0.038545575
212	0xbc99ea20	-0.018788397
213	0x3c121e34	0.008918334
214	0xbcf1af82	-0.029502634
215	0x3d23fc27	0.040035393
216	0x3c864589	0.016390579
217	0xbd13d723	-0.036093842
218	0x3b55cd54	0.0032623606
219	0xbd091f27	-0.033476975
220	0xbbd312d7	-0.006441455
221	0xbcf52709	-0.02992584
222	0x3cbeb61b	0.023280194
223	0x3cb8e4cd	0.022570038
224	0xbcdde42d	-0.027086342
225	0xbb5ac530	-0.0033381693
226	0x3b158daa	0.0022820034
227	0x3b85462b	0.0040672026
228	0x3c1dcf72	0.009631978
229	0x3d24370f	0.04009157
230	0xbcbad65c	-0.022807293
231	0xbc9df347	-0.019281043
232	0x3c1ec43e	0.0096903425
233	0x3d24aaa3	0.040201794
234	0xbc172d01	-0.009227038
235	0x3d0ff03d	0.03514122
236	0x3cd17ba1	0.025571646
237	0xbd3d57e7	-0.04622641
238	0xbc002d41	-0.007823289
239	0xbccc5216	-0.024941485
240	0xbab8b670	-0.0014092457
241	0xbb9f23ab	-0.004856547
242	0x3c2998f4	0.010351408
243	0xbc8476ac	-0.016169868
244	0x3d506cac	0.050884888
245	0x3abc2757	0.0014354986
246	0xbc55f8df	-0.013059824
247	0x3cf49aa5	0.029858897
248	0xbc3d199a	-0.011541748
249	0xbd05a869	-0.03263131
250	0x3b97c589	0.0046317023
251	0xbc6a8e7a	-0.014316196
252	0xbd168ba7	-0.036754277
253	0xbccaa1d5	-0.02473537
254	0x3d2ad3c8	0.041705877
255	0xbd206bce	-0.03916531

fc2.weight f4 [128, 256]
0	0xbc324cc1	-0.010882557
1	0xbd7ba0d1	-0.061432663
2	0x3c166abc	0.009180721
3	0xbccb1b4c	-0.02479329
4	0x3d3bbbf0	0.045833528
5	0x3d11412e	0.03546255
6	0x3caa3f4c	0.020782135
7	0xbd4f8e24	-0.050672665
8	0xbb7b3b4e	-0.003833491
9	0xbc6a2f0b	-0.0142934425
10	0x3d68c4f6	0.05682846
11	0x3d6de3c4	0.058078542
12	0x3c6abac0	0.014326751
13	0xbcb9c9d9	-0.022679256
14	0x3c1a5186	0.009418851
15	0x3d5ae190	0.05343777
16	0x3c94dadf	0.018170772
17	0xbce95dad	-0.02848705
18	0x3cc9d661	0.024638357
19	0x3cdd1734	0.026988603
20	0x3bf134aa	0.0073610144
21	0xbbaa2721	-0.005192653
22	0x3d64b29a	0.05583439
23	0x3d17d198	0.03706512
24	0xbbeb5052	-0.007181206
25	0x3bfdd989	0.0077468795
26	0x3c0e7c91	0.008696691
27	0x3d0f9a2e	0.035059147
28	0x3cdf8e85	0.027289638
29	0x3d07292c	0.03299825
30	0x3d3bef1f	0.04588234
31	0x3d768d7c	0.060193524
32	0xbb944849	-0.0045252186
33	0x3cb8fbe6	0.022581052
34	0x3c2243e6	0.009903884
35	0xbca78abe	-0.0204519
36	0x3d07d53a	0.033162333
37	0x3ca406da	0.020022798
38	0x3c87c0d1	0.016571434
39	0xbd16ecfe	-0.036847107
40	0x3d059e76	0.032621823
41	0x3b8152e1	0.0039466475
42	0x3d7f6d18	0.0623599
43	0xbc187f0c	-0.009307634
44	0xbd27141b	-0.04079066
45	0xbd15e0e6	-0.036591433
46	0x3cd03449	0.025415557
47	0xbce24553	-0.027620947
48	0x3d0e14aa	0.034687676
49	0x3d169404	0.036762252
50	0x3b88ff5f	0.004180833
51	0x3c9c75b6	0.019099098
52	0x3c3cb372	0.0115173925
53	0xbd085a3f	-0.03328919
54	0x3cbdac22	0.023153368
55	0xbcc544e2	-0.024080697
56	0xbc4fabfb	-0.012675281
57	0xbd04db8e	-0.032435946
58	0xbd0f3029	-0.03495804
59	0x3cd8aa7f	0.026448486
60	0x3c8b921e	0.017037448
61	0x3ce996c5	0.028514275
62	0x3d42e78c	0.0475841
63	0x3d7cb3d7	0.061694946
64	0x3cc79e89	0.024367588
65	0x3ce54b7c	0.027990095
66	0x3ce7aa98	0.028279588
67	0x3b904df6	0.004403825
68	0x3d3f1e63	0.04665984
69	0x3d38cd6e	0.045117788
70	0x3cbc4546	0.02298225
71	0xbd74428f	-0.059633788
72	0x3d3d0586	0.046147846
73	0x3d16d39d	0.036822904
74	0x3cf0c6b2	0.02939162
75	0x3d37f09f	0.04490721
76	0x3ca6b52a	0.020350058
77	0xbc3c3571	-0.011487351
78	0xbca40582	-0.020022158
79	0x3c4dc710	0.012559667
80	0x3d1f8838	0.038948268
81	0x3d534436	0.051578723
82	0xbd0a9488	-0.033833057
83	0xbcc0c9ff	-0.02353382
84	0x3d50a354	0.05093701
85	0x3cbf2959	0.023335146
86	0xbcbc88dd	-0.02301448
87	0x3b951794	0.00454993
88	0x3cdf39f0	0.027249306
89	0x3ccc4218	0.02493386
90	0xb99a55f3	-0.00029437206
91	0x3b96b7cf	0.0045995484
92	0xbcae4252	-0.021271858
93	0xbcca337d	-0.024682755
94	0x3c9a56c8	0.018840209
95	0xbc73406c	-0.014846902
96	0x3c8a8255	0.01690785
97	0xbd3a4a21	-0.04548085
98	0x3d0c102b	0.034195106
99	0x3d5609a2	0.05225528
100	0xbca6350f	-0.020288972
101	0x3d21f281	0.03953791
102	0xbc7add6b	-0.015311579
103	0xbc9d3225	-0.01918895
104	0x3cfbc4c2	0.03073347
105	0x3c6beceb	0.014399747
106	0x3b96be23	0.004600303
107	0x3d13d931	0.0360958
108	0x3cff34bd	0.031153077
109	0x3c6dc02c	0.014511149
110	0xbd12c839	-0.03583548
111	0xbbd1fb2a	-0.006408115
112	0xbc4ab5fe	-0.012372492
113	0xbd1899a7	-0.03725591
114	0xbc51a0d3	-0.012794691
115	0xbcfb15e7	-0.030650092
116	0xbd2c755f	-0.04210412
117	0x3d3f2be2	0.04667271
118	0xbaeb45f2	-0.0017949922
119	0xbb6a0997	-0.0035711282
120	0xbc45bca7	-0.012068904
121	0xbcd30956	-0.025761288
122	0xbd52eac6	-0.05149343
123	0xbc32d8b9	-0.0109159285
124	0xbc83a851	-0.01607147
125	0xb9ff3748	-0.00048678578
126	0xbcfa2063	-0.030533021
127	0x3cb07a6d	0.021542752
128	0x3d3f3963	0.046685588
129	0xba8f87f8	-0.0010950556
130	0xbbb2cc33	-0.0054564714
131	0x3d4c469a	0.04987202
132	0xbac1523e	-0.0014749242
133	0xbcce99cf	-0.025219826
134	0x3d21cf24	0.039504185
135	0xbd1d3563	-0.03838099
136	0x3d49f8c7	0.04930952
137	0xbd2dd251	-0.0424369
138	0x3d00d560	0.03145349
139	0x3d5ed6aa	0.05440394
140	0xbc75b0f0	-0.0149957985
141	0xbd1bf8d2	-0.03807909
142	0xbce5a1c3	-0.028031236
143	0x3bbcf3d9	0.0057663736
144	0x3d55752a	0.05211369
145	0x3d3e0d2a	0.046399273
146	0x3d34c10a	0.04412941
147	0xbad3eb7f	-0.0016168206
148	0x3cc993c8	0.0246066
149	0xbcbb06c8	-0.022830382
150	0x3c1f85cc	0.0097364895
151	0x3c988848	0.018619671
152	0xbcafd1b2	-0.021462295
153	0x3c701bb1	0.01465504
154	0xbd516b2b	-0.051127594
155	0xbc4b3036	-0.012401631
156	0xbcac58a0	-0.021038353
157	0x3d6fa3fa	0.05850599
158	0x3c0ca547	0.008584327
159	0xbd58f369	-0.05296651
160	0x3d16a6b6	0.03678008
161	0xb9fd3076	-0.00048292027
162	0xbd0e6c68	-0.034771353
163	0xbd384a75	-0.044992883
164	0x3d32a387	0.043612983
165	0x3c89a66b	0.016802987
166	0xbb5f4292	-0.0034066779
167	0xbbbbc86a	-0.0057306783
168	0xbd0ba9da	-0.03409753
169	0xbb16ea08	-0.0023027677
170	0xbc975024	-0.018470831
171	0x3d7e6621	0.062109116
172	0xbd3c98ee	-0.046044283
173	0x3d04a11e	0.032380216
174	0x3cdd6710	0.027026683
175	0x3d3dc6ef	0.046332296
176	0x3ce59ff0	0.028030366
177	0x3d7abc0d	0.061214495
178	0xbcff2312	-0.031144653
179	0xbd1688ab	-0.03675143
180	0xbc9c636e	-0.01909038
181	0x3d66ae34	0.056318477
182	0x3caceb00	0.02110815
183	0xbd3343b3	-0.043765735
184	0xbd5993cb	-0.053119462
185	0xbcd54016	-0.026031535
186	0xbc442b78	-0.011973254
187	0xbd620332	-0.05517883
188	0x3cee3b3a	0.029080976
189	0xbb0be816	-0.002134805
190	0x3d4d9695	0.050192434
191	0x3d576f6a	0.052596487
192	0xbcc71e6f	-0.024306504
193	0x3d58e741	0.052954916
194	0x3d07743c	0.033069834
195	0xbc40d61f	-0.0117698
196	0x3d045eee	0.032317095
197	0x3d36da91	0.044642035
198	0x3d662564	0.056188002
199	0xbcc073be	-0.02349269
200	0x3d07c309	0.033144984
201	0x3cb04d0c	0.021521114
202	0x3d3575dd	0.044301856
203	0x3a7bfc30	0.0009612469
204	0x3d16819f	0.03674471
205	0x3be6ed3e	0.0070473244
206	0xbd0cee6f	-0.034407075
207	0xbcce74a3	-0.025202101
208	0x3cd83265	0.026391217
209	0xbd571608	-0.052511245
210	0x3d4fe604	0.05075647
211	0x3d36c47f	0.044620987
212	0x3c04a2cf	0.008095457
213	0xbd0f321e	-0.034959905
214	0xbd39b1b8	-0.0453355
215	0xbd232fad	-0.03984039
216	0x3d0834bf	0.033253428
217	0xbc00a939	-0.007852846
218	0x3b0c1eef	0.0021380743
219	0xbc5add4e	-0.013358427
220	0xbc68225a	-0.014168346
221	0x3d4fae39	0.05070326
222	0xbb989341	-0.004656226
223	0xbcce64fb	-0.025194636
224	0x3d82c391	0.063849576
225	0x3c98e4b9	0.018663751
226	0x3c08e87d	0.008356211
227	0xbd109ef1	-0.03530783
228	0x3cb78e96	0.022406857
229	0xbc4b9a0c	-0.012426864
230	0xbd33a122	-0.04385484
231	0xbbfeadc1	-0.007772178
232	0xbd39d3a4	-0.04536785
233	0x3d0a77eb	0.03380577
234	0x3c851c6f	0.01624891
235	0xbbab2595	-0.005222986
236	0xbc0208b6	-0.007936647
237	0xbc00c98c	-0.0078605525
238	0xbc1482f5	-0.009064426
239	0x3ca8446f	0.020540444
240	0xbc916a6d	-0.017750943
241	0x3d6bf8f7	0.05761048
242	0xbd2329f3	-0.039834928
243	0xbd10571c	-0.035239324
244	0xbb0bbf60	-0.0021323785
245	0x3cc8eb3b	0.02452623
246	0x3cac28bb	0.021015516
247	0x3d1ff8e9	0.03905574
248	0x3d09daf8	0.03365609
249	0xbd0b7c60	-0.03405416
250	0xbcb42bae	-0.021993484
251	0xbd01d091	-0.031693045
252	0xbc029937	-0.0079711
253	0x3ce54f8f	0.027992038
254	0x3d558d31	0.052136604
255	0xbd1b3e2c	-0.03790109

fc2.bias f4 [128]
0	0xbca2a4cb	-0.01985397
1	0xbd8a59a8	-0.06755382
2	0x3c959caf	0.01826319
3	0x3d71e99c	0.059060678
4	0xbc8b3706	-0.01699401
5	0x3d124ed8	0.035719723
6	0x3cd811a9	0.026375609
7	0xbc5ad670	-0.01335679
8	0x3d49a1de	0.049226634
9	0xbd50b13f	-0.050950285
10	0x3c9e7355	0.019342104
11	0x3d7ed3fd	0.062213887
12	0x3ccc1d1b	0.024916222
13	0x3d05969f	0.032614347
14	0xbd45edbd	-0.048322428
15	0xbc7d3e7e	-0.015456794
16	0xbd111f1c	-0.03543006
17	0xbd63fdec	-0.05566208
18	0xbd5461e0	-0.051851153
19	0x3bf93940	0.0076057017
20	0xbd0e02fb	-0.03467081
21	0xbcb58052	-0.022155914
22	0xbd1f75e1	-0.038930777
23	0xbd2236c0	-0.039602995
24	0xbcdea1ef	-0.027176825
25	0x3d288076	0.041138135
26	0xbd8514de	-0.06498121
27	0xbd0de0be	-0.03463816
28	0x3c59d55b	0.013295497
29	0xbd46fd5d	-0.04858147
30	0xbc9970d7	-0.018730564
31	0xbd2953f3	-0.041339826
32	0x3d1e3259	0.038622234
33	0xbc712a9a	-0.01471963
34	0xbcfd1d12	-0.03089765
35	0x3bf5dbf3	0.0075030266
36	0xbd1e3c0a	-0.038631476
37	0xba812202	-0.0009852054
38	0xbd00cfb3	-0.031448077
39	0xbce11999	-0.027478026
40	0xbd72ac2b	-0.059246223
41	0xbd58aee4	-0.052901164
42	0x3d565ee5	0.052336592
43	0x3d18cd52	0.037305184
44	0xbd7c409f	-0.061585065
45	0x3c574dc4	0.013141099
46	0x3d596f3c	0.053084597
47	0xbd20a183	-0.03921653
48	0xbd737112	-0.059434004
49	0x3c9e94c8	0.019358054
50	0x3d23946d	0.03993647
51	0xbc0a0cbc	-0.008425888
52	0x3ca6fbaf	0.020383684
53	0x3d577d17	0.05260953
54	0xbd8acc92	-0.067773
55	0x3d136050	0.035980523
56	0xbd16d960	-0.0368284
57	0x3d50780f	0.050895747
58	0xbcaf86eb	-0.021426639
59	0x3c96ca7c	0.018407099
60	0xbd3a369b	-0.045462232
61	0xbd7ea3a6	-0.062167786
62	0xbd58d97c	-0.052941784
63	0x3d2d7b64	0.042354003
64	0xbd39ab26	-0.045329235
65	0xbb2bcd8e	-0.002621505
66	0xbc3c2c03	-0.011485103
67	0x3b57eb2d	0.0032946572
68	0x3d35695b	0.044289928
69	0xbcadcd7a	-0.021216143
70	0xbd666b42	-0.056254633
71	0xbba2aab6	-0.004964198
72	0x3c837714	0.016047992
73	0xbd8004b8	-0.062509
74	0xbb1eefe2	-0.0024251868
75	0xbd027673	-0.031851243
76	0x3dbe79d1	0.093005784
77	0x3c7f9d5b	0.015601481
78	0xbbbc6620	-0.005749479
79	0x3d59a376	0.053134404
80	0x3cf65a2f	0.0300723
81	0x3d595798	0.05306205
82	0x3c197a0b	0.009367476
83	0xbd383757	-0.04497465
84	0x3bf6c26c	0.007530501
85	0x3d1e2bc7	0.038615968
86	0x3ccc267e	0.024920698
87	0xbd063b02	-0.032771118
88	0xbb944234	-0.0045244936
89	0x3ced03b7	0.028932435
90	0xbc930c43	-0.017950183
91	0x3d81d029	0.063385315
92	0x3d4ff131	0.050767127
93	0x3c6b1f0c	0.014350664
94	0x3d3dcea0	0.04633963
95	0xbd836663	-0.06416013
96	0xbcbb4dbe	-0.022864219
97	0x3d9bb422	0.07602717
98	0xbbb2e66d	-0.005459598
99	0x3a2150d5	0.00061537075
100	0xbc8a5fd2	-0.016891394
101	0x3d376f06	0.044783615
102	0x3c88bbe7	0.016691161
103	0x3d595035	0.053055007
104	0x3d344fba	0.044021346
105	0x3c856b15	0.016286412
106	0xbbff2e04	-0.007787468
107	0x3ba78272	0.005111986
108	0xbd34e6bf	-0.04416537
109	0xbc27c97b	-0.010240908
110	0x3d69cb90	0.057078898
111	0xbce7b181	-0.028282883
112	0x3c144f2f	0.009052082
113	0xbc59f6a9	-0.013303437
114	0xbc7ae0cd	-0.015312386
115	0xbd371b4b	-0.044703763
116	0xbca1ab3c	-0.019734971
117	0x3c3f3c0d	0.011672032
118	0xbd522d84	-0.05131294
119	0x3c46fc70	0.012145147
120	0x3d42142c	0.04738252
121	0xbd16c8ac	-0.03681247
122	0x3d0b2455	0.033970196
123	0x3c884394	0.016633786
124	0x3d4c497d	0.04987477
125	0x3d1ccfb9	0.038284037
126	0xbc9cf86d	-0.019161427
127	0x3cc489da	0.023991514

fc3.weight f4 [64, 128]
0	0xbcc97983	-0.024594074
1	0xbd23fd2f	-0.040036377
2	0xbd0928d4	-0.033486202
3	0xbd1d9e18	-0.038480848
4	0x3d43081c	0.047615156
5	0x3d9551fa	0.072910264
6	0x3cfdce06	0.030982029
7	0xbda257c3	-0.079268955
8	0x3af041e6	0.0018330186
9	0x3cd61076	0.026130896
10	0xbd0b3445	-0.033985395
11	0x3c4d516a	0.012531618
12	0xbd9e4bc2	-0.077292934
13	0xbc084057	-0.008316121
14	0x3d19df60	0.037566543
15	0xbcbe08a0	-0.023197472
16	0x3d1dad9b	0.03849564
17	0x3bf48312	0.007461914
18	0xbcef9c39	-0.029249297
19	0xbc6beb5c	-0.014399376
20	0x3d28315b	0.041062694
21	0x3d228689	0.039679084
22	0x3d63829d	0.055544484
23	0x3d9b591d	0.075853564
24	0xbd3da024	-0.0462953
25	0xbd9eabdc	-0.07747623
26	0x3d575dec	0.052579805
27	0xbbfebe10	-0.007774122
28	0x3ae76e76	0.0017656821
29	0xbdbcbd4c	-0.09215793
30	0xbd96e69f	-0.07368206
31	0xbd90788d	-0.07054243
32	0xbda7c2f3	-0.081914805
33	0xbc3d940f	-0.011570944
34	0xbd349552	-0.044087715
35	0x3d92bfef	0.07165515
36	0xbb800f85	-0.0039081
37	0xbd544ccc	-0.05183105
38	0x3d7f4037	0.0623171
39	0xbc9afc16	-0.018919032
40	0x3c69a15f	0.014259665
41	0x3d4bde2d	0.04977243
42	0xbca4a90c	-0.02010014
43	0x3b94c27b	0.0045397854
44	0xba3ba8f8	-0.0007158662
45	0x3d720f86	0.059096836
46	0xbd4935cd	-0.049123574
47	0x3d163fc8	0.03668192
48	0x3b98d8e4	0.0046645273
49	0xbd99e62b	-0.07514604
50	0x3d9c16c2	0.07621528
51	0xbda27f3b	-0.079344235
52	0xbd736461	-0.0594219
53	0xbdb18566	-0.08668022
54	0xbcd3d968	-0.025860503
55	0xbd9aad18	-0.07552546
56	0x3d70c7fe	0.058784477
57	0xbd5570c9	-0.052109513
58	0x3d803ae2	0.06261231
59	0xbc5a5d9e	-0.013327984
60	0xbcd38df1	-0.025824519
61	0x3bd884b4	0.0066076163
62	0x3c0fb065	0.008770083
63	0x3d218818	0.03943643
64	0xbbec7af4	-0.0072168056
65	0xbc3532ca	-0.011059472
66	0x3d7e89ed	0.062143255
67	0xbdaaf35e	-0.083472
68	0x3d837256	0.06418292
69	0x3ce9a36d	0.02852031
70	0x3d301c40	0.04299569
71	0xbd3ebbb2	-0.04656572
72	0xbd243e5e	-0.04009854
73	0xbd9e2686	-0.077221915
74	0x3d5938cf	0.053032693
75	0x3c314746	0.010820216
76	0xbcb5c341	-0.02218783
77	0x3d0b91c0	0.034074545
78	0x3d996562	0.0749004
79	0x3ca69c61	0.02033824
80	0xbda5cfda	-0.08096285
81	0xbd6e6c6b	-0.058208864
82	0xbca653da	-0.020303655
83	0xbd3e3918	-0.046441168
84	0x3d541cd4	0.051785305
85	0x3d114bbc	0.035472617
86	0xbda9be3b	-0.08288237
87	0x3d28331b	0.041064363
88	0xbceba2e7	-0.028764201
89	0x3d3e7f25	0.046507973
90	0xbd204873	-0.039131593
91	0xbd896adf	-0.06709837
92	0xbd989e30	-0.07452047
93	0xbd097476	-0.03355833
94	0x3d47ce33	0.04878063
95	0xbbb0afa5	-0.005392032
96	0xbcb27860	-0.021785915
97	0xbce75f15	-0.02824358
98	0xbdb2f7c9	-0.087386675
99	0x3d729d50	0.059232056
100	0x3d294d6b	0.041333597
101	0xbd72ef26	-0.0593101
102	0xbd969cb8	-0.073541105
103	0xbce01a8e	-0.027356412
104	0x3da54ea9	0.08071644
105	0xbd48faff	-0.049067494
106	0x3d8019de	0.06254934
107	0x3d622cfd	0.055218685
108	0xbd174042	-0.036926515
109	0xbbfdd4c7	-0.0077463123
110	0xbd8ad1a5	-0.06778268
111	0x3d246d72	0.040143438
112	0xbc34c670	-0.011033639
113	0x3c40bd84	0.011763934
114	0xbd04fc5f	-0.032467242
115	0x3cebae1e	0.028769549
116	0xbcbe83c3	-0.023256188
117	0x3ca98d75	0.020697335
118	0xbd2c4724	-0.042060032
119	0x3d903609	0.070415564
120	0xbda03ffc	-0.07824704
121	0x3c66561d	0.014058617
122	0xbc8eee6b	-0.01744767
123	0x3c659c67	0.01401434
124	0xbdbcf4d6	-0.09226386
125	0x3d94b979	0.072619386
126	0xbd032c87	-0.032024886
127	0xbd83e137	-0.06439441
128	0xbcfd3bf8	-0.030912384
129	0xbdabb4d5	-0.083841
130	0xbcb5026c	-0.022095881
131	0x3cfae0c4	0.030624755
132	0x3d9ec2de	0.07752012
133	0x3d32c22c	0.043642208
134	0x3c37628f	0.011192932
135	0x3cdbccb1	0.026831003
136	0xbd0f3f3c	-0.034972414
137	0x3b920767	0.004456449
138	0xbd0c9d26	-0.034329556
139	0xbd2a1f5c	-0.041533813
140	0x3ba7e334	0.0051235203
141	0x3d9d6387	0.07684999
142	0xbca0cf27	-0.019630028
143	0x3d878751	0.066176064
144	0xbcdad3db	-0.026712349
145	0x3dafc7b3	0.085830115
146	0x3d6adb5c	0.057338104
147	0xbbb16ace	-0.0054143434
148	0x3d138c07	0.036022212
149	0xbdab201a	-0.08355732
150	0x3cada33e	0.021196004
151	0xbdacd8f5	-0.08439819
152	0x3cb15e4e	0.021651413
153	0x3d9b9da8	0.0759843
154	0x3d88830b	0.066656195
155	0xbda9fd00	-0.08300209
156	0xbdae9914	-0.08525291
157	0xbd9894bb	-0.07450243
158	0x3d924ad5	0.07143179
159	0x3da97aae	0.082753524
160	0x3c89da95	0.01682786
161	0x3d95b395	0.07309643
162	0x3d7f5dbe	0.06234526
163	0x3d1ae5b3	0.037816714
164	0xbce93f88	-0.028472677
165	0xbdbffe37	-0.093746595
166	0x3c87c26c	0.0165722
167	0xbdb57da7	-0.08861857
168	0x3d82917f	0.063754074
169	0x3ae85942	0.0017726796
170	0x3cdb5971	0.026776047
171	0x3d817930	0.06321943
172	0x3d991c42	0.07476093
173	0xbd9522b6	-0.07282011
174	0xbc957ceb	-0.018248042
175	0x3b04f54a	0.0020287805
176	0xbcd9c41a	-0.026582766
177	0xbc48cfff	-0.012256621
178	0xbd11aec1	-0.03556705
179	0x3d4a30f0	0.049363077
180	0x3d07a423	0.033115517
181	0xbd6a5aff	-0.057215687
182	0xbd5e047d	-0.0542035
183	0xbca0c2e8	-0.019624189
184	0xbca25315	-0.019815007
185	0xbd29a1e9	-0.041414175
186	0xbd03e41e	-0.03219997
187	0xbcea6aef	-0.028615443
188	0x3c13d7b9	0.0090236
189	0xbd8b20b4	-0.06793347
190	0xbd1ae66e	-0.03781741
191	0x3d054f16	0.032546125
192	0x3d3a0f99	0.04542503
193	0x3cf3ca6f	0.029759614
194	0xbcebaa02	-0.02876759
195	0xbda21890	-0.07914841
196	0x3da59e98	0.0808689
197	0xbd48a5f2	-0.048986383
198	0xbdbac349	-0.09119279
199	0xbd726369	-0.059176836
200	0x3d740461	0.05957449
201	0x3d1cd391	0.038287703
202	0x3da1f372	0.07907762
203	0x3d31912e	0.043351345
204	0xbd424b2c	-0.04743497
205	0x3d4b4dcf	0.04963475
206	0xbd171f8d	-0.036895324
207	0x3c3baa6b	0.011454205
208	0x3d537a22	0.051630147
209	0xbd55f7ed	-0.052238394
210	0xbdb382db	-0.08765193
211	0x3d9d204d	0.076721765
212	0x3d9fea0f	0.07808315
213	0xbcd3d6bd	-0.025859231
214	0x39ca4a08	0.000385836
215	0x3da6d294	0.08145633
216	0xbc37f16d	-0.011226994
217	0xbd2759d6	-0.04085716
218	0x3d90a607	0.07062917
219	0xbd7d0c01	-0.061779026
220	0xbd48e2c5	-0.04904439
221	0xbcf936d5	-0.030421654
222	0xbb886ca9	-0.004163344
223	0x3d5aabb3	0.0533864
224	0x3d864826	0.0655673
225	0xbcfe1b00	-0.031018734
226	0xbd1de4a6	-0.038548134
227	0x3da3ac0a	0.07991798
228	0x3c4934bc	0.012280639
229	0xbd93927c	-0.07205674
230	0xbd9c73ef	-0.076393
231	0xbd14b5e1	-0.036306266
232	0x3d08e872	0.033424802
233	0x3d2c9352	0.042132683
234	0x3d95e6a0	0.07319379
235	0x3cf7963a	0.030223
236	0xbdb6b15c	-0.08920547
237	0xbd4c9516	-0.049946867
238	0x3d31d0d8	0.04341206
239	0x3c95f3cd	0.01830473
240	0x3bbfcff8	0.005853649
241	0x3d1bbd52	0.038022347
242	0x3d4c8bb7	0.04993793
243	0xbd9b7ed0	-0.07592547
244	0xbc230b34	-0.0099514015
245	0xbc9a1f82	-0.018813852
246	0x3cca81d1	0.024720104
247	0x3d63a3cc	0.05557613
248	0x3d0d3f5e	0.03448426
249	0xbd8cc1c5	-0.06872896
250	0xbd8b3550	-0.06797278
251	0xbd6f07bd	-0.05835699
252	0xbc84404c	-0.01614394
253	0x3cfd5d80	0.030928373
254	0x3cf8ed92	0.03038672
255	0xbd0ef98b	-0.03490595

fc3.bias f4 [64]
0	0x3d3b49d1	0.045724694
1	0x3d7e4398	0.06207618
2	0xbd4ec7f6	-0.050483666
3	0xbceec33e	-0.029145833
4	0xbc86914e	-0.016426709
5	0x3da6c6ec	0.0814341
6	0x3ca37be8	0.019956544
7	0xbdd24aee	-0.10268198
8	0xbd4638b8	-0.048393935
9	0xbd579046	-0.052627824
10	0xbd46226f	-0.048372682
11	0xbd0bedaf	-0.03416222
12	0x3cb754d5	0.022379318
13	0xbd1a2517	-0.037633028
14	0x3b8966ca	0.0041931616
15	0x3d0a3654	0.033743218
16	0x3d2be489	0.041965995
17	0xbd3afda3	-0.045652043
18	0xbc796df8	-0.0152239725
19	0x3c895c91	0.016767772
20	0xbd8b90d0	-0.0681473
21	0x3cf9829e	0.030457791
22	0xbd7d7b1e	-0.06188499
23	0x3c383520	0.011243135
24	0x3d53a841	0.05167413
25	0xbdb18506	-0.0866795
26	0xbd0debfa	-0.034648873
27	0xbc5b5192	-0.013386147
28	0xbd834a83	-0.06410696
29	0x3d438b3f	0.047740217
30	0xbd48aa1e	-0.04899036
31	0xbd752fad	-0.05985992
32	0xbd1421c9	-0.036165033
33	0xbd636d54	-0.055524185
34	0x3b05a00e	0.002038959
35	0x3d2de82e	0.042457752
36	0xbd956b46	-0.072958514
37	0x3d23bec9	0.03997687
38	0xbda37f05	-0.079832114
39	0xbd893b90	-0.06700814
40	0xbca74be3	-0.020421928
41	0xbdb589ad	-0.0886415
42	0xbd95920b	-0.07303246
43	0xbcfb5f2e	-0.030685034
44	0xbd2bc47a	-0.04193542
45	0x3d9fd1ac	0.078036636
46	0x3c582b93	0.013193983
47	0xbd8ce96e	-0.06880461
48	0x3d4b8009	0.04968265
49	0x3d9166c8	0.07099682
50	0x3a8030fb	0.0009780222
51	0x3d7c41dc	0.061586246
52	0xbd7fa151	-0.062409703
53	0xbd98975b	-0.07450744
54	0xbda4f649	-0.08054788
55	0x3d9bdb3f	0.07610177
56	0x3cadff5a	0.021239925
57	0xbd738589	-0.05945352
58	0x3d5220a0	0.051300645
59	0xba4d6834	-0.0007835657
60	0xbd757da0	-0.05993426
61	0xbd5a15be	-0.05324339
62	0xbd018cb0	-0.03162831
63	0xbd5d2658	-0.053991646

fc4.weight f4 [32, 64]
0	0x3c6ad474	0.014332879
1	0x3df0b421	0.11753107
2	0x3d12439f	0.03570902
3	0x3d46b1bc	0.048509344
4	0xbd0a684a	-0.033790864
5	0xbd7c72cb	-0.061632913
6	0xbcdebbb1	-0.027189108
7	0xbdfa3c90	-0.12218583
8	0x3ceb3ea9	0.028716402
9	0x3d48333b	0.048876982
10	0xbdc21bb2	-0.09477939
11	0xbd1bc1d2	-0.03802664
12	0xbd2eb1ee	-0.042650156
13	0xbc7ce922	-0.015436443
14	0xbbd19b76	-0.006396706
15	0x3c950090	0.018188745
16	0xbd98bc57	-0.07457798
17	0x3cec5208	0.02884771
18	0xbd24114d	-0.04005556
19	0x3d80a50c	0.0628148
20	0x3c68e2fa	0.014214272
21	0xbc9f9288	-0.019479051
22	0xbca3613a	-0.019943822
23	0x3ba728f1	0.005101316
24	0xbde8efbd	-0.113738514
25	0x3cbe092a	0.02319773
26	0xbde8b8f6	-0.113634035
27	0x3dda3494	0.1065456
28	0xbdc41243	-0.09573796
29	0x3d079456	0.03310045
30	0xbd311faa	-0.043243088
31	0x3d7089a5	0.058725018
32	0xbc5c101c	-0.013431575
33	0x3ce9d7ce	0.028545287
34	0xbde76b92	-0.11299814
35	0xbd255815	-0.040367205
36	0xbde8295b	-0.11336013
37	0xbd9f830e	-0.077886686
38	0x3dcfebb8	0.10152382
39	0xbd978ffb	-0.07400509
40	0xbd56f981	-0.05248404
41	0xbe03e4a0	-0.12880182
42	0xbd9827b7	-0.0742945
43	0x3def644f	0.11689054
44	0x3c3e9f87	0.011634714
45	0x3defe849	0.11714227
46	0xbd948a1e	-0.07252906
47	0xbd2e709d	-0.042587865
48	0xbd85bb72	-0.06529893
49	0xbddcc804	-0.107803375
50	0xbd8560b4	-0.06512585
51	0xbdbc83a8	-0.09204799
52	0x3de900d1	0.11377109
53	0xbd9ead16	-0.07747857
54	0xbc35c5a6	-0.011094486
55	0x3db31317	0.087438755
56	0xbd65334b	-0.05595712
57	0xbccb68cf	-0.02483025
58	0xbdbaed10	-0.09127247
59	0xbcdece98	-0.027198121
60	0xbd808876	-0.06276028
61	0xbda65312	-0.08121313
62	0x3d6359a6	0.055505417
63	0x3d982e65	0.07430724
64	0x3d860da9	0.06545574
65	0x3b940779	0.0045174924
66	0xbdec6cff	-0.11544227
67	0xbddbde65	-0.10735778
68	0xbdd0380f	-0.10166942
69	0xbd4274ed	-0.04747479
70	0x3d89e549	0.06733186
71	0x3c163f00	0.009170294
72	0x3d776224	0.06039633
73	0x3dc030c5	0.09384302
74	0x3d97cca7	0.07412081
75	0xbda88a94	-0.08229557
76	0x3c0a0a91	0.008425371
77	0xbda1025c	-0.07861778
78	0x3df520a7	0.119691186
79	0x3b84650b	0.0040403656
80	0xbd06eab8	-0.03293869
81	0x3d233fb8	0.03985569
82	0x3c50e8da	0.012750829
83	0x3cb5f633	0.022212123
84	0xbd87928c	-0.066197485
85	0x3de09768	0.109663785
86	0xbde0ad5d	-0.109705664
87	0x3cef81c9	0.029236691
88	0x3d5b89f3	0.053598356
89	0xbcfa3cec	-0.030546628
90	0x3dcc5cc9	0.09978635
91	0x3db11670	0.08646858
92	0x3b7bbb2a	0.003841112
93	0x3dc1156c	0.09427914
94	0xbbee8164	-0.007278608
95	0xbcaa1c5f	-0.020765482
96	0x3d96b75c	0.07359192
97	0xbdc41db2	-0.095759764
98	0x3c3ce6a0	0.011529595
99	0x3d876ee3	0.06612947
100	0x3d13dd03	0.036099445
101	0xbdac44f3	-0.084115885
102	0x3c86d663	0.01645965
103	0x3afb9e18	0.0019196896
104	0x3cf6932d	0.030099476
105	0x3ddf6210	0.10907376
106	0xbd884216	-0.0665323
107	0xbd4cbc8e	-0.049984507
108	0xbd733f98	-0.05938682
109	0x3cc043b0	0.023469776
110	0xbb4beba2	-0.003111579
111	0xbdaa9367	-0.08328896
112	0x3d6ca938	0.057778567
113	0xbd450e38	-0.048109263
114	0x3d0d495e	0.034493797
115	0x3daa19f1	0.08305729
116	0x3dee82de	0.11646055
117	0x3ce0fde6	0.027464818
118	0xbdc75c21	-0.09734369
119	0x3d519f22	0.05117715
120	0xbd1f7522	-0.038930066
121	0x3aeae3d1	0.0017920678
122	0x3d8b2d96	0.06795804
123	0x3dc1ca3c	0.09462401
124	0x3d0533c6	0.032520078
125	0xbb5bd763	-0.0033545129
126	0xbdb983b5	-0.09058324
127	0x3daf6101	0.08563424
128	0xbc8e537d	-0.017373795
129	0xbc19e1da	-0.009392226
130	0xbddaf356	-0.10690944
131	0xbc3d08c8	-0.011537738
132	0xbda66752	-0.081251755
133	0xbdd8ccbf	-0.10585927
134	0xbd43c433	-0.047794532
135	0x3d5b6300	0.05356121
136	0x3cd1c6f2	0.02560756
137	0x3dc23397	0.09482496
138	0xbd663729	-0.05620495
139	0x3d871e5e	0.06597589
140	0xbdb12b29	-0.0865081
141	0x3dbce76c	0.09223828
142	0x3dc7e977	0.09761327
143	0xbc585a7d	-0.013205168
144	0xbc4efafa	-0.01263308
145	0xbd5887d8	-0.052863926
146	0x3d9cfc8a	0.076653555
147	0x3de7fc09	0.11327369
148	0x3c7d7bb4	0.015471388
149	0x3d108d28	0.035290867
150	0xbdb939ed	-0.090442516
151	0xbde760ca	-0.11297758
152	0xbc68165e	-0.014165489
153	0x3d11fff3	0.035644483
154	0x3c9de329	0.019273357
155	0x3dbd4fc4	0.0924373
156	0xbc00fa09	-0.007872113
157	0xbd49a7e5	-0.049232382
158	0x3c19294c	0.009348225
159	0xbd42bc6a	-0.047542967
160	0x39a25f9b	0.0003097028
161	0x3d325ec6	0.043547414
162	0xbdc3ae7f	-0.09554767
163	0xbd822410	-0.063545346
164	0x3d481a9e	0.04885351
165	0x3d7546b6	0.05988189
166	0x3d3d8c39	0.046276305
167	0x3d474ebd	0.048659075
168	0xbcd6ba22	-0.026211802
169	0x3c5518e1	0.01300642
170	0xbd04a082	-0.032379635
171	0xbdb6dd97	-0.08928984
172	0x3d2faee3	0.042891394
173	0xbdfeb9ba	-0.12437768
174	0xbd85708b	-0.065156065
175	0x3d7453fc	0.059650406
176	0xbc9445f9	-0.018099772
177	0xbda9dc8c	-0.08294019
178	0xbde6687f	-0.112504
179	0xbdd2fec8	-0.10302502
180	0x3d6e6d74	0.05820985
181	0x3dce80cd	0.100831605
182	0x3dd31530	0.103067756
183	0x3d86de74	0.06585398
184	0x3ca95177	0.020668728
185	0x3d35cb1a	0.044383146
186	0x3d8b569b	0.06803628
187	0xbdb941bf	-0.09045743
188	0xbcfb2cae	-0.030660953
189	0xbd8d0a47	-0.06886726
190	0x3d8c5f67	0.06854134
191	0x3d2bb0c7	0.041916635
192	0xbdd461e8	-0.10370237
193	0x3df53cc2	0.11974479
194	0x3ce6cc0d	0.02817347
195	0xbc991bc9	-0.018690007
196	0xbd9b24de	-0.07575391
197	0x3dcb9622	0.09940745
198	0xbcbcfc09	-0.023069398
199	0x3ddbbeb1	0.10729731
200	0xbdcd7f39	-0.100340314
201	0x3ddd146d	0.107949115
202	0xbd263ae9	-0.040583525
203	0xbb73860c	-0.0037158756
204	0xbd6b941a	-0.057514288
205	0xbd9b53bc	-0.075843304
206	0x3d1a9ffa	0.03775022
207	0xbdaac9bb	-0.08339258
208	0x3daa60e1	0.083192594
209	0x3d78d88f	0.0607534
210	0xbdf73f4b	-0.12072619
211	0x3d1be7c2	0.03806282
212	0x3d294288	0.041323215
213	0x3d153ac1	0.036432985
214	0xbd2495db	-0.040181976
215	0x3d2d63eb	0.042331617
216	0x3e024b14	0.12723953
217	0x3dc9f521	0.09861208
218	0xbd15bd85	-0.036557693
219	0xbdde9bac	-0.10869536
220	0xbdf2aaef	-0.11849009
221	0xbb793247	-0.0038024352
222	0x3d8d4d6c	0.06899533
223	0x3db7976c	0.08964428
224	0xbcd46233	-0.025925731
225	0xbdd544d4	-0.104135185
226	0x3da0f3aa	0.07858975
227	0xbdd645be	-0.10462521
228	0x3deba105	0.115053214
229	0xbde68d47	-0.11257415
230	0x3cdf7592	0.027277742
231	0x3decdfa5	0.11566094
232	0xbb6095f8	-0.0034269076
233	0x3d1f8c78	0.03895232
234	0x3c2e264c	0.010629248
235	0xbda77c80	-0.08178043
236	0x3c5b4328	0.0133827105
237	0xbd61d5f5	-0.055135686
238	0x3d68f6e8	0.056876093
239	0xbdb9dd79	-0.09075446
240	0xbd29f77c	-0.041495785
241	0x3db24fa8	0.087065995
242	0xbdd709c4	-0.104999095
243	0xbd37b50c	-0.044850394
244	0xbc8b44b1	-0.017000528
245	0x3dbd5622	0.09244944
246	0x3c8cb010	0.017173797
247	0xbd5a04cb	-0.053227227
248	0x3dd3fe90	0.10351288
249	0x3db807e7	0.08985882
250	0x3dcca877	0.099930696
251	0xbd52a081	-0.0514226
252	0x3dff2a2a	0.12459214
253	0x3d5e7408	0.054309875
254	0xbd730c6a	-0.05933801
255	0x3d46ea14	0.048563078

fc4.bias f4 [32]
0	0x3d35d383	0.044391166
1	0xb95eef3a	-0.00021260689
2	0xbde8f288	-0.11374384
3	0x3dc72b22	0.09725024
4	0xbb12c8bd	-0.0022397481
5	0x3da73b37	0.08165591
6	0xbd9c70ed	-0.076387264
7	0x3d82f1fd	0.06393812
8	0x3d603f18	0.05474767
9	0xbce3e19f	-0.027817545
10	0xbd284d76	-0.041089498
11	0x3dd84795	0.10560528
12	0x3cbfc684	0.02341009
13	0xbd4cf1f0	-0.050035417
14	0x3d84125f	0.064488165
15	0xbda75efc	-0.08172414
16	0xbde64899	-0.11244316
17	0xbd18e96d	-0.037331987
18	0x3d00d525	0.03145327
19	0x3c87d37b	0.016580334
20	0xbd44078c	-0.04785876
21	0x3d7d5cf6	0.061856233
22	0xbdb6ab17	-0.089193515
23	0xbd7a2902	-0.061074264
24	0xbd705569	-0.058675203
25	0x3d7163a4	0.058932915
26	0x3b96b471	0.004599147
27	0xbbc7c918	-0.0060969703
28	0xbd1de475	-0.03854795
29	0x3beb1564	0.007174181
30	0xbb1148ae	-0.0022168565
31	0xbdd8df0e	-0.10589419

fc5.weight f4 [1, 32]
0	0x3a2c516e	0.0006573413
1	0x3e1dd015	0.15411408
2	0xbda366fd	-0.07978628
3	0xbe04e9a7	-0.12979756
4	0x3d80aeab	0.06283315
5	0x3b211363	0.0024578206
6	0xbc991e41	-0.018691184
7	0x3d06eb9b	0.032939535
8	0x3df68c8e	0.120385274
9	0xbd981746	-0.07426314
10	0xbdc77762	-0.09739567
11	0xbe03ada2	-0.12859204
12	0x3d76b3bf	0.060230013
13	0xbd0db3b9	-0.034595225
14	0xbd831d6c	-0.06402096
15	0xbc653844	-0.013990466
16	0xbc27417c	-0.010208484
17	0xbdc55ea6	-0.096371934
18	0x3daf12a9	0.08548481
19	0xbd95cb0e	-0.0731412
20	0x3d50e6da	0.051001407
21	0xbd9f08f6	-0.07765381
22	0xbd201343	-0.03908087
23	0x3e0cd026	0.13751277
24	0x3d913aff	0.07091331
25	0x3d9d347b	0.076760255
26	0xbde8d8c6	-0.11369471
27	0xbcf51e13	-0.029921567
28	0x3dcf8079	0.10131926
29	0x3dd83538	0.10557026
30	0xbda4b624	-0.08042553
31	0x3d76607b	0.060150605
