DeepLearning/model_0325_dropout/model_best_8_r2_-0.009654753661506003.pth (torch, 666311 bytes, 9 tensors)

fc1.weight f4 [256, 478]
000000 b4 52 19 3d ee 0f 1a 3c 75 76 c6 ba 8d 9a fc 3c
       0.037432387 0.009403212 -0.0015141504 0.030835414
000010 4f 7e ed 3c 38 d2 33 bd 17 b7 b3 bc e9 40 54 bc
       0.028990893 -0.043901652 -0.02193789 -0.012954929
000020 5e 7a dc 3c 49 f9 33 bb 65 7a 31 bd 15 76 a6 bc
       0.026913818 -0.0027461818 -0.043329615 -0.020319978
000030 c2 2c cd 3c 76 ab 15 bd da 20 f0 bc 10 bb f1 ba
       0.025045756 -0.03654047 -0.02931254 -0.001844259
000040 1d 57 0f 3d 2a dc 0f 3d a8 44 c5 bc f4 66 3d 3d
       0.034995187 0.035122074 -0.02408059 0.046240762
000050 2e 0f 65 3c 8a 99 80 bc 49 ac a6 3c 7e 56 89 bc
       0.01398067 -0.015698213 0.020345824 -0.016764876
000060 14 33 46 3d 93 e1 74 ba db b5 a3 3c df e7 89 bc
       0.048388556 -0.00093414745 0.019984176 -0.016834198
000070 5d 98 fb 3c d1 21 1c 3c f9 27 2b bd e9 0e 48 bd
       0.0307123 0.009529547 -0.041786168 -0.048842344
000080 78 29 0d 3d 0b 77 43 bd 7e 4d de 3b 57 3c 80 bb
       0.034463376 -0.04772095 0.00678414 -0.003913443
000090 4b 19 eb 3c 63 72 08 bd 46 79 e5 3c 63 5a c8 bc
       0.028698584 -0.033312213 0.02801193 -0.024457162
0000a0 0b b4 d0 bc 31 3a 65 bc ef 8f 6a 3c f6 46 50 3d
       -0.025476476 -0.013990925 0.014316543 0.050848924
0000b0 0d 23 14 3b aa 4a 8b bb 15 1a d0 3b a6 b0 0c bb
       0.00226039 -0.004250844 0.0063507655 -0.0021467595
0000c0 e5 1b 0d 3d a3 7c a3 3a 85 52 00 3d b9 49 9a 3c
       0.03445043 0.0012473058 0.031328697 0.018833982
0000d0 f3 f9 1b bd 69 3c a5 3c 83 a1 09 3d 88 85 e0 3c
       -0.038080167 0.020170407 0.033601295 0.027407423
0000e0 e8 9a b0 ba c0 3d 4f bd b5 db fd bc 66 26 1d bc
       -0.00134739 -0.050596 -0.030988554 -0.009591674
0000f0 1b f9 b3 bc 18 5a 23 3d 91 96 c0 3a fc 1a 33 3c
       -0.021969369 0.039880842 0.001469331 0.010931727
000100 15 15 7b bc ed e7 3e bd b8 bf 54 3b b0 e5 1a bd
       -0.015324851 -0.0466079 0.0032462906 -0.037816703
000110 6a f1 0f 3d dc 0d 92 3c bc 4c b0 bc 26 4b 4e bd
       0.03514234 0.017828874 -0.021520965 -0.050364636
000120 f5 a4 ad bc e5 fd 6f ba c7 78 93 bc d0 c7 18 ba
       -0.021196822 -0.00091549597 -0.018001927 -0.0005828114
000130 87 3d 39 bd 21 04 a5 bc 73 31 44 3c e9 c1 cd bb
       -0.045224693 -0.02014357 0.01197468 -0.0062792194
000140 5f 27 e4 3c bb e7 80 ba de 99 d0 3c 11 51 74 bc
       0.027850805 -0.0009834686 0.025463995 -0.014911906
000150 9c 00 10 3d 51 18 61 bd 20 54 1b 3d 97 cc b1 bc
       0.03515683 -0.05495483 0.037922025 -0.021704001
000160 e2 3b 00 bc 78 59 15 3d 00 98 ed bb bd 74 15 3d
       -0.007826777 0.036462277 -0.007250786 0.036488283
000170 c8 80 4d ba 81 50 fe bc 0e 94 ea 3c cc 2d 8f bb
       -0.00078393193 -0.031044247 0.028635051 -0.004369473
000180 ed b1 9f 3c cd 07 e2 bc fd 26 78 3c 70 ca 31 bd
       0.019494021 -0.02759161 0.015146014 -0.04340595
000190 ae 0b 38 3c 62 4d 7a 3c 62 51 3f 3d 4f d7 00 bd
       0.011233253 0.015277239 0.046708472 -0.031455334
0001a0 12 c1 9d 3c d4 7b 24 bd 13 59 ff 3c 4b 9b 46 bd
       0.019257102 -0.040157154 0.031170404 -0.048487943
0001b0 e4 0c 87 bc 34 a9 18 bd 0f 2f ce 3c ad b5 93 3c
       -0.016485639 -0.03727074 0.025168924 0.018030966
0001c0 22 18 2c bd cd 7a 1e bd ac 9f de bc e7 01 a5 3c
       -0.042015202 -0.03869133 -0.027175747 0.020142509
0001d0 8b 88 ba bc db 7d 02 3d 17 74 46 bd a2 94 51 bc
       -0.022770187 0.031858306 -0.048450556 -0.0127917845
0001e0 a2 3f 0d 3c 12 72 d2 ba 98 29 40 3c 2e 47 9a bb
       0.008621128 -0.0016055724 0.011728667 -0.0047081923
0001f0 32 56 43 bc 8b 33 21 bd 9f 4b e6 3a 1a 9e 11 3d
       -0.011922406 -0.039355796 0.0017570144 0.035551168
000200 4b 9a 0b bd bf 0e b7 3c ff e1 f8 3c 86 4c 08 bd
       -0.034082692 0.022345899 0.0303812 -0.033276103
000210 c7 e3 b6 3c 5d 9d 92 3c 63 cb 44 bc 39 fc ea ba
       0.02232541 0.017897302 -0.012011382 -0.0017927951
000220 09 62 b0 3c e6 73 18 bd 76 b9 92 bc 1e 57 c9 bc
       0.021531122 -0.037219904 -0.0179107 -0.024577674
000230 be b6 5e 3d 1b d9 50 bc 46 b3 ce 3c 4e 3b c7 3c
       0.054373495 -0.0127470745 0.025231969 0.02432027
000240 5b 01 bb 3c b6 bb 1c 3c 6a 3f 43 bd 0d ab 25 3b
       0.022827795 0.009566238 -0.0476679 0.0025278956
000250 49 33 e9 bc 4b 29 b0 bc 34 3c 14 bc f1 a1 28 bd
       -0.028466837 -0.021504065 -0.009047557 -0.041170064
000260 6f 84 0d 3d e0 37 14 bd 5d 3a c3 bc 86 d1 a0 bc
       0.034550127 -0.0361861 -0.02383154 -0.019631159
000270 15 f2 1e 3c 92 25 fd 3c 70 cd 9e 3c ae 7e 84 3c
       0.009701272 0.030901704 0.01938507 0.016173687
000280 61 6e 01 bd 25 65 d4 bc a1 4f 13 bc 6c 4c 54 3c
       -0.031599406 -0.025927136 -0.008991153 0.0129576735
000290 dd 5d 37 3c 89 03 34 3c 16 46 d0 3c e2 29 2b bd
       0.011191812 0.010987171 0.025424045 -0.04178799
0002a0 ad 8e 63 ba 6b 48 1f 3c ff f7 17 bd 0e 8c 22 3d
       -0.0008680623 0.009721856 -0.037101742 0.039684348
0002b0 b2 2f ae 3c 46 2d 81 bc e6 30 22 bd 6a 43 3f bd
       0.021262977 -0.015768658 -0.039597414 -0.04669515
0002c0 f7 55 29 3d fd 97 32 3d 03 af 17 3d de c6 08 bd
       0.041341748 0.04360198 0.03703214 -0.03339278
0002d0 52 f7 9f ba ae 28 42 3c 2d 66 22 bd ee a8 57 bd
       -0.0012204445 0.011850519 -0.039648224 -0.05265134
0002e0 e0 8c e5 ba 71 9a bc 3c cb e0 40 3d 3c b6 07 bd
       -0.0017513297 0.023022862 0.04708938 -0.033132777
0002f0 6f 07 c8 bc f7 7c f1 bc 01 6b 9d 3c 82 79 3a bd
       -0.024417607 -0.029478533 0.019216063 -0.045526035
000300 d0 f2 2f 3c 31 98 f3 3c d9 31 3d 3d 9c 41 8f 3c
       0.010739043 0.029735656 0.046190117 0.01748734
000310 fd 55 f6 bc c4 bd 72 bc 21 10 f1 bc 22 64 14 3d
       -0.0300703 -0.014815751 -0.029426636 0.036228307
000320 30 e7 d4 bc 38 6b 75 3c ce fe 44 bd 4f 39 8b bc
       -0.025989145 0.014979176 -0.048094563 -0.0169951
000330 72 42 f7 3c e5 4f d6 3c fa 45 5e bc 91 17 0c 3d
       0.03018305 0.026161144 -0.013566488 0.034202162
000340 b6 f4 75 3c 3f 85 07 3d 68 13 d5 bc aa a1 6e 3c
       0.015011957 0.033086058 -0.02601023 0.014564911
000350 20 70 0b 3d a7 89 ef b9 78 c1 37 bc a3 b9 a5 3c
       0.034042478 -0.0004568819 -0.01121556 0.02023012
000360 1c 9c 24 3d 79 d7 28 3c cd 1c 3b 3c 31 1b 08 3d
       0.04018794 0.010305279 0.011420441 0.033229057
000370 9e dc 12 bd 5d bd f1 bc 7c 46 82 bc 5c d9 22 3c
       -0.03585493 -0.02950924 -0.01590275 0.009939518
000380 76 d3 c1 3c 40 0d 0c bd e8 22 5d 3c 3d 5b 6f bc
       0.023660403 -0.034192324 0.013497092 -0.014609155
000390 b8 ee fd bc 63 8c c4 bc 71 c6 c6 bc 93 63 20 38
       -0.030997619 -0.023992723 -0.024264546 3.823971e-05
0003a0 5d 3b 34 3d 47 66 e3 3b ee 84 ee 3c e1 67 40 bc
       0.044001926 0.0069396826 0.02911612 -0.011743517
0003b0 a4 bf 05 3c 57 ec b9 bc b6 ab d8 b9 56 b2 f9 bc
       0.0081633665 -0.022695703 -0.00041326665 -0.030480545
0003c0 12 d4 34 3c 74 39 73 bc 41 ee c3 bb 7a 04 8e 3b
       0.01103689 -0.014845241 -0.00597933 0.0043340297
0003d0 b5 3e f0 bc 3f 7c 8a bb 9b 79 73 bc ee 9f 21 3d
       -0.029326776 -0.004226237 -0.014860536 0.03945916
0003e0 59 2d eb bc 03 1c 77 bc 19 0c 11 bc af c5 b5 bc
       -0.028708147 -0.015082362 -0.008852982 -0.02218899
0003f0 0b 40 05 3d 37 0b 07 bc 41 d5 34 3a 37 3c 03 bd
       0.03253178 -0.00824242 0.00068982324 -0.032039847

fc1.bias f4 [256]
000000 ba 05 a3 bc 3a 14 71 3c de b0 aa 3c 62 c4 d2 ba
       -0.019900192 0.014714295 0.02083629 -0.0016080255
000010 41 0e 32 bd 52 70 2b 3d 5e 6c ed bc de a7 be 3c
       -0.043470625 0.041855164 -0.028982338 0.023273405
000020 b1 1e e3 bc c2 34 12 3d db 7e ec 3c 18 32 ea bc
       -0.027724596 0.035694845 0.028869083 -0.02858834
000030 8c 23 0b 3d 1d ea dd 3c 35 d6 15 3d 0d 9a 29 bd
       0.033969447 0.027089173 0.036581237 -0.04140668
000040 74 2b 7e bc 71 ce 07 bd 35 be ac bc 7d 37 d3 3b
       -0.01551329 -0.033155862 -0.021086792 0.0064458237
000050 46 7e 6d 3c a1 12 6f bd 26 5d 10 bd c8 5f 5d 3c
       0.014495438 -0.058367375 -0.035245083 0.013511606
000060 10 3c a3 3c 2a 3e c2 3b a3 5c 80 bc fd af bd 3c
       0.019926101 0.0059278207 -0.015669173 0.023155207
000070 e1 e5 e0 bc e5 e7 3a bd 7a cc 05 bd 25 d1 1f bd
       -0.027453365 -0.045631308 -0.032665707 -0.039017815
000080 cc 93 50 3c 37 61 df 3c 42 29 40 bd e1 39 7c bc
       0.01273055 0.027268035 -0.046914347 -0.015394659
000090 d6 0a 46 bd 2b 38 19 3c 20 98 2c bd b1 5a 7d bc
       -0.048350178 0.00935177 -0.042137265 -0.015463517
0000a0 38 7e 73 bc b7 fd 44 3d db cf b5 3c 83 97 e3 bc
       -0.014861636 0.048093524 0.02219384 -0.027782207
0000b0 8a c7 cd bc 06 46 44 3d 48 f3 02 bd 0b 2c 12 3d
       -0.025119562 0.047918342 -0.031970292 0.035686534
0000c0 52 86 02 bd 1a c0 9e 3c cb c9 04 bd 8e 27 9a bc
       -0.03186638 0.01937871 -0.032419007 -0.01881769
0000d0 44 ef 56 3c 96 bc 19 3c a8 6d 2f bd 7b 1b 32 bc
       0.013118569 0.009383341 -0.042829186 -0.01087081
0000e0 e2 60 ad 3c a4 a9 cf 3c 99 de d0 bb 24 dc 39 bd
       0.021164361 0.025349446 -0.006374192 -0.045375958
0000f0 06 3c 34 bd 06 94 75 bb 12 a3 27 bd 42 73 0c 3d
       -0.044002555 -0.0037472262 -0.040927 0.034289606
000100 2d 7d b3 3c d9 a7 d7 3c fd da d5 3c e8 5d ab bc
       0.021910274 0.026325153 0.026105398 -0.020918801
000110 b3 46 1b bc c6 83 4c bd 22 e3 0c bd aa 6c 2d bd
       -0.009477305 -0.049930356 -0.0343963 -0.04233996
000120 94 0c 01 3d b0 e5 aa bc cc d5 58 bc 6b a4 b0 3c
       0.031506136 -0.020861477 -0.013234567 0.021562776
000130 0c f0 a4 bc 7d 6b 86 bb 30 6b 81 3c 16 40 0e bd
       -0.020133995 -0.004102169 0.015798181 -0.034729086
000140 c5 7c b8 3c fe 59 06 3d 67 2e c3 3c 7d 2c 10 bd
       0.022520432 0.032800667 0.023825837 -0.035198677
000150 a4 1e ef bc 9d d8 a0 3c 85 a3 07 3b b0 45 0d bb
       -0.029189415 0.01963454 0.002069683 -0.002155643
000160 e4 0f 35 bd 5d 77 5f 3c 34 44 20 bd df 9b 9b bc
       -0.044204608 0.013639298 -0.039127544 -0.018995224
000170 31 8c 0a 3d bd 36 f3 bc 76 3c 4f bc 4a 59 4d bc
       0.033825103 -0.029689187 -0.012648692 -0.012533495
000180 e1 da 80 3c 29 ea 05 3d 15 50 36 bd b0 4b 37 bd
       0.01572937 0.032694016 -0.044509966 -0.044749916
000190 4b fc f6 bc fb 71 fa bc 42 78 05 bd ec 77 d7 3c
       -0.0301496 -0.030571928 -0.03258539 0.0263023
0001a0 ad ed fa 3c 01 cd 5d 3a 9e 2f e0 bc b0 40 01 3d
       0.03063091 0.0008461029 -0.027366456 0.03155583
0001b0 b1 a4 12 bd 35 1e 22 bc 6e 2c e5 bc f9 24 91 3c
       -0.035801593 -0.009894897 -0.027975287 0.017717825
0001c0 8c ff de 3b f6 c7 27 bb d2 c2 5f bd 20 e0 1f bc
       0.006805366 -0.0025601364 -0.054629155 -0.009758025
0001d0 0b 10 8c 3c 72 a2 c2 3c 84 fd 35 bd 77 58 99 bc
       0.017097494 0.0237591 -0.044431224 -0.018718941
0001e0 00 ef 71 3a 38 84 42 bc 1d 05 02 bc 02 6e 12 bd
       0.0009229034 -0.011872344 -0.007935789 -0.035749443
0001f0 b3 c8 f6 ba 7b 13 11 bd e2 d8 3b bd b2 57 82 bc
       -0.0018828124 -0.03541897 -0.045861132 -0.015910957
000200 50 fa e9 3c 00 f3 b2 3c 8e 6b 18 bd 64 89 1f bd
       0.028561741 0.021844387 -0.037211947 -0.038949385
000210 d9 c1 2f bd 57 3b 3e bd f3 1b 68 3c d3 31 19 ba
       -0.042909477 -0.04644331 0.01416682 -0.0005843911
000220 8d 16 0e bd 09 ca fc bc 2f d8 95 bc e1 08 38 bd
       -0.034689475 -0.030858057 -0.018291561 -0.044930343
000230 fb 5e 05 bc ba 1a f2 3c e7 77 27 bc 40 e0 7a 3b
       -0.008140321 0.02955376 -0.010221458 0.0038280636
000240 ec aa 5a 3d a6 d1 0d 3d e8 50 3b bd 93 b3 97 bb
       0.05338566 0.034623764 -0.045731455 -0.004629561
000250 0d 71 ee bc e3 2a 83 bb b4 38 0e 3d 4e 45 10 3d
       -0.029106641 -0.004002915 0.034722045 0.035222344
000260 cf 06 5b bc 3d e8 b8 3c 3f 62 15 3b 0e 3b b3 bc
       -0.0133683225 0.022571677 0.0022794155 -0.021878745
000270 a8 7b e3 bb d7 22 f9 bc 9c 70 1d 3d 34 04 39 bc
       -0.006942231 -0.03041212 0.03843747 -0.011292506
000280 e6 ba 3e 3c dd f0 10 bd 6d f9 c4 3c da 83 f2 3c
       0.01164124 -0.035385955 0.024044717 0.029603887
000290 9b e9 bb bc 85 fb be 3c b6 3f 68 bc 46 fb b2 bc
       -0.02293854 0.023313293 -0.014175346 -0.021848332
0002a0 10 e6 43 3c b8 14 70 bb db e9 85 bc 0a fd 3f 3c
       0.011956707 -0.0036633443 -0.016346863 0.011718044
0002b0 57 7e 33 3c c2 6e 29 bd f7 d6 06 bd b2 3c 48 bc
       0.010955415 -0.041365393 -0.03291985 -0.012221502
0002c0 84 bf 1c bd 7e 52 81 bc 51 42 68 bb 44 18 10 3d
       -0.03826858 -0.015786406 -0.0035439918 0.03517939
0002d0 05 2d ac 3c ae 94 13 bc d1 61 e3 bb b5 29 cd bc
       0.02101756 -0.009007616 -0.006939151 -0.025044302
0002e0 77 3d 27 3c 76 cc 50 bc 78 b2 94 3c 5d 45 fd bc
       0.010207525 -0.01274406 0.018151507 -0.030916864
0002f0 a2 89 26 bd 9d fd 6b bc e3 46 63 bb 19 8e f3 3c
       -0.0406586 -0.014403728 -0.0034679703 0.029730843
000300 e7 bf 02 bc 84 c6 09 bd 9f 25 bd 3c d6 40 93 3c
       -0.007980323 -0.033636585 0.023089228 0.017975252
000310 56 95 53 bb cf 16 b7 ba d6 e1 27 bd 21 88 f9 3c
       -0.0032285056 -0.001396859 -0.04098686 0.03046042
000320 a6 74 00 3c c4 ae ba 3a 66 15 0b bb 9b 19 76 bc
       0.007840311 0.0014242758 -0.0021222471 -0.015020753
000330 8d 95 5b 3c e0 82 29 3c 93 20 a4 3c 44 71 12 3d
       0.013402355 0.010346144 0.020035064 0.03575255
000340 72 c8 5b bc 75 65 11 bc 71 45 01 3d 21 25 1b 3d
       -0.013414489 -0.008874287 0.031560365 0.037877206
000350 a7 0f 9d bc 2a 38 0f 3c 19 17 f5 bc 34 d6 1c 3d
       -0.019172503 0.008741418 -0.02991824 0.038290218
000360 f7 09 85 3c eb ce 13 bd 5e 56 37 3b 19 cd 0e bd
       0.016240103 -0.036086004 0.0027975063 -0.034863565
000370 a1 0c e9 bb 13 8e ee bc db 7f bb 3c c0 44 ba 3c
       -0.007112101 -0.02912048 0.022888115 0.02273786
000380 c1 9a e5 bc e3 7d 4a bb d1 f6 45 3b 20 43 a0 3b
       -0.028027894 -0.0030897788 0.0030206928 0.0048908144
000390 85 00 1d 3c 93 64 23 3d 85 64 bd bc 58 e5 aa bc
       0.009582643 0.039890837 -0.02311922 -0.020861313
0003a0 6a d7 0d 3c c3 75 24 3d 4a d7 13 bc 49 d8 10 3d
       0.008657316 0.04015137 -0.009023497 0.035362516
0003b0 fc 1b c6 3c b5 40 40 bd 6a bf 1f bc 7c f4 da bc
       0.024183266 -0.04693671 -0.0097502265 -0.026727907
0003c0 9a 20 75 ba 04 47 c0 bb 3f e2 31 3c f4 46 87 bc
       -0.00093508663 -0.0058678407 0.010857164 -0.016513325
0003d0 df 87 4d 3d ba 8e cf 3a 7c dd 38 bc 60 ea f3 3c
       0.050178405 0.0015835383 -0.011283275 0.029774845
0003e0 4c 0e 3e bc d1 e9 0f bd 1f 32 81 3b f2 7d 68 bc
       -0.011600088 -0.035135094 0.0039427425 -0.014190184
0003f0 13 b1 16 bd 49 c0 f0 bc 0d d4 30 3d 88 c6 1f bd
       -0.036789965 -0.029388564 0.043170977 -0.039007694

fc2.weight f4 [128, 256]
000000 ba 44 1a bc 78 64 77 bd 96 d6 2a 3c 30 13 bb bc
       -0.0094158 -0.06039855 0.010427138 -0.022836298
000010 0c 19 40 3d 2c e5 3f 3d a8 2e a4 3c dd 48 41 bd
       0.046898887 0.046849415 0.020041779 -0.04718863
000020 09 18 35 bb d2 09 68 bc 68 84 6e 3d 17 75 7a 3d
       -0.0027632734 -0.014162498 0.05823174 0.06114682
000030 cd 02 b6 3c 6d 71 41 3c 6e b6 2a 3c 33 cb 60 3d
       0.022218132 0.011806828 0.010419471 0.054881286
000040 1d 62 a7 3c 59 26 df bc b9 62 d2 3c c5 8a ca 3c
       0.020432526 -0.027239965 0.02568184 0.024724374
000050 89 72 cb 3b d0 8f 88 bb 67 06 75 3d bd be 1c 3d
       0.006208722 -0.0041675344 0.05982056 0.03826784
000060 50 24 a5 bb 0a da 0a 3c 1d 74 86 3c 9c 27 17 3d
       -0.005039729 0.008474836 0.016412789 0.03690301
000070 bd c8 17 3d 1e 8c 06 3d 66 f7 38 3d 62 e3 76 3d
       0.037056673 0.03284847 0.045157813 0.060275443
000080 d3 86 24 3c 4c ff c4 3c 4f eb 27 3c cd 3c 2f bc
       0.01004191 0.024047516 0.010248973 -0.010695648
000090 aa d3 0c 3d b3 84 cf 3c 86 00 8e 3c 3b 67 1c bd
       0.034381546 0.02533183 0.017334234 -0.038184386
0000a0 f2 08 ee 3c ec 15 72 3c 57 4d 81 3d 31 22 01 bc
       0.029057 0.014775734 0.063135795 -0.007881687
0000b0 3f 62 0b bd e6 b1 17 bd 88 7f f5 3c 61 7b 00 bd
       -0.03402924 -0.03703489 0.029968038 -0.031367663
0000c0 9e 8e 10 3d 9e a0 18 3d 13 38 be 3b 94 37 a8 3c
       0.03529226 0.03726255 0.0058050244 0.020534314
0000d0 d2 2d 6b 3c 19 3f 01 bd e8 4e d3 3c a3 38 aa bc
       0.014354186 -0.031554315 0.025794461 -0.02077896
0000e0 cd b1 09 bc e1 f6 04 bd a9 0b 0c bd 8b de cf 3c
       -0.008404207 -0.032462005 -0.034190807 0.025374671
0000f0 8b 6f a7 3c ed d7 ee 3c d6 2f 3c 3d b5 43 84 3d
       0.02043893 0.029155696 0.045944057 0.064582266
000100 ee 05 10 3d 67 c5 15 3d 67 d9 04 3d 8e 54 de 3c
       0.035161905 0.03656521 0.032433894 0.027139928
000110 4f 83 3a 3d ea d2 34 3d 18 21 cd 3c 13 c2 39 bd
       0.045535382 0.044146456 0.025040194 -0.0453511
000120 13 3c 42 3d e4 30 23 3d ff 1c ff 3c 3f 01 3c 3d
       0.047420572 0.039841548 0.031141756 0.045899626
000130 92 a4 bd 3c bd 9f 33 bc a1 08 a0 bc fa 40 83 3c
       0.023149762 -0.010963378 -0.019535365 0.016022194
000140 3e 91 28 3d 98 41 52 3d 18 78 e2 bc f3 43 a4 bc
       0.04115414 0.051332086 -0.027645156 -0.020051932
000150 87 b2 56 3d f5 87 c2 3c 75 78 b9 bc f6 d1 a1 3b
       0.05241635 0.02374647 -0.022640446 0.0049383594
000160 39 8f d2 3c e9 9d e4 3c 7c 6c e0 3b 26 90 97 3b
       0.02570306 0.027907329 0.00684887 0.004625338
000170 9c c3 a0 bc b5 ea ba bc ff 74 cd 3c b7 9e f7 bc
       -0.019624524 -0.022816995 0.025080202 -0.030227048
000180 4e 76 91 3c 7b 88 3a bd 58 70 0e 3d 51 54 5f 3d
       0.017756607 -0.045540314 0.034775108 0.05452377
000190 e1 87 a8 bc 37 d4 4a 3d 53 18 56 bc 70 ac 9a bc
       -0.020572605 0.04951879 -0.013067323 -0.018881053
0001a0 11 22 fe 3c ec 45 bb 3c 50 3a 98 bb f6 a3 1e 3d
       0.031022104 0.02286049 -0.0046456233 0.038730584
0001b0 5e be 04 3d bf 4d 6f 3c cc b4 0e bd b2 11 03 3b
       0.03240811 0.014605938 -0.03484039 0.001999956
0001c0 13 be 42 bc 1d 55 0a bd e0 e6 46 bc a4 a2 eb bc
       -0.011886138 -0.033772577 -0.012140006 -0.028764077
0001d0 9d 0a 9d bc 72 22 40 3d 63 be 0f bb 2d 55 2e bb
       -0.0191701 0.04690785 -0.0021933548 -0.0026601062
0001e0 9a 13 73 bb 4d 14 c5 bc 88 c1 4a bd 70 6b 2b bb
       -0.003709054 -0.024057532 -0.049500972 -0.0026156567
0001f0 4e 75 49 3b 6a 72 3e 3c 76 7b 72 bc 0b 58 99 3c
       0.0030740085 0.011623958 -0.014799943 0.01871874
000200 c5 cc 43 3d 19 a8 0e ba f4 b6 10 ba c7 1b 46 3d
       0.047802705 -0.00054419186 -0.0005520426 0.048366334
000210 26 12 e4 39 9c e0 d6 bc 3d 74 6d 3d ee 83 15 bd
       0.0004350107 -0.026230149 0.05797218 -0.03650277
000220 7f bf 58 3d 64 ef 1a bd 47 81 05 3d 0c 01 54 3d
       0.052917 -0.037825957 0.03259399 0.05175881
000230 bd 1e 2f bc 9c 5a 10 bd 18 74 f0 bc 1e 02 18 3c
       -0.010688481 -0.03524266 -0.029352233 0.0092778485
000240 5b e6 5d 3d c1 65 40 3d 7c 6b 32 3d 64 87 14 ba
       0.054174762 0.04697204 0.043559536 -0.0005665927
000250 d3 c8 d4 3c c7 4c cc bc 98 a1 36 3c b4 ab b0 3c
       0.025974667 -0.024938954 0.011146925 0.02156625
000260 9d a5 8b bc 1e ec 3f 3c c2 ad 44 bd ce 5c be bb
       -0.017046744 0.01171401 -0.04801727 -0.005809403
000270 1d 81 ab bc 57 83 5c 3d 75 39 40 3c 95 8e 4c bd
       -0.02093559 0.053836193 0.011732449 -0.049940664
000280 82 67 16 3d ba 16 78 3a 75 d7 03 bd ff d3 35 bd
       0.036719806 0.0009463836 -0.032187898 -0.04439163
000290 67 bd 35 3d 7d f8 99 3c 3f 08 25 bb 9e b9 82 bb
       0.04437008 0.018795246 -0.0025181917 -0.0039894124
0002a0 8d a1 f0 bc fb e8 c4 ba 11 dd 82 bc eb 25 81 3d
       -0.029373908 -0.0015023047 -0.015974553 0.063060604
0002b0 87 f6 24 bd 9c a1 c6 3c 86 84 e4 3c d1 3a 47 3d
       -0.04027417 0.024246983 0.027895223 0.048640076
0002c0 be a7 f0 3c 42 ae 7f 3d 9a 91 df bc d3 f3 14 bd
       0.02937686 0.062422045 -0.027291108 -0.03636534
0002d0 61 4a 62 bc 29 8e 6a 3d be 95 8a 3c a7 5d 32 bd
       -0.013811679 0.05726448 0.016917106 -0.043546345
0002e0 39 d9 54 bd c7 76 41 bc ef e7 c9 3a 03 93 61 bd
       -0.051964972 -0.011808104 0.0015404205 -0.055071842
0002f0 de 80 02 3d 3a bd 64 ba 34 ea 7e 3d a9 06 4d 3d
       0.03186118 -0.0008725707 0.062235072 0.05005518
000300 f2 b4 b7 bc 4d c1 55 3d ff a5 12 3d 43 37 4a bc
       -0.022425149 0.0521863 0.035802837 -0.012342277
000310 64 20 0e 3d 8d e5 36 3d 85 86 66 3d 52 3d 73 bc
       0.03469886 0.04465251 0.05628063 -0.014846163
000320 b0 8e 1c 3d 3b bd ad 3c 2e 22 31 3d 37 4b 63 3a
       0.038222015 0.021208396 0.043245487 0.00086705707
000330 6b a6 0c 3d d3 1c 18 3c 89 b0 0d bd e2 7d bc bc
       0.034338396 0.009284216 -0.034592185 -0.023009244
000340 04 bd 1b 3d ec d5 5a bd 56 81 59 3d 4c ce 3c 3d
       0.038022056 -0.053426668 0.05310186 0.046095178
000350 ea 08 12 3c c6 80 e1 bc 5b 7e 38 bd 36 c5 fe bc
       0.008913258 -0.027527224 -0.045042377 -0.031099897
000360 3c ba 11 3d b9 fc 0a bc 64 8e 1c 3b 4f 5a 17 bc
       0.035577998 -0.008483105 0.0023888582 -0.00923784
000370 3d 1a 5d bc 98 0f 55 3d 0d e4 88 bb 42 da c9 bc
       -0.013495025 0.052016824 -0.0041775764 -0.024640206
000380 dd 40 7f 3d e9 22 9a 3c 22 b7 3b 3c 0f e2 0d bd
       0.062317718 0.018815475 0.0114572365 -0.034639414
000390 4c c1 c8 3c d5 20 a3 bc 98 20 bf bc ca 54 b4 bb
       0.024506234 -0.019913116 -0.023330972 -0.0055032717
0003a0 3a 47 32 bd c2 aa fb 3c bd 12 99 3c c8 7e 8b bb
       -0.04352496 0.030721072 0.018685693 -0.004257057
0003b0 a6 e7 2b bb f1 da 23 bc 8e 0c e7 bb 0b 5c be 3c
       -0.0026230603 -0.01000093 -0.007051057 0.023237249
0003c0 e1 c5 99 bb c7 77 70 3d e7 2c 98 bc fc 4c 08 bd
       -0.0046927785 0.05870798 -0.018576099 -0.033276543
0003d0 d0 44 c8 3b 99 92 0b 3d 09 b6 b2 3c 08 e6 28 3d
       0.0061117187 0.034075353 0.021815317 0.041235
0003e0 4e e2 10 3d c6 44 0b bd 1f 90 a0 bc 11 c7 ed bc
       0.03537207 -0.034001134 -0.019599972 -0.029025586
0003f0 ec 4f c4 bb f7 b6 e2 3c 84 a8 56 3d 65 0b 12 bd
       -0.0059909727 0.027675135 0.052406803 -0.035655398

fc2.bias f4 [128]
000000 f9 a4 8e bc 29 58 8a bd 99 8f a3 3c 6b cb 70 3d
       -0.01741265 -0.067550965 0.019965934 0.058787744
000010 76 3a 8b bc 60 54 12 3d e8 f4 d7 3c ea a5 62 bc
       -0.01699565 0.035724998 0.026361898 -0.013833502
000020 f2 6c 4c 3d 37 3f 51 bd 67 73 9e 3c ba 09 80 3d
       0.049908586 -0.051085677 0.019342138 0.06251855
000030 dc 78 dd 3c b0 c9 07 3d 2d e5 45 bd 50 04 80 bc
       0.02703517 0.03315133 -0.048314262 -0.015627056
000040 7f 16 e7 bc 57 b0 65 bd cd ba 54 bd 24 a9 c7 3b
       -0.02820897 -0.056076374 -0.05193596 0.006093161
000050 f9 55 0e bd 85 66 b5 bc 11 2e 1f bd 11 3e 22 bd
       -0.03474996 -0.022143612 -0.03886229 -0.039609972
000060 1c 4c dd bc 32 05 28 3d cd 6b 85 bd 42 e6 0d bd
       -0.02701383 0.04102058 -0.06514702 -0.03464342
000070 94 ca 59 3c 68 78 42 bd c1 0b 8f bc f3 53 29 bd
       0.013292927 -0.04747811 -0.01746166 -0.041339826
000080 95 ce 1e 3d a2 c5 75 bc 0e 17 fd bc 9b cd f4 3b
       0.03877123 -0.015000733 -0.030894782 0.007470799
000090 9f b3 1e bd a6 ba c7 ba b4 74 de bc 74 49 dd bc
       -0.03874552 -0.0015238121 -0.027155258 -0.027012564
0000a0 b1 fa 72 bd 96 b6 58 bd 08 b1 4f 3d b5 4a 18 3d
       -0.05932111 -0.052908503 0.05070594 0.03718062
0000b0 6f 96 7c bd c5 d0 56 3c 5b 17 55 3d 83 a1 20 bd
       -0.061666902 0.013111298 0.052024227 -0.03921653
0000c0 72 7d 73 bd 9c a4 b2 3c b0 6d 23 3d 26 3e 08 bc
       -0.059445806 0.021807007 0.039899528 -0.008315599
0000d0 d9 ff b5 3c 1b 0b 5a 3d 92 cc 8a bd d7 6a 12 3d
       0.022216724 0.053233247 -0.067773 0.03574642
0000e0 cf b2 17 bd d6 ee 4f 3d 00 06 b2 bc 27 3c a3 3c
       -0.03703576 0.05076488 -0.021731377 0.019926144
0000f0 45 2b 3a bd 74 71 7c bd 82 47 59 bd 64 7b 2d 3d
       -0.04545142 -0.061631635 -0.05304671 0.042354003
000100 60 ac 39 bd 24 3f 32 bb 83 d9 3d bc 25 76 55 3b
       -0.045330405 -0.002719828 -0.011587503 0.003257164
000110 99 71 35 3d 41 b0 ad bc df ab 76 bd d9 88 9f bb
       0.04429779 -0.021202208 -0.060222503 -0.0048686084
000120 9e 5d 83 3c fd 0b 80 bd 16 e9 22 bb 29 6c 04 bd
       0.016035851 -0.062522866 -0.0024858168 -0.032329712
000130 ef d5 c3 3d 72 96 7f 3c 79 e4 bc bb 7b 6a 59 3d
       0.09562289 0.015599834 -0.0057645408 0.053080063
000140 ef b5 f5 3c 82 4a 62 3d d1 27 61 3c c5 60 38 bd
       0.02999398 0.055246837 0.013742403 -0.04501416
000150 f8 49 f0 3b 17 ed 1e 3d b7 88 c6 3c d6 6e 06 bd
       0.0073330365 0.038800325 0.024235113 -0.032820545
000160 34 42 94 bb b7 03 ed 3c 03 d1 95 bc 71 c4 85 3d
       -0.0045244936 0.028932435 -0.018288141 0.06531609
000170 73 69 50 3d 6f e3 68 3c 61 d8 3d 3d 8b be 83 bd
       0.050881814 0.014214381 0.046348933 -0.064328276
000180 20 67 bd bc 68 1f a3 3d 34 56 b3 bb 11 67 df 39
       -0.023120463 0.07964975 -0.0054729227 0.00042610665
000190 de 42 8d bc 56 70 37 3d 91 9a 86 3c e0 f3 5b 3d
       -0.017243799 0.044784866 0.016431125 0.053699374
0001a0 5f 1e 34 3d 36 b3 83 3c aa 14 01 bc f5 fc a2 3b
       0.043974277 0.016076665 -0.007878462 0.0049740025
0001b0 bf e6 34 bd fe 02 28 bc e4 9b 6a 3d b2 ee e7 bc
       -0.04416537 -0.01025462 0.057277575 -0.028312061
0001c0 8d b3 3b 3c 3c 10 5a bc c9 63 5c bc 62 23 37 bd
       0.011456382 -0.013309535 -0.013451525 -0.044711478
0001d0 1e ad a1 bc e2 dc 3f 3c 77 9c 54 bd 4e 53 45 3c
       -0.019735869 0.011710377 -0.05190703 0.012043787
0001e0 35 aa 41 3d 0e f5 1f bd 7e 6d 1b 3d 67 de 86 3c
       0.047281463 -0.03905206 0.037946217 0.016463472
0001f0 7d ea 4b 3d 79 07 18 3d b6 a9 9f bc 39 39 c4 3c
       0.049784172 0.0371165 -0.019490104 0.023953067

fc3.weight f4 [64, 128]
000000 fa 8e db bc 2f fd 23 bd d3 a5 09 bd ed a1 1d bd
       -0.026801575 -0.040036377 -0.033605408 -0.038484503
000010 1c 08 43 3d 6c 55 95 3d 06 ce fd 3c db 58 a2 bd
       0.047615156 0.072916836 0.030982029 -0.07927104
000020 b3 44 bc 3a 64 10 d6 3c 45 34 0b bd a8 3a 4d 3c
       0.0014363736 0.026130863 -0.033985395 0.012526192
000030 82 82 a2 bd ae 47 08 bc 4f d9 19 3d cd 2e be bc
       -0.07935049 -0.008317871 0.037560757 -0.023215676
000040 0b 0e 67 3c 49 5d f4 3b 7b 6a ef bc 5c eb 6b bc
       0.014102469 0.0074574095 -0.029225579 -0.014399376
000050 5b 31 28 3d 59 86 22 3d 34 81 63 3d 1d 59 9b 3d
       0.041062694 0.039678905 0.05554314 0.075853564
000060 24 a0 3d bd b5 ad 9e bd e3 5d 57 3d 10 be fe bb
       -0.0462953 -0.07747976 0.05257977 -0.007774122
000070 76 6e e7 3a 30 c0 bc bd e8 2b 97 bd 8d 78 90 bd
       0.0017656821 -0.09216344 -0.07381421 -0.07054243
000080 f3 c2 a7 bd 20 99 3d bc 52 95 34 bd bf bf 92 3d
       -0.081914805 -0.011572152 -0.044087715 0.07165479
000090 86 0f 80 bb a2 64 54 bd af 48 6b 3d 10 b2 9c bc
       -0.0039081005 -0.051853783 0.057442363 -0.019127876
0000a0 6a f3 69 3c 2d de 4b 3d 4b c0 a4 bc 7b c2 94 3b
       0.014279226 0.04977243 -0.020111224 0.0045397854
0000b0 98 ad 3b ba 86 0f 72 3d 81 36 49 bd c8 3f 16 3d
       -0.00071593514 0.059096836 -0.049124245 0.03668192
0000c0 e4 d8 98 3b e6 2c 9a bd b7 f3 9b 3d 3b 7f a2 bd
       0.0046645273 -0.07528095 0.07614844 -0.079344235
0000d0 3c 44 73 bd b5 90 b1 bd 68 d9 d3 bc 1a e6 9a bd
       -0.059391245 -0.08670179 -0.025860503 -0.0756342
0000e0 fe c7 70 3d cf 70 55 bd a3 29 80 3d 94 b0 71 bc
       0.058784477 -0.052109536 0.062579416 -0.014751572
0000f0 f1 8d d3 bc b5 84 d1 3b 4c ae 0f 3c 18 88 21 3d
       -0.025824519 0.0063939937 0.008769583 0.03943643
000100 1a 7b ec bb ca 32 35 bc e6 89 7e 3d 8a fd aa bd
       -0.0072168233 -0.011059472 0.06214323 -0.0834914
000110 56 72 83 3d 0a 97 e9 3c 72 e0 2e 3d cc bb 3e bd
       0.06418292 0.028514404 0.042694516 -0.046565816
000120 5e 3e 24 bd 86 26 9e bd 13 38 59 3d 46 47 31 3c
       -0.04009854 -0.077221915 0.053031992 0.010820216
000130 42 63 56 bd c0 91 0b 3d 62 65 99 3d 96 b5 a5 3c
       -0.052340753 0.034074545 0.0749004 0.020228188
000140 da cf a5 bd ba 57 71 bd e2 d2 be bc b4 34 3e bd
       -0.08096285 -0.058921553 -0.023293916 -0.04643698
000150 1a 1a 54 3d bc 4b 11 3d d1 b8 a9 bd 1b 33 28 3d
       0.051782705 0.035472617 -0.08287204 0.041064363
000160 e7 a2 eb bc 25 7f 3e 3d 89 4b 20 bd f4 4d 89 bd
       -0.028764201 0.046507973 -0.039134536 -0.067043215
000170 3f 9e 98 bd 76 74 09 bd 33 ce 47 3d 44 9a b0 bb
       -0.07452058 -0.03355833 0.04878063 -0.0053894836
000180 50 a8 b3 bc 9f 51 e8 bc cd f7 b2 bd 6d 9d 72 3d
       -0.021930844 -0.028359232 -0.087386705 0.059232164
000190 6b 4d 29 3d 26 ef 72 bd 1c 6b 99 bd 38 81 e1 bc
       0.041333597 -0.0593101 -0.074911326 -0.027527437
0001a0 a9 4e a5 3d a4 24 49 bd dd 19 80 3d 97 2f 62 3d
       0.08071644 -0.04910721 0.06254933 0.055221166
0001b0 42 40 17 bd c7 d4 fd bb a5 d1 8a bd 72 6d 24 3d
       -0.036926515 -0.0077463123 -0.06778268 0.040143438
0001c0 4b 7f 6a bc 9a c4 40 3c 43 a9 09 bd 1e ae eb 3c
       -0.014312576 0.011765623 -0.033608686 0.028769549
0001d0 d2 83 be bc 75 8d a9 3c 42 47 2c bd 69 ad 8f 3d
       -0.023256216 0.020697335 -0.042060144 0.07015497
0001e0 fc 3f a0 bd 1d 56 66 3c 5b 8d dd bc 49 a3 65 3c
       -0.07824704 0.014058617 -0.027044943 0.014015981
0001f0 d6 f4 bc bd 79 b9 94 3d 56 2d 03 bd 37 e1 83 bd
       -0.09226386 0.072619386 -0.032025658 -0.06439441
000200 31 ff 09 bd 5d b5 ab bd cb 17 e3 bc d7 5c f7 3c
       -0.033690635 -0.08384202 -0.027721306 0.030195637
000210 ac bf 9e 3d 67 ad 32 3d 8f 62 37 3c b7 5c db 3c
       0.07751402 0.0436224 0.011192932 0.026777608
000220 22 03 16 bd 79 d2 91 3b 26 9d 0c bd 54 17 2c bd
       -0.03662408 0.004450139 -0.034329556 -0.042014435
000230 3f a9 39 bb 02 d6 9c 3d ae 35 a1 bc 4a 52 86 3d
       -0.0028329638 0.07658006 -0.019678917 0.06558664
000240 00 8c fe bc 40 29 ad 3d cd d4 6a 3d cd b1 ff bb
       -0.031072617 0.084551334 0.05733185 -0.007803178
000250 07 8c 13 3d 65 20 ab bd 33 76 ad 3c f5 d8 ac bd
       0.036022212 -0.08355788 0.021174526 -0.08439819
000260 05 5a b1 3c e4 be 9a 3d 8d 2f 87 3d 00 fd a9 bd
       0.02164937 0.07555941 0.066008665 -0.08300209
000270 14 99 ae bd b0 ac 99 bd 80 7e 79 3d ae 7a a9 3d
       -0.08525291 -0.07503641 0.060911655 0.082753524
000280 95 da 89 3c 25 6a 95 3d be 5d 7f 3d e6 c5 1a 3d
       0.01682786 0.07295636 0.06234526 0.037786387
000290 39 08 ea bc 4a 09 c0 bd 61 9c cc 3b 17 85 b6 bd
       -0.028568374 -0.09376772 0.0062442278 -0.089121036
0002a0 b6 12 82 3d 7f 5b e6 3a 66 50 d3 3c d5 74 81 3d
       0.06351225 0.0017574875 0.025795173 0.06321112
0002b0 42 1c 99 3d b6 22 95 bd 3a d8 96 bc 4a f5 04 3b
       0.07476093 -0.07282011 -0.018413652 0.0020287805
0002c0 59 de d9 bc 91 ef f9 bc 60 3c 12 bd 8b 30 4a 3d
       -0.026595281 -0.030509742 -0.03570211 0.0493627
0002d0 08 50 f8 3c bc fb 6c bd 7d 04 5e bd 05 ee a1 bc
       0.0303116 -0.05785726 -0.0542035 -0.019766817
0002e0 43 6c a2 bc 83 b9 29 bd 6d de 03 bd 4b 7a 09 bd
       -0.019827014 -0.041436683 -0.032194544 -0.033563893
0002f0 31 cf 13 3c d4 2a 8b bd 37 04 1b bd 16 4f 05 3d
       0.009021566 -0.06795278 -0.037845816 0.032546125
000300 99 0f 3a 3d d5 a6 f3 3c ac b2 eb bc b5 96 a2 bd
       0.04542503 0.029742638 -0.02877172 -0.07938901
000310 98 9e a5 3d fb a5 48 bd c8 24 bc bd bf 7c 72 bd
       0.0808689 -0.048986416 -0.09186703 -0.059201
000320 61 04 74 3d 91 d3 1c 3d 04 f3 a1 3d 28 81 31 3d
       0.05957449 0.038287703 0.0790768 0.043336064
000330 2c 4b 42 bd 4d 4d 4b 3d 8d 1f 17 bd 49 a5 3b 3c
       -0.04743497 0.049634267 -0.036895324 0.011452981
000340 22 7a 53 3d e2 bd 51 bd 32 85 b3 bd 1f 20 9d 3d
       0.051630147 -0.051206477 -0.08765639 0.07672142
000350 be d8 9f 3d fc d6 d3 bc 4d c9 9b 39 85 d2 a6 3d
       0.07805012 -0.025859348 0.00029713885 0.08145622
000360 6d f1 37 bc d6 59 27 bd fe 98 90 3d 79 6a 8e bd
       -0.011226994 -0.04085716 0.07060431 -0.06953902
000370 5d ee 48 bd d5 36 f9 bc a9 6c 88 bb 49 99 5a 3d
       -0.049055446 -0.030421654 -0.004163344 0.05336884
000380 bc 33 83 3d 01 23 01 bd b4 17 1e bd b1 e4 a2 3d
       0.06406352 -0.031527523 -0.038596824 0.07953776
000390 bc 34 49 3c 7c 92 93 bd f9 8b a1 bd 09 e4 1d bd
       0.012280639 -0.07205674 -0.07888026 -0.03854755
0003a0 72 e8 08 3d c2 62 29 3d 6f e2 95 3d ae 92 f2 3c
       0.033424802 0.04135395 0.073185794 0.029610958
0003b0 5c b1 b6 bd 16 95 4c bd 6f d0 31 3d f0 a3 95 3c
       -0.08920547 -0.049946867 0.04341167 0.018266648
0003c0 ff a8 cc 3a 38 bd 1b 3d c7 29 24 3d d0 7e 9b bd
       0.001561433 0.03802225 0.040078904 -0.07592547
0003d0 34 0b 23 bc bd 67 9b bc ab 70 c6 3c 3b 35 5d 3d
       -0.0099514015 -0.018970365 0.024223646 0.054005843
0003e0 e5 3d 0d 3d c5 c1 8c bd 50 35 8b bd 5a 27 6f bd
       0.034482855 -0.06872896 -0.06797278 -0.058387138
0003f0 ff 0e 84 bc a7 55 fd 3c 82 6a f8 3c bb f9 0e bd
       -0.016120432 0.030924631 0.030324224 -0.03490613

fc3.bias f4 [64]
000000 ba 66 3a 3d a6 3a 72 3d cc 23 50 bd 38 6a fd bc
       0.045508124 0.059137963 -0.05081539 -0.030934438
000010 7a 8a cd bc 31 5d a1 3d 83 6c 8d 3c d5 f3 d5 bd
       -0.025090445 0.07879103 0.017263656 -0.10446898
000020 c1 e3 49 bd b8 43 64 bd fd 14 49 bd e3 74 0f bd
       -0.04928947 -0.055728644 -0.04909228 -0.03502358
000030 1d bd af 3c 16 f4 24 bd fd 3a 34 3b f0 df 07 3d
       0.02145248 -0.04027184 0.002750098 0.033172548
000040 f0 48 24 3d 52 b0 44 bd cf 15 81 bc 55 d7 81 3c
       0.04010862 -0.048019715 -0.01575747 0.015849749
000050 f4 81 8b bd 0a 96 dd 3c 9f 05 85 bd 53 ac 2b 3c
       -0.06811896 0.027049083 -0.06495213 0.010478097
000060 db e0 3c 3d b2 86 b6 bd 05 3d 21 bd dd 3a 5e bc
       0.046112876 -0.0891241 -0.039364833 -0.013563839
000070 8d d8 85 bd 84 85 39 3d ed e7 4d bd 33 1c 7a bd
       -0.065354444 0.045293346 -0.05027001 -0.06106205
000080 3a 89 1b bd 0c 2c 6c bd 92 18 7e 39 b7 d4 2b 3d
       -0.037972666 -0.057659194 0.00024232481 0.041950908
000090 7d b1 9c bd 54 80 1d 3d f5 bb a9 bd bb 44 8d bd
       -0.07651041 0.03845246 -0.08287803 -0.06897875
0000a0 d6 a5 b4 bc 41 ac b7 bd fc b0 96 bd 78 18 06 bd
       -0.022051733 -0.08968402 -0.07357976 -0.03273818
0000b0 e3 99 33 bd 04 f6 9e 3d 60 26 29 3c 21 94 8e bd
       -0.04384793 0.077617675 0.010324091 -0.06961847
0000c0 85 bd 42 3d 93 8c 8e 3d ec da d2 ba 70 66 72 3d
       0.04754402 0.06960406 -0.0016086972 0.059179723
0000d0 b7 65 81 bd f9 f3 9a bd ec 88 a5 bd 97 6a 98 3d
       -0.06318229 -0.07566065 -0.080827564 0.074422054
0000e0 9e fc ab 3c a8 ab 77 bd 8d 82 4e 3d 28 50 40 ba
       0.02099448 -0.06046644 0.05041747 -0.0007336163
0000f0 ad 95 80 bd eb 17 5b bd 3b d2 0b bd 0d e8 5d bd
       -0.062785484 -0.053489607 -0.03413604 -0.05417638

fc4.weight f4 [32, 64]
000000 19 d3 6a 3c de b4 f0 3d 3b 43 12 3d d9 ae 46 3d
       0.014332556 0.11753248 0.035708647 0.04850659
000010 79 53 0a bd 62 a4 7c bd 07 ce de bc eb 38 fa bd
       -0.033771012 -0.061680205 -0.02719785 -0.122178875
000020 f7 56 eb 3c 80 2a 48 3d 42 1f c2 bd a0 c4 1b bd
       0.028727992 0.048868656 -0.09478618 -0.038029313
000030 ae a7 2e bd a8 1d 7d bc 0d ab d0 bb 37 fc 94 3c
       -0.04264038 -0.015448965 -0.006368047 0.018186672
000040 0a b8 98 bd c2 b0 eb 3c fe 10 24 bd a5 c5 80 3d
       -0.07456978 0.028770808 -0.040055268 0.06287698
000050 19 2d 69 3c 2b 79 9f bc bc 57 a3 bc de 2e a7 3b
       0.0142319435 -0.019466957 -0.019939296 0.0051020226
000060 88 da e8 bd 78 72 be 3c 26 f3 e8 bd e5 33 da 3d
       -0.113698065 0.023247942 -0.11374502 0.10654429
000070 d6 11 c4 bd 63 92 07 3d b1 21 31 bd c8 87 70 3d
       -0.095737144 0.03309859 -0.04324502 0.05872324
000080 9b 2a 5c bc e9 1d ea 3c 2e 5d e7 bd 76 58 25 bd
       -0.013437892 0.028578715 -0.112970695 -0.040367566
000090 6a 09 e8 bd fe 88 9f bd 78 ef cf 3d be 86 97 bd
       -0.113299206 -0.07789801 0.10153097 -0.07398747
0000a0 3c f3 56 bd f9 e4 03 be d7 27 98 bd 84 55 ef 3d
       -0.05247806 -0.12880315 -0.07429474 0.11686233
0000b0 30 09 3f 3c 37 f1 ef 3d 62 74 94 bd 0c 68 2e bd
       0.011659905 0.1171593 -0.07248761 -0.042579696
0000c0 d7 b4 85 bd 57 ba dc bd ab 5d 85 bd 5d 91 bc bd
       -0.06528633 -0.10777729 -0.06512006 -0.09207413
0000d0 83 ff e8 3d a2 a6 9e bd 4a d3 35 bc eb 06 b3 3d
       0.1137686 -0.077466264 -0.0110977385 0.08741554
0000e0 a3 33 65 bd f7 4f cb bc fb ef ba bd b6 ce de bc
       -0.055957448 -0.024818404 -0.09127804 -0.027198177
0000f0 cf 89 80 bd dd 51 a6 bd 70 2c 63 3d 37 2e 98 3d
       -0.06276285 -0.08121083 0.0554623 0.0743069
000100 ef 1a 86 3d 57 a6 95 3b 6a 70 ec bd 46 d5 db bd
       0.06548106 0.0045669484 -0.11544879 -0.10734038
000110 03 25 cf bd 64 49 48 bd ac 27 89 3d a0 e0 17 3c
       -0.10114481 -0.048898116 0.0669702 0.009269863
000120 ed 69 76 3d ca c2 bf 3d aa c1 97 3d 31 6c a8 bd
       0.060159612 0.09363325 0.07409985 -0.08223761
000130 e2 c0 0d 3c c6 c9 a0 bd ad 35 f5 3d d9 ec 81 3b
       0.008651944 -0.07850985 0.119731285 0.003965002
000140 04 cb 05 bd 76 57 19 3d 5e 06 4f 3c d3 5e c3 3c
       -0.032664314 0.037436925 0.012635795 0.023848927
000150 40 8c 86 bd f2 35 df 3d 1b af df bd d0 de ef 3c
       -0.06569719 0.10898961 -0.109220706 0.02928105
000160 bd ce 5a 3d 8b dd ee bc 73 aa c2 3d 0d fe b0 3d
       0.053419817 -0.029158374 0.09505167 0.08642206
000170 28 3b 80 3b 69 97 c0 3d 88 f0 ef bb c2 bf aa bc
       0.003913302 0.09403879 -0.0073223747 -0.02084339
000180 43 d3 95 3d 92 a1 c2 bd a3 bf 56 3c e9 4b 87 3d
       0.073156856 -0.09503473 0.013107213 0.066062756
000190 7e ea 16 3d a5 b5 ac bd 68 cf 88 3c d0 07 38 3b
       0.036844723 -0.084330834 0.016700462 0.0028080828
0001a0 50 1e f7 3c eb 3f df 3d 8b 48 88 bd 16 10 4f bd
       0.030165821 0.10900863 -0.066544615 -0.05055245
0001b0 bf ed 6f bd b9 a5 c3 3c 3b 50 de ba ce 61 aa bd
       -0.05857634 0.023882734 -0.0016961166 -0.08319436
0001c0 20 41 6e 3d 1b e1 46 bd 52 79 0d 3d 48 b6 a8 3d
       0.058167577 -0.04855452 0.03453953 0.082378924
0001d0 8d 4e ee 3d a7 a6 e2 3c ad 80 c7 bd 6f 31 50 3d
       0.11636076 0.027667357 -0.0974134 0.050828394
0001e0 78 81 1f bd 71 35 e2 3a 14 c9 8a 3d c4 d6 c1 3d
       -0.03894183 0.0017258358 0.06776634 0.094647914
0001f0 d1 42 05 3d 5c 35 5b bb ae f1 bb bd c1 59 af 3d
       0.032534424 -0.0033448553 -0.09176956 0.08562041
000200 fe be 8e bc f6 0e 1b bc 48 ea da bd 33 cd 3b bc
       -0.017425057 -0.009464016 -0.10689217 -0.0114624975
000210 15 6b a6 bd d6 b1 d5 bd 4c 48 42 bd 23 73 5b 3d
       -0.08125893 -0.1043431 -0.04743223 0.0535766
000220 3a 55 d3 3c 50 9a c2 3d 76 21 66 bd b3 12 87 3d
       0.025797475 0.09502089 -0.056184255 0.065953635
000230 fd 59 b1 bd d9 e8 bc 3d b6 44 c6 3d c0 2a 57 bc
       -0.08659742 0.092241 0.09681074 -0.013132751
000240 ca b0 5a bc ba d0 56 bd 94 37 9d 3d 00 6f e4 3d
       -0.013347814 -0.05244515 0.07676616 0.11153984
000250 0a c7 89 3c 79 83 0e 3d 1b d4 b9 bd 03 68 e7 bd
       0.016818542 0.03479335 -0.09073659 -0.112991355
000260 50 14 4e bc 80 a5 0b 3d 96 2f bc 3c ab 50 bd 3d
       -0.012578085 0.03409338 0.02297191 0.09243902
000270 22 60 01 bc 1e 13 49 bd 53 e1 1a 3c 8e 20 42 bd
       -0.007896455 -0.049090497 0.009453136 -0.047394328
000280 b0 52 33 3a 22 4d 30 3d 23 94 c4 bd b6 02 82 bd
       0.00068406295 0.04304231 -0.09598567 -0.06348173
000290 d7 e3 40 3d 2c 19 76 3d 6f 91 3c 3d 6a 10 44 3d
       0.047092285 0.0600826 0.046037134 0.047867216
0002a0 78 c4 d7 bc 5b 37 56 3c 59 95 04 bd 52 3c b5 bd
       -0.0263388 0.013074721 -0.03236899 -0.08849396
0002b0 ad 2e 2c 3d e1 78 ff bd 3f 6a 87 bd 92 06 74 3d
       0.0420367 -0.12474228 -0.06612062 0.05957658
0002c0 46 86 98 bc 03 d6 a9 bd 6d 9d e6 bd 85 16 d2 bd
       -0.018618714 -0.082927726 -0.11260495 -0.102582015
0002d0 92 d2 6e 3d 40 9c cd 3d ba 27 d3 3d 0f 14 88 3d
       0.058306284 0.10039568 0.103103116 0.06644451
0002e0 4d 6c a9 3c 7f 6a 35 3d 09 cd 8b 3d 64 4f b9 bd
       0.020681525 0.044291016 0.06826217 -0.09048346
0002f0 b4 62 fa bc c0 34 8d bd 6e a5 8e 3d 69 ba 2b 3d
       -0.030564643 -0.06894827 0.06965147 0.04192582
000300 02 6b d4 bd 74 00 f5 3d 25 e5 e6 3c 81 78 98 bc
       -0.103719726 0.11962977 0.028185437 -0.018612148
000310 87 d0 9a bd d2 61 cc 3d a4 6e bc bc 7d 86 db 3d
       -0.07559305 0.09979595 -0.023001976 0.10719011
000320 d8 0f ce bd 81 3b dd 3d e9 2e 25 bd b3 24 76 bb
       -0.10061616 0.10802365 -0.04032794 -0.0037558496
000330 1e 91 6c bd 43 f4 9a bd 5c c1 17 3d 3c a3 aa bd
       -0.057755582 -0.075661205 0.037049636 -0.08331916
000340 1f bb ab 3d 3a 7e 79 3d 7c 04 f7 bd 9e d0 15 3d
       0.083853 0.060911395 -0.12061402 0.036575906
000350 25 ed 23 3d e4 13 13 3d d1 e5 24 bd c8 37 2d 3d
       0.04002108 0.03590764 -0.040258233 0.042289525
000360 13 84 01 3e 9c 53 c7 3d 54 cc 13 bd fc 83 de bd
       0.12648039 0.09732744 -0.036083534 -0.10865018
000370 47 c8 f2 bd 4c 4d 70 bb a0 7b 8d 3d 6b b3 b7 3d
       -0.11854606 -0.0036667166 0.06908345 0.08969768
000380 ff 61 d1 bc 63 19 d7 bd 75 ec 9e 3d e2 24 d6 bd
       -0.025559423 -0.10502889 0.07759944 -0.104562536
000390 e7 94 e7 3d d8 c8 e5 bd 6e 80 dd 3c 35 96 eb 3d
       0.11307698 -0.112199485 0.02703878 0.11503259
0003a0 09 13 6d bb 31 94 1f 3d db 5f 2e 3c a0 ec a5 bd
       -0.0036174676 0.038959686 0.010642971 -0.08101773
0003b0 53 3c 50 3c 2b c8 62 bd e2 cb 62 3d 31 30 ba bd
       0.012709695 -0.055366676 0.05537022 -0.09091223
0003c0 a5 c7 2b bd 59 09 b0 3d 48 be d6 bd eb 1f 35 bd
       -0.041938443 0.08595533 -0.10485512 -0.044219892
0003d0 e5 7d 8a bc 44 7f bc 3d 59 23 8d 3c 26 bb 58 bd
       -0.016905734 0.092039615 0.01722877 -0.052912854
0003e0 ef 03 d4 3d f7 60 b7 3d ec 04 cd 3d 7f b9 52 bd
       0.10352313 0.089540415 0.100107044 -0.051446434
0003f0 7c 65 ff 3d 38 2d 5e 3d a9 ee 6b bd 28 f2 46 3d
       0.124705285 0.054242343 -0.05760065 0.048570782

fc4.bias f4 [32]
000000 ab f9 35 3d 41 99 84 39 23 89 e9 bd ec cf c4 3d
       0.044427555 0.00025291185 -0.1140311 0.096099705
000010 26 c1 82 ba 33 6a a7 3d 27 65 9f bd d1 13 85 3d
       -0.0009975776 0.08174553 -0.07782965 0.0649792
000020 6e af 5f 3d 19 00 e3 bc ba a0 2b bd 8e c5 d8 3d
       0.054610662 -0.027710008 -0.041901328 0.105845556
000030 0f 08 bc 3c 7a 2b 52 bd fc 77 81 3d fa 12 a7 bd
       0.022953061 -0.051310994 0.06321713 -0.08157916
000040 b7 7c e6 bd e3 41 1f bd 9e d7 06 3d ab 7a 8d 3c
       -0.11254256 -0.038881194 0.032920472 0.017270407
000050 33 2a 40 bd f7 b3 79 3d e6 63 b7 bd db 63 76 bd
       -0.046915244 0.060962643 -0.08954601 -0.060153823
000060 83 7d 6d bd 34 3f 75 3d 23 a3 63 3b f8 ce d9 bb
       -0.057981025 0.05987473 0.0034734688 -0.006646987
000070 a6 da 1b bd 43 d8 03 3c 31 08 5a bb 4c 85 d9 bd
       -0.038050316 0.008047166 -0.0033269043 -0.106211275

fc5.weight f4 [1, 32]
000000 b5 54 71 39 42 e6 1c 3e fe b1 a2 bd 1c fa 03 be
       0.00023015107 0.15322211 -0.079441056 -0.12888378
000010 83 18 7f 3d cf fe 16 3b 38 d0 a3 bc ae 3c 08 3d
       0.062279236 0.0023040061 -0.019996747 0.033260994
000020 36 2a f5 3d 1a a4 96 bd 38 4b c5 bd 9d e0 02 be
       0.11970942 -0.07355519 -0.096334875 -0.12780996
000030 25 03 72 3d 91 0d 0e bd 7c 86 83 bd 53 03 5c bc
       0.05908503 -0.034680907 -0.06422135 -0.013428527
000040 38 51 26 bc 9e 8c c5 bd d6 3f ae 3d 4d 43 99 bd
       -0.0101512 -0.09645961 0.085082695 -0.0748354
000050 69 16 53 3d 9d c5 9f bd 85 63 20 bd 28 27 0c 3e
       0.051535044 -0.078013636 -0.03915741 0.13686812
000060 9d b9 8e 3d 9a 14 9f 3d db 25 e5 bd 44 c1 ef bc
       0.06968997 0.07767601 -0.11188861 -0.02926696
000070 f1 5c ce 3d 5b d7 d7 3d 5a cc a2 bd 74 e7 73 3d
       0.10076321 0.10539123 -0.07949133 0.059546903
