DeepLearning/model_0325_dropout/model_best_1_r2_-0.01238619198417096.pth (torch, 666311 bytes, 9 tensors)

fc1.weight f4 [256, 478]
0.030282147 0.010231792 -0.00042724638 0.03099605 0.029463366 -0.042934973 -0.020836296 -0.011900201
0.028255725 -0.0017587916 -0.04244082 -0.01982332 0.029497664 -0.036148325 -0.026660101 0.0013467559
0.038406603 0.034442883 -0.019485736 0.04577618 0.012863337 -0.017298058 0.016134406 -0.018139413
0.04815398 0.000526884 0.02153036 -0.014882607 0.030321896 0.011729116 -0.038688555 -0.047715463
0.03561411 -0.046769172 0.0077683134 -0.0022469375 0.02752627 -0.038262606 0.023886448 -0.024472957
-0.023069702 -0.01202512 0.014870811 0.050162777 0.0030589823 0.0046599233 0.0060983514 -0.005169907
0.03465098 0.0038877756 0.034914207 0.021157844 -0.03343958 0.024057513 0.019978553 0.011776153
-0.012816668 -0.048793167 -0.028918665 -0.009783833 -0.020665627 0.038969897 0.0028277216 0.012616667
-0.013658042 -0.045174874 0.0042072595 -0.03678777 0.036325723 0.018707767 -0.020422006 -0.04947045
-0.022595853 0.0012727602 -0.01572858 0.002062277 -0.04464053 -0.019434351 0.012832129 -0.0038888121
0.0149766635 0.011886449 0.025804074 -0.006469008 0.032319818 -0.04536756 0.035765976 -0.024145415
-0.0091564525 0.03600955 -0.00791514 0.035542052 -0.0017541999 -0.03227956 0.0003505663 -0.03565077
-0.0067116437 -0.046477355 0.006670876 -0.04894375 -0.01005388 -0.00391519 0.035802804 -0.03487961
0.017466724 -0.040310804 0.03247117 -0.046844814 -0.016678622 -0.035732426 0.024999164 0.018675385
-0.0444464 -0.038890593 -0.027251994 0.019698637 -0.022651909 0.029557038 -0.04915306 -0.022443002
0.0061578103 -0.0033127829 0.010566501 -0.007471598 -0.0107853925 -0.03908791 0.0021757772 0.032855757
-0.03686553 0.021191025 0.027430626 -0.03189564 0.023474328 0.019993797 -0.0066154627 -0.0018268788
0.016113972 -0.040901255 -0.025301473 -0.023632767 0.044757128 -0.00861502 0.028559834 0.022243818
0.021410285 0.00069447025 -0.046910074 0.0032176648 -0.028987898 -0.021010669 -0.008966588 -0.041206345
0.03404922 -0.036045987 -0.02566201 -0.019939762 0.0004971146 0.030142527 0.019034637 0.016189624
-0.030891955 -0.025308955 -0.00841346 0.011060584 0.00906072 0.013235777 0.026632495 -0.039977327
-0.0034334727 0.007873056 -0.040018965 0.035041835 0.017943809 -0.014090634 -0.03876671 -0.04693811
0.04147448 0.040901802 0.034584455 -0.034389764 -0.000118004886 0.014099674 -0.034143772 -0.04424174
0.002928437 0.025799563 0.04768588 -0.026091537 -0.022687877 -0.033979166 0.017826164 -0.045239937
0.011248199 0.0285508 0.04310467 0.017704118 -0.030508822 -0.015691176 -0.030716052 0.035280056
-0.026559917 0.019275751 -0.046045784 -0.016326873 0.029422548 0.024128513 -0.015877515 0.032316323
0.0136575 0.038979575 -0.01970183 0.02201158 0.040177207 0.002372505 -0.009349387 0.021680716
0.04415018 0.016047105 0.017263018 0.039171923 -0.03061363 -0.024998128 -0.012022688 0.014824285
0.031832512 -0.02915705 0.015019975 -0.009559938 -0.022740489 -0.021048943 -0.024065094 0.007403048
0.0488866 0.009903455 0.030737316 -0.010348985 0.00987123 -0.020530451 0.004871418 -0.028666895
0.0031736959 -0.023273427 -0.015569619 0.0015201672 -0.029728033 -0.0026888035 -0.0097344965 0.034143697
-0.018500807 -0.017311744 -0.0054502324 -0.037604656 0.036834568 -0.02148094 -7.779286e-05 -0.03603917
00000000: 4412 f83c 3fa3 273c 0a00 e0b9 6eeb fd3c
00000010: 285d f13c 95dc 2fbd e1b0 aabc 10f9 42bc
00000020: 8d78 e73c 4187 e6ba 6dd6 2dbd 8464 a2bc
00000030: 16a5 f13c 4410 14bd 4966 dabc a185 b03a
00000040: 3e50 1d3d fb13 0d3d 8da0 9fbc ce7f 3b3d
00000050: bfc0 523c a8b4 8dbc 4d2c 843c 1b99 94bc
00000060: 1c3d 453d 961e 0a3a 7060 b03c 2ed6 73bc
00000070: a065 f83c 7a2b 403c e477 1ebd 4a71 43bd
00000080: 1ae0 113d 0891 3fbd 568d fe3b 5b41 13bb
00000090: c67e e13c 40b9 1cbd 83ad c33c 837b c8bc
000000a0: acfc bcbc 0205 45bc b4a4 733c 7c77 4d3d
000000b0: 3579 483b 45b2 983b aed4 c73b 5368 a9bb
000000c0: 30ee 0d3d 0dca 7e3b 3302 0f3d 3753 ad3c
000000d0: f1f7 08bd 4314 c53c 10aa a33c c4f0 403c
000000e0: 00fd 51bc 58db 47bd d6e6 ecbc 5f4c 20bc
000000f0: f64a a9bc e69e 1f3d 4c51 393b 23b6 4e3c
00000100: fbc5 5fbc 4a09 39bd 0ddd 893b c6ae 16bd
00000110: 48ca 143d 0841 993c 0d4c a7bc 87a1 4abd
00000120: f01a b9bc bfd2 a63a 39d9 80bc 4427 073b
00000130: fdd8 36bd ca34 9fbc da3d 523c 71db 7ebb
00000140: ae60 753c 61bf 423c 1163 d33c f9f9 d3bb
00000150: c961 043d 56d3 39bd 587f 123d 9bcc c5bc
00000160: f204 16bc c07e 133d 81ae 01bc 8b94 113d
00000170: 2eed e5ba 9237 04bd 36cc b739 8b06 12bd
00000180: 59ed dbbb 0a5f 3ebd 5d97 da3b 3e79 48bd
00000190: 07b9 24bc ff4a 80bb f6a5 123d ecdd 0ebd
000001a0: 6016 8f3c f11c 25bd 7d00 053d 59e0 3fbd
000001b0: 9ba1 88bc 2a5c 12bd 0ccb cc3c 1ffd 983c
000001c0: 6e0d 36bd be4b 1fbd 933f dfbc 095f a13c
000001d0: 7f90 b9bc 9a21 f23c b854 49bd 63da b7bc
000001e0: 75c7 c93b 461b 59bb 1e1f 2d3c 4fd4 f4bb
000001f0: 37b5 30bc a51a 20bd 7c97 0e3b c293 063d
00000200: 4f00 17bd cd98 ad3c 31b6 e03c 01a5 02bd
00000210: 3c4d c03c 08ca a33c 86c6 d8bb e173 efba
00000220: 7301 843c 1388 27bd 0945 cfbc 8199 c1bc
00000230: 4053 373d 0326 0dbc 50f6 e93c ab38 b63c
00000240: 9f64 af3c 1c0d 363a c724 40bd 75df 523b
00000250: 0778 edbc 911e acbc 99e8 12bc fcc7 28bd
00000260: 3277 0b3d f5a4 13bd 2339 d2bc b658 a3bc
00000270: cc50 023a 76ed f63c 87ee 9b3c 1aa0 843c
00000280: 2011 fdbc ba54 cfbc 9cd8 09bc 7437 353c
00000290: 6a73 143c dfda 583c 642c da3c 44bf 23bd
000002a0: 1d04 61bb fefd 003c edea 23bd 0788 0f3d
000002b0: e5fe 923c 67dc 66bc d7c9 1ebd 2d42 40bd
000002c0: 25e1 293d a688 273d 6ea8 0d3d 48dc 0cbd
000002d0: 6479 f7b8 5202 673c 57da 0bbd d436 35bd
000002e0: 05eb 3f3b 9b59 d33c 4552 433d ebbd d5bc
000002f0: eddb b9bc bd2d 0bbd 2d08 923c 834d 39bd
00000300: 5e4a 383c 5ee3 e93c 868e 303d 3a08 913c
00000310: a3ed f9bc c88a 80bc 3ba0 fbbc d281 103d
00000320: 2f94 d9bc 2ee8 9d3c 819a 3cbd efbf 85bc
00000330: 8e07 f13c 29a9 c53c 9011 82bc 1f5e 043d
00000340: b5c3 5f3c 0ca9 1f3d bb65 a1bc a151 b43c
00000350: db90 243d 077c 1b3b 2c2e 19bc c29b b13c
00000360: d2d6 343d 3875 833c 2c6b 8d3c bd72 203d
00000370: 6fc9 fabc e0c8 ccbc cffa 44bc 8fe1 723c
00000380: cf62 023d c4da eebc 5716 763c 49a1 1cbc
00000390: 434a babc d56e acbc 2924 c5bc 4595 f23b
000003a0: 513d 483d 1a42 223c d3cc fb3c ca8e 29bc
000003b0: f1ba 213c 7a2f a8bc 6aa0 9f3b d6d6 eabc
000003c0: c8fd 4f3b eaa7 bebc b717 7fbc 5940 c73a
000003d0: 3488 f3bc a336 30bb 707d 1fbc 43da 0b3d
000003e0: 018f 97bc 5cd1 8dbc dd97 b2bb 5707 1abd
000003f0: d8df 163d ccf8 afbc b924 a3b8 cf9d 13bd

fc1.bias f4 [256]
-0.018878926 0.015070123 0.020813728 -0.00067328574 -0.04385968 0.041364986 -0.027889289 0.024595447
-0.028222129 0.03431743 0.026406772 -0.026551923 0.034543637 0.025781218 0.036344126 -0.040208362
-0.016355684 -0.031591028 -0.023199316 0.005150054 0.014559525 -0.054394487 -0.036459986 0.014074536
0.02204545 0.007556789 -0.014608959 0.024095956 -0.02742311 -0.04240328 -0.032953568 -0.0392834
0.010486795 0.027645567 -0.046527345 -0.01596831 -0.047171295 0.010199014 -0.04295702 -0.015373916
-0.014421406 0.048381705 0.021837771 -0.025371034 -0.025073506 0.047795106 -0.032988608 0.035474572
-0.030731354 0.018724045 -0.028556295 -0.017044147 0.012654982 0.010785881 -0.04198373 -0.010481396
0.021088885 0.026174735 -0.006986948 -0.04494439 -0.039126825 -0.0039604544 -0.041715726 0.032712813
0.020297287 0.025103308 0.025492461 -0.020545969 -0.010456163 -0.049325425 -0.03705327 -0.042596027
0.03303669 -0.021353805 -0.013807741 0.020765027 -0.021877373 -0.00434221 0.015998233 -0.034370016
0.022821447 0.03337903 0.024439648 -0.03517074 -0.028045053 0.020785078 0.0022542328 -0.0018117524
-0.044245962 0.014155171 -0.03978619 -0.020135023 0.033403177 -0.02971944 -0.012133807 -0.015170341
0.0154407285 0.033315748 -0.045743134 -0.043260004 -0.029773643 -0.030043423 -0.03189332 0.02607142
0.029536571 0.0029794404 -0.02843357 0.03204017 -0.034024715 -0.0098791085 -0.025713604 0.01747856
0.0065859337 -0.00032780584 -0.05335254 -0.009257941 0.01565284 0.025064193 -0.04285098 -0.017649485
-0.0001244416 -0.010813357 -0.008164394 -0.035933726 -0.0012174706 -0.035937138 -0.04615611 -0.01541331
0.029927649 0.021010421 -0.03675655 -0.03705209 -0.04159671 -0.045534424 0.013912375 0.00020817627
-0.034624666 -0.030133646 -0.018880071 -0.044620275 -0.00862852 0.030800339 -0.011720946 0.00384406
0.054621026 0.03453813 -0.04636833 -0.0038231637 -0.029076016 -0.0039096875 0.031315923 0.038907643
-0.011960447 0.025392337 0.004622086 -0.022028232 -0.007186263 -0.03105668 0.03906551 -0.013196583
0.012233947 -0.03410764 0.023659693 0.030356625 -0.022396164 0.023634447 -0.015267549 -0.020962803
0.012099016 0.001050201 -0.014973303 0.009014762 0.0110821985 -0.04247302 -0.03275422 -0.011414439
-0.039208367 -0.01702702 -0.0046292576 0.03383184 0.020662304 -0.010312184 -0.006337531 -0.02501134
0.0116055645 -0.012995665 0.017956978 -0.030617341 -0.039111245 -0.014299943 -0.0039981194 0.030346634
-0.0057532457 -0.03388639 0.023708165 0.018826948 -0.0024419061 -0.0006628794 -0.0422793 0.03105123
0.008787414 0.00040247536 0.0006492406 -0.015906096 0.014660018 0.01030315 0.021650117 0.03588087
-0.01202597 -0.007986727 0.032727133 0.038369797 -0.018962145 0.009266492 -0.028989198 0.040404957
0.016474957 -0.03558115 0.0024047394 -0.031851914 -0.0061938837 -0.0297016 0.023723835 0.022659525
-0.026535112 -0.0035913398 0.0027994122 0.0035435474 0.009687156 0.04015816 -0.022770252 -0.01825048
0.010364146 0.040112708 -0.008664667 0.034924343 0.025573015 -0.046942346 -0.0072717564 -0.02075282
-0.0017724162 -0.0049948823 0.009517394 -0.016000574 0.051048346 0.0017708243 -0.013301837 0.02963843
-0.011443171 -0.031588387 0.005081034 -0.01401588 -0.03676108 -0.0238729 0.042158287 -0.039645415
00000000: faa7 9abc ade8 763c 8d81 aa3c 717f 30ba
00000010: 35a6 33bd 556e 293d 1478 e4bc 647c c93c
00000020: 1832 e7bc 6f90 0c3d 0453 d83c 6b83 d9bc
00000030: a17d 0d3d 2233 d33c 94dd 143d 86b1 24bd
00000040: 5bfc 85bc 9865 01bd 7e0c bebc c9c1 a83b
00000050: 138b 6e3c c1cc 5ebd 1157 15bd e298 663c
00000060: a998 b43c f19e f73b 6a5a 6fbc e264 c53c
00000070: 6ea6 e0bc 10af 2dbd 52fa 06bd a1e7 20bd
00000080: ced0 2b3c f578 e23c 7593 3ebd f9cf 82bc
00000090: b036 41bd c419 273c b3f3 2fbd e1e2 7bbc
000000a0: c347 6cbc e52b 463d 20e5 b23c ead6 cfbc
000000b0: f466 cdbc cdc4 433d 101f 07bd c94d 113d
000000c0: 52c0 fbbc 2b63 993c e4ee e9bc 2ba0 8bbc
000000d0: d756 4f3c 44b7 303c 22f7 2bbd 29ba 2bbc
000000e0: 99c2 ac3c 666c d63c c5f2 e4bb 9c17 38bd
000000f0: 7343 20bd b3c6 81bb 1cde 2abd dffd 053d
00000100: 7f46 a63c 74a5 cd3c 91d5 d03c 0550 a8bc
00000110: 5450 2bbc 7509 4abd 2bc5 17bd 2c79 2ebd
00000120: 7b51 073d 2dee aebc dd39 62bc 6b1b aa3c
00000130: 2d38 b3bc 1949 8ebb ba0e 833c 93c7 0cbd
00000140: 0bf4 ba3c 73b8 083d a835 c83c 320f 10bd
00000150: bdbe e5bc 7845 aa3c c0bb 133b 5378 edba
00000160: 413b 35bd 17eb 673c d8f6 22bd 34f2 a4bc
00000170: c5d1 083d 2f76 f3bc e0cc 46bc 068d 78bc
00000180: 1cfb 7c3c 1876 083d 275d 3bbd 6731 31bd
00000190: dbe7 f3bc a01d f6bc 92a2 02bd bb93 d53c
000001a0: aef6 f13c b742 433b 85ed e8bc 8e3c 033d
000001b0: 805d 0bbd fcdb 21bc 56a5 d2bc 322f 8f3c
000001c0: d1ce d73b 5bdd abb9 3188 5abd 9eae 17bc
000001d0: 623a 803c 6c53 cd3c 8284 2fbd a795 90bc
000001e0: 8a7c 02b9 822a 31bc f3c3 05bc 3e2f 13bd
000001f0: 8993 9fba d232 13bd 300e 3dbd 1c88 7cbc
00000200: d42a f53c 0c1e ac3c 098e 16bd efc3 17bd
00000210: 5061 2abd 4e82 3abd bbf0 633c e449 5a39
00000220: 98d2 0dbd d6da f6bc 61aa 9abc c0c3 36bd
00000230: a35e 0dbc fe50 fc3c 3609 40bc a0ec 7b3b
00000240: 4cba 5f3d db77 0d3d b8ec 3dbd 0b8e 7abb
00000250: d330 eebc d61c 80bb 2045 003d 9f5d 1f3d
00000260: c0f5 43bc 9703 d03c de74 973b 8d74 b4bc
00000270: be7a ebbb 946a febc 2803 203d 7b36 58bc
00000280: e570 483c 74b4 0bbd f9d1 c13c 75ae f83c
00000290: 2978 b7bc 079d c13c be24 7abc 2fba abbc
000002a0: f43a 463c e6a6 893a 9652 75bc a7b2 133c
000002b0: 1c92 353c 30f8 2dbd 4a29 06bd a103 3bbc
000002c0: f498 20bd 407c 8bbc 07b1 97bb 4193 0a3d
000002d0: fe43 a93c 6ff4 28bc 10ab cfbb 95e4 ccbc
000002e0: 4425 3e3c c5eb 54bc 831a 933c 38d1 fabc
000002f0: 1d33 20bd 4f4a 6abc a802 83bb 8199 f83c
00000300: b985 bcbb 75cc 0abd a037 c23c f93a 9a3c
00000310: 6308 20bb 15c5 2dba 0f2d 2dbd 265f fe3c
00000320: 16f9 0f3c 5403 d339 cd31 2a3a 804d 82bc
00000330: 9230 703c 8bce 283c 965b b13c d2f7 123d
00000340: 9308 45bc c3da 02bc e30c 063d a629 1d3d
00000350: 8056 9bbc 7cd2 173c c17a edbc ab7f 253d
00000360: 7df6 863c 8abd 11bd d598 1d3b 2777 02bd
00000370: 10f6 cabb c550 f3bc 7d58 c23c 78a0 b93c
00000380: 2a60 d9bc af5c 6bbb 5876 373b dc3a 683b
00000390: e1b6 1e3c e27c 243d ae88 babc 0882 95bc
000003a0: 61ce 293c 394d 243d 3ff6 0dbc d40c 0f3d
000003b0: 807e d13c 9e46 40bd ea47 eebb d101 aabc
000003c0: 6b50 e8ba 1cac a3bb d8ee 1b3c a313 83bc
000003d0: 1218 513d 011b e83a f3ef 59bc 4bcc f23c
000003e0: 237c 3bbc d362 01bd cd7e a63b dda2 65bc
000003f0: c992 16bd 1a91 c3bc 2bae 2c3d 3b63 22bd

fc2.weight f4 [128, 256]
-0.011096383 -0.05955252 0.008974777 -0.023431472 0.04618501 0.04558798 0.020862395 -0.051078744
-0.0017484782 -0.01389593 0.058513086 0.059537966 0.014952498 -0.021409323 0.009554744 0.05362823
0.021820724 -0.028602289 0.0250293 0.028679613 0.009837717 -0.0055961967 0.0578892 0.037467033
-0.00684818 0.007676044 0.01057398 0.03669758 0.027746843 0.033152815 0.04742939 0.060607575
-0.003661626 0.022889819 0.01005677 -0.020611808 0.034924734 0.022018548 0.01694978 -0.035709295
0.033558697 0.0074702394 0.06312737 -0.009020107 -0.038962375 -0.035379324 0.025883656 -0.031581264
0.03669443 0.041485716 0.005219565 0.019583944 0.009894294 -0.033949245 0.023453847 -0.024530234
-0.011739613 -0.029866133 -0.03465846 0.028000046 0.018860165 0.028772475 0.050575815 0.062297348
0.023970248 0.029922446 0.030857591 0.007717131 0.04797182 0.04820303 0.023535077 -0.057948854
0.04665466 0.03748296 0.029740062 0.04524315 0.020670207 -0.008796382 -0.019836793 0.012045776
0.039420344 0.052849546 -0.032879647 -0.0225068 0.05227895 0.023560097 -0.023131713 0.0061977888
0.030217277 0.02736764 0.0010991473 0.005871024 -0.022136347 -0.024636924 0.022394184 -0.021404322
0.015960915 -0.04543043 0.03422609 0.052751303 -0.019175071 0.041829314 -0.014965686 -0.017742263
0.030992571 0.016152833 0.006836593 0.041367 0.031519484 0.015802596 -0.035712715 -0.0060940827
-0.012304054 -0.03737059 -0.012958617 -0.030324748 -0.038041722 0.0468451 -0.0016020238 -0.0029820257
-0.014543504 -0.025573015 -0.05198386 -0.011163893 -0.011550779 -0.00047486357 -0.026647046 0.025167637
0.04710519 0.0018962444 -0.0036033152 0.050720062 -0.0010957319 -0.025495658 0.044797372 -0.038238797
0.053047482 -0.041387785 0.031637862 0.057331618 -0.010252484 -0.038021136 -0.029543126 0.0062296847
0.053825233 0.04779873 0.04504032 -0.0014113705 0.024752848 -0.019640777 0.01125127 0.021220377
-0.022481186 0.017106386 -0.050956286 -0.011786201 -0.019588454 0.061232533 0.008558881 -0.054162826
0.037452456 -0.0007311062 -0.034622725 -0.043697078 0.04416567 0.01748635 -0.0032673941 -0.0055278214
-0.033775136 -0.0024721094 -0.019055597 0.06419434 -0.046164583 0.032655973 0.027856687 0.04729162
0.028288253 0.0634882 -0.032440912 -0.03673168 -0.019575536 0.05807004 0.02541458 -0.04351549
-0.05292214 -0.026427459 -0.013465119 -0.054923005 0.030231535 -0.0020214051 0.05070022 0.05580947
-0.024389405 0.0555967 0.034104016 -0.011093805 0.03351288 0.045077424 0.05738944 -0.024695491
0.033081993 0.024697598 0.04477968 0.0010568874 0.038094327 0.0072086635 -0.03438002 -0.024970407
0.029451523 -0.051420394 0.05218917 0.045457926 0.008400954 -0.03580879 -0.045418844 -0.041820653
0.03323223 -0.007764919 0.0050742864 -0.012822362 -0.012842548 0.05206978 -0.0043305787 -0.025171325
0.06696538 0.020699214 0.009536532 -0.035220843 0.024310602 -0.012201186 -0.041132372 -0.0076053287
-0.04454618 0.03673968 0.016620915 -0.003598271 -0.0071942103 -0.0070743207 -0.009300488 0.020775866
-0.017185953 0.05833479 -0.03980207 -0.03443544 -0.000712504 0.025533322 0.021332096 0.039205026
0.033957575 -0.03413093 -0.022033738 -0.028890783 -0.007683491 0.030062295 0.053358834 -0.037934262
00000000: 9bcd 35bc 58ed 73bd f10a 133c 5cf3 bfbc
00000010: 7e2c 3d3d 76ba 3a3d 9de7 aa3c f237 51bd
00000020: 312d e5ba c1ab 63bc 6bab 6f3d 15de 733d
00000030: 52fb 743c 9b62 afbc 808b 1c3c 46a9 5b3d
00000040: 60c1 b23c 594f eabc 3f0a cd3c 82f1 ea3c
00000050: 602e 213c 4d60 b7bb 3a1d 6d3d 0877 193d
00000060: b366 e0bb 5387 fb3b 7d3e 2d3c 3450 163d
00000070: 594d e33c 3fcb 073d 5245 423d a63f 783d
00000080: e4f7 6fbb 6e83 bb3c 27c5 243c 18da a8bc
00000090: 3d0d 0f3d 3e60 b43c 44da 8a3c e943 12bd
000000a0: d874 093d e9c8 f43b ec48 813d 12c9 13bc
000000b0: 0397 1fbd e9e9 10bd f609 d43c 5b5b 01bd
000000c0: e64c 163d edec 293d e208 ab3b 826e a03c
000000d0: ad1b 223c 5d0e 0bbd 4822 c03c a1f3 c8bc
000000e0: 8157 40bc d2a9 f4bc 08f6 0dbd 5a60 e53c
000000f0: a280 9a3c 41b4 eb3c 9628 4f3d 812b 7f3d
00000100: 415d c43c eb1f f53c 0fc9 fc3c fddf fc3b
00000110: 197e 443d 8a70 453d a2cc c03c c75b 6dbd
00000120: f518 3f3d bb87 193d 6ea1 f33c e250 393d
00000130: 9154 a93c b31e 10bc c580 a2bc a55b 453c
00000140: 3a77 213d c478 583d cfac 06bd 2e60 b8bc
00000150: 7422 563d 1b01 c13c b87e bdbc d216 cb3b
00000160: 398a f73c 1a32 e03c 4311 903a b861 c03b
00000170: 4957 b5bc 60d3 c9bc 0274 b73c 1e58 afbc
00000180: 77c0 823c 4215 3abd a830 0c3d c011 583d
00000190: 0a15 9dbc 3755 2b3d a332 75bc 3958 91bc
000001a0: 22e4 fd3c f252 843c 8005 e03b 7270 293d
000001b0: 931a 013d 7274 813c 7f47 12bd dfb0 c7bb
000001c0: f196 49bc e711 19bd 6150 54bc 9b6b f8bc
000001d0: a3d1 1bbd a6e0 3f3d 00fb d1ba 176e 43bb
000001e0: e147 6ebc 807e d1bc 07ed 54bd c3e8 36bc
000001f0: 7b3f 3dbc 1cf7 f8b9 e84a dabc 5c2c ce3c
00000200: 5ff1 403d 678b f83a 9925 6cbb d7bf 4f3d
00000210: a99e 8fba 45dc d0bc 737d 373d 49a0 1cbd
00000220: 5148 593d 3d86 29bd b496 013d 8fd4 6a3d
00000230: 09fa 27bc 0dbc 1bbd 6d04 f2bc 6222 cc3b
00000240: d977 5c3d 9ac8 433d 337c 383d bcfd b8ba
00000250: 7cc6 ca3c b2e5 a0bc 3f57 383c 5bd6 ad3c
00000260: 772a b8bc b122 8c3c 8ab7 50bd e91a 41bc
00000270: f777 a0bc f7ce 7a3d 8c3a 0c3c d7d9 5dbd
00000280: bf67 193d b5a7 3fba 8fd0 0dbd b5fb 32bd
00000290: 10e7 343d 893f 8f3c c721 56bb ba22 b5bb
000002a0: cc57 0abd 1d03 22bb 7c1a 9cbc 5278 833d
000002b0: 1317 3dbd 45c2 053d b533 e43c dcb4 413d
000002c0: c4bc e73c 1a06 823d c3e0 04bd f573 16bd
000002d0: e05c a0bc dada 6d3d 3d32 d03c 4c3d 32bd
000002e0: e3c4 58bd 667e d8bc cd9c 5cbc f2f6 60bd
000002f0: 20a8 f73c 8d79 04bb 09ab 4f3d 7998 643d
00000300: 4acc c7bc 5eb9 633d a7b0 0b3d cac2 35bc
00000310: cd44 093d 1ba3 383d 3011 6b3d 334e cabc
00000320: fc80 073d 9e52 ca3c e66a 373d 4287 8a3a
00000330: cc08 1c3d a736 ec3b 10d2 0cbd bd8e ccbc
00000340: 5244 f13c 319e 52bd 50c4 553d 1732 3a3d
00000350: 28a4 093c 3dac 12bd 1c09 3abd 224c 2bbd
00000360: 851e 083d dd70 febb 3346 a63b e214 52bc
00000370: 8d69 52bc 1f47 553d 87e7 8dbb 1834 cebc
00000380: 2525 893d 6691 a93c 1d3f 1c3c bb43 10bd
00000390: 0727 c73c 7ce7 47bc 6b7a 28bd 1f36 f9bb
000003a0: 0e76 36bd 597c 163d 9628 883c f8d0 6bbb
000003b0: 69bd ebbb b4cf e7bb 1361 18bc 2632 aa3c
000003c0: 8ec9 8cbc 76f0 6e3d 7f07 23bd 2d0c 0dbd
000003d0: 56c7 3aba 422b d13c a6c0 ae3c 7395 203d
000003e0: 1917 0b3d e0cc 0bbd 1980 b4bc 5dac ecbc
000003f0: cbc5 fbbb 3445 f63c cb8e 5a3d f560 1bbd

fc2.bias f4 [128]
-0.01939153 -0.06756468 0.014517487 0.059168477 -0.01697508 0.03621968 0.026391158 -0.013231746
0.048987705 -0.050857384 0.019342605 0.06254451 0.023553213 0.032743882 -0.0481518 -0.0154552115
-0.049018126 -0.05525121 -0.05178772 0.0072025815 -0.034667272 -0.022153897 -0.038734164 -0.03960401
-0.027129736 0.041253652 -0.06496682 -0.034541428 0.013294 -0.04866967 -0.019222852 -0.04134077
0.03874074 -0.013309102 -0.03089091 0.0075758845 -0.038526826 -0.0007126239 -0.032654576 -0.026835883
-0.058911815 -0.05245568 0.05367084 0.03735168 -0.06156477 0.013167792 0.054146543 -0.039215583
-0.059431203 0.01738954 0.039928123 -0.008422719 0.019086884 0.05328085 -0.06777685 0.035921447
-0.0367048 0.05100195 -0.02110213 0.019424789 -0.045431636 -0.062373694 -0.052809533 0.04235859
-0.045329016 -0.0025768124 -0.011203389 0.0034116034 0.04430191 -0.021204801 -0.056146137 -0.00490134
0.016116748 -0.06247235 -0.002341079 -0.031060558 0.090284705 0.015608421 -0.0057418174 0.053139422
0.03006854 0.053654402 0.0014327304 -0.044966135 0.007792947 0.038667746 0.025310943 -0.032771524
-0.0045244936 0.028933 -0.017573174 0.062690794 0.05133191 0.014408293 0.046342876 -0.06403666
-0.022698022 0.07121802 -0.00545844 0.000921263 -0.016872415 0.044791598 0.015820185 0.052468468
0.04403944 0.01630875 -0.007748771 0.0055148187 -0.044160713 -0.010236531 0.05713549 -0.028135676
0.007549223 -0.013290423 -0.015457646 -0.04461282 -0.019654503 0.011691222 -0.051044513 0.012242139
0.0475888 -0.036414582 0.028729582 0.016633235 0.049880903 0.038912535 -0.019047765 0.024053888
00000000: fcda 9ebc 5a5f 8abd c1da 6d3c a55a 723d
00000010: 530f 8bbc 165b 143d 4532 d83c f7c9 58bc
00000020: 55a7 483d d54f 50bd 6274 9e3c 5617 803d
00000030: abf2 c03c 731e 063d d23a 45bd db37 7dbc
00000040: 3bc7 48bd 184f 62bd 5c1f 54bd a203 ec3b
00000050: 45ff 0dbd 177c b5bc b7a7 1ebd d037 22bd
00000060: 2e3f debc 97f9 283d 530d 85bd 507b 0dbd
00000070: 14cf 593c d959 47bd 3e79 9dbc f054 29bd
00000080: 9cae 1e3d 6b0e 5abc ef0e fdbc 203f f83b
00000090: 4ece 1dbd 61cf 3aba cec0 05bd edd6 dbbc
000000a0: 844d 71bd c4db 56bd f4d5 5b3d 13fe 183d
000000b0: 572b 7cbd b9bd 573c c4c8 5d3d 85a0 20bd
000000c0: 226e 73bd 8274 8e3c ac8b 233d 72ff 09bc
000000d0: 195c 9c3c 053d 5a3d 97ce 8abd 5e22 133d
000000e0: c657 16bd 6ce7 503d 60de acbc bc20 9f3c
000000f0: 8616 3abd 8f7b 7fbd cf4e 58bd 3380 2d3d
00000100: ebaa 39bd bddf 28bb 6b8e 37bc 3595 5f3b
00000110: eb75 353d b1b5 adbc 7ef9 65bd 6c9b a0bb
00000120: 4507 843c 02e3 7fbd ca6c 19bb b672 febc
00000130: 30e7 b83d 76ba 7f3c db25 bcbb b9a8 593d
00000140: 4c52 f63c b8c4 5b3d 74ca bb3a 692e 38bd
00000150: fa5b ff3b 1262 1e3d e558 cf3c 6f3b 06bd
00000160: 3442 94bb e604 ed3c 9ef5 8fbc 0864 803d
00000170: 6941 523d c310 6c3c 07d2 3d3d a725 83bd
00000180: 34f1 b9bc c1da 913d b7dc b2bb ea80 713a
00000190: 0538 8abc 6577 373d 5599 813c 2de9 563d
000001a0: b362 343d ed99 853c 67e9 fdbb a7b5 b43b
000001b0: dde1 34bd 1fb7 27bc e706 6a3d ca7c e6bc
000001c0: 795f f73b 13c0 59bc 1142 7dbc efbb 36bd
000001d0: 7b02 a1bc 8a8c 3f3c 0d14 51bd 4193 483c
000001e0: 79ec 423d 7527 15bd 4d5a eb3c 6c42 883c
000001f0: eb4f 4c3d c062 1f3d 0f0a 9cbc a90c c53c

fc3.weight f4 [64, 128]
-0.022869302 -0.040036377 -0.0316483 -0.038471017 0.047615502 0.0729213 0.030982073 -0.07926895
0.0021061164 0.026132273 -0.033985395 0.012537434 -0.077051006 -0.008283215 0.03763413 -0.023197481
0.054545384 0.0074668583 -0.029247401 -0.014392382 0.041064065 0.03967834 0.05555065 0.075854
-0.046295237 -0.07747045 0.05260027 -0.007774122 0.0017657868 -0.09210581 -0.07359642 -0.07054243
-0.08191485 -0.0115639195 -0.044087715 0.07165646 -0.0039068013 -0.05178951 0.06529866 -0.018646786
0.014264153 0.049799737 -0.020059824 0.0045402646 -0.0007154803 0.059096836 -0.049119 0.03668192
0.0046645305 -0.074559346 0.076225385 -0.079344235 -0.05937035 -0.08666523 -0.025860503 -0.07526436
0.058789734 -0.052106366 0.0627073 -0.012208887 -0.025824519 0.006729258 0.0087731015 0.03943643
-0.0072168056 -0.011058604 0.062143803 -0.08344803 0.06418292 0.028539754 0.04315844 -0.046563275
-0.04009854 -0.07722186 0.053034466 0.010820565 -0.0073856306 0.034074545 0.07490049 0.020339131
-0.08096285 -0.057851862 -0.012723656 -0.046441168 0.05183845 0.03547899 -0.08287958 0.04106439
-0.028764201 0.046508007 -0.03913098 -0.06626901 -0.07451594 -0.033558235 0.04878063 -0.005387294
-0.021549767 -0.027847245 -0.08738666 0.05923423 0.041333597 -0.0593101 -0.07205667 -0.027086644
0.08071644 -0.049046967 0.06255934 0.05522499 -0.036926515 -0.0077463123 -0.06777749 0.04014345
-0.010460414 0.011764006 -0.031112107 0.028769549 -0.0232555 0.020697396 -0.042030953 0.070587866
-0.07824683 0.014063882 0.002288249 0.014014746 -0.09226386 0.07262284 -0.031715628 -0.06439441
-0.03013426 -0.083841 -0.0028339287 0.030753672 0.07752042 0.04376966 0.011218834 0.026856745
-0.03441317 0.0044816197 -0.034329556 -0.041427985 0.00631032 0.07692683 -0.019610161 0.06622496
-0.017432017 0.08600684 0.057354562 -0.0053703696 0.03602443 -0.083553515 0.021212438 -0.08439819
0.02165317 0.07604479 0.066664286 -0.08300109 -0.08525291 -0.07438699 0.07334507 0.082753524
0.016827954 0.0733983 0.06234538 0.037826467 -0.028466955 -0.09373296 0.017553596 -0.08853379
0.0637989 0.0018001749 0.027035188 0.06322668 0.07476542 -0.07281969 -0.01818679 0.0020293903
-0.026583264 -0.009519242 -0.03556322 0.049363397 0.033942237 -0.056643646 -0.054200266 -0.019479752
-0.019812997 -0.041405365 -0.03218776 -0.02775954 0.009023853 -0.06787316 -0.037798278 0.032546125
0.0454254 0.029765733 -0.028766962 -0.07907802 0.080932826 -0.04895851 -0.0909345 -0.059174627
0.05957455 0.038287703 0.079083964 0.043487042 -0.04687792 0.04963475 -0.036895324 0.011458178
0.051630147 -0.051310785 -0.08720942 0.07672337 0.07812108 -0.025858937 0.00041773435 0.08145699
-0.011226994 -0.04085716 0.07072469 -0.06072325 -0.048989825 -0.030420847 -0.004163344 0.053418875
0.06614087 -0.029597796 -0.038484313 0.079985484 0.012287679 -0.07205674 -0.07585913 -0.03579588
0.033425152 0.042527754 0.073198624 0.03028752 -0.08920547 -0.049946852 0.04342216 0.01830681
0.0074944166 0.03802267 0.05207775 -0.07592631 -0.0099500595 -0.018813198 0.024732005 0.055836108
0.034486752 -0.06865853 -0.06788009 -0.0583271 -0.01614394 0.03096895 0.030505965 -0.03490555
00000000: 6758 bbbc 2ffd 23bd a6a1 01bd c993 1dbd
00000010: 7908 433d c357 953d 1ece fd3c c257 a2bd
00000020: c506 0a3b 5913 d63c 4534 0bbd cf69 4d3c
00000030: ebcc 9dbd 52b6 07bc 3f26 1a3d a508 bebc
00000040: fb6a 5f3d 8cac f43b 3f98 efbc 07ce 6bbc
00000050: cb32 283d c185 223d 1489 633d 5859 9b3d
00000060: 13a0 3dbd d4a8 9ebd 6173 573d 10be febb
00000070: f971 e73a f9a1 bcbd b8b9 96bd 8d78 90bd
00000080: f9c2 a7bd 9876 3dbc 5295 34bd 9fc0 923d
00000090: a004 80bb 3d21 54bd 4ebb 853d 25c1 98bc
000000a0: 32b4 693c cffa 4b3d 8054 a4bc 80c6 943b
000000b0: 128f 3bba 860f 723d 0131 49bd c83f 163d
000000c0: ebd8 983b 92b2 98bd 0e1c 9c3d 3b7f a2bd
000000d0: 532e 73bd 8a7d b1bd 68d9 d3bc 3324 9abd
000000e0: 81cd 703d 7c6d 55bd af6c 803d c907 48bc
000000f0: f18d d3bc 1c81 dc3b 0ebd 0f3c 1888 213d
00000100: f47a ecbb 262f 35bc 808a 7e3d cde6 aabd
00000110: 5672 833d 34cc e93c e8c6 303d 22b9 3ebd
00000120: 5e3e 24bd 7f26 9ebd ab3a 593d bd48 313c
00000130: 2903 f2bb c091 0b3d 6e65 993d 409e a63c
00000140: dacf a5bd 13f6 6cbd e276 50bc 1839 3ebd
00000150: 8e54 543d 6b52 113d c5bc a9bd 2233 283d
00000160: e7a2 ebbc 2e7f 3e3d ce47 20bd 0cb8 87bd
00000170: d09b 98bd 5c74 09bd 33ce 473d e687 b0bb
00000180: 2389 b0bc e81f e4bc c7f7 b2bd 989f 723d
00000190: 6b4d 293d 26ef 72bd 7392 93bd cfe4 ddbc
000001a0: a94e a53d 79e5 48bd 1c1f 803d 9933 623d
000001b0: 4240 17bd c7d4 fdbb edce 8abd 756d 243d
000001c0: 2862 2bbc d1bd 403c d1de febc 1eae eb3c
000001d0: 5182 bebc 968d a93c a628 2cbd 5f90 903d
000001e0: e03f a0bd 326c 663c 73f6 153b 1b9e 653c
000001f0: d6f4 bcbd 49bb 943d 3fe8 01bd 37e1 83bd
00000200: 20dc f6bc d5b4 abbd 6fb9 39bb 20ef fb3c
00000210: 07c3 9e3d d147 333d 33cf 373c ad02 dc3c
00000220: d3f4 0cbd 8dda 923b 269d 0cbd 64b0 29bd
00000230: cdc6 ce3b d08b 9d3d 7da5 a0bc f4a0 873d
00000240: 97cd 8ebc 5b24 b03d 9eec 6a3d edf9 afbb
00000250: 5a8e 133d 1b1e abbd b5c5 ad3c f5d8 acbd
00000260: fd61 b13c 5fbd 9b3d 4987 883d 7afc a9bd
00000270: 1499 aebd 3558 98bd f135 963d ae7a a93d
00000280: c7da 893c d951 963d df5d 7f3d edef 1a3d
00000290: 8833 e9bc 11f7 bfbd 8fcc 8f3c 3451 b5bd
000002a0: ffa8 823d d9f3 eb3a e678 dd3c fd7c 813d
000002b0: 9d1e 993d 7d22 95bd 77fc 94bc 85ff 043b
000002c0: 25c5 d9bc 98f6 1bbc bdaa 11bd 4631 4a3d
000002d0: 0407 0b3d 2b03 68bd 1901 5ebd 0094 9fbc
000002e0: de4e a2bc ac98 29bd 50d7 03bd fa67 e3bc
000002f0: c8d8 133c 1501 8bbd 5ed2 1abd 164f 053d
00000300: fc0f 3a3d 44d7 f33c b1a8 ebbc a8f3 a1bd
00000310: 1cc0 a53d b888 48bd de3b babd 1861 72bd
00000320: 7104 743d 91d3 1c3d c6f6 a13d 781f 323d
00000330: 1003 40bd cf4d 4b3d 8d1f 17bd 15bb 3b3c
00000340: 227a 533d 422b 52bd da9a b2bd 2421 9d3d
00000350: f2fd 9f3d 1fd6 d3bc 5b03 db39 ecd2 a63d
00000360: 6df1 37bc d659 27bd 1bd8 903d f1b8 78bd
00000370: 8ea9 48bd 2435 f9bc a96c 88bb c0cd 5a3d
00000380: dd74 873d 1477 f2bc baa1 1dbd 6ecf a33d
00000390: 4352 493c 7c92 93bd 085c 9bbd b39e 12bd
000003a0: d0e8 083d 9531 2e3d 29e9 953d 881d f83c
000003b0: 5cb1 b6bd 1295 4cbd 6fdb 313d 2af8 953c
000003c0: b993 f53b a9bd 1b3d 7b4f 553d 417f 9bbd
000003d0: 9305 23bc 231e 9abc c69a ca3c 67b4 643d
000003e0: fb41 0d3d d89c 8cbd b704 8bbd 66e8 6ebd
000003f0: 4c40 84bc 98b2 fd3c a5e7 f93c 1ff9 0ebd

fc3.bias f4 [64]
0.045951087 0.062689856 -0.05020703 -0.02729288 -0.012974963 0.08242743 0.02305168 -0.10222412
-0.04780934 -0.04950583 -0.047897138 -0.032757647 0.023030685 -0.036217894 0.006160806 0.033970904
0.042702496 -0.044685397 -0.01470552 0.01714602 -0.06519815 0.03243325 -0.06010639 0.01261251
0.053903632 -0.085577175 -0.033476807 -0.013266595 -0.062089067 0.049906503 -0.04691484 -0.058608245
-0.035128206 -0.0544662 0.0025226017 0.042647906 -0.07151806 0.04047727 -0.07857994 -0.06484176
-0.019212727 -0.08789094 -0.07260556 -0.029438583 -0.040199894 0.07885401 0.015134146 -0.06676719
0.051036038 0.07324244 0.0031014038 0.06287488 -0.06173611 -0.07269799 -0.08015095 0.07707257
0.022859074 -0.058367867 0.05230345 0.0032548516 -0.058676377 -0.052568976 -0.030412495 -0.053754535
00000000: 3537 3c3d 8a63 803d e3a5 4dbd 5195 dfbc
00000010: f094 54bc b6cf a83d e0d6 bc3c e15a d1bd
00000020: bad3 43bd a0c6 4abd ca2f 44bd e22c 06bd
00000030: d9aa bc3c 3759 14bd 96e0 c93b 1325 0b3d
00000040: d0e8 2e3d 0908 37bd 6cef 70bc cf75 8c3c
00000050: 9c86 85bd bad8 043d 1e32 76bd b3a4 4e3c
00000060: 0eca 5c3d 1643 afbd fa1e 09bd 225c 59bc
00000070: 1b51 7ebd c36a 4c3d c629 40bd 330f 70bd
00000080: 98e2 0fbd f317 5fbd 3c52 253b 92af 2e3d
00000090: 1078 92bd 7ecb 253d 85ee a0bd c2cb 84bd
000000a0: 0264 9dbc 2a00 b4bd 39b2 94bd 2f29 f1bc
000000b0: a5a8 24bd 367e a13d 36f5 773c 3dbd 88bd
000000c0: 2a0b 513d 2200 963d ec40 4b3b 8cc4 803d
000000d0: 01df 7cbd afe2 94bd 2e26 a4bd 39d8 9d3d
000000e0: f442 bb3c 2513 6fbd 243c 563d 594f 553b
000000f0: a456 70bd 9152 57bd a023 f9bc b72d 5cbd

fc4.weight f4 [32, 64]
0.014335239 0.11753038 0.035710134 0.048509244 -0.033817746 -0.0615928 -0.027166381 -0.12218393
0.028724663 0.04888708 -0.09478034 -0.038040936 -0.042654783 -0.015434626 -0.006430068 0.018192451
-0.07469754 0.028880477 -0.040055644 0.06279565 0.014152608 -0.019527104 -0.019945098 0.005095492
-0.11374005 0.023172881 -0.11361194 0.10654652 -0.09574971 0.0330839 -0.043243505 0.05872155
-0.013405905 0.028522676 -0.113019325 -0.040365014 -0.113433465 -0.077887125 0.10150682 -0.0740624
-0.05247592 -0.1287991 -0.07429267 0.11692164 0.011587946 0.11712404 -0.072642595 -0.042617995
-0.06533488 -0.10783666 -0.06511975 -0.09203392 0.1137812 -0.07756187 -0.011087383 0.087479904
-0.055955242 -0.024824994 -0.091251805 -0.027251735 -0.06276439 -0.08126277 0.055556502 0.07430859
0.065486826 0.004496445 -0.11542614 -0.10742122 -0.10203754 -0.04700007 0.06764083 0.009188741
0.060548667 0.094039306 0.07419784 -0.082521975 0.008372517 -0.07859729 0.119621366 0.0040790406
-0.03408464 0.040191904 0.012756569 0.021816801 -0.06742149 0.109463915 -0.10981555 0.029165575
0.05401229 -0.031025786 0.1001886 0.08648367 0.0036139046 0.094119035 -0.0073709623 -0.020827694
0.07390881 -0.09602546 0.011174366 0.06617505 0.03528273 -0.08420185 0.016220054 0.0009712225
0.030229498 0.10917222 -0.066519186 -0.049661294 -0.059918497 0.02292585 -0.004025892 -0.08367459
0.057263967 -0.048944727 0.034606796 0.083390735 0.1166405 0.026393104 -0.09724881 0.051962316
-0.038936906 0.0018578301 0.068239436 0.09452377 0.032463267 -0.0042743725 -0.09014505 0.08567665
-0.017411549 -0.009368973 -0.106936336 -0.011569521 -0.081174664 -0.10630319 -0.048108336 0.053545065
0.025521128 0.09474571 -0.056244813 0.066079296 -0.0864677 0.092283726 0.09819559 -0.01325201
-0.010910482 -0.053287454 0.07667605 0.11352698 0.016219981 0.035951428 -0.09045258 -0.11291558
-0.014095771 0.03624408 0.018973818 0.09239913 -0.0076809833 -0.048985638 0.009328527 -0.04749006
0.00010598418 0.043836754 -0.095261715 -0.06358643 0.049669243 0.0599206 0.046507 0.049428504
-0.026323741 0.012931871 -0.03241149 -0.08974707 0.0435363 -0.12418258 -0.06404222 0.060008053
-0.017586019 -0.08255564 -0.11265278 -0.10325242 0.058043 0.102138855 0.10297453 0.06501892
0.020649696 0.04433396 0.06777229 -0.089542046 -0.030641375 -0.06804901 0.06797826 0.041880757
-0.103728294 0.119774416 0.028149022 -0.018715741 -0.075640075 0.09896145 -0.02328521 0.107289016
-0.10050457 0.10788724 -0.040629532 -0.003707549 -0.057439588 -0.07588117 0.037921146 -0.08344278
0.08466404 0.060457237 -0.12075259 0.038451064 0.04157704 0.03711714 -0.040157955 0.04242221
0.1275564 0.09917878 -0.036841556 -0.10872923 -0.118332334 -0.003509609 0.06907806 0.089738876
-0.026238073 -0.103879705 0.07889526 -0.10466461 0.11593366 -0.11258413 0.027407652 0.11642131
-0.0034949782 0.038879525 0.010601043 -0.08222134 0.013811507 -0.05497076 0.058169145 -0.090522006
-0.041032266 0.08780747 -0.10522441 -0.04512356 -0.017152809 0.093704216 0.017091416 -0.053824857
0.103507034 0.089834765 0.09970815 -0.05132251 0.12466314 0.055122145 -0.059976913 0.04852714
00000000: 5ade 6a3c c5b3 f03d ca44 123d a1b1 463d
00000010: 7a84 0abd bb48 7cbd 088c debc 913b fabd
00000020: fc4f eb3c d23d 483d 321c c2bd d0d0 1bbd
00000030: c8b6 2ebd 83e1 7cbc 52b3 d2bb 5608 953c
00000040: 06fb 98bd c096 ec3c 6311 24bd 019b 803d
00000050: 57e0 673c 4ef7 9fbc e763 a3bc 16f8 a63b
00000060: 8bf0 e8bd 0ed5 bd3c 60ad e8bd 1035 da3d
00000070: 6d18 c4bd fc82 073d 1a20 31bd 0286 703d
00000080: 71a4 5bbc 63a8 e93c ad76 e7bd c955 25bd
00000090: ce4f e8bd 4983 9fbd cfe2 cf3d 07ae 97bd
000000a0: fef0 56bd e9e3 03be c126 98bd 9d74 ef3d
000000b0: 5edb 3d3c bbde ef3d a4c5 94bd 3590 2ebd
000000c0: 4bce 85bd 78d9 dcbd 815d 85bd 487c bcbd
000000d0: 1e06 e93d c2d8 9ebd dba7 35bc aa28 b33d
000000e0: 5331 65bd c95d cbbc 3ae2 babd 083f dfbc
000000f0: 9e8a 80bd 186d a6bd 378f 633d 1a2f 983d
00000100: f51d 863d ea56 933b 8a64 ecbd a8ff dbbd
00000110: 0ff9 d0bd 2583 40bd 4787 8a3d 608c 163c
00000120: e101 783d ae97 c03d 0af5 973d 4801 a9bd
00000130: e22c 093c 9ef7 a0bd 0cfc f43d 79a9 853b
00000140: 569c 0bbd 44a0 243d ee00 513c 26b9 b23c
00000150: 4714 8abd 9e2e e03d fae6 e0bd a5ec ee3c
00000160: fe3b 5d3d ca29 febc ae2f cd3d 5a1e b13d
00000170: 42d7 6c3b 7bc1 c03d 1d88 f1bb d79e aabc
00000180: 815d 973d ffa8 c4bd b014 373c c986 873d
00000190: a084 103d 0572 acbd ebdf 843c a399 7e3a
000001a0: daa3 f73c af95 df3d 363b 88bd a469 4bbd
000001b0: 196d 75bd fece bb3c a1eb 83bb 955d abbd
000001c0: 9f8d 6a3d 447a 48bd dbbf 0d3d c3c8 aa3d
000001d0: 37e1 ee3d 5a36 d83c 622a c7bd 70d6 543d
000001e0: 4e7c 1fbd 6f82 f33a 1ec1 8b3d ae95 c13d
000001f0: 34f8 043d 0910 8cbb f89d b8bd 3d77 af3d
00000200: aaa2 8ebc 5280 19bc 7001 dbbd 178e 3dbc
00000210: e73e a6bd 7db5 d9bd 3f0d 45bd 1252 5b3d
00000220: af11 d13c 0a0a c23d f660 66bd 9554 873d
00000230: fa15 b1bd 40ff bc3d c51a c93d f51e 59bc
00000240: e1c1 32bc f243 5abd 5508 9d3d d580 e83d
00000250: c4df 843c ce41 133d 343f b9bd 4940 e7bd
00000260: f3f1 66bc ac74 143d fb6e 9b3c c13b bd3d
00000270: c2b0 fbbb 2aa5 48bd aed6 183c f084 42bd
00000280: d343 de38 2b8e 333d 9318 c3bd 9a39 82bd
00000290: fa71 4b3d 4e6f 753d 207e 3e3d 8b75 4a3d
000002a0: e3a4 d7bc 33e0 533c e9c1 04bd 50cd b7bd
000002b0: 1f53 323d 7053 febd 9128 83bd 01cb 753d
000002c0: 8e10 90bc ee12 a9bd 80b6 e6bd 0176 d3bd
000002d0: 7fbe 6d3d 2d2e d13d 4fe4 d23d a428 853d
000002e0: 8d29 a93c 8797 353d 33cc 8a3d d261 b7bd
000002f0: 9f03 fbbc 485d 8bbd 3038 8b3d 288b 2b3d
00000300: 806f d4bd 4a4c f53d c798 e63c c151 99bc
00000310: 2fe9 9abd 4dac ca3d a0c0 bebc 58ba db3d
00000320: 57d5 cdbd fcf3 dc3d 276b 26bd 5afa 72bb
00000330: c645 6bbd 9667 9bbd 3453 1b3d 0ce4 aabd
00000340: 5764 ad3d 02a2 773d 224d f7bd dd7e 1d3d
00000350: b04c 2a3d 2408 183d ab7c 24bd e9c2 2d3d
00000360: 259e 023e 3f1e cb3d 2ce7 16bd 6ead debd
00000370: 3958 f2bd 7801 66bb cc78 8d3d 04c9 b73d
00000380: 3af1 d6bc e2be d4bd d793 a13d 665a d6bd
00000390: a06e ed3d 8292 e6bd 0386 e03c 4c6e ee3d
000003a0: 010c 65bb 2340 1f3d ffaf 2d3c a963 a8bd
000003b0: a949 623c 0529 61bd c542 6e3d 9a63 b9bd
000003c0: 7311 28bd 67d4 b33d e57f d7bd 7bd3 38bd
000003d0: 0c84 8cbc ffe7 bf3d 4c03 8c3c 7477 5cbd
000003e0: 7ffb d33d 4afb b73d c933 cc3d 8d37 52bd
000003f0: 634f ff3d c2c7 613d 5aaa 75bd 65c4 463d

fc4.bias f4 [32]
0.04426853 -0.0013022047 -0.112896845 0.09828778 -0.0039148326 0.08134584 -0.07307932 0.062215216
0.053939983 -0.02672118 -0.03969624 0.106953286 0.022414451 -0.04805204 0.06617568 -0.08083236
-0.11169812 -0.035982132 0.030473774 0.018131 -0.04934584 0.062842436 -0.08799273 -0.062850945
-0.060014892 0.057311397 0.0061906073 -0.004661107 -0.039873738 0.0057375766 -0.00043570608 -0.10685246
00000000: eb52 353d bdae aaba 7636 e7bd 1b4b c93d
00000010: ff47 80bb a698 a63d 9caa 95bd 62d5 7e3d
00000020: 2cf0 5c3d 60e6 dabc 8698 22bd 530a db3d
00000030: 839e b73c 37d2 44bd 1d87 873d 708b a5bd
00000040: fcc1 e4bd 0062 13bd 23a4 f93c 7787 943c
00000050: dd1e 4abd 89b3 803d 8835 b4bd ffb7 80bd
00000060: 2dd2 75bd 5bbf 6a3d 94da ca3b 33bc 98bb
00000070: a552 23bd 4802 bc3b 7b6f e4b9 76d5 dabd

fc5.weight f4 [1, 32]
0.0012606651 0.15460795 -0.08005093 -0.13055578 0.06337647 0.002809911 -0.018287532 0.032755066
0.12066293 -0.074969 -0.09770509 -0.12913889 0.060567047 -0.03453553 -0.06404845 -0.014313764
-0.010313653 -0.09626161 0.086068735 -0.07311911 0.049421877 -0.07757424 -0.03918039 0.13816936
0.071761124 0.07694284 -0.1152262 -0.029834805 0.10167667 0.105878316 -0.08142318 0.06058779
00000000: e73c a53a 8c51 1e3e bef1 a3bd 6ab0 05be
00000010: 86cb 813d 7c26 383b bccf 95bc 2d2a 063d
00000020: 201e f73d 5989 99bd 9b19 c8bd fc3c 04be
00000030: 2715 783d 2175 0dbd d52b 83bd 4784 6abc
00000040: 99fa 28bc cf24 c5bd ce44 b03d 79bf 95bd
00000050: 986e 4a3d 3edf 9ebd 9e7b 20bd 457c 0d3e
00000060: 7ff7 923d 3594 9d3d b7fb ebbd 1f68 f4bc
00000070: dc3b d03d bbd6 d83d 32c1 a6bd e72a 783d
