DeepLearning/model_0325_dropout/model_best_2_r2_-0.011746033712062075.pth (torch, 666311 bytes, 9 tensors)

fc1.weight f4 [256, 478]
0	0x3cfe9f58	0.03108184
1	0x3c2b2a92	0.010447161
2	0xb9804b08	-0.00024469965
3	0x3cff38a4	0.031154938
4	0x3cf2bfd9	0.029632496
5	0xbd2f0b61	-0.04273546
6	0xbca8f859	-0.020626234
7	0xbc3fad95	-0.0116991
8	0x3ce87dcb	0.028380295
9	0xbad0052a	-0.001587068
10	0xbd2d3ea5	-0.04229607
11	0xbca1402e	-0.019683924
12	0x3cf36263	0.02971
13	0xbd15436a	-0.036441244
14	0xbcdac84e	-0.02670684
15	0x3ad7e506	0.0016471453
16	0x3d1d42fb	0.038393956
17	0x3d0da014	0.03457649
18	0xbc9ce014	-0.019149818
19	0x3d3b8223	0.045778405
20	0x3c524e57	0.0128360605
21	0xbc8eab89	-0.017415779
22	0x3c857816	0.016292613
23	0xbc929228	-0.017891958
24	0x3d4576f4	0.048209146
25	0x3a1b18a0	0.000591645
26	0x3cb1644c	0.02165427
27	0xbc6ee689	-0.014581331
28	0x3cf8c120	0.030365527
29	0x3c4ee86d	0.012628657
30	0xbd1b4f2f	-0.037917312
31	0xbd425352	-0.04744274
32	0x3d12f7f0	0.035880983
33	0xbd3e77b1	-0.046500865
34	0x3c03ae3b	0.008037145
35	0xba8d50bd	-0.0010781508
36	0x3ce575a7	0.028010203
37	0xbd19c34f	-0.037539776
38	0x3cca0368	0.024659827
39	0xbcc6668b	-0.024218818
40	0xbcbb5ab3	-0.022870397
41	0xbc42735e	-0.011868326
42	0x3c7524e3	0.014962408
43	0x3d4d1ead	0.050078083
44	0x3b46a6b3	0.0030311763
45	0x3b88539f	0.004160359
46	0x3bc946b8	0.0061424635
47	0xbbb0e23e	-0.005398064
48	0x3d0dffea	0.034667887
49	0x3b667449	0.0035164526
50	0x3d0fd376	0.035113774
51	0x3caefce2	0.021360818
52	0xbd084f25	-0.033278603
53	0x3cc62cb0	0.02419123
54	0x3ca5d079	0.02024101
55	0x3c493f71	0.012283192
56	0xbc562f8b	-0.013072859
57	0xbd46cca9	-0.048535023
58	0xbceaaeff	-0.028647898
59	0xbc1eb69a	-0.00968709
60	0xbcb3edb0	-0.021963924
61	0x3d209a0c	0.03920941
62	0x3ac49a37	0.0014999573
63	0x3c521294	0.012821812
64	0xbc5c0ca9	-0.013430753
65	0xbd38016e	-0.04492324
66	0x3b908c04	0.0044112224
67	0xbd15dfd4	-0.036590412
68	0x3d155f84	0.036468044
69	0x3c9a866a	0.018862922
70	0xbca5cac5	-0.02023829
71	0xbd49d508	-0.049275428
72	0xbcb6ef34	-0.022330858
73	0x3abe61e7	0.0014525027
74	0xbc7d892c	-0.015474599
75	0x3b1e7a1c	0.002418167
76	0xbd362b01	-0.044474605
77	0xbc9dd20f	-0.019265203
78	0x3c550062	0.01300058
79	0xbb7a1f3b	-0.0038165587
80	0x3c7fc6c2	0.015611352
81	0x3c38bb9f	0.011275201
82	0x3cd428dc	0.02589839
83	0xbbcb6ad1	-0.006207802
84	0x3d0bfc71	0.034176294
85	0xbd3817bc	-0.04494451
86	0x3d1201fb	0.03564642
87	0xbcc26da0	-0.023733914
88	0xbc1b9583	-0.009496096
89	0x3d12bc8f	0.035824355
90	0xbc0207c6	-0.007936424
91	0x3d1177d6	0.035514675
92	0xbae83966	-0.0017717301
93	0xbd048036	-0.032348834
94	0x3b00b164	0.0019636983
95	0xbd0b4864	-0.034004584
96	0xbbb0235c	-0.005375309
97	0xbd387ee0	-0.045042872
98	0x3bf94b78	0.0076078735
99	0xbd461623	-0.048360955
100	0xbbfa02f3	-0.007629746
101	0xbb0a4f8a	-0.0021104538
102	0x3d1549ae	0.03644722
103	0xbd0e25ff	-0.034704205
104	0x3c91c880	0.017795801
105	0xbd234050	-0.039856255
106	0x3cff5e3f	0.03117287
107	0xbd3ec053	-0.046570133
108	0xbc87d69b	-0.016581824
109	0xbd112f6e	-0.035445623
110	0x3ccf7fa4	0.025329418
111	0x3c9cb231	0.019127937
112	0xbd3679a7	-0.04454961
113	0xbd1e66c1	-0.038672213
114	0xbcdc295d	-0.026875192
115	0x3ca40cca	0.02002563
116	0xbcb6398b	-0.022244236
117	0x3cf293a7	0.029611422
118	0xbd4896c9	-0.048971925
119	0xbcb6e4c5	-0.022325883
120	0x3bdd5dbf	0.00675556
121	0xbb2e494b	-0.002659398
122	0x3c395276	0.011311164
123	0xbbe3305c	-0.006933255
124	0xbc24e98e	-0.010065449
125	0xbd1c2531	-0.038121406
126	0x3b619b8e	0.0034424993
127	0x3d09c32b	0.033633392
128	0xbd13d827	-0.03609481
129	0x3cb4cbf9	0.022069918
130	0x3cdfaa57	0.027302904
131	0xbd009010	-0.03138739
132	0x3cc2155e	0.02369183
133	0x3ca6c199	0.020355986
134	0xbbc315e0	-0.0059535354
135	0xbadb1bca	-0.0016716656
136	0x3c82c2fa	0.015962113
137	0xbd2677a2	-0.040641434
138	0xbcce27f8	-0.025165543
139	0xbcc57ecc	-0.024108313
140	0x3d383198	0.04496917
141	0xbc24c58c	-0.0100568645
142	0x3cec274e	0.028827336
143	0x3cb65d17	0.022261186
144	0x3cb1eebb	0.02172028
145	0x3a72ab89	0.0009257128
146	0xbd45cf76	-0.048293553
147	0x3b66181d	0.0035109587
148	0xbceb05f4	-0.028689362
149	0xbca8767b	-0.020564308
150	0xbc0fd1be	-0.008778034
151	0xbd275e7f	-0.040861603
152	0x3d0c9e6c	0.03433077
153	0xbd120ece	-0.03565865
154	0xbcd223fd	-0.025651926
155	0xbca21fdf	-0.019790588
156	0x39cb6052	0.00038790941
157	0x3cfb1771	0.030650826
158	0x3ca0c8b0	0.019626945
159	0x3c8a0fbc	0.016853206
160	0xbcf84dcc	-0.030310534
161	0xbcc8c4dd	-0.024507934
162	0xbbefc877	-0.0073175984
163	0x3c3e764f	0.011624887
164	0x3c1fd0f5	0.009754409
165	0x3c5d17d0	0.013494447
166	0x3cdce8ae	0.02696642
167	0xbd220b62	-0.039561637
168	0xbb344ad2	-0.0027510417
169	0x3c0df193	0.008663553
170	0xbd21bf3a	-0.03948901
171	0x3d0f3ee1	0.034972075
172	0x3c9153fd	0.017740244
173	0xbc5eff8f	-0.013610735
174	0xbd1c1860	-0.038109183
175	0xbd3c175d	-0.04592072
176	0x3d2f74ae	0.042835884
177	0x3d2ada3c	0.04171203
178	0x3d10c5d5	0.035344917
179	0xbd0942cd	-0.03351097
180	0x383f4658	4.560346e-05
181	0x3c6c9acc	0.014441203
182	0xbd090b08	-0.033457786
183	0xbd3dba79	-0.046320412
184	0x3aba3ce2	0.0014208818
185	0x3cc9890f	0.024601487
186	0x3d3fdd0a	0.04684166
187	0xbcd89b89	-0.026441352
188	0xbcb9e049	-0.022689955
189	0xbd0a4b43	-0.03376318
190	0x3c921c05	0.017835626
191	0xbd38091b	-0.04493056
192	0x3c3488ea	0.011018971
193	0x3cec76f8	0.028865322
194	0x3d3004d7	0.042973366
195	0x3c92ae30	0.017905325
196	0xbcde1147	-0.027107848
197	0xbc55bcdc	-0.013045516
198	0xbce9ff41	-0.028564097
199	0x3d179575	0.037007768
200	0xbcca4398	-0.024690434
201	0x3cabf8d9	0.020992683
202	0xbd43a074	-0.047760442
203	0xbc933c17	-0.017972989
204	0x3ce7cc50	0.028295666
205	0x3cbecd4d	0.023291254
206	0xbc87f6ab	-0.016597113
207	0x3d0179b5	0.03161021
208	0x3c54350d	0.012952101
209	0x3d1984d5	0.037480194
210	0xbcad11da	-0.021126676
211	0x3cacad53	0.021078741
212	0x3d228b62	0.039683707
213	0x3b09829d	0.0020982393
214	0xbc1dd526	-0.009633338
215	0x3caead3f	0.021322845
216	0x3d3bd3df	0.045856353
217	0x3c90551a	0.017618705
218	0x3c969028	0.018379286
219	0x3d240f45	0.040053625
220	0xbcf5016c	-0.029907905
221	0xbcc7d9bf	-0.024395822
222	0xbc3d7668	-0.011563875
223	0x3c70ad29	0.014689722
224	0x3d012e07	0.031538036
225	0xbcf23148	-0.029564515
226	0x3c741e4e	0.014899803
227	0xbc1df7da	-0.009641612
228	0xbcbad9c6	-0.02280892
229	0xbcacc69c	-0.021090798
230	0xbcc5532a	-0.024087507
231	0x3be68c17	0.007035743
232	0x3d4750d8	0.048661083
233	0x3c201108	0.009769686
234	0x3cfab808	0.030605331
235	0xbc2c48ff	-0.0105154505
236	0x3c1ecfe5	0.009693121
237	0xbca99668	-0.020701602
238	0x3bbb79c7	0.005721304
239	0xbce848c7	-0.028355015
240	0x3b60583e	0.0034232284
241	0xbcbcb0cb	-0.02303352
242	0xbc7cb164	-0.015423153
243	0x3ab2db2b	0.0013645639
244	0xbcf2943e	-0.029611703
245	0xbb19a040	-0.0023441464
246	0xbc2918cb	-0.0103208525
247	0x3d0b2694	0.033972338
248	0xbc8b3598	-0.016993329
249	0xbc8f500f	-0.01749423
250	0xbbcc4b1f	-0.006234541
251	0xbd1969d8	-0.037454456
252	0x3d13d383	0.036090385
253	0xbca9899f	-0.020695506
254	0xb9829ed6	-0.00024913874
255	0xbd117570	-0.035512388

fc1.bias f4 [256]
0	0xbc98ecaa	-0.018667538
1	0x3c759756	0.014989695
2	0x3caa338f	0.020776538
3	0xba88b06e	-0.0010428557
4	0xbd33c179	-0.04388568
5	0x3d299ce4	0.04140939
6	0xbce5915f	-0.02802342
7	0x3cc88172	0.024475787
8	0xbce7369b	-0.02822428
9	0x3d0df274	0.03465505
10	0x3cd9e79b	0.026599696
11	0xbcda8c4c	-0.026678227
12	0x3d0d1bd1	0.034450356
13	0x3cd44e49	0.025916236
14	0x3d15588c	0.036461398
15	0xbd25024b	-0.04028539
16	0xbc843d13	-0.016142404
17	0xbd01ec06	-0.03171923
18	0xbcbdb653	-0.023158228
19	0x3bacd9ed	0.005275002
20	0x3c6e649e	0.014550356
21	0xbd5eec53	-0.054424595
22	0xbd153bb0	-0.036433876
23	0x3c689c8c	0.01419748
24	0x3cb29812	0.021801028
25	0x3bf1d593	0.0073801964
26	0xbc714abd	-0.014727292
27	0x3cc4fcb4	0.02404628
28	0xbce0686c	-0.027393542
29	0xbd2e8c49	-0.042614255
30	0xbd06ac76	-0.032879315
31	0xbd20c89d	-0.03925382
32	0x3c2f1da9	0.010688224
33	0x3ce10de3	0.027472442
34	0xbd3e9231	-0.046526138
35	0xbc83009a	-0.015991498
36	0xbd41a1de	-0.04727351
37	0x3c25cbd1	0.010119394
38	0xbd2faaaa	-0.042887367
39	0xbc772fcd	-0.01508708
40	0xbc6cd0a6	-0.014454043
41	0x3d460881	0.048347954
42	0x3cb2abc8	0.021810427
43	0xbccffb4c	-0.025388382
44	0xbccb2e0f	-0.024802236
45	0x3d43ac30	0.047771633
46	0xbd06d56e	-0.032918386
47	0x3d115bef	0.035488065
48	0xbcfc5478	-0.030801997
49	0x3c99f599	0.018793868
50	0xbced0e01	-0.028937342
51	0xbc8cb9e7	-0.017178489
52	0x3c5048e1	0.012712688
53	0x3c3175ee	0.010831339
54	0xbd2c3186	-0.042039417
55	0xbc2ab0a3	-0.01041809
56	0x3cacb7a4	0.02108366
57	0x3cd55311	0.026040586
58	0xbbe44c74	-0.0069671217
59	0xbd38ed92	-0.04514844
60	0xbd21b65c	-0.039480552
61	0xbb828375	-0.003982956
62	0xbd2ab29e	-0.04167425
63	0x3d04f1a8	0.032457024
64	0x3ca7e96e	0.02049705
65	0x3cce7531	0.025202366
66	0x3cd14967	0.025547696
67	0xbca8101a	-0.02051549
68	0xbc2c5e10	-0.010520473
69	0xbd4a4b7b	-0.04938839
70	0xbd173d6a	-0.036923803
71	0xbd2e67d1	-0.042579476
72	0x3d06d7df	0.032920714
73	0xbcb05278	-0.0215237
74	0xbc616446	-0.013756817
75	0x3cab3afa	0.020902146
76	0xbcb0e4bc	-0.021593444
77	0xbb911219	-0.0044272062
78	0x3c836ec8	0.016044036
79	0xbd0cf66a	-0.034414686
80	0x3cba1f84	0.022720106
81	0x3d08163e	0.033224337
82	0x3cc7a9b8	0.02437292
83	0xbd0f5f32	-0.035002895
84	0xbce6c6ed	-0.028171027
85	0x3ca90efb	0.020637026
86	0x3b0fecd9	0.002196124
87	0xbaf30d01	-0.0018543304
88	0xbd3536a2	-0.044241555
89	0x3c68724b	0.014187406
90	0xbd224ccf	-0.03962403
91	0xbca463a5	-0.020067045
92	0x3d09132c	0.03346555
93	0xbcf4a42d	-0.029863441
94	0xbc46b4f9	-0.012128108
95	0xbc758322	-0.014984878
96	0x3c7c9941	0.015417398
97	0x3d082286	0.03323605
98	0xbd3b6488	-0.04575017
99	0xbd32e89f	-0.043678876
100	0xbcf3e48e	-0.02977207
101	0xbcf6d074	-0.030128695
102	0xbd026332	-0.03183288
103	0x3cd564af	0.026048986
104	0x3cf0c822	0.029392306
105	0x3b31979a	0.0027098418
106	0xbce8fb01	-0.02844
107	0x3d03aa89	0.032145057
108	0xbd0c42a4	-0.03424324
109	0xbc21cd90	-0.00987567
110	0xbcd49c77	-0.025953515
111	0x3c8f983c	0.017528646
112	0x3bd91173	0.0066243946
113	0xba13632d	-0.00056223833
114	0xbd5b3e03	-0.053525936
115	0xbc1789fd	-0.009249208
116	0x3c81bd08	0.015837207
117	0x3cc92bf5	0.024557093
118	0xbd2fa8c8	-0.04288557
119	0xbc90d1f2	-0.017678235
120	0xb8d2202c	-0.00010019573
121	0xbc33dc2c	-0.010977786
122	0xbc075079	-0.008258932
123	0xbd1320eb	-0.035920065
124	0xba965792	-0.001147019
125	0xbd1315de	-0.035909526
126	0xbd3d32b2	-0.046190925
127	0xbc7d04e8	-0.015443064
128	0x3cf3040b	0.029665014
129	0x3caba5b5	0.020953039
130	0xbd16f471	-0.03685421
131	0xbd182ad9	-0.037150238
132	0xbd2b2e86	-0.041792415
133	0xbd3abe9a	-0.045591928
134	0x3c63645b	0.013878907
135	0x3923426c	0.00015569635
136	0xbd0de04a	-0.034637727
137	0xbcf7cccb	-0.03024902
138	0xbc99cab9	-0.018773424
139	0xbd36ce8e	-0.04463058
140	0xbc0b8a14	-0.008516807
141	0x3cfbae22	0.030722681
142	0xbc3db02f	-0.01157765
143	0x3b7b14c6	0.0038311942
144	0x3d5f2346	0.054477
145	0x3d0d499f	0.03449404
146	0xbd3d5711	-0.04622561
147	0xbb7e25e5	-0.003877991
148	0xbceed3f7	-0.029153807
149	0xbb811b42	-0.003940017
150	0x3d00ddfa	0.031461693
151	0x3d1e964c	0.038717553
152	0xbc413fea	-0.011795023
153	0x3ccd1c9c	0.025038056
154	0x3b916f6f	0.0044383327
155	0xbcb462b3	-0.02201972
156	0xbbe51dfc	-0.0069921
157	0xbcfda0f0	-0.03096053
158	0x3d203f75	0.039123017
159	0xbc51ba89	-0.012800821
160	0x3c497153	0.012295085
161	0xbd0c0ab2	-0.034189887
162	0x3cc279e7	0.023739768
163	0x3cf79149	0.030220645
164	0xbcb7ef8a	-0.022453088
165	0x3cc10e0d	0.02356627
166	0xbc78960e	-0.015172495
167	0xbcacb943	-0.021084433
168	0x3c45abc2	0.012064876
169	0x3a0c4726	0.0005351178
170	0xbc774cd3	-0.015094
171	0x3c1a794b	0.009428333
172	0x3c3558eb	0.011068563
173	0xbd2e240c	-0.042514846
174	0xbd0684fc	-0.032841668
175	0xbc385515	-0.011250754
176	0xbd206739	-0.03916094
177	0xbc8a0ab2	-0.016850803
178	0xbb9dc033	-0.0048141717
179	0x3d0bb72e	0.03411024
180	0x3ca87b5b	0.020566633
181	0xbc2628b1	-0.0101415375
182	0xbbd2b7a4	-0.006430583
183	0xbcccc8e0	-0.024998128
184	0x3c38d259	0.01128062
185	0xbc5436e7	-0.012952543
186	0x3c92a26d	0.017899716
187	0xbcfb28b9	-0.030659067
188	0xbd210901	-0.039315227
189	0xbc6d16c5	-0.014470761
190	0xbb81d189	-0.003961746
191	0x3cf81fbc	0.03028857
192	0xbbc81cdd	-0.0061069564
193	0xbd0b3954	-0.03399022
194	0x3cc29082	0.023750547
195	0x3c9b015f	0.018921552
196	0xbb25a256	-0.0025273762
197	0xba3b859b	-0.00071533927
198	0xbd2cd657	-0.042196598
199	0x3cfcac28	0.03084381
200	0x3c0fadac	0.008769434
201	0xb736fc96	-1.0906855e-05
202	0x39fa1753	0.00047701094
203	0xbc81efcc	-0.015861414
204	0x3c71b5b4	0.014752794
205	0x3c258a1e	0.0101037305
206	0x3caf7224	0.021416731
207	0x3d13b596	0.036061846
208	0xbc473582	-0.012158753
209	0xbc055296	-0.008137366
210	0x3d053e96	0.03253039
211	0x3d1d231b	0.038363557
212	0xbc9afc6d	-0.018919194
213	0x3c16b193	0.00919761
214	0xbcedc3d5	-0.029024044
215	0x3d2546b0	0.040350616
216	0x3c865c16	0.016401332
217	0xbd11c733	-0.03559036
218	0x3b2649c9	0.002537357
219	0xbd043ed6	-0.032286488
220	0xbbcd1998	-0.0062591545
221	0xbcf3fad9	-0.0297827
222	0x3cc170e9	0.02361341
223	0x3cb86620	0.022509634
224	0xbcd9e075	-0.026596287
225	0xbb622364	-0.0034505958
226	0x3b355dd5	0.0027674336
227	0x3b6db3d5	0.0036270518
228	0x3c1e12c7	0.009648032
229	0x3d2473b6	0.040149413
230	0xbcba698f	-0.022755412
231	0xbc97f7db	-0.018550804
232	0x3c26ca10	0.010180011
233	0x3d244bcb	0.040111344
234	0xbc0fa899	-0.008768224
235	0x3d0f451e	0.034978025
236	0x3cd1418d	0.025543952
237	0xbd3f865d	-0.046759
238	0xbbf24566	-0.007393527
239	0xbcb36bdb	-0.021902015
240	0xbae1904f	-0.0017209145
241	0xbb9f8253	-0.004867831
242	0x3c1eeb53	0.00969966
243	0xbc82f436	-0.01598559
244	0x3d5092b6	0.050921164
245	0x3ae5daad	0.0017536484
246	0xbc599d51	-0.013282136
247	0x3cf349d4	0.02969829
248	0xbc3c436a	-0.011490682
249	0xbd023075	-0.031784493
250	0x3ba35211	0.0049841483
251	0xbc671abc	-0.014105495
252	0xbd16dbbd	-0.036830653
253	0xbcc6300e	-0.024192836
254	0x3d2be8ed	0.041970182
255	0xbd21f517	-0.039540377

fc2.weight f4 [128, 256]
0	0xbc375f0a	-0.011192093
1	0xbd74105b	-0.05958591
2	0x3c137cde	0.009001939
3	0xbcc1827f	-0.023621796
4	0x3d3e3c12	0.046444006
5	0x3d356666	0.044287108
6	0x3ca9f0ea	0.02074476
7	0xbd50124e	-0.050798707
8	0xbaf477f3	-0.001865147
9	0xbc642522	-0.013924869
10	0x3d6ddc6e	0.058071546
11	0x3d7253a6	0.059161805
12	0x3c7887a4	0.015169058
13	0xbca6c89e	-0.020359334
14	0x3c1c7941	0.009550394
15	0x3d5ba346	0.053622507
16	0x3cb1d676	0.021708708
17	0xbcea5409	-0.028604524
18	0x3ccc4402	0.024934772
19	0x3cebf862	0.028804962
20	0x3c1eaace	0.009684278
21	0xbbb84d67	-0.0056244615
22	0x3d6b0326	0.05737605
23	0x3d18f6fe	0.037344925
24	0xbbe327c6	-0.0069322316
25	0x3bfb3493	0.0076661794
26	0x3c2819b7	0.010260037
27	0x3d1589f5	0.03650852
28	0x3ce34fca	0.027748007
29	0x3d079ffc	0.033111557
30	0x3d41dcbb	0.047329646
31	0x3d77f33b	0.060534697
32	0xbb9da2cc	-0.0048106667
33	0x3cba9e69	0.022780614
34	0x3c240aa4	0.010012303
35	0xbcad66cc	-0.021167181
36	0x3d0e5173	0.034745645
37	0x3cb328fe	0.021870133
38	0x3c8a42b0	0.016877502
39	0xbd134f9e	-0.0359646
40	0x3d08f355	0.033435185
41	0x3bf25960	0.0073959082
42	0x3d80c54a	0.0628763
43	0xbc1584f2	-0.009125935
44	0xbd1565ea	-0.036474146
45	0xbd10fcec	-0.035397455
46	0x3ccee4f3	0.025255656
47	0xbcfb0809	-0.03064348
48	0x3d147d60	0.03625238
49	0x3d26a77a	0.04068706
50	0x3ba2af6f	0.004964761
51	0x3ca0f2b3	0.019646978
52	0x3c242b96	0.010020157
53	0xbd0a6167	-0.033784296
54	0x3cbe4179	0.02322458
55	0xbcc7a0ca	-0.024368662
56	0xbc395873	-0.011312592
57	0xbcf79aae	-0.030225124
58	0xbd0dbec8	-0.03460577
59	0x3ce4b2d1	0.027917298
60	0x3c955f65	0.018233964
61	0x3ceba7da	0.028766561
62	0x3d4fe690	0.05075699
63	0x3d7e4d8f	0.062085684
64	0x3cc347ac	0.023837887
65	0x3cef8ab2	0.02924094
66	0x3cf92fc6	0.030418288
67	0x3bf0b6d0	0.0073460117
68	0x3d41e423	0.04733671
69	0x3d43894e	0.047738366
70	0x3cbda794	0.023151197
71	0xbd71d2b3	-0.05903883
72	0x3d3e12ad	0.04640453
73	0x3d18b5b0	0.037282646
74	0x3cf265c8	0.029589549
75	0x3d3929ef	0.045206007
76	0x3ca74f65	0.0204236
77	0xbc12f8e7	-0.008970476
78	0xbca230b6	-0.019798618
79	0x3c5516ce	0.013005925
80	0x3d21575f	0.039389964
81	0x3d5779da	0.05260644
82	0xbd074d45	-0.033032674
83	0xbcb83082	-0.022484068
84	0x3d54f9b8	0.051995963
85	0x3cc0c649	0.02353205
86	0xbcbd11fc	-0.023079865
87	0x3bc59d8a	0.006030743
88	0x3cf71978	0.030163512
89	0x3cdeb07e	0.027183767
90	0x3a072480	0.000515528
91	0x3bb82027	0.0056190672
92	0xbcb0dbf3	-0.021589255
93	0xbcc96d7c	-0.024588339
94	0x3cb4c13b	0.022064796
95	0xbca5c3da	-0.02023499
96	0x3c85ceea	0.016334016
97	0xbd3a22e9	-0.04544345
98	0x3d0baedb	0.034102302
99	0x3d584745	0.052802343
100	0xbc9eda00	-0.01939106
101	0x3d2a720d	0.041612674
102	0xbc76c946	-0.015062636
103	0xbc92bab8	-0.0179113
104	0x3cfd61cf	0.030930428
105	0x3c801484	0.015634783
106	0x3be326ba	0.006932107
107	0x3d271a91	0.04079682
108	0x3d009e36	0.03140088
109	0x3c820fff	0.015876768
110	0xbd121e55	-0.035673458
111	0xbbb69772	-0.005572253
112	0xbc49ad66	-0.012309408
113	0xbd18f2ee	-0.03734105
114	0xbc52e655	-0.012872298
115	0xbcf806e6	-0.030276727
116	0xbd19fb99	-0.037593458
117	0x3d3f9eb0	0.046782196
118	0xbadcca0e	-0.0016844885
119	0xbb4474c4	-0.0029976824
120	0xbc70731d	-0.014675883
121	0xbcd14093	-0.025543487
122	0xbd5445a5	-0.05182423
123	0xbc334598	-0.010941885
124	0xbc4e6ed0	-0.012599662
125	0xb9e49fa2	-0.00043606485
126	0xbcdf8a70	-0.027287692
127	0x3cccc283	0.024995094
128	0x3d403bcc	0.046932027
129	0x3ab91f88	0.0014123777
130	0xbb7b4070	-0.0038337968
131	0x3d4e729e	0.050402276
132	0xba8fe2c0	-0.0010977611
133	0xbccf4192	-0.025299821
134	0x3d2ec58e	0.04266887
135	0xbd1c82cb	-0.03821067
136	0x3d572867	0.052528765
137	0xbd29beb2	-0.041441627
138	0x3d0170d7	0.031601753
139	0x3d6a97b5	0.057273585
140	0xbc35a793	-0.011087316
141	0xbd1bb4ea	-0.03801433
142	0xbce87c48	-0.028379574
143	0x3bc428a5	0.0059862905
144	0x3d5aa890	0.05338341
145	0x3d42760a	0.047475852
146	0x3d387f1c	0.045043096
147	0xbab584e8	-0.0013848813
148	0x3ccae486	0.024767172
149	0xbca43fa5	-0.02004988
150	0x3c35bf14	0.01109292
151	0x3cb04191	0.02151564
152	0xbcb3bd0f	-0.021940736
153	0x3c88fbf3	0.016721701
154	0xbd4f801c	-0.050659284
155	0xbc414e00	-0.011798382
156	0xbc9fc3fe	-0.019502636
157	0x3d799183	0.060929786
158	0x3c0bef0d	0.008540881
159	0xbd5b545e	-0.053547256
160	0x3d192988	0.037393123
161	0xba59f55d	-0.0008314455
162	0xbd0dfd39	-0.03466532
163	0xbd334087	-0.04376271
164	0x3d34f145	0.044175405
165	0x3c8eb6c5	0.017421136
166	0xbb59479e	-0.003315426
167	0xbbb4269a	-0.0054977657
168	0xbd09ae83	-0.033613693
169	0xbb1f1ba3	-0.0024277947
170	0xbc9a53b4	-0.01883874
171	0x3d83cb53	0.064352654
172	0xbd3cd7fd	-0.04610442
173	0x3d05680e	0.032569937
174	0x3ce38543	0.027773505
175	0x3d40091f	0.0468837
176	0x3ce6e116	0.028183501
177	0x3d8174de	0.06321119
178	0xbd03af71	-0.032149736
179	0xbd16446d	-0.03668635
180	0xbc9e87e6	-0.01935191
181	0x3d6b652b	0.05746953
182	0x3cca9e70	0.024733752
183	0xbd326129	-0.04354969
184	0xbd58b593	-0.052907538
185	0xbcd6294d	-0.02614274
186	0xbc4d8fbf	-0.012546479
187	0xbd60eff5	-0.05491634
188	0x3cf54512	0.029940162
189	0xbb0bbea6	-0.0021323352
190	0x3d501f2c	0.050810978
191	0x3d62b006	0.05534365
192	0xbcc3d025	-0.023902962
193	0x3d61da51	0.055139843
194	0x3d0ab9f2	0.033868738
195	0xbc36a164	-0.011146877
196	0x3d08f65f	0.033438083
197	0x3d3878bb	0.045037013
198	0x3d69dc34	0.057094768
199	0xbcc2b630	-0.023768514
200	0x3d06cb29	0.032908592
201	0x3cc80884	0.024418123
202	0x3d36e21f	0.04464924
203	0x3a874bf0	0.0010322314
204	0x3d1b0245	0.03784396
205	0x3beab0e8	0.007162202
206	0xbd0ccff7	-0.03437802
207	0xbccc9bc2	-0.024976615
208	0x3cf6fa74	0.030148722
209	0xbd52eece	-0.051497273
210	0x3d550c45	0.052013654
211	0x3d39a82a	0.04532639
212	0x3c089140	0.008335412
213	0xbd0ea1a4	-0.03482212
214	0xbd3962ae	-0.045260124
215	0xbd2a1f18	-0.04153356
216	0x3d083430	0.033252895
217	0xbbfef964	-0.0077811945
218	0x3b98b90f	0.0046607326
219	0xbc52d54b	-0.012868236
220	0xbc4fff91	-0.012695209
221	0x3d54046e	0.051762037
222	0xbb85c974	-0.004082853
223	0xbcce5178	-0.025185332
224	0x3d883602	0.06650926
225	0x3ca70940	0.020390153
226	0x3c18f48a	0.009335646
227	0xbd104bdb	-0.03522859
228	0x3cc5f45f	0.024164377
229	0xbc44841b	-0.011994387
230	0xbd2586c4	-0.040411726
231	0xbbfb7d49	-0.0076748473
232	0xbd37076c	-0.044684812
233	0x3d1520c3	0.036408197
234	0x3c871566	0.016489696
235	0xbb7c7278	-0.0038520377
236	0xbbe93cc6	-0.0071178405
237	0xbbd616c4	-0.0065334756
238	0xbc16e06b	-0.009208779
239	0x3caa207a	0.02076744
240	0xbc8f7b3b	-0.017514816
241	0x3d6ddbfe	0.05807113
242	0xbd1e70c9	-0.03868178
243	0xbd0e374d	-0.034720708
244	0xb906bb75	-0.00012849069
245	0x3cca2f50	0.024680763
246	0x3cae3afa	0.021268357
247	0x3d204c92	0.039135523
248	0x3d0a99d8	0.033838123
249	0xbd0bdb36	-0.034144603
250	0xbcb3b041	-0.02193463
251	0xbcf01ca3	-0.02931053
252	0xbbf84dd0	-0.0075776353
253	0x3ceff8cb	0.029293438
254	0x3d595510	0.053059638
255	0xbd1b4225	-0.037904877

fc2.bias f4 [128]
0	0xbc9e4b2b	-0.019322952
1	0xbd8a5ed7	-0.067563705
2	0x3c82e6c8	0.015979186
3	0x3d72222d	0.059114624
4	0xbc8b2201	-0.016983988
5	0x3d13eb3d	0.036113013
6	0x3cd82502	0.026384834
7	0xbc59b5cd	-0.013287974
8	0x3d48fcd9	0.04906926
9	0xbd506792	-0.050880022
10	0x3c9e7350	0.019342095
11	0x3d7fae95	0.062422354
12	0x3cc3c605	0.023898134
13	0x3d05f815	0.032707293
14	0xbd458ec6	-0.048231862
15	0xbc7cf79d	-0.015439895
16	0xbd3b7a7c	-0.045771107
17	0xbd62a086	-0.05532887
18	0xbd543cf9	-0.05181596
19	0x3bea3605	0.007147553
20	0xbd0dfc56	-0.034664474
21	0xbcb57d6c	-0.022154532
22	0xbd1ed5de	-0.03877818
23	0xbd223734	-0.039603427
24	0xbcde5848	-0.027141705
25	0x3d28c79c	0.041205987
26	0xbd850d01	-0.06496621
27	0xbd0d9529	-0.03456608
28	0x3c59cd6c	0.013293605
29	0xbd473be2	-0.048641093
30	0xbc9c776a	-0.01909991
31	0xbd2953f3	-0.041339826
32	0x3d1e8834	0.038704112
33	0xbc5f3cad	-0.013625306
34	0xbcfd12e5	-0.030892799
35	0x3bf75b53	0.0075487285
36	0xbd1dd82f	-0.038536247
37	0xba56c156	-0.00081922614
38	0xbd04ed53	-0.032452893
39	0xbcdcf9e6	-0.02697463
40	0xbd719da1	-0.058988217
41	0xbd571d2a	-0.052518047
42	0x3d5b30dc	0.053513393
43	0x3d18ed71	0.037335817
44	0xbd7c46cb	-0.06159095
45	0x3c57b29d	0.013165143
46	0x3d5ce646	0.053930543
47	0xbd20a2d3	-0.03921778
48	0xbd736f52	-0.059432335
49	0x3c9157ae	0.017742004
50	0x3d238597	0.039922323
51	0xbc0a066f	-0.008424385
52	0x3c9f4608	0.019442573
53	0x3d59717e	0.05308675
54	0xbd8ace66	-0.06777649
55	0x3d12e5f3	0.035863828
56	0xbd169628	-0.036764294
57	0x3d50d001	0.050979618
58	0xbcad431c	-0.021150164
59	0x3c9d4eb9	0.019202577
60	0xbd3a1f95	-0.045440275
61	0xbd7f5364	-0.062335387
62	0xbd5860ee	-0.052826814
63	0x3d2d9481	0.042377952
64	0xbd39acdc	-0.045330867
65	0xbb29beeb	-0.002590115
66	0xbc389e13	-0.011268157
67	0x3b60f48f	0.0034325456
68	0x3d357e8f	0.04431015
69	0xbcadbb89	-0.021207588
70	0xbd65a81a	-0.056068517
71	0xbba11f6b	-0.0049170754
72	0x3c83db11	0.01609567
73	0xbd7feb7b	-0.06248043
74	0xbb1a76c7	-0.0023569332
75	0xbd00d551	-0.031453434
76	0x3dbafadb	0.09129878
77	0x3c7fab28	0.015604772
78	0xbbbc330f	-0.0057433913
79	0x3d59a58d	0.053136397
80	0x3cf652e0	0.030068815
81	0x3d5b7ded	0.05358689
82	0x3b73d987	0.0037208514
83	0xbd382ff5	-0.04496761
84	0x3bfd402e	0.007728598
85	0x3d1e616e	0.038667135
86	0x3ccef203	0.025261885
87	0xbd062a09	-0.03275493
88	0xbb944234	-0.0045244936
89	0x3ced044e	0.028932717
90	0xbc90dc95	-0.017683307
91	0x3d80932c	0.06278071
92	0x3d516306	0.051119827
93	0x3c6c05ca	0.014405677
94	0x3d3dd055	0.04634126
95	0xbd833249	-0.064060755
96	0xbcba2bee	-0.022726025
97	0x3d95586a	0.07292254
98	0xbbb2eea3	-0.0054605766
99	0x3a5abe7d	0.0008344425
100	0xbc8a6636	-0.016894441
101	0x3d3775d4	0.044790104
102	0x3c83b95e	0.0160796
103	0x3d577c53	0.0526088
104	0x3d345fc3	0.044036638
105	0x3c85cf6d	0.01633426
106	0xbbfde66f	-0.007748417
107	0x3bafe54a	0.0053679096
108	0xbd34e4c5	-0.044163484
109	0xbc27bbed	-0.010237676
110	0x3d6a1ab0	0.057154357
111	0xbce6baab	-0.028165182
112	0x3c04a4cc	0.008095931
113	0xbc59c50b	-0.013291608
114	0xbc7ba4b5	-0.015359093
115	0xbd36d29d	-0.04463445
116	0xbca11ede	-0.019668039
117	0x3c3f6c47	0.01168353
118	0xbd51527b	-0.05110405
119	0x3c482a49	0.012217113
120	0x3d42c652	0.047552414
121	0xbd159ade	-0.036524646
122	0x3cfa3f2a	0.030547697
123	0x3c884c6d	0.016638005
124	0x3d4c4d33	0.04987831
125	0x3d1eb6c3	0.038748514
126	0xbc9c5ed0	-0.019088179
127	0x3cc4ecde	0.024038728

fc3.weight f4 [64, 128]
0	0xbcbc3a91	-0.022977145
1	0xbd23fd2f	-0.040036377
2	0xbd0245a9	-0.031804714
3	0xbd1d9436	-0.038471423
4	0x3d430879	0.047615502
5	0x3d955728	0.07292014
6	0x3cfdce1e	0.030982073
7	0xbda257c3	-0.079268955
8	0x3b07e1bf	0.002073392
9	0x3cd6133e	0.026132222
10	0xbd0b3445	-0.033985395
11	0x3c4d6844	0.012537066
12	0xbd9dced9	-0.07705469
13	0xbc07c135	-0.00828581
14	0x3d1a17ca	0.037620343
15	0xbcbe08a5	-0.023197481
16	0x3d5deca2	0.05418075
17	0x3bf49858	0.00746445
18	0xbcef9b7e	-0.02924895
19	0xbc6bd06f	-0.014392956
20	0x3d2832cb	0.041064065
21	0x3d2285c1	0.03967834
22	0x3d6388e8	0.055550486
23	0x3d9b5958	0.075854
24	0xbd3da013	-0.046295237
25	0xbd9ea999	-0.07747192
26	0x3d577321	0.05260003
27	0xbbfebe10	-0.007774122
28	0x3ae771f9	0.0017657868
29	0xbdbca23a	-0.0921063
30	0xbd96bca1	-0.07360197
31	0xbd90788d	-0.07054243
32	0xbda7c2f9	-0.08191485
33	0xbc3d7e10	-0.0115657
34	0xbd349552	-0.044087715
35	0x3d92c093	0.07165637
36	0xbb8004b2	-0.0039068097
37	0xbd54265b	-0.05179439
38	0x3d8540dc	0.065065116
39	0xbc98e55e	-0.018664058
40	0x3c69ae7c	0.014262792
41	0x3d4bfacc	0.049799725
42	0xbca458d7	-0.020061893
43	0x3b94c680	0.0045402646
44	0xba3b8f12	-0.0007154803
45	0x3d720f86	0.059096836
46	0xbd493160	-0.049119353
47	0x3d163fc8	0.03668192
48	0x3b98d8e4	0.0046645273
49	0xbd98c9ec	-0.074603885
50	0x3d9c1a3f	0.076221935
51	0xbda27f3b	-0.079344235
52	0xbd732ffc	-0.059371933
53	0xbdb17e08	-0.08666617
54	0xbcd3d968	-0.025860503
55	0xbd9a2cb8	-0.07528061
56	0x3d70cd81	0.058789734
57	0xbd556d82	-0.052106388
58	0x3d806915	0.06270043
59	0xbc49bec6	-0.01231355
60	0xbcd38df1	-0.025824519
61	0x3bdbd7c9	0.006709073
62	0x3c0fbcac	0.00877301
63	0x3d218818	0.03943643
64	0xbbec7af4	-0.0072168056
65	0xbc353123	-0.011059078
66	0x3d7e89f1	0.06214327
67	0xbdaae77a	-0.08344932
68	0x3d837256	0.06418292
69	0x3ce9cc34	0.028539754
70	0x3d30ba3a	0.04314635
71	0xbd3eb922	-0.046563275
72	0xbd243e5e	-0.04009854
73	0xbd9e267f	-0.07722186
74	0x3d593a4d	0.053034116
75	0x3c31474d	0.010820222
76	0xbc6a0e39	-0.0142856175
77	0x3d0b91c0	0.034074545
78	0x3d99656e	0.07490049
79	0x3ca69deb	0.020338973
80	0xbda5cfda	-0.08096285
81	0xbd6cee7a	-0.057844616
82	0xbc5a7304	-0.013333086
83	0xbd3e3918	-0.046441168
84	0x3d5453a3	0.051837575
85	0x3d11526b	0.03547899
86	0xbda9bcc7	-0.082879595
87	0x3d283322	0.04106439
88	0xbceba2e7	-0.028764201
89	0x3d3e7f25	0.046507973
90	0xbd2047e9	-0.03913108
91	0xbd87c436	-0.06629221
92	0xbd989ca2	-0.0745175
93	0xbd09745c	-0.033558235
94	0x3d47ce33	0.04878063
95	0xbbb08a2a	-0.005387564
96	0xbcb0b545	-0.021570811
97	0xbce436ba	-0.027858127
98	0xbdb2f7c7	-0.08738666
99	0x3d729f88	0.059234172
100	0x3d294d6b	0.041333597
101	0xbd72ef26	-0.0593101
102	0xbd9394df	-0.07206129
103	0xbcddf3b4	-0.027093746
104	0x3da54ea9	0.08071644
105	0xbd48e65e	-0.04904782
106	0x3d801f15	0.062559284
107	0x3d623314	0.055224493
108	0xbd174042	-0.036926515
109	0xbbfdd4c7	-0.0077463123
110	0xbd8aceed	-0.06777749
111	0x3d246d72	0.040143438
112	0xbc2c66fb	-0.010522599
113	0x3c40bdd1	0.011764006
114	0xbcfff06a	-0.031242568
115	0x3cebae1e	0.028769549
116	0xbcbe8251	-0.0232555
117	0x3ca98d96	0.020697396
118	0xbd2c28b4	-0.042031005
119	0x3d9082f6	0.07056229
120	0xbda03ffc	-0.07824704
121	0x3c666b05	0.014063601
122	0x3a28fb51	0.00064461405
123	0x3c659db0	0.014014646
124	0xbdbcf4d6	-0.09226386
125	0x3d94bacc	0.07262191
126	0xbd01eaec	-0.03171818
127	0xbd83e137	-0.06439441
128	0xbcf81269	-0.030282216
129	0xbdabb4d5	-0.083841
130	0xbc3cdc89	-0.011527189
131	0x3cfba483	0.030718094
132	0x3d9ec2e6	0.07752018
133	0x3d33168e	0.04372268
134	0x3c37bf77	0.011215082
135	0x3cdbf217	0.026848836
136	0xbd0d39e6	-0.034479044
137	0x3b927b59	0.0044702706
138	0xbd0c9d26	-0.034329556
139	0xbd29c198	-0.04144439
140	0x3bc510a1	0.006013945
141	0x3d9d8319	0.076910205
142	0xbca0aead	-0.019614542
143	0x3d879698	0.0662052
144	0xbc9bd19d	-0.01902085
145	0x3db01482	0.085976616
146	0x3d6ae728	0.057349354
147	0xbbb042f5	-0.0053790757
148	0x3d138e5a	0.03602443
149	0xbdab1e1b	-0.083553515
150	0x3cadc3ef	0.021211592
151	0xbdacd8f5	-0.08439819
152	0x3cb161fd	0.02165317
153	0x3d9bb77c	0.07603356
154	0x3d8885e0	0.0666616
155	0xbda9fd00	-0.08300209
156	0xbdae9914	-0.08525291
157	0xbd986f9a	-0.07443161
158	0x3d95743e	0.07297562
159	0x3da97aae	0.082753524
160	0x3c89da95	0.01682786
161	0x3d9645fb	0.073375665
162	0x3d7f5dcd	0.062345315
163	0x3d1aeb90	0.037822306
164	0xbce93865	-0.028469274
165	0xbdbff9d1	-0.093738206
166	0x3c8d39ab	0.017239412
167	0xbdb5638a	-0.08856876
168	0x3d82a497	0.06379049
169	0x3aeb5888	0.0017955462
170	0x3cdd0fc1	0.026985051
171	0x3d817c1b	0.06322499
172	0x3d991ca1	0.07476164
173	0xbd9522b6	-0.07282011
174	0xbc951da1	-0.018202605
175	0x3b04ff85	0.0020293903
176	0xbcd9c4f4	-0.026583172
177	0xbc261959	-0.010137879
178	0xbd11abcf	-0.03556424
179	0x3d4a3141	0.04936338
180	0x3d0a7b8d	0.033809233
181	0xbd684e1a	-0.05671511
182	0xbd5e0119	-0.054200266
183	0xbc9ffafe	-0.019528862
184	0xbca2502b	-0.019813618
185	0xbd299c9c	-0.04140912
186	0xbd03d562	-0.03218592
187	0xbce4c024	-0.027923651
188	0x3c13d751	0.009023503
189	0xbd8b071f	-0.067884676
190	0xbd1ad804	-0.037803665
191	0x3d054f16	0.032546125
192	0x3d3a0ffc	0.0454254
193	0x3cf3ce9a	0.029761601
194	0xbceba974	-0.028767325
195	0xbda1fe7b	-0.079098664
196	0x3da5c01c	0.080932826
197	0xbd489375	-0.04896875
198	0xbdba51ac	-0.09097609
199	0xbd72615f	-0.05917489
200	0x3d740471	0.05957455
201	0x3d1cd391	0.038287703
202	0x3da1f4eb	0.079080425
203	0x3d31e115	0.043427546
204	0xbd4069d5	-0.04697593
205	0x3d4b4dcf	0.04963475
206	0xbd171f8d	-0.036895324
207	0x3c3bba3f	0.011457979
208	0x3d537a22	0.051630147
209	0xbd52db0f	-0.05147844
210	0xbdb31ee1	-0.08746124
211	0x3d9d2124	0.07672337
212	0x3d9ffb08	0.07811552
213	0xbcd3d729	-0.025859432
214	0x39d8826a	0.00041295897
215	0x3da6d294	0.08145633
216	0xbc37f16d	-0.011226994
217	0xbd2759d6	-0.04085716
218	0x3d90d49c	0.07071802
219	0xbd7926e0	-0.06082809
220	0xbd48c12a	-0.04901234
221	0xbcf9363d	-0.03042137
222	0xbb886ca9	-0.004163344
223	0x3d5ac805	0.05341341
224	0x3d872c85	0.06600288
225	0xbcf61fa6	-0.030044388
226	0xbd1daa5c	-0.038492545
227	0x3da3caf8	0.079976976
228	0x3c494ff8	0.012287132
229	0xbd93927c	-0.07205674
230	0xbd9b90e6	-0.075959966
231	0xbd12f4a7	-0.03587785
232	0x3d08e8bf	0.03342509
233	0x3d2de4fc	0.042454705
234	0x3d95e7d3	0.073196076
235	0x3cf7f078	0.030266032
236	0xbdb6b15c	-0.08920547
237	0xbd4c9512	-0.049946852
238	0x3d31dae1	0.04342163
239	0x3c95f3cd	0.01830473
240	0x3bea85f2	0.007157081
241	0x3d1bbd89	0.03802255
242	0x3d536d9f	0.051618215
243	0xbd9b7f42	-0.07592632
244	0xbc230745	-0.009950464
245	0xbc9a1eb6	-0.018813472
246	0x3cca8518	0.024721667
247	0x3d647d5b	0.05578361
248	0x3d0d4018	0.034484953
249	0xbd8c9d20	-0.06865907
250	0xbd8b18e2	-0.067918554
251	0xbd6eea26	-0.05832877
252	0xbc84404c	-0.01614394
253	0x3cfd9634	0.030955411
254	0x3cf9d7a3	0.030498331
255	0xbd0ef92c	-0.034905598

fc3.bias f4 [64]
0	0x3d3c2779	0.04593608
1	0x3d802227	0.06256514
2	0xbd4e0dc0	-0.05030608
3	0xbce3f5f2	-0.027827237
4	0xbc64ef4d	-0.013973069
5	0x3da85757	0.08219784
6	0x3cb6d281	0.022317173
7	0xbdd1b860	-0.10240245
8	0xbd445aeb	-0.04793827
9	0xbd4fe780	-0.050757885
10	0xbd44f072	-0.04808087
11	0xbd0802d2	-0.033205815
12	0x3cbabc6d	0.022794927
13	0xbd15c21e	-0.036562078
14	0x3bbb8be5	0.005723464
15	0x3d0aeee5	0.033919234
16	0x3d2e1ed1	0.042509858
17	0xbd380d88	-0.04493478
18	0xbc723776	-0.014783731
19	0x3c8b533b	0.01700746
20	0xbd8668bd	-0.06562946
21	0x3d02adbc	0.031903967
22	0xbd784ab9	-0.060618136
23	0x3c4994e3	0.012303564
24	0x3d59bcc3	0.053158533
25	0xbdaf7875	-0.08567897
26	0xbd0af57b	-0.033925515
27	0xbc59cc40	-0.013293326
28	0xbd803f34	-0.06262055
29	0x3d492d81	0.04911566
30	0xbd42b724	-0.047537938
31	0xbd717e79	-0.058958504
32	0xbd10d5e7	-0.035360243
33	0xbd600c2d	-0.05469911
34	0x3b1a2180	0.0023518503
35	0x3d2e7c93	0.042599272
36	0xbd936edf	-0.07198881
37	0x3d2574ba	0.040394522
38	0xbda18c47	-0.07888084
39	0xbd864fff	-0.06558227
40	0xbca0404f	-0.019561915
41	0xbdb46a3c	-0.08809325
42	0xbd94df14	-0.07269111
43	0xbcf34196	-0.02969436
44	0xbd26c221	-0.04071248
45	0x3da0ffcc	0.078612894
46	0x3c6e1f13	0.014533776
47	0xbd8a0d15	-0.067407764
48	0x3d4fa573	0.050694894
49	0x3d94a75c	0.07258484
50	0x3b2b9e38	0.0026186835
51	0x3d801484	0.06253913
52	0xbd7da7ef	-0.061927732
53	0xbd95ca68	-0.073139966
54	0xbda4600d	-0.08026133
55	0x3d9d019a	0.07666321
56	0x3cb8d30b	0.02256157
57	0xbd707bce	-0.05871182
58	0x3d54ba89	0.051935706
59	0x3b3d15a3	0.0028852008
60	0xbd725217	-0.05916032
61	0xbd57f50d	-0.052723933
62	0xbcfc6a0a	-0.030812282
63	0xbd5c559e	-0.05379259

fc4.weight f4 [32, 64]
0	0x3c6adcd2	0.014334874
1	0x3df0b3e9	0.11753065
2	0x3d12443f	0.035709616
3	0x3d46b02f	0.048507866
4	0xbd0a7696	-0.0338045
5	0xbd7c5432	-0.061603732
6	0xbcde9c19	-0.027174043
7	0xbdfa3c3a	-0.122185186
8	0x3ceb4640	0.028720021
9	0x3d48368d	0.04888015
10	0xbdc21ba1	-0.09477926
11	0xbd1bcc5e	-0.038036697
12	0xbd2eb3c1	-0.042651895
13	0xbc7cf53d	-0.015439329
14	0xbbd26a7b	-0.006421385
15	0x3c950535	0.01819096
16	0xbd98f643	-0.07468846
17	0x3cec7b28	0.02886732
18	0xbd2411ca	-0.040056027
19	0x3d809dbe	0.06280087
20	0x3c68053b	0.014161403
21	0xbc9fe58f	-0.019518642
22	0xbca360d5	-0.019943634
23	0x3ba70264	0.0050967205
24	0xbde90545	-0.11377958
25	0x3cbdda58	0.023175403
26	0xbde8b2bf	-0.11362218
27	0x3dda34ee	0.10654627
28	0xbdc416d8	-0.095746696
29	0x3d078e4f	0.0330947
30	0xbd311f69	-0.043242846
31	0x3d708661	0.058721904
32	0xbc5bcb6b	-0.013415198
33	0x3ce9b4e8	0.028528646
34	0xbde775c8	-0.11301762
35	0xbd25567f	-0.040365692
36	0xbde83fd6	-0.11340301
37	0xbd9f835e	-0.07788728
38	0x3dcfe461	0.10150982
39	0xbd979ffd	-0.07403562
40	0xbd56f14d	-0.052476216
41	0xbe03e40d	-0.12879963
42	0xbd9826ea	-0.07429297
43	0x3def6f7d	0.116911866
44	0x3c3e2135	0.011604597
45	0x3defe2d7	0.11713188
46	0xbd94ae10	-0.07259762
47	0xbd2e8426	-0.042606495
48	0xbd85c8b3	-0.06532421
49	0xbddcd237	-0.10782283
50	0xbd855df1	-0.065120585
51	0xbdbc803b	-0.092041455
52	0x3de90551	0.11377967
53	0xbd9ed3db	-0.07755252
54	0xbc35b45b	-0.011090363
55	0x3db31e0b	0.087459646
56	0xbd6530ad	-0.055954624
57	0xbccb6444	-0.024828084
58	0xbdbae5df	-0.09125876
59	0xbcdf40ea	-0.027252633
60	0xbd808a3d	-0.06276367
61	0xbda6627b	-0.081242524
62	0x3d6377f1	0.055534307
63	0x3d982ee6	0.0743082
64	0x3d861bd8	0.065482795
65	0x3b937d41	0.0045010154
66	0xbdec67c0	-0.11543226
67	0xbddbfa6d	-0.10741124
68	0xbdd0b02f	-0.10189854
69	0xbd40f78e	-0.047111087
70	0x3d8a55e5	0.06754664
71	0x3c16871e	0.009187488
72	0x3d77cbff	0.06049728
73	0x3dc06128	0.09393531
74	0x3d97e742	0.07417156
75	0xbda8d0c1	-0.08242942
76	0x3c09b89a	0.008405829
77	0xbda103b9	-0.07862038
78	0x3df51d2d	0.119684555
79	0x3b84fda9	0.004058559
80	0xbd0b2d66	-0.033978842
81	0x3d24391a	0.04009352
82	0x3c50fcc1	0.012755574
83	0x3cb3f62d	0.021967972
84	0xbd89cdec	-0.067287296
85	0x3de02aa0	0.1094563
86	0xbde0d5be	-0.10978268
87	0x3cef2f49	0.029197352
88	0x3d5b36c3	0.05351902
89	0xbcfdd614	-0.03098587
90	0x3dccdad3	0.10002675
91	0x3db11bb1	0.0864786
92	0x3b705e52	0.0036677313
93	0x3dc0cf41	0.094145305
94	0xbbf11ff1	-0.007358544
95	0xbcaa84cc	-0.020815276
96	0x3d972d85	0.07381729
97	0xbdc4875b	-0.095961295
98	0x3c390b0d	0.011294139
99	0x3d878021	0.066162355
100	0x3d11bb6b	0.035579126
101	0xbdac6c9f	-0.08419155
102	0x3c850407	0.016237272
103	0x3ab1548b	0.0013529224
104	0x3cf787b4	0.030216075
105	0x3ddf87ca	0.109145716
106	0xbd883b4e	-0.066519365
107	0xbd4bb5d9	-0.04973397
108	0xbd74b525	-0.059743065
109	0x3cbc5106	0.022987854
110	0xbb67dc7e	-0.0035379226
111	0xbdab19c7	-0.08354526
112	0x3d6b2471	0.0574078
113	0xbd4798de	-0.04872977
114	0x3d0db140	0.034592867
115	0x3daa9eae	0.08331047
116	0x3deecf51	0.11660636
117	0x3cd8c3d9	0.026460575
118	0xbdc73d4d	-0.09728489
119	0x3d531240	0.051531076
120	0xbd1f728d	-0.038927604
121	0x3af0707a	0.0018344068
122	0x3d8b8660	0.06812739
123	0x3dc1cb99	0.09462661
124	0x3d0505c5	0.032476205
125	0xbb745413	-0.0037281557
126	0xbdb900d1	-0.09033359
127	0x3daf72d5	0.08566824
128	0xbc8e9b4f	-0.017408041
129	0xbc19947d	-0.009373781
130	0xbddafb95	-0.10692517
131	0xbc3d4899	-0.011552953
132	0xbda646db	-0.08118983
133	0xbdd97f85	-0.106200255
134	0xbd44b846	-0.0480273
135	0x3d5b5f2d	0.053557564
136	0x3cd1592a	0.025555212
137	0x3dc227e8	0.09480268
138	0xbd665025	-0.056228776
139	0x3d872d5f	0.06600451
140	0xbdb12508	-0.08649641
141	0x3dbd0e1c	0.09231207
142	0x3dc8d967	0.09807091
143	0xbc58a242	-0.013222279
144	0xbc33e032	-0.010978745
145	0xbd59e6e5	-0.053198714
146	0x3d9d086f	0.07667624
147	0x3de8284f	0.11335813
148	0x3c850049	0.016235488
149	0x3d12d09a	0.03584347
150	0xbdb94031	-0.09045447
151	0xbde7522d	-0.11294971
152	0xbc5fdaed	-0.013663036
153	0x3d145307	0.036211994
154	0x3c9c1754	0.019054092
155	0x3dbd3dd1	0.09240306
156	0xbbfdab57	-0.0077413726
157	0xbd49003a	-0.04907248
158	0x3c18dfa3	0.009330663
159	0xbd42894a	-0.04749421
160	0x393f5a32	0.0001824878
161	0x3d3352a4	0.043779984
162	0xbdc351eb	-0.09537109
163	0xbd823508	-0.06357771
164	0x3d4a2b4a	0.04935769
165	0x3d756ae3	0.05991639
166	0x3d3e635f	0.046481486
167	0x3d493edd	0.049132217
168	0xbcd7a2fb	-0.026322832
169	0x3c5434c6	0.012952035
170	0xbd04bdab	-0.032407444
171	0xbdb7960d	-0.08964167
172	0x3d3194cb	0.04335479
173	0xbdfe70fa	-0.12423892
174	0xbd83f333	-0.06442871
175	0x3d753b4f	0.059871014
176	0xbc9111a4	-0.017708607
177	0xbda96ada	-0.082723334
178	0xbde6a799	-0.112624355
179	0xbdd34ba7	-0.10317164
180	0x3d6ddc5a	0.05807147
181	0x3dd0e734	0.102003485
182	0x3dd2f4ca	0.10300596
183	0x3d8634cb	0.06553038
184	0x3ca91b32	0.02064285
185	0x3d35afea	0.044357218
186	0x3d8ae8c1	0.067826755
187	0xbdb79dae	-0.08965622
188	0xbcfb1723	-0.03065068
189	0xbd8c7279	-0.068577714
190	0x3d8b9fbd	0.06817577
191	0x3d2b9310	0.041888297
192	0xbdd46d76	-0.103724405
193	0x3df54937	0.11976855
194	0x3ce6b008	0.02816011
195	0xbc9934c3	-0.018701917
196	0xbd9b1d1f	-0.07573914
197	0x3dcae1be	0.09906338
198	0xbcbe1186	-0.023201715
199	0x3ddbbb35	0.10729066
200	0xbdcdba4a	-0.100452974
201	0x3ddd0234	0.10791436
202	0xbd26661a	-0.040624715
203	0xbb728657	-0.0037006342
204	0xbd6b6338	-0.05746767
205	0xbd9b4ceb	-0.0758303
206	0x3d1af181	0.037827972
207	0xbdaad8f7	-0.08342164
208	0x3dad3c36	0.0845875
209	0x3d78216b	0.060578745
210	0xbdf74a0d	-0.12074671
211	0x3d1ce1b2	0.038301177
212	0x3d29f845	0.041496534
213	0x3d178368	0.036990553
214	0xbd2482d3	-0.040163826
215	0x3d2d9bb3	0.042384814
216	0x3e02cf24	0.1277433
217	0x3dcb10f9	0.09915347
218	0xbd1672e4	-0.036730662
219	0xbddeaae4	-0.108724385
220	0xbdf27268	-0.118382275
221	0xbb6bdeee	-0.003599103
222	0x3d8d71dd	0.06906483
223	0x3db7be49	0.08971841
224	0xbcd6644f	-0.026170878
225	0xbdd4dbdc	-0.10393497
226	0x3da16757	0.07881039
227	0xbdd65619	-0.104656406
228	0x3decc6ad	0.11561332
229	0xbde68b61	-0.11257053
230	0x3ce053a9	0.027383642
231	0x3dedccad	0.116113044
232	0xbb655978	-0.0034995954
233	0x3d1f50c0	0.03889537
234	0x3c2dbe2e	0.010604424
235	0xbda82ac4	-0.08211282
236	0x3c5fedb1	0.01366751
237	0xbd6163a4	-0.055026665
238	0x3d6c8466	0.057743452
239	0xbdb9956b	-0.09061702
240	0xbd289532	-0.04115791
241	0x3db36317	0.08759134
242	0xbdd76c93	-0.10518756
243	0xbd38844a	-0.045048036
244	0xbc8c41bc	-0.017121188
245	0x3dbfa32b	0.09357294
246	0x3c8c39e3	0.017117446
247	0xbd5ac763	-0.053412806
248	0x3dd3f60e	0.103496656
249	0x3db80563	0.089854024
250	0x3dcc55c1	0.09977294
251	0xbd52a2fc	-0.051424965
252	0x3dff4745	0.124647655
253	0x3d5fa87f	0.05460405
254	0xbd74cb03	-0.05976392
255	0x3d46cd25	0.048535485

fc4.bias f4 [32]
0	0x3d35840d	0.044315387
1	0xba6c7386	-0.00090199
2	0xbde7faf7	-0.113271646
3	0x3dc85ec3	0.09783699
4	0xbb5da9eb	-0.0033823203
5	0x3da6cab0	0.08144128
6	0xbd97e9b2	-0.07417621
7	0x3d809e4e	0.06280194
8	0x3d5e3dd4	0.054258183
9	0xbcddca49	-0.027073996
10	0xbd246978	-0.040139645
11	0x3dda275b	0.10652038
12	0x3cbabae4	0.022794195
13	0xbd474131	-0.048646156
14	0x3d865054	0.0655829
15	0xbda624d8	-0.08112496
16	0xbde5460b	-0.11195
17	0xbd1561ae	-0.036470108
18	0x3cfc3b00	0.030789852
19	0x3c904e5f	0.017615495
20	0xbd485c85	-0.04891636
21	0x3d7fda52	0.062464066
22	0xbdb50a56	-0.08839862
23	0xbd7f147b	-0.06227539
24	0xbd73d179	-0.05952594
25	0x3d6d1025	0.057876725
26	0x3bbbe36f	0.0057338993
27	0xbba6ab5f	-0.005086347
28	0xbd21817d	-0.03943013
29	0x3bcc4642	0.0062339613
30	0xba7cf61f	-0.0009649712
31	0xbdda16d6	-0.10648887

fc5.weight f4 [1, 32]
0	0x3a929304	0.001118273
1	0x3e1e2d73	0.15447025
2	0xbda3dada	-0.08000727
3	0xbe0584e2	-0.13038972
4	0x3d818b9d	0.06325457
5	0x3b32af7d	0.0027265244
6	0xbc96f566	-0.018427562
7	0x3d067b64	0.03283252
8	0x3df6f17b	0.120577775
9	0xbd9906c9	-0.07471997
10	0xbdc7d20e	-0.097568616
11	0xbe041f06	-0.1290246
12	0x3d7741f4	0.060365632
13	0xbd0d87a8	-0.0345532
14	0xbd831d54	-0.06402078
15	0xbc68dbaf	-0.014212533
16	0xbc290244	-0.010315482
17	0xbdc5346d	-0.0962914
18	0x3daff7a4	0.085921556
19	0xbd9590cb	-0.07303008
20	0x3d4b4e41	0.049635176
21	0xbd9eda05	-0.07756428
22	0xbd205c3a	-0.039150454
23	0x3e0d4de4	0.13799244
24	0x3d923a1a	0.07139988
25	0x3d9d8ed6	0.076932594
26	0xbdeb378e	-0.114852056
27	0xbcf4439f	-0.0298174
28	0x3dd00b4f	0.10158407
29	0x3dd8ad96	0.10579984
30	0xbda64935	-0.08119432
31	0x3d77a674	0.060461476
